…
 - 0s - loss: 0.8480 - accuracy: 0.4095 - val_loss: 0.8431 - val_accuracy: 0.4599
Epoch 499/500
 - 0s - loss: 0.8463 - accuracy: 0.4297 - val_loss: 0.8438 - val_accuracy: 0.4248
Epoch 500/500
 - 0s - loss: 0.8452 - accuracy: 0.4365 - val_loss: 0.8438 - val_accuracy: 0.4613

Fit: epochs=500, batch_size=80, verbose=2, shuffle=False, validation_split=0.20

Model: "sequential_1"
_________________________________________________________________
Layer (type)                 Output Shape              Param #   
=================================================================
dense_1 (Dense)              (None, 11)                132       
_________________________________________________________________
dropout_1 (Dropout)          (None, 11)                0         
_________________________________________________________________
dense_2 (Dense)              (None, 256)               3072      
_________________________________________________________________
dense_3 (Dense)              (None, 192)               49344     
_________________________________________________________________
dense_4 (Dense)              (None, 128)               24704     
_________________________________________________________________
dropout_2 (Dropout)          (None, 128)               0         
_________________________________________________________________
dense_5 (Dense)              (None, 64)                8256      
_________________________________________________________________
dense_6 (Dense)              (None, 32)                2080      
_________________________________________________________________
dense_7 (Dense)              (None, 16)                528       
_________________________________________________________________
dropout_3 (Dropout)          (None, 16)                0         
_________________________________________________________________
dense_8 (Dense)              (None, 8)                 136       
_________________________________________________________________
dense_9 (Dense)              (None, 4)                 36        
=================================================================
Total params: 88,288
Trainable params: 88,288
Non-trainable params: 0
_________________________________________________________________
None

Accuracy Train: 46.13%
Accuracy Test: 45.44%
Loss Train: 0.84
Loss Test: 0.84
Numero dati esaminati: 1712
True Positive 778
False Positive 934
