…
 - 1s - loss: 0.2608 - accuracy: 0.8812 - val_loss: 0.4564 - val_accuracy: 0.8562
Epoch 499/500
 - 1s - loss: 0.2622 - accuracy: 0.8823 - val_loss: 0.4746 - val_accuracy: 0.8540
Epoch 500/500
 - 1s - loss: 0.2704 - accuracy: 0.8804 - val_loss: 0.4585 - val_accuracy: 0.8511

Fit: epochs = 500, batch_size = 80, verbose = 2, shuffle=False, validation_split = 0.20

Model: "sequential_1"
_________________________________________________________________
Layer (type)                 Output Shape              Param #   
=================================================================
lstm_1 (LSTM)                (None, 256)               274432    
_________________________________________________________________
dense_1 (Dense)              (None, 128)               32896     
_________________________________________________________________
dense_2 (Dense)              (None, 64)                8256      
_________________________________________________________________
dense_3 (Dense)              (None, 32)                2080      
_________________________________________________________________
dense_4 (Dense)              (None, 16)                528       
_________________________________________________________________
dense_5 (Dense)              (None, 4)                 68        
=================================================================
Total params: 318,260
Trainable params: 318,260
Non-trainable params: 0
_________________________________________________________________
None

Accuracy Train: 87.91%
Accuracy Test: 85.34%
Loss Train: 0.30
Loss Test: 0.45
Numero dati esaminati: 1712
True Positive 1461
False Positive 251
