…
 - 49s - loss: 0.2605 - accuracy: 0.8894 - val_loss: 0.3183 - val_accuracy: 0.8929
Epoch 127/128
 - 49s - loss: 0.2612 - accuracy: 0.8892 - val_loss: 0.3010 - val_accuracy: 0.8906
Epoch 128/128
 - 48s - loss: 0.2646 - accuracy: 0.8885 - val_loss: 0.3060 - val_accuracy: 0.8894

Fit: epochs= 128 , batch_size= 32 , verbose= 2 , shuffle= False , validation_split= 0.2 

Model: "sequential_1"
_________________________________________________________________
Layer (type)                 Output Shape              Param #   
=================================================================
lstm_1 (LSTM)                (None, 1, 500)            1022000   
_________________________________________________________________
lstm_2 (LSTM)                (None, 1, 500)            2002000   
_________________________________________________________________
lstm_3 (LSTM)                (None, 500)               2002000   
_________________________________________________________________
dropout_1 (Dropout)          (None, 500)               0         
_________________________________________________________________
dense_1 (Dense)              (None, 300)               150300    
_________________________________________________________________
dense_2 (Dense)              (None, 200)               60200     
_________________________________________________________________
dense_3 (Dense)              (None, 100)               20100     
_________________________________________________________________
dense_4 (Dense)              (None, 50)                5050      
_________________________________________________________________
dense_5 (Dense)              (None, 20)                1020      
_________________________________________________________________
dense_6 (Dense)              (None, 4)                 84        
=================================================================
Total params: 5,262,754
Trainable params: 5,262,754
Non-trainable params: 0
_________________________________________________________________
None

Accuracy Train: 88.89%
Accuracy Test: 88.34%
Loss Train: 0.26
Loss Test: 0.30
Numero dati esaminati: 4949
True Positive 4372
False Positive 577
