…
 - 9s - loss: 0.0240 - accuracy: 0.9357 - val_loss: 0.0501 - val_accuracy: 0.8766
Epoch 191/192
 - 10s - loss: 0.0234 - accuracy: 0.9376 - val_loss: 0.0498 - val_accuracy: 0.8752
Epoch 192/192
 - 10s - loss: 0.0243 - accuracy: 0.9345 - val_loss: 0.0503 - val_accuracy: 0.8737

Fit: epochs = 192, batch_size = 32, verbose = 2, shuffle=False, validation_split = 0.20

Model: "sequential_5"
_________________________________________________________________
Layer (type)                 Output Shape              Param #   
=================================================================
conv1d_1 (Conv1D)            (None, 11, 500)           1000      
_________________________________________________________________
activation_1 (Activation)    (None, 11, 500)           0         
_________________________________________________________________
flatten_1 (Flatten)          (None, 5500)              0         
_________________________________________________________________
dropout_1 (Dropout)          (None, 5500)              0         
_________________________________________________________________
dense_22 (Dense)             (None, 400)               2200400   
_________________________________________________________________
dense_23 (Dense)             (None, 300)               120300    
_________________________________________________________________
dense_24 (Dense)             (None, 200)               60200     
_________________________________________________________________
dense_25 (Dense)             (None, 100)               20100     
_________________________________________________________________
dense_26 (Dense)             (None, 4)                 404       
_________________________________________________________________
activation_2 (Activation)    (None, 4)                 0         
=================================================================
Total params: 2,402,404
Trainable params: 2,402,404
Non-trainable params: 0
_________________________________________________________________
None

Accuracy Train: 93.33%
Accuracy Test: 88.61%
Loss Train: 0.03
Loss Test: 0.05
Numero dati esaminati: 1712
True Positive 1517
False Positive 195
