…
 - 0s - loss: 0.0340 - accuracy: 0.9862 - val_loss: 0.8060 - val_accuracy: 0.8952
Epoch 499/500
 - 0s - loss: 0.0281 - accuracy: 0.9874 - val_loss: 0.8255 - val_accuracy: 0.8952
Epoch 500/500
 - 0s - loss: 0.0277 - accuracy: 0.9885 - val_loss: 0.8089 - val_accuracy: 0.8978

Fit: epochs=500, batch_size=80, verbose=2, shuffle=False, validation_split=0.20

Model: "sequential_1"
_________________________________________________________________
Layer (type)                 Output Shape              Param #   
=================================================================
dense_1 (Dense)              (None, 11)                132       
_________________________________________________________________
dense_2 (Dense)              (None, 500)               6000      
_________________________________________________________________
dense_3 (Dense)              (None, 200)               100200    
_________________________________________________________________
dense_4 (Dense)              (None, 100)               20100     
_________________________________________________________________
dense_5 (Dense)              (None, 50)                5050      
_________________________________________________________________
dense_6 (Dense)              (None, 4)                 204       
=================================================================
Total params: 131,686
Trainable params: 131,686
Non-trainable params: 0
_________________________________________________________________
None

Accuracy Train: 97.21%
Accuracy Test: 87.97%
Loss Train: 0.18
Loss Test: 0.95
Numero dati esaminati: 1712
True Positive 1506
False Positive 206
