…
 - 0s - loss: 0.2554 - accuracy: 0.8907 - val_loss: 0.8547 - val_accuracy: 0.8306
Epoch 219/220
 - 0s - loss: 0.2690 - accuracy: 0.8832 - val_loss: 0.7277 - val_accuracy: 0.8522
Epoch 220/220
 - 0s - loss: 0.2566 - accuracy: 0.8853 - val_loss: 0.8207 - val_accuracy: 0.8339

Fit: epochs=220, batch_size=35, verbose=2, shuffle=False, validation_split=0.20

Model: "sequential_1"
_________________________________________________________________
Layer (type)                 Output Shape              Param #   
=================================================================
dense_1 (Dense)              (None, 10)                110       
_________________________________________________________________
dense_2 (Dense)              (None, 500)               5500      
_________________________________________________________________
dense_3 (Dense)              (None, 300)               150300    
_________________________________________________________________
dense_4 (Dense)              (None, 200)               60200     
_________________________________________________________________
dense_5 (Dense)              (None, 100)               20100     
_________________________________________________________________
dense_6 (Dense)              (None, 50)                5050      
_________________________________________________________________
dense_7 (Dense)              (None, 20)                1020      
_________________________________________________________________
dense_8 (Dense)              (None, 4)                 84        
=================================================================
Total params: 242,364
Trainable params: 242,364
Non-trainable params: 0
_________________________________________________________________
None

Accuracy Train: 87.73%
Accuracy Test: 79.92%
Loss Train: 0.36
Loss Test: 0.88
Numero dati esaminati: 752
True Positive 601
False Positive 151


------------------------------------------------------------------------
…
