…
 - 7s - loss: 0.0248 - accuracy: 0.9343 - val_loss: 0.0531 - val_accuracy: 0.8708
Epoch 191/192
 - 7s - loss: 0.0252 - accuracy: 0.9312 - val_loss: 0.0525 - val_accuracy: 0.8759
Epoch 192/192
 - 7s - loss: 0.0263 - accuracy: 0.9314 - val_loss: 0.0495 - val_accuracy: 0.8781

Fit: epochs = 192, batch_size = 32, verbose = 2, shuffle=False, validation_split = 0.20

Model: "sequential_4"
_________________________________________________________________
Layer (type)                 Output Shape              Param #   
=================================================================
conv1d_5 (Conv1D)            (None, 10, 500)           1000      
_________________________________________________________________
activation_5 (Activation)    (None, 10, 500)           0         
_________________________________________________________________
flatten_4 (Flatten)          (None, 5000)              0         
_________________________________________________________________
dropout_5 (Dropout)          (None, 5000)              0         
_________________________________________________________________
dense_19 (Dense)             (None, 400)               2000400   
_________________________________________________________________
dense_20 (Dense)             (None, 300)               120300    
_________________________________________________________________
dense_21 (Dense)             (None, 200)               60200     
_________________________________________________________________
dense_22 (Dense)             (None, 100)               20100     
_________________________________________________________________
dense_23 (Dense)             (None, 50)                5050      
_________________________________________________________________
dense_24 (Dense)             (None, 20)                1020      
_________________________________________________________________
dense_25 (Dense)             (None, 4)                 84        
_________________________________________________________________
activation_6 (Activation)    (None, 4)                 0         
=================================================================
Total params: 2,208,154
Trainable params: 2,208,154
Non-trainable params: 0
_________________________________________________________________
None

Accuracy Train: 93.71%
Accuracy Test: 88.84%
Loss Train: 0.02
Loss Test: 0.05
Numero dati esaminati: 1712
True Positive 1521
False Positive 191
