…
 - 0s - loss: 0.2229 - accuracy: 0.9009 - val_loss: 0.4560 - val_accuracy: 0.8657
Epoch 499/500
 - 0s - loss: 0.2127 - accuracy: 0.9031 - val_loss: 0.4910 - val_accuracy: 0.8664
Epoch 500/500
 - 0s - loss: 0.2256 - accuracy: 0.9022 - val_loss: 0.4650 - val_accuracy: 0.8715

Fit: epochs=500, batch_size=80, verbose=2, shuffle=False, validation_split=0.20

Model: "sequential_1"
_________________________________________________________________
Layer (type)                 Output Shape              Param #   
=================================================================
dense_1 (Dense)              (None, 10)                110       
_________________________________________________________________
dense_2 (Dense)              (None, 500)               5500      
_________________________________________________________________
dense_3 (Dense)              (None, 300)               150300    
_________________________________________________________________
dense_4 (Dense)              (None, 200)               60200     
_________________________________________________________________
dense_5 (Dense)              (None, 100)               20100     
_________________________________________________________________
dense_6 (Dense)              (None, 50)                5050      
_________________________________________________________________
dense_7 (Dense)              (None, 20)                1020      
_________________________________________________________________
dense_8 (Dense)              (None, 4)                 84        
=================================================================
Total params: 242,364
Trainable params: 242,364
Non-trainable params: 0
_________________________________________________________________
None

Accuracy Train: 90.26%
Accuracy Test: 88.43%
Loss Train: 0.26
Loss Test: 0.40
Numero dati esaminati: 1712
True Positive 1514
False Positive 198
