…
 - 8s - loss: 0.1561 - accuracy: 0.9284 - val_loss: 0.6896 - val_accuracy: 0.8818
Epoch 191/192
 - 8s - loss: 0.1547 - accuracy: 0.9257 - val_loss: 0.6708 - val_accuracy: 0.8803
Epoch 192/192
 - 8s - loss: 0.1514 - accuracy: 0.9288 - val_loss: 0.7315 - val_accuracy: 0.8759

Fit: epochs = 192, batch_size = 32, verbose = 2, shuffle=False, validation_split = 0.20

Model: "sequential_2"
_________________________________________________________________
Layer (type)                 Output Shape              Param #   
=================================================================
conv1d_2 (Conv1D)            (None, 11, 500)           1000      
_________________________________________________________________
activation_3 (Activation)    (None, 11, 500)           0         
_________________________________________________________________
flatten_2 (Flatten)          (None, 5500)              0         
_________________________________________________________________
dropout_2 (Dropout)          (None, 5500)              0         
_________________________________________________________________
dense_6 (Dense)              (None, 400)               2200400   
_________________________________________________________________
dense_7 (Dense)              (None, 300)               120300    
_________________________________________________________________
dense_8 (Dense)              (None, 200)               60200     
_________________________________________________________________
dense_9 (Dense)              (None, 100)               20100     
_________________________________________________________________
dense_10 (Dense)             (None, 4)                 404       
_________________________________________________________________
activation_4 (Activation)    (None, 4)                 0         
=================================================================
Total params: 2,402,404
Trainable params: 2,402,404
Non-trainable params: 0
_________________________________________________________________
None

Accuracy Train: 92.86%
Accuracy Test: 86.68%
Loss Train: 0.25
Loss Test: 0.75
Numero dati esaminati: 1712
True Positive 1484
False Positive 228
