…
 - 0s - loss: 0.0370 - accuracy: 0.8921 - val_loss: 0.0551 - val_accuracy: 0.8504
Epoch 499/500
 - 0s - loss: 0.0347 - accuracy: 0.8969 - val_loss: 0.0517 - val_accuracy: 0.8577
Epoch 500/500
 - 0s - loss: 0.0352 - accuracy: 0.8994 - val_loss: 0.0592 - val_accuracy: 0.8445

Fit: epochs=500, batch_size=80, verbose=2, shuffle=False, validation_split=0.20

Model: "sequential_3"
_________________________________________________________________
Layer (type)                 Output Shape              Param #   
=================================================================
dense_15 (Dense)             (None, 11)                132       
_________________________________________________________________
dense_16 (Dense)             (None, 500)               6000      
_________________________________________________________________
dense_17 (Dense)             (None, 300)               150300    
_________________________________________________________________
dense_18 (Dense)             (None, 200)               60200     
_________________________________________________________________
dense_19 (Dense)             (None, 100)               20100     
_________________________________________________________________
dense_20 (Dense)             (None, 50)                5050      
_________________________________________________________________
dense_21 (Dense)             (None, 20)                1020      
_________________________________________________________________
dense_22 (Dense)             (None, 4)                 84        
=================================================================
Total params: 242,886
Trainable params: 242,886
Non-trainable params: 0
_________________________________________________________________
None

Accuracy Train: 88.35%
Accuracy Test: 85.46%
Loss Train: 0.04
Loss Test: 0.05
Numero dati esaminati: 1712
True Positive 1463
False Positive 249
