…
 - 1s - loss: 1.0439 - accuracy: 0.4122 - val_loss: 1.0526 - val_accuracy: 0.3949
Epoch 499/500
 - 1s - loss: 1.0440 - accuracy: 0.4120 - val_loss: 1.0526 - val_accuracy: 0.3949
Epoch 500/500
 - 1s - loss: 1.0440 - accuracy: 0.4120 - val_loss: 1.0526 - val_accuracy: 0.3949

Fit: epochs=500, batch_size=80, verbose=2, shuffle=False, validation_split=0.20

Model: "sequential_11"
_________________________________________________________________
Layer (type)                 Output Shape              Param #   
=================================================================
dense_77 (Dense)             (None, 11)                132       
_________________________________________________________________
dense_78 (Dense)             (None, 500)               6000      
_________________________________________________________________
dense_79 (Dense)             (None, 300)               150300    
_________________________________________________________________
dense_80 (Dense)             (None, 200)               60200     
_________________________________________________________________
dense_81 (Dense)             (None, 100)               20100     
_________________________________________________________________
dense_82 (Dense)             (None, 50)                5050      
_________________________________________________________________
dense_83 (Dense)             (None, 20)                1020      
_________________________________________________________________
dense_84 (Dense)             (None, 4)                 84        
=================================================================
Total params: 242,886
Trainable params: 242,886
Non-trainable params: 0
_________________________________________________________________
None

Accuracy Train: 40.86%
Accuracy Test: 39.54%
Loss Train: 1.05
Loss Test: 1.05
Numero dati esaminati: 1712
True Positive 677
False Positive 1035
