…
 - 12s - loss: 0.2126 - accuracy: 0.9070 - val_loss: 0.2780 - val_accuracy: 0.9086
Epoch 499/500
 - 12s - loss: 0.2145 - accuracy: 0.9066 - val_loss: 0.2741 - val_accuracy: 0.9078
Epoch 500/500
 - 12s - loss: 0.2101 - accuracy: 0.9073 - val_loss: 0.2803 - val_accuracy: 0.9098

Fit: epochs= 500 , batch_size= 80 , verbose= 2 , shuffle= False , validation_split= 0.2 

Model: "sequential_1"
_________________________________________________________________
Layer (type)                 Output Shape              Param #   
=================================================================
lstm_1 (LSTM)                (None, 1, 500)            1022000   
_________________________________________________________________
lstm_2 (LSTM)                (None, 1, 300)            961200    
_________________________________________________________________
lstm_3 (LSTM)                (None, 200)               400800    
_________________________________________________________________
dropout_1 (Dropout)          (None, 200)               0         
_________________________________________________________________
dense_1 (Dense)              (None, 100)               20100     
_________________________________________________________________
dense_2 (Dense)              (None, 50)                5050      
_________________________________________________________________
dense_3 (Dense)              (None, 20)                1020      
_________________________________________________________________
dense_4 (Dense)              (None, 4)                 84        
=================================================================
Total params: 2,410,254
Trainable params: 2,410,254
Non-trainable params: 0
_________________________________________________________________
None

Accuracy Train: 91.17%
Accuracy Test: 89.82%
Loss Train: 0.21
Loss Test: 0.27
Numero dati esaminati: 4949
True Positive 4445
False Positive 504
