…
 - 2s - loss: 0.2695 - accuracy: 0.8815 - val_loss: 0.8071 - val_accuracy: 0.8372
Epoch 219/220
 - 2s - loss: 0.2721 - accuracy: 0.8811 - val_loss: 0.7673 - val_accuracy: 0.8389
Epoch 220/220
 - 2s - loss: 0.2708 - accuracy: 0.8786 - val_loss: 0.7683 - val_accuracy: 0.8439

Fit: epochs = 220, batch_size = 35, verbose = 2, shuffle=False, validation_split = 0.20

Model: "sequential_1"
_________________________________________________________________
Layer (type)                 Output Shape              Param #   
=================================================================
lstm_1 (LSTM)                (None, 500)               1022000   
_________________________________________________________________
dense_1 (Dense)              (None, 300)               150300    
_________________________________________________________________
dense_2 (Dense)              (None, 200)               60200     
_________________________________________________________________
dense_3 (Dense)              (None, 100)               20100     
_________________________________________________________________
dense_4 (Dense)              (None, 50)                5050      
_________________________________________________________________
dense_5 (Dense)              (None, 20)                1020      
_________________________________________________________________
dense_6 (Dense)              (None, 4)                 84        
=================================================================
Total params: 1,258,754
Trainable params: 1,258,754
Non-trainable params: 0
_________________________________________________________________
None

Accuracy Train: 88.00%
Accuracy Test: 80.32%
Loss Train: 0.37
Loss Test: 0.82
Numero dati esaminati: 752
True Positive 604
False Positive 148
