…
 - 0s - loss: 0.2290 - accuracy: 0.8978 - val_loss: 0.4484 - val_accuracy: 0.8635
Epoch 499/500
 - 0s - loss: 0.2272 - accuracy: 0.8952 - val_loss: 0.4601 - val_accuracy: 0.8591
Epoch 500/500
 - 0s - loss: 0.2237 - accuracy: 0.8976 - val_loss: 0.4657 - val_accuracy: 0.8606

Fit: epochs=500, batch_size=80, verbose=2, shuffle=False, validation_split=0.20

Model: "sequential_2"
_________________________________________________________________
Layer (type)                 Output Shape              Param #   
=================================================================
dense_7 (Dense)              (None, 11)                132       
_________________________________________________________________
dense_8 (Dense)              (None, 500)               6000      
_________________________________________________________________
dense_9 (Dense)              (None, 200)               100200    
_________________________________________________________________
dense_10 (Dense)             (None, 100)               20100     
_________________________________________________________________
dense_11 (Dense)             (None, 50)                5050      
_________________________________________________________________
dense_12 (Dense)             (None, 4)                 204       
=================================================================
Total params: 131,686
Trainable params: 131,686
Non-trainable params: 0
_________________________________________________________________
None

Accuracy Train: 89.37%
Accuracy Test: 86.80%
Loss Train: 0.27
Loss Test: 0.42
Numero dati esaminati: 1712
True Positive 1486
False Positive 226
