…
 - 0s - loss: 0.0665 - accuracy: 0.9763 - val_loss: 0.7624 - val_accuracy: 0.8985
Epoch 499/500
 - 0s - loss: 0.0634 - accuracy: 0.9759 - val_loss: 0.7466 - val_accuracy: 0.9026
Epoch 500/500
 - 0s - loss: 0.0957 - accuracy: 0.9727 - val_loss: 0.6861 - val_accuracy: 0.9016

Fit: epochs=500, batch_size=80, verbose=2, shuffle=False, validation_split=0.20

Model: "sequential_1"
_________________________________________________________________
Layer (type)                 Output Shape              Param #   
=================================================================
dense_1 (Dense)              (None, 11)                132       
_________________________________________________________________
dense_2 (Dense)              (None, 500)               6000      
_________________________________________________________________
dense_3 (Dense)              (None, 200)               100200    
_________________________________________________________________
dense_4 (Dense)              (None, 100)               20100     
_________________________________________________________________
dense_5 (Dense)              (None, 50)                5050      
_________________________________________________________________
dense_6 (Dense)              (None, 4)                 204       
=================================================================
Total params: 131,686
Trainable params: 131,686
Non-trainable params: 0
_________________________________________________________________
None

Accuracy Train: 96.31%
Accuracy Test: 86.68%
Numero dati esaminati: 1712
True Positive 1484
False Positive 228
