…
 - 0s - loss: 0.2203 - accuracy: 0.9009 - val_loss: 0.4892 - val_accuracy: 0.8591
Epoch 499/500
 - 0s - loss: 0.2125 - accuracy: 0.9053 - val_loss: 0.5332 - val_accuracy: 0.8453
Epoch 500/500
 - 0s - loss: 0.2254 - accuracy: 0.8965 - val_loss: 0.5137 - val_accuracy: 0.8555

Fit: epochs=500, batch_size=80, verbose=2, shuffle=False, validation_split=0.20

Model: "sequential_1"
_________________________________________________________________
Layer (type)                 Output Shape              Param #   
=================================================================
dense_1 (Dense)              (None, 10)                110       
_________________________________________________________________
dense_2 (Dense)              (None, 500)               5500      
_________________________________________________________________
dense_3 (Dense)              (None, 300)               150300    
_________________________________________________________________
dense_4 (Dense)              (None, 200)               60200     
_________________________________________________________________
dense_5 (Dense)              (None, 100)               20100     
_________________________________________________________________
dense_6 (Dense)              (None, 50)                5050      
_________________________________________________________________
dense_7 (Dense)              (None, 20)                1020      
_________________________________________________________________
dense_8 (Dense)              (None, 4)                 84        
=================================================================
Total params: 242,364
Trainable params: 242,364
Non-trainable params: 0
_________________________________________________________________
None

Accuracy Train: 88.77%
Accuracy Test: 86.74%
Loss Train: 0.29
Loss Test: 0.44
Numero dati esaminati: 1712
True Positive 1485
False Positive 227


------------------------------------------------------------------------
…
