…
 - 0s - loss: 0.2157 - accuracy: 0.9016 - val_loss: 0.4491 - val_accuracy: 0.8569
Epoch 499/500
 - 0s - loss: 0.2315 - accuracy: 0.8981 - val_loss: 0.4602 - val_accuracy: 0.8613
Epoch 500/500
 - 0s - loss: 0.2297 - accuracy: 0.8958 - val_loss: 0.4763 - val_accuracy: 0.8591

Fit: epochs=500, batch_size=80, verbose=2, shuffle=False, validation_split=0.20

Model: "sequential_2"
_________________________________________________________________
Layer (type)                 Output Shape              Param #   
=================================================================
dense_7 (Dense)              (None, 11)                132       
_________________________________________________________________
dense_8 (Dense)              (None, 500)               6000      
_________________________________________________________________
dense_9 (Dense)              (None, 200)               100200    
_________________________________________________________________
dense_10 (Dense)             (None, 100)               20100     
_________________________________________________________________
dense_11 (Dense)             (None, 50)                5050      
_________________________________________________________________
dense_12 (Dense)             (None, 4)                 204       
=================================================================
Total params: 131,686
Trainable params: 131,686
Non-trainable params: 0
_________________________________________________________________
None

Accuracy Train: 88.92%
Accuracy Test: 86.16%
Loss Train: 0.28
Loss Test: 0.44
Numero dati esaminati: 1712
True Positive 1475
False Positive 237
