…
 - 5s - loss: 0.2504 - accuracy: 0.8903 - val_loss: 0.4606 - val_accuracy: 0.8613
Epoch 511/512
 - 5s - loss: 0.2299 - accuracy: 0.8974 - val_loss: 0.5039 - val_accuracy: 0.8482
Epoch 512/512
 - 6s - loss: 0.2257 - accuracy: 0.8992 - val_loss: 0.4794 - val_accuracy: 0.8613

Fit: epochs= 512 , batch_size= 64 , verbose= 2 , shuffle= False , validation_split= 0.2 

Model: "sequential_103"
_________________________________________________________________
Layer (type)                 Output Shape              Param #   
=================================================================
lstm_61 (LSTM)               (None, 1, 500)            1022000   
_________________________________________________________________
lstm_62 (LSTM)               (None, 1, 500)            2002000   
_________________________________________________________________
lstm_63 (LSTM)               (None, 500)               2002000   
_________________________________________________________________
dropout_103 (Dropout)        (None, 500)               0         
_________________________________________________________________
dense_655 (Dense)            (None, 300)               150300    
_________________________________________________________________
dense_656 (Dense)            (None, 200)               60200     
_________________________________________________________________
dense_657 (Dense)            (None, 100)               20100     
_________________________________________________________________
dense_658 (Dense)            (None, 50)                5050      
_________________________________________________________________
dense_659 (Dense)            (None, 20)                1020      
_________________________________________________________________
dense_660 (Dense)            (None, 4)                 84        
=================================================================
Total params: 5,262,754
Trainable params: 5,262,754
Non-trainable params: 0
_________________________________________________________________
None

Accuracy Train: 89.38%
Accuracy Test: 86.92%
Loss Train: 0.27
Loss Test: 0.44
Numero dati esaminati: 1712
True Positive 1488
False Positive 224


------------------------------------------------------------------------
…
