…
 - 0s - loss: 0.0970 - accuracy: 0.9522 - val_loss: 0.7911 - val_accuracy: 0.8766
Epoch 511/512
 - 0s - loss: 0.0913 - accuracy: 0.9573 - val_loss: 0.8196 - val_accuracy: 0.8796
Epoch 512/512
 - 0s - loss: 0.0936 - accuracy: 0.9531 - val_loss: 0.8403 - val_accuracy: 0.8781

Fit: epochs= 512 , batch_size= 64 , verbose= 2 , shuffle= False , validation_split= 0.2 

Model: "sequential_133"
_________________________________________________________________
Layer (type)                 Output Shape              Param #   
=================================================================
dense_883 (Dense)            (None, 10)                110       
_________________________________________________________________
dense_884 (Dense)            (None, 500)               5500      
_________________________________________________________________
dense_885 (Dense)            (None, 300)               150300    
_________________________________________________________________
dense_886 (Dense)            (None, 200)               60200     
_________________________________________________________________
dense_887 (Dense)            (None, 100)               20100     
_________________________________________________________________
dense_888 (Dense)            (None, 50)                5050      
_________________________________________________________________
dense_889 (Dense)            (None, 20)                1020      
_________________________________________________________________
dense_890 (Dense)            (None, 4)                 84        
=================================================================
Total params: 242,364
Trainable params: 242,364
Non-trainable params: 0
_________________________________________________________________
None

Accuracy Train: 94.16%
Accuracy Test: 87.15%
Loss Train: 0.24
Loss Test: 0.91
Numero dati esaminati: 1712
True Positive 1492
False Positive 220


------------------------------------------------------------------------
…
