…
 - 3s - loss: 0.2307 - accuracy: 0.8943 - val_loss: 0.5370 - val_accuracy: 0.8569
Epoch 511/512
 - 3s - loss: 0.2453 - accuracy: 0.8896 - val_loss: 0.5176 - val_accuracy: 0.8650
Epoch 512/512
 - 3s - loss: 0.2268 - accuracy: 0.8978 - val_loss: 0.5460 - val_accuracy: 0.8613

Fit: epochs= 512 , batch_size= 64 , verbose= 2 , shuffle= False , validation_split= 0.2 

Model: "sequential_61"
_________________________________________________________________
Layer (type)                 Output Shape              Param #   
=================================================================
bidirectional_7 (Bidirection (None, 1000)              2044000   
_________________________________________________________________
dropout_61 (Dropout)         (None, 1000)              0         
_________________________________________________________________
dense_403 (Dense)            (None, 300)               300300    
_________________________________________________________________
dense_404 (Dense)            (None, 200)               60200     
_________________________________________________________________
dense_405 (Dense)            (None, 100)               20100     
_________________________________________________________________
dense_406 (Dense)            (None, 50)                5050      
_________________________________________________________________
dense_407 (Dense)            (None, 20)                1020      
_________________________________________________________________
dense_408 (Dense)            (None, 4)                 84        
=================================================================
Total params: 2,430,754
Trainable params: 2,430,754
Non-trainable params: 0
_________________________________________________________________
None

Accuracy Train: 89.57%
Accuracy Test: 87.44%
Loss Train: 0.28
Loss Test: 0.40
Numero dati esaminati: 1712
True Positive 1497
False Positive 215


------------------------------------------------------------------------
…
