…
 - 0s - loss: 0.2050 - accuracy: 0.9036 - val_loss: 0.8990 - val_accuracy: 0.8306
Epoch 511/512
 - 0s - loss: 0.2227 - accuracy: 0.9015 - val_loss: 0.8419 - val_accuracy: 0.8389
Epoch 512/512
 - 0s - loss: 0.2120 - accuracy: 0.9023 - val_loss: 0.8484 - val_accuracy: 0.8439

Fit: epochs= 512 , batch_size= 64 , verbose= 2 , shuffle= False , validation_split= 0.2 

Model: "sequential_157"
_________________________________________________________________
Layer (type)                 Output Shape              Param #   
=================================================================
dense_1075 (Dense)           (None, 10)                110       
_________________________________________________________________
dense_1076 (Dense)           (None, 500)               5500      
_________________________________________________________________
dense_1077 (Dense)           (None, 300)               150300    
_________________________________________________________________
dense_1078 (Dense)           (None, 200)               60200     
_________________________________________________________________
dense_1079 (Dense)           (None, 100)               20100     
_________________________________________________________________
dense_1080 (Dense)           (None, 50)                5050      
_________________________________________________________________
dense_1081 (Dense)           (None, 20)                1020      
_________________________________________________________________
dense_1082 (Dense)           (None, 4)                 84        
=================================================================
Total params: 242,364
Trainable params: 242,364
Non-trainable params: 0
_________________________________________________________________
None

Accuracy Train: 90.26%
Accuracy Test: 81.91%
Loss Train: 0.32
Loss Test: 0.86
Numero dati esaminati: 752
True Positive 616
False Positive 136


------------------------------------------------------------------------
…
