…
 - 22s - loss: 0.2464 - accuracy: 0.8939 - val_loss: 0.4504 - val_accuracy: 0.8555
Epoch 511/512
 - 22s - loss: 0.2220 - accuracy: 0.9012 - val_loss: 0.4828 - val_accuracy: 0.8613
Epoch 512/512
 - 22s - loss: 0.2093 - accuracy: 0.9065 - val_loss: 0.5643 - val_accuracy: 0.8650

Fit: epochs= 512 , batch_size= 64 , verbose= 2 , shuffle= False , validation_split= 0.2 

Model: "sequential_25"
_________________________________________________________________
Layer (type)                 Output Shape              Param #   
=================================================================
conv1d_25 (Conv1D)           (None, 11, 500)           1000      
_________________________________________________________________
activation_25 (Activation)   (None, 11, 500)           0         
_________________________________________________________________
lstm_25 (LSTM)               (None, 500)               2002000   
_________________________________________________________________
dropout_25 (Dropout)         (None, 500)               0         
_________________________________________________________________
dense_169 (Dense)            (None, 400)               200400    
_________________________________________________________________
dense_170 (Dense)            (None, 300)               120300    
_________________________________________________________________
dense_171 (Dense)            (None, 200)               60200     
_________________________________________________________________
dense_172 (Dense)            (None, 100)               20100     
_________________________________________________________________
dense_173 (Dense)            (None, 50)                5050      
_________________________________________________________________
dense_174 (Dense)            (None, 20)                1020      
_________________________________________________________________
dense_175 (Dense)            (None, 4)                 84        
=================================================================
Total params: 2,410,154
Trainable params: 2,410,154
Non-trainable params: 0
_________________________________________________________________
None

Accuracy Train: 89.65%
Accuracy Test: 87.15%
Loss Train: 0.29
Loss Test: 0.50
Numero dati esaminati: 1712
True Positive 1492
False Positive 220


------------------------------------------------------------------------
…
