…
 - 1s - loss: 0.2527 - accuracy: 0.8868 - val_loss: 0.5519 - val_accuracy: 0.8467
Epoch 511/512
 - 1s - loss: 0.2720 - accuracy: 0.8810 - val_loss: 0.4982 - val_accuracy: 0.8526
Epoch 512/512
 - 1s - loss: 0.2808 - accuracy: 0.8788 - val_loss: 0.5149 - val_accuracy: 0.8518

Fit: epochs= 512 , batch_size= 64 , verbose= 2 , shuffle= False , validation_split= 0.2 

Model: "sequential_37"
_________________________________________________________________
Layer (type)                 Output Shape              Param #   
=================================================================
conv1d_37 (Conv1D)           (None, 11, 500)           1000      
_________________________________________________________________
activation_73 (Activation)   (None, 11, 500)           0         
_________________________________________________________________
flatten_37 (Flatten)         (None, 5500)              0         
_________________________________________________________________
dropout_37 (Dropout)         (None, 5500)              0         
_________________________________________________________________
dense_253 (Dense)            (None, 400)               2200400   
_________________________________________________________________
dense_254 (Dense)            (None, 300)               120300    
_________________________________________________________________
dense_255 (Dense)            (None, 200)               60200     
_________________________________________________________________
dense_256 (Dense)            (None, 100)               20100     
_________________________________________________________________
dense_257 (Dense)            (None, 50)                5050      
_________________________________________________________________
dense_258 (Dense)            (None, 20)                1020      
_________________________________________________________________
dense_259 (Dense)            (None, 4)                 84        
_________________________________________________________________
activation_74 (Activation)   (None, 4)                 0         
=================================================================
Total params: 2,408,154
Trainable params: 2,408,154
Non-trainable params: 0
_________________________________________________________________
None

Accuracy Train: 88.49%
Accuracy Test: 85.86%
Loss Train: 0.29
Loss Test: 0.46
Numero dati esaminati: 1712
True Positive 1470
False Positive 242


------------------------------------------------------------------------
…
