…
 - 18s - loss: 0.0765 - accuracy: 0.9697 - val_loss: 0.6897 - val_accuracy: 0.8891
Epoch 511/512
 - 19s - loss: 0.0830 - accuracy: 0.9671 - val_loss: 0.7493 - val_accuracy: 0.8949
Epoch 512/512
 - 18s - loss: 0.0672 - accuracy: 0.9733 - val_loss: 0.8918 - val_accuracy: 0.8934

Fit: epochs= 512 , batch_size= 64 , verbose= 2 , shuffle= False , validation_split= 0.2 

Model: "sequential_7"
_________________________________________________________________
Layer (type)                 Output Shape              Param #   
=================================================================
conv1d_7 (Conv1D)            (None, 10, 500)           1000      
_________________________________________________________________
activation_7 (Activation)    (None, 10, 500)           0         
_________________________________________________________________
lstm_7 (LSTM)                (None, 500)               2002000   
_________________________________________________________________
dropout_7 (Dropout)          (None, 500)               0         
_________________________________________________________________
dense_43 (Dense)             (None, 400)               200400    
_________________________________________________________________
dense_44 (Dense)             (None, 300)               120300    
_________________________________________________________________
dense_45 (Dense)             (None, 200)               60200     
_________________________________________________________________
dense_46 (Dense)             (None, 100)               20100     
_________________________________________________________________
dense_47 (Dense)             (None, 50)                5050      
_________________________________________________________________
dense_48 (Dense)             (None, 20)                1020      
_________________________________________________________________
dense_49 (Dense)             (None, 4)                 84        
=================================================================
Total params: 2,410,154
Trainable params: 2,410,154
Non-trainable params: 0
_________________________________________________________________
None

Accuracy Train: 96.19%
Accuracy Test: 90.36%
Loss Train: 0.22
Loss Test: 0.81
Numero dati esaminati: 1712
True Positive 1547
False Positive 165


------------------------------------------------------------------------
…
