…
 - 2s - loss: 0.2312 - accuracy: 0.8941 - val_loss: 0.5111 - val_accuracy: 0.8562
Epoch 511/512
 - 2s - loss: 0.2379 - accuracy: 0.8912 - val_loss: 0.4887 - val_accuracy: 0.8577
Epoch 512/512
 - 2s - loss: 0.2331 - accuracy: 0.8930 - val_loss: 0.4983 - val_accuracy: 0.8547

Fit: epochs= 512 , batch_size= 64 , verbose= 2 , shuffle= False , validation_split= 0.2 

Model: "sequential_43"
_________________________________________________________________
Layer (type)                 Output Shape              Param #   
=================================================================
lstm_1 (LSTM)                (None, 500)               1022000   
_________________________________________________________________
dropout_43 (Dropout)         (None, 500)               0         
_________________________________________________________________
dense_295 (Dense)            (None, 300)               150300    
_________________________________________________________________
dense_296 (Dense)            (None, 200)               60200     
_________________________________________________________________
dense_297 (Dense)            (None, 100)               20100     
_________________________________________________________________
dense_298 (Dense)            (None, 50)                5050      
_________________________________________________________________
dense_299 (Dense)            (None, 20)                1020      
_________________________________________________________________
dense_300 (Dense)            (None, 4)                 84        
=================================================================
Total params: 1,258,754
Trainable params: 1,258,754
Non-trainable params: 0
_________________________________________________________________
None

Accuracy Train: 88.71%
Accuracy Test: 87.21%
Loss Train: 0.28
Loss Test: 0.41
Numero dati esaminati: 1712
True Positive 1493
False Positive 219


------------------------------------------------------------------------
…
