…
 - 3s - loss: 0.2359 - accuracy: 0.8919 - val_loss: 0.4592 - val_accuracy: 0.8591
Epoch 511/512
 - 3s - loss: 0.2377 - accuracy: 0.8923 - val_loss: 0.4517 - val_accuracy: 0.8642
Epoch 512/512
 - 3s - loss: 0.2486 - accuracy: 0.8910 - val_loss: 0.4610 - val_accuracy: 0.8533

Fit: epochs= 512 , batch_size= 64 , verbose= 2 , shuffle= False , validation_split= 0.2 

Model: "sequential_55"
_________________________________________________________________
Layer (type)                 Output Shape              Param #   
=================================================================
bidirectional_1 (Bidirection (None, 1000)              2048000   
_________________________________________________________________
dropout_55 (Dropout)         (None, 1000)              0         
_________________________________________________________________
dense_367 (Dense)            (None, 300)               300300    
_________________________________________________________________
dense_368 (Dense)            (None, 200)               60200     
_________________________________________________________________
dense_369 (Dense)            (None, 100)               20100     
_________________________________________________________________
dense_370 (Dense)            (None, 50)                5050      
_________________________________________________________________
dense_371 (Dense)            (None, 20)                1020      
_________________________________________________________________
dense_372 (Dense)            (None, 4)                 84        
=================================================================
Total params: 2,434,754
Trainable params: 2,434,754
Non-trainable params: 0
_________________________________________________________________
None

Accuracy Train: 88.62%
Accuracy Test: 86.57%
Loss Train: 0.27
Loss Test: 0.38
Numero dati esaminati: 1712
True Positive 1482
False Positive 230


------------------------------------------------------------------------
…
