…
 - 2s - loss: 0.2584 - accuracy: 0.8888 - val_loss: 0.5292 - val_accuracy: 0.8606
Epoch 511/512
 - 2s - loss: 0.2535 - accuracy: 0.8843 - val_loss: 0.5475 - val_accuracy: 0.8431
Epoch 512/512
 - 2s - loss: 0.2482 - accuracy: 0.8894 - val_loss: 0.5529 - val_accuracy: 0.8511

Fit: epochs= 512 , batch_size= 64 , verbose= 2 , shuffle= False , validation_split= 0.2 

Model: "sequential_49"
_________________________________________________________________
Layer (type)                 Output Shape              Param #   
=================================================================
lstm_7 (LSTM)                (None, 500)               1024000   
_________________________________________________________________
dropout_49 (Dropout)         (None, 500)               0         
_________________________________________________________________
dense_331 (Dense)            (None, 300)               150300    
_________________________________________________________________
dense_332 (Dense)            (None, 200)               60200     
_________________________________________________________________
dense_333 (Dense)            (None, 100)               20100     
_________________________________________________________________
dense_334 (Dense)            (None, 50)                5050      
_________________________________________________________________
dense_335 (Dense)            (None, 20)                1020      
_________________________________________________________________
dense_336 (Dense)            (None, 4)                 84        
=================================================================
Total params: 1,260,754
Trainable params: 1,260,754
Non-trainable params: 0
_________________________________________________________________
None

Accuracy Train: 88.60%
Accuracy Test: 86.33%
Loss Train: 0.30
Loss Test: 0.42
Numero dati esaminati: 1712
True Positive 1478
False Positive 234


------------------------------------------------------------------------
…
