…
 - 1s - loss: 0.2073 - accuracy: 0.9073 - val_loss: 0.7251 - val_accuracy: 0.8522
Epoch 511/512
 - 1s - loss: 0.2052 - accuracy: 0.9069 - val_loss: 0.7597 - val_accuracy: 0.8538
Epoch 512/512
 - 1s - loss: 0.2088 - accuracy: 0.9069 - val_loss: 0.7289 - val_accuracy: 0.8538

Fit: epochs= 512 , batch_size= 64 , verbose= 2 , shuffle= False , validation_split= 0.2 

Model: "sequential_73"
_________________________________________________________________
Layer (type)                 Output Shape              Param #   
=================================================================
bidirectional_13 (Bidirectio (None, 1000)              2044000   
_________________________________________________________________
dropout_73 (Dropout)         (None, 1000)              0         
_________________________________________________________________
dense_475 (Dense)            (None, 300)               300300    
_________________________________________________________________
dense_476 (Dense)            (None, 200)               60200     
_________________________________________________________________
dense_477 (Dense)            (None, 100)               20100     
_________________________________________________________________
dense_478 (Dense)            (None, 50)                5050      
_________________________________________________________________
dense_479 (Dense)            (None, 20)                1020      
_________________________________________________________________
dense_480 (Dense)            (None, 4)                 84        
=================================================================
Total params: 2,430,754
Trainable params: 2,430,754
Non-trainable params: 0
_________________________________________________________________
None

Accuracy Train: 89.86%
Accuracy Test: 82.71%
Loss Train: 0.30
Loss Test: 0.76
Numero dati esaminati: 752
True Positive 622
False Positive 130


------------------------------------------------------------------------
…
