…
 - 2s - loss: 0.1033 - accuracy: 0.9516 - val_loss: 0.8126 - val_accuracy: 0.8847
Epoch 511/512
 - 3s - loss: 0.0989 - accuracy: 0.9560 - val_loss: 0.8211 - val_accuracy: 0.8810
Epoch 512/512
 - 3s - loss: 0.1035 - accuracy: 0.9524 - val_loss: 0.8308 - val_accuracy: 0.8745

Fit: epochs= 512 , batch_size= 64 , verbose= 2 , shuffle= False , validation_split= 0.2 

Model: "sequential_7"
_________________________________________________________________
Layer (type)                 Output Shape              Param #   
=================================================================
conv1d_7 (Conv1D)            (None, 10, 500)           1000      
_________________________________________________________________
activation_13 (Activation)   (None, 10, 500)           0         
_________________________________________________________________
flatten_7 (Flatten)          (None, 5000)              0         
_________________________________________________________________
dropout_7 (Dropout)          (None, 5000)              0         
_________________________________________________________________
dense_43 (Dense)             (None, 400)               2000400   
_________________________________________________________________
dense_44 (Dense)             (None, 300)               120300    
_________________________________________________________________
dense_45 (Dense)             (None, 200)               60200     
_________________________________________________________________
dense_46 (Dense)             (None, 100)               20100     
_________________________________________________________________
dense_47 (Dense)             (None, 50)                5050      
_________________________________________________________________
dense_48 (Dense)             (None, 20)                1020      
_________________________________________________________________
dense_49 (Dense)             (None, 4)                 84        
_________________________________________________________________
activation_14 (Activation)   (None, 4)                 0         
=================================================================
Total params: 2,208,154
Trainable params: 2,208,154
Non-trainable params: 0
_________________________________________________________________
None

Accuracy Train: 94.61%
Accuracy Test: 88.38%
Loss Train: 0.23
Loss Test: 0.70
Numero dati esaminati: 1712
True Positive 1513
False Positive 199


------------------------------------------------------------------------
…
