…
 - 0s - loss: 0.0385 - accuracy: 0.8901 - val_loss: 0.0516 - val_accuracy: 0.8606
Epoch 511/512
 - 0s - loss: 0.0361 - accuracy: 0.8945 - val_loss: 0.0523 - val_accuracy: 0.8540
Epoch 512/512
 - 0s - loss: 0.0375 - accuracy: 0.8921 - val_loss: 0.0526 - val_accuracy: 0.8540

Fit: epochs= 512 , batch_size= 64 , verbose= 2 , shuffle= False , validation_split= 0.2 

Model: "sequential_151"
_________________________________________________________________
Layer (type)                 Output Shape              Param #   
=================================================================
dense_1027 (Dense)           (None, 10)                110       
_________________________________________________________________
dense_1028 (Dense)           (None, 500)               5500      
_________________________________________________________________
dense_1029 (Dense)           (None, 300)               150300    
_________________________________________________________________
dense_1030 (Dense)           (None, 200)               60200     
_________________________________________________________________
dense_1031 (Dense)           (None, 100)               20100     
_________________________________________________________________
dense_1032 (Dense)           (None, 50)                5050      
_________________________________________________________________
dense_1033 (Dense)           (None, 20)                1020      
_________________________________________________________________
dense_1034 (Dense)           (None, 4)                 84        
=================================================================
Total params: 242,364
Trainable params: 242,364
Non-trainable params: 0
_________________________________________________________________
None

Accuracy Train: 89.18%
Accuracy Test: 86.27%
Loss Train: 0.04
Loss Test: 0.05
Numero dati esaminati: 1712
True Positive 1477
False Positive 235


------------------------------------------------------------------------
…
