…
 - 0s - loss: 0.2182 - accuracy: 0.9073 - val_loss: 1.4192 - val_accuracy: 0.7620
Epoch 511/512
 - 0s - loss: 0.2051 - accuracy: 0.9142 - val_loss: 1.3894 - val_accuracy: 0.7606
Epoch 512/512
 - 0s - loss: 0.2091 - accuracy: 0.9069 - val_loss: 1.4025 - val_accuracy: 0.7526

Fit: epochs= 512 , batch_size= 64 , verbose= 2 , shuffle= False , validation_split= 0.2 

Model: "sequential_127"
_________________________________________________________________
Layer (type)                 Output Shape              Param #   
=================================================================
dense_835 (Dense)            (None, 10)                110       
_________________________________________________________________
dense_836 (Dense)            (None, 500)               5500      
_________________________________________________________________
dense_837 (Dense)            (None, 300)               150300    
_________________________________________________________________
dense_838 (Dense)            (None, 200)               60200     
_________________________________________________________________
dense_839 (Dense)            (None, 100)               20100     
_________________________________________________________________
dense_840 (Dense)            (None, 50)                5050      
_________________________________________________________________
dense_841 (Dense)            (None, 20)                1020      
_________________________________________________________________
dense_842 (Dense)            (None, 4)                 84        
=================================================================
Total params: 242,364
Trainable params: 242,364
Non-trainable params: 0
_________________________________________________________________
None

Accuracy Train: 87.97%
Accuracy Test: 78.10%
Loss Train: 0.45
Loss Test: 1.50
Numero dati esaminati: 1712
True Positive 1337
False Positive 375


------------------------------------------------------------------------
…
