…
 - 2s - loss: 0.1086 - accuracy: 0.9529 - val_loss: 0.6673 - val_accuracy: 0.8942
Epoch 511/512
 - 2s - loss: 0.1130 - accuracy: 0.9509 - val_loss: 0.6684 - val_accuracy: 0.8869
Epoch 512/512
 - 2s - loss: 0.1181 - accuracy: 0.9493 - val_loss: 0.6564 - val_accuracy: 0.8876

Fit: epochs= 512 , batch_size= 64 , verbose= 2 , shuffle= False , validation_split= 0.2 

Model: "sequential_91"
_________________________________________________________________
Layer (type)                 Output Shape              Param #   
=================================================================
lstm_49 (LSTM)               (None, 500)               1022000   
_________________________________________________________________
dropout_91 (Dropout)         (None, 500)               0         
_________________________________________________________________
dense_583 (Dense)            (None, 300)               150300    
_________________________________________________________________
dense_584 (Dense)            (None, 200)               60200     
_________________________________________________________________
dense_585 (Dense)            (None, 100)               20100     
_________________________________________________________________
dense_586 (Dense)            (None, 50)                5050      
_________________________________________________________________
dense_587 (Dense)            (None, 20)                1020      
_________________________________________________________________
dense_588 (Dense)            (None, 4)                 84        
=================================================================
Total params: 1,258,754
Trainable params: 1,258,754
Non-trainable params: 0
_________________________________________________________________
None

Accuracy Train: 94.89%
Accuracy Test: 89.31%
Loss Train: 0.20
Loss Test: 0.61
Numero dati esaminati: 1712
True Positive 1529
False Positive 183


------------------------------------------------------------------------
…
