…
 - 3s - loss: 0.0899 - accuracy: 0.9642 - val_loss: 0.7704 - val_accuracy: 0.8832
Epoch 511/512
 - 3s - loss: 0.0937 - accuracy: 0.9639 - val_loss: 0.7812 - val_accuracy: 0.8883
Epoch 512/512
 - 3s - loss: 0.0976 - accuracy: 0.9620 - val_loss: 0.6798 - val_accuracy: 0.8934

Fit: epochs= 512 , batch_size= 64 , verbose= 2 , shuffle= False , validation_split= 0.2 

Model: "sequential_19"
_________________________________________________________________
Layer (type)                 Output Shape              Param #   
=================================================================
conv1d_19 (Conv1D)           (None, 10, 500)           1000      
_________________________________________________________________
activation_37 (Activation)   (None, 10, 500)           0         
_________________________________________________________________
flatten_19 (Flatten)         (None, 5000)              0         
_________________________________________________________________
dropout_19 (Dropout)         (None, 5000)              0         
_________________________________________________________________
dense_127 (Dense)            (None, 400)               2000400   
_________________________________________________________________
dense_128 (Dense)            (None, 300)               120300    
_________________________________________________________________
dense_129 (Dense)            (None, 200)               60200     
_________________________________________________________________
dense_130 (Dense)            (None, 100)               20100     
_________________________________________________________________
dense_131 (Dense)            (None, 50)                5050      
_________________________________________________________________
dense_132 (Dense)            (None, 20)                1020      
_________________________________________________________________
dense_133 (Dense)            (None, 4)                 84        
_________________________________________________________________
activation_38 (Activation)   (None, 4)                 0         
=================================================================
Total params: 2,208,154
Trainable params: 2,208,154
Non-trainable params: 0
_________________________________________________________________
None

Accuracy Train: 95.84%
Accuracy Test: 90.30%
Loss Train: 0.19
Loss Test: 0.64
Numero dati esaminati: 1712
True Positive 1546
False Positive 166


------------------------------------------------------------------------
…
