…
 - 0s - loss: 0.2254 - accuracy: 0.9000 - val_loss: 0.5146 - val_accuracy: 0.8591
Epoch 511/512
 - 0s - loss: 0.2268 - accuracy: 0.8987 - val_loss: 0.4952 - val_accuracy: 0.8664
Epoch 512/512
 - 0s - loss: 0.2154 - accuracy: 0.9027 - val_loss: 0.5245 - val_accuracy: 0.8650

Fit: epochs= 512 , batch_size= 64 , verbose= 2 , shuffle= False , validation_split= 0.2 

Model: "sequential_109"
_________________________________________________________________
Layer (type)                 Output Shape              Param #   
=================================================================
dense_691 (Dense)            (None, 11)                132       
_________________________________________________________________
dense_692 (Dense)            (None, 500)               6000      
_________________________________________________________________
dense_693 (Dense)            (None, 300)               150300    
_________________________________________________________________
dense_694 (Dense)            (None, 200)               60200     
_________________________________________________________________
dense_695 (Dense)            (None, 100)               20100     
_________________________________________________________________
dense_696 (Dense)            (None, 50)                5050      
_________________________________________________________________
dense_697 (Dense)            (None, 20)                1020      
_________________________________________________________________
dense_698 (Dense)            (None, 4)                 84        
=================================================================
Total params: 242,886
Trainable params: 242,886
Non-trainable params: 0
_________________________________________________________________
None

Accuracy Train: 89.21%
Accuracy Test: 87.44%
Loss Train: 0.28
Loss Test: 0.44
Numero dati esaminati: 1712
True Positive 1497
False Positive 215


------------------------------------------------------------------------
…
