…
 - 3s - loss: 0.1787 - accuracy: 0.9242 - val_loss: 1.1467 - val_accuracy: 0.7978
Epoch 511/512
 - 3s - loss: 0.1933 - accuracy: 0.9204 - val_loss: 1.1256 - val_accuracy: 0.7927
Epoch 512/512
 - 3s - loss: 0.1815 - accuracy: 0.9264 - val_loss: 1.1171 - val_accuracy: 0.8000

Fit: epochs= 512 , batch_size= 64 , verbose= 2 , shuffle= False , validation_split= 0.2 

Model: "sequential_25"
_________________________________________________________________
Layer (type)                 Output Shape              Param #   
=================================================================
conv1d_25 (Conv1D)           (None, 10, 500)           1000      
_________________________________________________________________
activation_49 (Activation)   (None, 10, 500)           0         
_________________________________________________________________
flatten_25 (Flatten)         (None, 5000)              0         
_________________________________________________________________
dropout_25 (Dropout)         (None, 5000)              0         
_________________________________________________________________
dense_169 (Dense)            (None, 400)               2000400   
_________________________________________________________________
dense_170 (Dense)            (None, 300)               120300    
_________________________________________________________________
dense_171 (Dense)            (None, 200)               60200     
_________________________________________________________________
dense_172 (Dense)            (None, 100)               20100     
_________________________________________________________________
dense_173 (Dense)            (None, 50)                5050      
_________________________________________________________________
dense_174 (Dense)            (None, 20)                1020      
_________________________________________________________________
dense_175 (Dense)            (None, 4)                 84        
_________________________________________________________________
activation_50 (Activation)   (None, 4)                 0         
=================================================================
Total params: 2,208,154
Trainable params: 2,208,154
Non-trainable params: 0
_________________________________________________________________
None

Accuracy Train: 91.90%
Accuracy Test: 79.44%
Loss Train: 0.33
Loss Test: 1.19
Numero dati esaminati: 1712
True Positive 1360
False Positive 352


------------------------------------------------------------------------
…
