…
 - 0s - loss: 0.0987 - accuracy: 0.9533 - val_loss: 0.8615 - val_accuracy: 0.8723
Epoch 511/512
 - 0s - loss: 0.1017 - accuracy: 0.9503 - val_loss: 0.8442 - val_accuracy: 0.8781
Epoch 512/512
 - 0s - loss: 0.1095 - accuracy: 0.9489 - val_loss: 0.8377 - val_accuracy: 0.8693

Fit: epochs= 512 , batch_size= 64 , verbose= 2 , shuffle= False , validation_split= 0.2 

Model: "sequential_139"
_________________________________________________________________
Layer (type)                 Output Shape              Param #   
=================================================================
dense_931 (Dense)            (None, 10)                110       
_________________________________________________________________
dense_932 (Dense)            (None, 500)               5500      
_________________________________________________________________
dense_933 (Dense)            (None, 300)               150300    
_________________________________________________________________
dense_934 (Dense)            (None, 200)               60200     
_________________________________________________________________
dense_935 (Dense)            (None, 100)               20100     
_________________________________________________________________
dense_936 (Dense)            (None, 50)                5050      
_________________________________________________________________
dense_937 (Dense)            (None, 20)                1020      
_________________________________________________________________
dense_938 (Dense)            (None, 4)                 84        
=================================================================
Total params: 242,364
Trainable params: 242,364
Non-trainable params: 0
_________________________________________________________________
None

Accuracy Train: 93.52%
Accuracy Test: 86.45%
Loss Train: 0.26
Loss Test: 0.85
Numero dati esaminati: 1712
True Positive 1480
False Positive 232


------------------------------------------------------------------------
…
