…
 - 1s - loss: 0.2296 - accuracy: 0.8978 - val_loss: 0.7137 - val_accuracy: 0.8372
Epoch 511/512
 - 1s - loss: 0.2142 - accuracy: 0.9040 - val_loss: 0.7527 - val_accuracy: 0.8488
Epoch 512/512
 - 1s - loss: 0.2360 - accuracy: 0.8948 - val_loss: 0.7576 - val_accuracy: 0.8455

Fit: epochs= 512 , batch_size= 64 , verbose= 2 , shuffle= False , validation_split= 0.2 

Model: "sequential_67"
_________________________________________________________________
Layer (type)                 Output Shape              Param #   
=================================================================
lstm_25 (LSTM)               (None, 500)               1022000   
_________________________________________________________________
dropout_67 (Dropout)         (None, 500)               0         
_________________________________________________________________
dense_439 (Dense)            (None, 300)               150300    
_________________________________________________________________
dense_440 (Dense)            (None, 200)               60200     
_________________________________________________________________
dense_441 (Dense)            (None, 100)               20100     
_________________________________________________________________
dense_442 (Dense)            (None, 50)                5050      
_________________________________________________________________
dense_443 (Dense)            (None, 20)                1020      
_________________________________________________________________
dense_444 (Dense)            (None, 4)                 84        
=================================================================
Total params: 1,258,754
Trainable params: 1,258,754
Non-trainable params: 0
_________________________________________________________________
None

Accuracy Train: 88.86%
Accuracy Test: 82.18%
Loss Train: 0.33
Loss Test: 0.78
Numero dati esaminati: 752
True Positive 618
False Positive 134


------------------------------------------------------------------------
…
