…
 - 0s - loss: 0.2045 - accuracy: 0.9085 - val_loss: 0.5164 - val_accuracy: 0.8620
Epoch 511/512
 - 0s - loss: 0.2245 - accuracy: 0.9007 - val_loss: 0.5162 - val_accuracy: 0.8613
Epoch 512/512
 - 0s - loss: 0.2082 - accuracy: 0.9065 - val_loss: 0.5212 - val_accuracy: 0.8693

Fit: epochs= 512 , batch_size= 64 , verbose= 2 , shuffle= False , validation_split= 0.2 

Model: "sequential_121"
_________________________________________________________________
Layer (type)                 Output Shape              Param #   
=================================================================
dense_787 (Dense)            (None, 10)                110       
_________________________________________________________________
dense_788 (Dense)            (None, 500)               5500      
_________________________________________________________________
dense_789 (Dense)            (None, 300)               150300    
_________________________________________________________________
dense_790 (Dense)            (None, 200)               60200     
_________________________________________________________________
dense_791 (Dense)            (None, 100)               20100     
_________________________________________________________________
dense_792 (Dense)            (None, 50)                5050      
_________________________________________________________________
dense_793 (Dense)            (None, 20)                1020      
_________________________________________________________________
dense_794 (Dense)            (None, 4)                 84        
=================================================================
Total params: 242,364
Trainable params: 242,364
Non-trainable params: 0
_________________________________________________________________
None

Accuracy Train: 90.60%
Accuracy Test: 87.03%
Loss Train: 0.25
Loss Test: 0.46
Numero dati esaminati: 1712
True Positive 1490
False Positive 222


------------------------------------------------------------------------
…
