…
 - 17s - loss: 0.2144 - accuracy: 0.9064 - val_loss: 0.5777 - val_accuracy: 0.8496
Epoch 511/512
 - 16s - loss: 0.2193 - accuracy: 0.9031 - val_loss: 0.5886 - val_accuracy: 0.8686
Epoch 512/512
 - 16s - loss: 0.2021 - accuracy: 0.9095 - val_loss: 0.6289 - val_accuracy: 0.8620

Fit: epochs= 512 , batch_size= 64 , verbose= 2 , shuffle= False , validation_split= 0.2 

Model: "sequential_1"
_________________________________________________________________
Layer (type)                 Output Shape              Param #   
=================================================================
conv1d_1 (Conv1D)            (None, 10, 500)           1000      
_________________________________________________________________
activation_1 (Activation)    (None, 10, 500)           0         
_________________________________________________________________
lstm_1 (LSTM)                (None, 500)               2002000   
_________________________________________________________________
dropout_1 (Dropout)          (None, 500)               0         
_________________________________________________________________
dense_1 (Dense)              (None, 400)               200400    
_________________________________________________________________
dense_2 (Dense)              (None, 300)               120300    
_________________________________________________________________
dense_3 (Dense)              (None, 200)               60200     
_________________________________________________________________
dense_4 (Dense)              (None, 100)               20100     
_________________________________________________________________
dense_5 (Dense)              (None, 50)                5050      
_________________________________________________________________
dense_6 (Dense)              (None, 20)                1020      
_________________________________________________________________
dense_7 (Dense)              (None, 4)                 84        
=================================================================
Total params: 2,410,154
Trainable params: 2,410,154
Non-trainable params: 0
_________________________________________________________________
None

Accuracy Train: 90.46%
Accuracy Test: 88.14%
Loss Train: 0.28
Loss Test: 0.54
Numero dati esaminati: 1712
True Positive 1509
False Positive 203


------------------------------------------------------------------------
…
