…
 - 0s - loss: 0.0844 - accuracy: 0.9660 - val_loss: 0.7672 - val_accuracy: 0.8818
Epoch 511/512
 - 0s - loss: 0.1124 - accuracy: 0.9586 - val_loss: 0.6833 - val_accuracy: 0.8752
Epoch 512/512
 - 0s - loss: 0.0802 - accuracy: 0.9675 - val_loss: 0.7511 - val_accuracy: 0.8861

Fit: epochs= 512 , batch_size= 64 , verbose= 2 , shuffle= False , validation_split= 0.2 

Model: "sequential_145"
_________________________________________________________________
Layer (type)                 Output Shape              Param #   
=================================================================
dense_979 (Dense)            (None, 10)                110       
_________________________________________________________________
dense_980 (Dense)            (None, 500)               5500      
_________________________________________________________________
dense_981 (Dense)            (None, 300)               150300    
_________________________________________________________________
dense_982 (Dense)            (None, 200)               60200     
_________________________________________________________________
dense_983 (Dense)            (None, 100)               20100     
_________________________________________________________________
dense_984 (Dense)            (None, 50)                5050      
_________________________________________________________________
dense_985 (Dense)            (None, 20)                1020      
_________________________________________________________________
dense_986 (Dense)            (None, 4)                 84        
=================================================================
Total params: 242,364
Trainable params: 242,364
Non-trainable params: 0
_________________________________________________________________
None

Accuracy Train: 95.14%
Accuracy Test: 89.66%
Loss Train: 0.21
Loss Test: 0.74
Numero dati esaminati: 1712
True Positive 1535
False Positive 177


------------------------------------------------------------------------
…
