…
 - 11s - loss: 0.0904 - accuracy: 0.9571 - val_loss: 1.1623 - val_accuracy: 0.8745
Epoch 511/512
 - 11s - loss: 0.1028 - accuracy: 0.9527 - val_loss: 0.9705 - val_accuracy: 0.8788
Epoch 512/512
 - 11s - loss: 0.0907 - accuracy: 0.9545 - val_loss: 1.1714 - val_accuracy: 0.8766

Fit: epochs= 512 , batch_size= 64 , verbose= 2 , shuffle= False , validation_split= 0.2 

Model: "sequential_37"
_________________________________________________________________
Layer (type)                 Output Shape              Param #   
=================================================================
conv1d_37 (Conv1D)           (None, 10, 500)           1000      
_________________________________________________________________
activation_37 (Activation)   (None, 10, 500)           0         
_________________________________________________________________
lstm_37 (LSTM)               (None, 500)               2002000   
_________________________________________________________________
dropout_37 (Dropout)         (None, 500)               0         
_________________________________________________________________
dense_253 (Dense)            (None, 400)               200400    
_________________________________________________________________
dense_254 (Dense)            (None, 300)               120300    
_________________________________________________________________
dense_255 (Dense)            (None, 200)               60200     
_________________________________________________________________
dense_256 (Dense)            (None, 100)               20100     
_________________________________________________________________
dense_257 (Dense)            (None, 50)                5050      
_________________________________________________________________
dense_258 (Dense)            (None, 20)                1020      
_________________________________________________________________
dense_259 (Dense)            (None, 4)                 84        
=================================================================
Total params: 2,410,154
Trainable params: 2,410,154
Non-trainable params: 0
_________________________________________________________________
None

Accuracy Train: 94.22%
Accuracy Test: 88.43%
Loss Train: 0.31
Loss Test: 0.95
Numero dati esaminati: 1712
True Positive 1514
False Positive 198


------------------------------------------------------------------------
…
