…
 - 2s - loss: 0.2496 - accuracy: 0.8927 - val_loss: 1.2195 - val_accuracy: 0.7642
Epoch 511/512
 - 2s - loss: 0.2648 - accuracy: 0.8861 - val_loss: 1.2330 - val_accuracy: 0.7453
Epoch 512/512
 - 2s - loss: 0.2515 - accuracy: 0.8923 - val_loss: 1.1726 - val_accuracy: 0.7701

Fit: epochs= 512 , batch_size= 64 , verbose= 2 , shuffle= False , validation_split= 0.2 

Model: "sequential_97"
_________________________________________________________________
Layer (type)                 Output Shape              Param #   
=================================================================
lstm_55 (LSTM)               (None, 500)               1022000   
_________________________________________________________________
dropout_97 (Dropout)         (None, 500)               0         
_________________________________________________________________
dense_619 (Dense)            (None, 300)               150300    
_________________________________________________________________
dense_620 (Dense)            (None, 200)               60200     
_________________________________________________________________
dense_621 (Dense)            (None, 100)               20100     
_________________________________________________________________
dense_622 (Dense)            (None, 50)                5050      
_________________________________________________________________
dense_623 (Dense)            (None, 20)                1020      
_________________________________________________________________
dense_624 (Dense)            (None, 4)                 84        
=================================================================
Total params: 1,258,754
Trainable params: 1,258,754
Non-trainable params: 0
_________________________________________________________________
None

Accuracy Train: 88.57%
Accuracy Test: 76.52%
Loss Train: 0.40
Loss Test: 1.35
Numero dati esaminati: 1712
True Positive 1310
False Positive 402


------------------------------------------------------------------------
…
