…
 - 3s - loss: 0.2602 - accuracy: 0.8832 - val_loss: 0.5568 - val_accuracy: 0.8511
Epoch 511/512
 - 3s - loss: 0.2602 - accuracy: 0.8817 - val_loss: 0.5579 - val_accuracy: 0.8555
Epoch 512/512
 - 3s - loss: 0.2538 - accuracy: 0.8830 - val_loss: 0.5533 - val_accuracy: 0.8547

Fit: epochs= 512 , batch_size= 64 , verbose= 2 , shuffle= False , validation_split= 0.2 

Model: "sequential_1"
_________________________________________________________________
Layer (type)                 Output Shape              Param #   
=================================================================
conv1d_1 (Conv1D)            (None, 10, 500)           1000      
_________________________________________________________________
activation_1 (Activation)    (None, 10, 500)           0         
_________________________________________________________________
flatten_1 (Flatten)          (None, 5000)              0         
_________________________________________________________________
dropout_1 (Dropout)          (None, 5000)              0         
_________________________________________________________________
dense_1 (Dense)              (None, 400)               2000400   
_________________________________________________________________
dense_2 (Dense)              (None, 300)               120300    
_________________________________________________________________
dense_3 (Dense)              (None, 200)               60200     
_________________________________________________________________
dense_4 (Dense)              (None, 100)               20100     
_________________________________________________________________
dense_5 (Dense)              (None, 50)                5050      
_________________________________________________________________
dense_6 (Dense)              (None, 20)                1020      
_________________________________________________________________
dense_7 (Dense)              (None, 4)                 84        
_________________________________________________________________
activation_2 (Activation)    (None, 4)                 0         
=================================================================
Total params: 2,208,154
Trainable params: 2,208,154
Non-trainable params: 0
_________________________________________________________________
None

Accuracy Train: 89.02%
Accuracy Test: 87.09%
Loss Train: 0.29
Loss Test: 0.42
Numero dati esaminati: 1712
True Positive 1491
False Positive 221


------------------------------------------------------------------------
…
