…
 - 0s - loss: 0.0392 - accuracy: 0.8870 - val_loss: 0.0542 - val_accuracy: 0.8496
Epoch 511/512
 - 0s - loss: 0.0363 - accuracy: 0.8952 - val_loss: 0.0581 - val_accuracy: 0.8453
Epoch 512/512
 - 0s - loss: 0.0375 - accuracy: 0.8932 - val_loss: 0.0560 - val_accuracy: 0.8460

Fit: epochs= 512 , batch_size= 64 , verbose= 2 , shuffle= False , validation_split= 0.2 

Model: "sequential_115"
_________________________________________________________________
Layer (type)                 Output Shape              Param #   
=================================================================
dense_739 (Dense)            (None, 11)                132       
_________________________________________________________________
dense_740 (Dense)            (None, 500)               6000      
_________________________________________________________________
dense_741 (Dense)            (None, 300)               150300    
_________________________________________________________________
dense_742 (Dense)            (None, 200)               60200     
_________________________________________________________________
dense_743 (Dense)            (None, 100)               20100     
_________________________________________________________________
dense_744 (Dense)            (None, 50)                5050      
_________________________________________________________________
dense_745 (Dense)            (None, 20)                1020      
_________________________________________________________________
dense_746 (Dense)            (None, 4)                 84        
=================================================================
Total params: 242,886
Trainable params: 242,886
Non-trainable params: 0
_________________________________________________________________
None

Accuracy Train: 88.46%
Accuracy Test: 86.74%
Loss Train: 0.04
Loss Test: 0.05
Numero dati esaminati: 1712
True Positive 1485
False Positive 227


------------------------------------------------------------------------
…
