…
 - 0s - loss: 0.0352 - accuracy: 0.9002 - val_loss: 0.0624 - val_accuracy: 0.8488
Epoch 511/512
 - 0s - loss: 0.0358 - accuracy: 0.8978 - val_loss: 0.0639 - val_accuracy: 0.8355
Epoch 512/512
 - 0s - loss: 0.0340 - accuracy: 0.9036 - val_loss: 0.0612 - val_accuracy: 0.8439

Fit: epochs= 512 , batch_size= 64 , verbose= 2 , shuffle= False , validation_split= 0.2 

Model: "sequential_163"
_________________________________________________________________
Layer (type)                 Output Shape              Param #   
=================================================================
dense_1123 (Dense)           (None, 10)                110       
_________________________________________________________________
dense_1124 (Dense)           (None, 500)               5500      
_________________________________________________________________
dense_1125 (Dense)           (None, 300)               150300    
_________________________________________________________________
dense_1126 (Dense)           (None, 200)               60200     
_________________________________________________________________
dense_1127 (Dense)           (None, 100)               20100     
_________________________________________________________________
dense_1128 (Dense)           (None, 50)                5050      
_________________________________________________________________
dense_1129 (Dense)           (None, 20)                1020      
_________________________________________________________________
dense_1130 (Dense)           (None, 4)                 84        
=================================================================
Total params: 242,364
Trainable params: 242,364
Non-trainable params: 0
_________________________________________________________________
None

Accuracy Train: 90.39%
Accuracy Test: 82.18%
Loss Train: 0.04
Loss Test: 0.07
Numero dati esaminati: 752
True Positive 618
False Positive 134


------------------------------------------------------------------------
…
