…
 - 9s - loss: 0.1922 - accuracy: 0.9140 - val_loss: 0.8895 - val_accuracy: 0.8621
Epoch 511/512
 - 10s - loss: 0.1766 - accuracy: 0.9152 - val_loss: 1.0060 - val_accuracy: 0.8505
Epoch 512/512
 - 9s - loss: 0.1865 - accuracy: 0.9135 - val_loss: 1.0730 - val_accuracy: 0.8422

Fit: epochs= 512 , batch_size= 64 , verbose= 2 , shuffle= False , validation_split= 0.2 

Model: "sequential_19"
_________________________________________________________________
Layer (type)                 Output Shape              Param #   
=================================================================
conv1d_19 (Conv1D)           (None, 10, 500)           1000      
_________________________________________________________________
activation_19 (Activation)   (None, 10, 500)           0         
_________________________________________________________________
lstm_19 (LSTM)               (None, 500)               2002000   
_________________________________________________________________
dropout_19 (Dropout)         (None, 500)               0         
_________________________________________________________________
dense_127 (Dense)            (None, 400)               200400    
_________________________________________________________________
dense_128 (Dense)            (None, 300)               120300    
_________________________________________________________________
dense_129 (Dense)            (None, 200)               60200     
_________________________________________________________________
dense_130 (Dense)            (None, 100)               20100     
_________________________________________________________________
dense_131 (Dense)            (None, 50)                5050      
_________________________________________________________________
dense_132 (Dense)            (None, 20)                1020      
_________________________________________________________________
dense_133 (Dense)            (None, 4)                 84        
=================================================================
Total params: 2,410,154
Trainable params: 2,410,154
Non-trainable params: 0
_________________________________________________________________
None

Accuracy Train: 90.16%
Accuracy Test: 83.78%
Loss Train: 0.36
Loss Test: 1.01
Numero dati esaminati: 752
True Positive 630
False Positive 122


------------------------------------------------------------------------
…
