…
 - 2s - loss: 0.1162 - accuracy: 0.9956 - val_loss: 0.8292 - val_accuracy: 0.8628

Number of filters: 16 , Kernel Size: 3 , Strides: 1 Batch Normalization: True , Conv_First: True , Depth Value: 20

Fit: epochs= 512 , batch_size= 64 , verbose= 2 , shuffle= False , validation_split= 0.2 

Model: "model_25"
__________________________________________________________________________________________________
Layer (type)                    Output Shape         Param #     Connected to                     
==================================================================================================
input_25 (InputLayer)           (None, 10, 1)        0                                            
__________________________________________________________________________________________________
conv1d_547 (Conv1D)             (None, 10, 16)       64          input_25[0][0]                   
__________________________________________________________________________________________________
batch_normalization_457 (BatchN (None, 10, 16)       64          conv1d_547[0][0]                 
__________________________________________________________________________________________________
activation_541 (Activation)     (None, 10, 16)       0           batch_normalization_457[0][0]    
__________________________________________________________________________________________________
conv1d_548 (Conv1D)             (None, 10, 16)       784         activation_541[0][0]             
__________________________________________________________________________________________________
batch_normalization_458 (BatchN (None, 10, 16)       64          conv1d_548[0][0]                 
__________________________________________________________________________________________________
activation_542 (Activation)     (None, 10, 16)       0           batch_normalization_458[0][0]    
__________________________________________________________________________________________________
conv1d_549 (Conv1D)             (None, 10, 16)       784         activation_542[0][0]             
__________________________________________________________________________________________________
batch_normalization_459 (BatchN (None, 10, 16)       64          conv1d_549[0][0]                 
__________________________________________________________________________________________________
add_217 (Add)                   (None, 10, 16)       0           activation_541[0][0]             
                                                                 batch_normalization_459[0][0]    
__________________________________________________________________________________________________
activation_543 (Activation)     (None, 10, 16)       0           add_217[0][0]                    
__________________________________________________________________________________________________
conv1d_550 (Conv1D)             (None, 10, 16)       784         activation_543[0][0]             
__________________________________________________________________________________________________
batch_normalization_460 (BatchN (None, 10, 16)       64          conv1d_550[0][0]                 
__________________________________________________________________________________________________
activation_544 (Activation)     (None, 10, 16)       0           batch_normalization_460[0][0]    
__________________________________________________________________________________________________
conv1d_551 (Conv1D)             (None, 10, 16)       784         activation_544[0][0]             
__________________________________________________________________________________________________
batch_normalization_461 (BatchN (None, 10, 16)       64          conv1d_551[0][0]                 
__________________________________________________________________________________________________
add_218 (Add)                   (None, 10, 16)       0           activation_543[0][0]             
                                                                 batch_normalization_461[0][0]    
__________________________________________________________________________________________________
activation_545 (Activation)     (None, 10, 16)       0           add_218[0][0]                    
__________________________________________________________________________________________________
conv1d_552 (Conv1D)             (None, 10, 16)       784         activation_545[0][0]             
__________________________________________________________________________________________________
batch_normalization_462 (BatchN (None, 10, 16)       64          conv1d_552[0][0]                 
__________________________________________________________________________________________________
activation_546 (Activation)     (None, 10, 16)       0           batch_normalization_462[0][0]    
__________________________________________________________________________________________________
conv1d_553 (Conv1D)             (None, 10, 16)       784         activation_546[0][0]             
__________________________________________________________________________________________________
batch_normalization_463 (BatchN (None, 10, 16)       64          conv1d_553[0][0]                 
__________________________________________________________________________________________________
add_219 (Add)                   (None, 10, 16)       0           activation_545[0][0]             
                                                                 batch_normalization_463[0][0]    
__________________________________________________________________________________________________
activation_547 (Activation)     (None, 10, 16)       0           add_219[0][0]                    
__________________________________________________________________________________________________
conv1d_554 (Conv1D)             (None, 5, 32)        1568        activation_547[0][0]             
__________________________________________________________________________________________________
batch_normalization_464 (BatchN (None, 5, 32)        128         conv1d_554[0][0]                 
__________________________________________________________________________________________________
activation_548 (Activation)     (None, 5, 32)        0           batch_normalization_464[0][0]    
__________________________________________________________________________________________________
conv1d_555 (Conv1D)             (None, 5, 32)        3104        activation_548[0][0]             
__________________________________________________________________________________________________
conv1d_556 (Conv1D)             (None, 5, 32)        544         activation_547[0][0]             
__________________________________________________________________________________________________
batch_normalization_465 (BatchN (None, 5, 32)        128         conv1d_555[0][0]                 
__________________________________________________________________________________________________
add_220 (Add)                   (None, 5, 32)        0           conv1d_556[0][0]                 
                                                                 batch_normalization_465[0][0]    
__________________________________________________________________________________________________
activation_549 (Activation)     (None, 5, 32)        0           add_220[0][0]                    
__________________________________________________________________________________________________
conv1d_557 (Conv1D)             (None, 5, 32)        3104        activation_549[0][0]             
__________________________________________________________________________________________________
batch_normalization_466 (BatchN (None, 5, 32)        128         conv1d_557[0][0]                 
__________________________________________________________________________________________________
activation_550 (Activation)     (None, 5, 32)        0           batch_normalization_466[0][0]    
__________________________________________________________________________________________________
conv1d_558 (Conv1D)             (None, 5, 32)        3104        activation_550[0][0]             
__________________________________________________________________________________________________
batch_normalization_467 (BatchN (None, 5, 32)        128         conv1d_558[0][0]                 
__________________________________________________________________________________________________
add_221 (Add)                   (None, 5, 32)        0           activation_549[0][0]             
                                                                 batch_normalization_467[0][0]    
__________________________________________________________________________________________________
activation_551 (Activation)     (None, 5, 32)        0           add_221[0][0]                    
__________________________________________________________________________________________________
conv1d_559 (Conv1D)             (None, 5, 32)        3104        activation_551[0][0]             
__________________________________________________________________________________________________
batch_normalization_468 (BatchN (None, 5, 32)        128         conv1d_559[0][0]                 
__________________________________________________________________________________________________
activation_552 (Activation)     (None, 5, 32)        0           batch_normalization_468[0][0]    
__________________________________________________________________________________________________
conv1d_560 (Conv1D)             (None, 5, 32)        3104        activation_552[0][0]             
__________________________________________________________________________________________________
batch_normalization_469 (BatchN (None, 5, 32)        128         conv1d_560[0][0]                 
__________________________________________________________________________________________________
add_222 (Add)                   (None, 5, 32)        0           activation_551[0][0]             
                                                                 batch_normalization_469[0][0]    
__________________________________________________________________________________________________
activation_553 (Activation)     (None, 5, 32)        0           add_222[0][0]                    
__________________________________________________________________________________________________
conv1d_561 (Conv1D)             (None, 3, 64)        6208        activation_553[0][0]             
__________________________________________________________________________________________________
batch_normalization_470 (BatchN (None, 3, 64)        256         conv1d_561[0][0]                 
__________________________________________________________________________________________________
activation_554 (Activation)     (None, 3, 64)        0           batch_normalization_470[0][0]    
__________________________________________________________________________________________________
conv1d_562 (Conv1D)             (None, 3, 64)        12352       activation_554[0][0]             
__________________________________________________________________________________________________
conv1d_563 (Conv1D)             (None, 3, 64)        2112        activation_553[0][0]             
__________________________________________________________________________________________________
batch_normalization_471 (BatchN (None, 3, 64)        256         conv1d_562[0][0]                 
__________________________________________________________________________________________________
add_223 (Add)                   (None, 3, 64)        0           conv1d_563[0][0]                 
                                                                 batch_normalization_471[0][0]    
__________________________________________________________________________________________________
activation_555 (Activation)     (None, 3, 64)        0           add_223[0][0]                    
__________________________________________________________________________________________________
conv1d_564 (Conv1D)             (None, 3, 64)        12352       activation_555[0][0]             
__________________________________________________________________________________________________
batch_normalization_472 (BatchN (None, 3, 64)        256         conv1d_564[0][0]                 
__________________________________________________________________________________________________
activation_556 (Activation)     (None, 3, 64)        0           batch_normalization_472[0][0]    
__________________________________________________________________________________________________
conv1d_565 (Conv1D)             (None, 3, 64)        12352       activation_556[0][0]             
__________________________________________________________________________________________________
batch_normalization_473 (BatchN (None, 3, 64)        256         conv1d_565[0][0]                 
__________________________________________________________________________________________________
add_224 (Add)                   (None, 3, 64)        0           activation_555[0][0]             
                                                                 batch_normalization_473[0][0]    
__________________________________________________________________________________________________
activation_557 (Activation)     (None, 3, 64)        0           add_224[0][0]                    
__________________________________________________________________________________________________
conv1d_566 (Conv1D)             (None, 3, 64)        12352       activation_557[0][0]             
__________________________________________________________________________________________________
batch_normalization_474 (BatchN (None, 3, 64)        256         conv1d_566[0][0]                 
__________________________________________________________________________________________________
activation_558 (Activation)     (None, 3, 64)        0           batch_normalization_474[0][0]    
__________________________________________________________________________________________________
conv1d_567 (Conv1D)             (None, 3, 64)        12352       activation_558[0][0]             
__________________________________________________________________________________________________
batch_normalization_475 (BatchN (None, 3, 64)        256         conv1d_567[0][0]                 
__________________________________________________________________________________________________
add_225 (Add)                   (None, 3, 64)        0           activation_557[0][0]             
                                                                 batch_normalization_475[0][0]    
__________________________________________________________________________________________________
activation_559 (Activation)     (None, 3, 64)        0           add_225[0][0]                    
__________________________________________________________________________________________________
average_pooling1d_25 (AveragePo (None, 3, 64)        0           activation_559[0][0]             
__________________________________________________________________________________________________
flatten_67 (Flatten)            (None, 192)          0           average_pooling1d_25[0][0]       
__________________________________________________________________________________________________
dense_1195 (Dense)              (None, 4)            772         flatten_67[0][0]                 
==================================================================================================
Total params: 96,004
Trainable params: 94,628
Non-trainable params: 1,376
__________________________________________________________________________________________________
None

Accuracy Train: 91.19%
Accuracy Test: 86.33%
Loss Train: 0.46
Loss Test: 0.78
Numero dati esaminati: 1712
…
