…
 - 3s - loss: 0.1791 - accuracy: 0.9235 - val_loss: 0.5485 - val_accuracy: 0.8766
Epoch 109/110
 - 3s - loss: 0.1717 - accuracy: 0.9248 - val_loss: 0.5552 - val_accuracy: 0.8730
Epoch 110/110
 - 3s - loss: 0.1779 - accuracy: 0.9237 - val_loss: 0.5857 - val_accuracy: 0.8745

Fit: epochs= 110 , batch_size= 64 , verbose= 2 , shuffle= False , validation_split= 0.2 

Model: "sequential_19"
_________________________________________________________________
Layer (type)                 Output Shape              Param #   
=================================================================
conv1d_19 (Conv1D)           (None, 10, 500)           1000      
_________________________________________________________________
activation_37 (Activation)   (None, 10, 500)           0         
_________________________________________________________________
flatten_19 (Flatten)         (None, 5000)              0         
_________________________________________________________________
dropout_19 (Dropout)         (None, 5000)              0         
_________________________________________________________________
dense_127 (Dense)            (None, 400)               2000400   
_________________________________________________________________
dense_128 (Dense)            (None, 300)               120300    
_________________________________________________________________
dense_129 (Dense)            (None, 200)               60200     
_________________________________________________________________
dense_130 (Dense)            (None, 100)               20100     
_________________________________________________________________
dense_131 (Dense)            (None, 50)                5050      
_________________________________________________________________
dense_132 (Dense)            (None, 20)                1020      
_________________________________________________________________
dense_133 (Dense)            (None, 4)                 84        
_________________________________________________________________
activation_38 (Activation)   (None, 4)                 0         
=================================================================
Total params: 2,208,154
Trainable params: 2,208,154
Non-trainable params: 0
_________________________________________________________________
None

Accuracy Train: 92.61%
Accuracy Test: 87.85%
Loss Train: 0.24
Loss Test: 0.53
Numero dati esaminati: 1712
True Positive 1504
False Positive 208


------------------------------------------------------------------------
…
