…
 - 3s - loss: 0.2268 - accuracy: 0.9728 - val_loss: 0.8560 - val_accuracy: 0.8533

Number of filters: 16 , Kernel Size: 3 , Strides: 1 Batch Normalization: True , Conv_First: True , Depth Value: 20

Fit: epochs= 110 , batch_size= 64 , verbose= 2 , shuffle= False , validation_split= 0.2 

Model: "model_19"
__________________________________________________________________________________________________
Layer (type)                    Output Shape         Param #     Connected to                     
==================================================================================================
input_19 (InputLayer)           (None, 10, 1)        0                                            
__________________________________________________________________________________________________
conv1d_379 (Conv1D)             (None, 10, 16)       64          input_19[0][0]                   
__________________________________________________________________________________________________
batch_normalization_343 (BatchN (None, 10, 16)       64          conv1d_379[0][0]                 
__________________________________________________________________________________________________
activation_343 (Activation)     (None, 10, 16)       0           batch_normalization_343[0][0]    
__________________________________________________________________________________________________
conv1d_380 (Conv1D)             (None, 10, 16)       784         activation_343[0][0]             
__________________________________________________________________________________________________
batch_normalization_344 (BatchN (None, 10, 16)       64          conv1d_380[0][0]                 
__________________________________________________________________________________________________
activation_344 (Activation)     (None, 10, 16)       0           batch_normalization_344[0][0]    
__________________________________________________________________________________________________
conv1d_381 (Conv1D)             (None, 10, 16)       784         activation_344[0][0]             
__________________________________________________________________________________________________
batch_normalization_345 (BatchN (None, 10, 16)       64          conv1d_381[0][0]                 
__________________________________________________________________________________________________
add_163 (Add)                   (None, 10, 16)       0           activation_343[0][0]             
                                                                 batch_normalization_345[0][0]    
__________________________________________________________________________________________________
activation_345 (Activation)     (None, 10, 16)       0           add_163[0][0]                    
__________________________________________________________________________________________________
conv1d_382 (Conv1D)             (None, 10, 16)       784         activation_345[0][0]             
__________________________________________________________________________________________________
batch_normalization_346 (BatchN (None, 10, 16)       64          conv1d_382[0][0]                 
__________________________________________________________________________________________________
activation_346 (Activation)     (None, 10, 16)       0           batch_normalization_346[0][0]    
__________________________________________________________________________________________________
conv1d_383 (Conv1D)             (None, 10, 16)       784         activation_346[0][0]             
__________________________________________________________________________________________________
batch_normalization_347 (BatchN (None, 10, 16)       64          conv1d_383[0][0]                 
__________________________________________________________________________________________________
add_164 (Add)                   (None, 10, 16)       0           activation_345[0][0]             
                                                                 batch_normalization_347[0][0]    
__________________________________________________________________________________________________
activation_347 (Activation)     (None, 10, 16)       0           add_164[0][0]                    
__________________________________________________________________________________________________
conv1d_384 (Conv1D)             (None, 10, 16)       784         activation_347[0][0]             
__________________________________________________________________________________________________
batch_normalization_348 (BatchN (None, 10, 16)       64          conv1d_384[0][0]                 
__________________________________________________________________________________________________
activation_348 (Activation)     (None, 10, 16)       0           batch_normalization_348[0][0]    
__________________________________________________________________________________________________
conv1d_385 (Conv1D)             (None, 10, 16)       784         activation_348[0][0]             
__________________________________________________________________________________________________
batch_normalization_349 (BatchN (None, 10, 16)       64          conv1d_385[0][0]                 
__________________________________________________________________________________________________
add_165 (Add)                   (None, 10, 16)       0           activation_347[0][0]             
                                                                 batch_normalization_349[0][0]    
__________________________________________________________________________________________________
activation_349 (Activation)     (None, 10, 16)       0           add_165[0][0]                    
__________________________________________________________________________________________________
conv1d_386 (Conv1D)             (None, 5, 32)        1568        activation_349[0][0]             
__________________________________________________________________________________________________
batch_normalization_350 (BatchN (None, 5, 32)        128         conv1d_386[0][0]                 
__________________________________________________________________________________________________
activation_350 (Activation)     (None, 5, 32)        0           batch_normalization_350[0][0]    
__________________________________________________________________________________________________
conv1d_387 (Conv1D)             (None, 5, 32)        3104        activation_350[0][0]             
__________________________________________________________________________________________________
conv1d_388 (Conv1D)             (None, 5, 32)        544         activation_349[0][0]             
__________________________________________________________________________________________________
batch_normalization_351 (BatchN (None, 5, 32)        128         conv1d_387[0][0]                 
__________________________________________________________________________________________________
add_166 (Add)                   (None, 5, 32)        0           conv1d_388[0][0]                 
                                                                 batch_normalization_351[0][0]    
__________________________________________________________________________________________________
activation_351 (Activation)     (None, 5, 32)        0           add_166[0][0]                    
__________________________________________________________________________________________________
conv1d_389 (Conv1D)             (None, 5, 32)        3104        activation_351[0][0]             
__________________________________________________________________________________________________
batch_normalization_352 (BatchN (None, 5, 32)        128         conv1d_389[0][0]                 
__________________________________________________________________________________________________
activation_352 (Activation)     (None, 5, 32)        0           batch_normalization_352[0][0]    
__________________________________________________________________________________________________
conv1d_390 (Conv1D)             (None, 5, 32)        3104        activation_352[0][0]             
__________________________________________________________________________________________________
batch_normalization_353 (BatchN (None, 5, 32)        128         conv1d_390[0][0]                 
__________________________________________________________________________________________________
add_167 (Add)                   (None, 5, 32)        0           activation_351[0][0]             
                                                                 batch_normalization_353[0][0]    
__________________________________________________________________________________________________
activation_353 (Activation)     (None, 5, 32)        0           add_167[0][0]                    
__________________________________________________________________________________________________
conv1d_391 (Conv1D)             (None, 5, 32)        3104        activation_353[0][0]             
__________________________________________________________________________________________________
batch_normalization_354 (BatchN (None, 5, 32)        128         conv1d_391[0][0]                 
__________________________________________________________________________________________________
activation_354 (Activation)     (None, 5, 32)        0           batch_normalization_354[0][0]    
__________________________________________________________________________________________________
conv1d_392 (Conv1D)             (None, 5, 32)        3104        activation_354[0][0]             
__________________________________________________________________________________________________
batch_normalization_355 (BatchN (None, 5, 32)        128         conv1d_392[0][0]                 
__________________________________________________________________________________________________
add_168 (Add)                   (None, 5, 32)        0           activation_353[0][0]             
                                                                 batch_normalization_355[0][0]    
__________________________________________________________________________________________________
activation_355 (Activation)     (None, 5, 32)        0           add_168[0][0]                    
__________________________________________________________________________________________________
conv1d_393 (Conv1D)             (None, 3, 64)        6208        activation_355[0][0]             
__________________________________________________________________________________________________
batch_normalization_356 (BatchN (None, 3, 64)        256         conv1d_393[0][0]                 
__________________________________________________________________________________________________
activation_356 (Activation)     (None, 3, 64)        0           batch_normalization_356[0][0]    
__________________________________________________________________________________________________
conv1d_394 (Conv1D)             (None, 3, 64)        12352       activation_356[0][0]             
__________________________________________________________________________________________________
conv1d_395 (Conv1D)             (None, 3, 64)        2112        activation_355[0][0]             
__________________________________________________________________________________________________
batch_normalization_357 (BatchN (None, 3, 64)        256         conv1d_394[0][0]                 
__________________________________________________________________________________________________
add_169 (Add)                   (None, 3, 64)        0           conv1d_395[0][0]                 
                                                                 batch_normalization_357[0][0]    
__________________________________________________________________________________________________
activation_357 (Activation)     (None, 3, 64)        0           add_169[0][0]                    
__________________________________________________________________________________________________
conv1d_396 (Conv1D)             (None, 3, 64)        12352       activation_357[0][0]             
__________________________________________________________________________________________________
batch_normalization_358 (BatchN (None, 3, 64)        256         conv1d_396[0][0]                 
__________________________________________________________________________________________________
activation_358 (Activation)     (None, 3, 64)        0           batch_normalization_358[0][0]    
__________________________________________________________________________________________________
conv1d_397 (Conv1D)             (None, 3, 64)        12352       activation_358[0][0]             
__________________________________________________________________________________________________
batch_normalization_359 (BatchN (None, 3, 64)        256         conv1d_397[0][0]                 
__________________________________________________________________________________________________
add_170 (Add)                   (None, 3, 64)        0           activation_357[0][0]             
                                                                 batch_normalization_359[0][0]    
__________________________________________________________________________________________________
activation_359 (Activation)     (None, 3, 64)        0           add_170[0][0]                    
__________________________________________________________________________________________________
conv1d_398 (Conv1D)             (None, 3, 64)        12352       activation_359[0][0]             
__________________________________________________________________________________________________
batch_normalization_360 (BatchN (None, 3, 64)        256         conv1d_398[0][0]                 
__________________________________________________________________________________________________
activation_360 (Activation)     (None, 3, 64)        0           batch_normalization_360[0][0]    
__________________________________________________________________________________________________
conv1d_399 (Conv1D)             (None, 3, 64)        12352       activation_360[0][0]             
__________________________________________________________________________________________________
batch_normalization_361 (BatchN (None, 3, 64)        256         conv1d_399[0][0]                 
__________________________________________________________________________________________________
add_171 (Add)                   (None, 3, 64)        0           activation_359[0][0]             
                                                                 batch_normalization_361[0][0]    
__________________________________________________________________________________________________
activation_361 (Activation)     (None, 3, 64)        0           add_171[0][0]                    
__________________________________________________________________________________________________
average_pooling1d_19 (AveragePo (None, 3, 64)        0           activation_361[0][0]             
__________________________________________________________________________________________________
flatten_19 (Flatten)            (None, 192)          0           average_pooling1d_19[0][0]       
__________________________________________________________________________________________________
dense_19 (Dense)                (None, 4)            772         flatten_19[0][0]                 
==================================================================================================
Total params: 96,004
Trainable params: 94,628
Non-trainable params: 1,376
__________________________________________________________________________________________________
None

Accuracy Train: 90.44%
Accuracy Test: 84.70%
Loss Train: 0.49
Loss Test: 0.82
Numero dati esaminati: 1712
…
