…
 - 0s - loss: 0.0533 - accuracy: 0.8558 - val_loss: 0.0661 - val_accuracy: 0.8389
Epoch 109/110
 - 0s - loss: 0.0536 - accuracy: 0.8566 - val_loss: 0.0650 - val_accuracy: 0.8405
Epoch 110/110
 - 0s - loss: 0.0521 - accuracy: 0.8603 - val_loss: 0.0655 - val_accuracy: 0.8272

Fit: epochs= 110 , batch_size= 64 , verbose= 2 , shuffle= False , validation_split= 0.2 

Model: "sequential_163"
_________________________________________________________________
Layer (type)                 Output Shape              Param #   
=================================================================
dense_1123 (Dense)           (None, 10)                110       
_________________________________________________________________
dense_1124 (Dense)           (None, 500)               5500      
_________________________________________________________________
dense_1125 (Dense)           (None, 300)               150300    
_________________________________________________________________
dense_1126 (Dense)           (None, 200)               60200     
_________________________________________________________________
dense_1127 (Dense)           (None, 100)               20100     
_________________________________________________________________
dense_1128 (Dense)           (None, 50)                5050      
_________________________________________________________________
dense_1129 (Dense)           (None, 20)                1020      
_________________________________________________________________
dense_1130 (Dense)           (None, 4)                 84        
=================================================================
Total params: 242,364
Trainable params: 242,364
Non-trainable params: 0
_________________________________________________________________
None

Accuracy Train: 86.04%
Accuracy Test: 79.79%
Loss Train: 0.05
Loss Test: 0.08
Numero dati esaminati: 752
True Positive 600
False Positive 152


------------------------------------------------------------------------
…
