…
 - 0s - loss: 0.0500 - accuracy: 0.8614 - val_loss: 0.0616 - val_accuracy: 0.8372
Epoch 109/110
 - 0s - loss: 0.0502 - accuracy: 0.8629 - val_loss: 0.0620 - val_accuracy: 0.8416
Epoch 110/110
 - 0s - loss: 0.0498 - accuracy: 0.8627 - val_loss: 0.0616 - val_accuracy: 0.8365

Fit: epochs= 110 , batch_size= 64 , verbose= 2 , shuffle= False , validation_split= 0.2 

Model: "sequential_115"
_________________________________________________________________
Layer (type)                 Output Shape              Param #   
=================================================================
dense_739 (Dense)            (None, 11)                132       
_________________________________________________________________
dense_740 (Dense)            (None, 500)               6000      
_________________________________________________________________
dense_741 (Dense)            (None, 300)               150300    
_________________________________________________________________
dense_742 (Dense)            (None, 200)               60200     
_________________________________________________________________
dense_743 (Dense)            (None, 100)               20100     
_________________________________________________________________
dense_744 (Dense)            (None, 50)                5050      
_________________________________________________________________
dense_745 (Dense)            (None, 20)                1020      
_________________________________________________________________
dense_746 (Dense)            (None, 4)                 84        
=================================================================
Total params: 242,886
Trainable params: 242,886
Non-trainable params: 0
_________________________________________________________________
None

Accuracy Train: 85.51%
Accuracy Test: 83.88%
Loss Train: 0.05
Loss Test: 0.06
Numero dati esaminati: 1712
True Positive 1436
False Positive 276


------------------------------------------------------------------------
…
