…
 - 0s - loss: 0.3043 - accuracy: 0.8658 - val_loss: 0.4542 - val_accuracy: 0.8533
Epoch 109/110
 - 0s - loss: 0.3027 - accuracy: 0.8682 - val_loss: 0.4592 - val_accuracy: 0.8562
Epoch 110/110
 - 0s - loss: 0.2979 - accuracy: 0.8719 - val_loss: 0.4525 - val_accuracy: 0.8569

Fit: epochs= 110 , batch_size= 64 , verbose= 2 , shuffle= False , validation_split= 0.2 

Model: "sequential_121"
_________________________________________________________________
Layer (type)                 Output Shape              Param #   
=================================================================
dense_787 (Dense)            (None, 10)                110       
_________________________________________________________________
dense_788 (Dense)            (None, 500)               5500      
_________________________________________________________________
dense_789 (Dense)            (None, 300)               150300    
_________________________________________________________________
dense_790 (Dense)            (None, 200)               60200     
_________________________________________________________________
dense_791 (Dense)            (None, 100)               20100     
_________________________________________________________________
dense_792 (Dense)            (None, 50)                5050      
_________________________________________________________________
dense_793 (Dense)            (None, 20)                1020      
_________________________________________________________________
dense_794 (Dense)            (None, 4)                 84        
=================================================================
Total params: 242,364
Trainable params: 242,364
Non-trainable params: 0
_________________________________________________________________
None

Accuracy Train: 86.74%
Accuracy Test: 84.35%
Loss Train: 0.32
Loss Test: 0.43
Numero dati esaminati: 1712
True Positive 1444
False Positive 268


------------------------------------------------------------------------
…
