…
 - 3s - loss: 0.3222 - accuracy: 0.8602 - val_loss: 0.4718 - val_accuracy: 0.8496
Epoch 109/110
 - 3s - loss: 0.3243 - accuracy: 0.8609 - val_loss: 0.4625 - val_accuracy: 0.8526
Epoch 110/110
 - 3s - loss: 0.3228 - accuracy: 0.8600 - val_loss: 0.4657 - val_accuracy: 0.8482

Fit: epochs= 110 , batch_size= 64 , verbose= 2 , shuffle= False , validation_split= 0.2 

Model: "sequential_61"
_________________________________________________________________
Layer (type)                 Output Shape              Param #   
=================================================================
bidirectional_7 (Bidirection (None, 1000)              2044000   
_________________________________________________________________
dropout_61 (Dropout)         (None, 1000)              0         
_________________________________________________________________
dense_403 (Dense)            (None, 300)               300300    
_________________________________________________________________
dense_404 (Dense)            (None, 200)               60200     
_________________________________________________________________
dense_405 (Dense)            (None, 100)               20100     
_________________________________________________________________
dense_406 (Dense)            (None, 50)                5050      
_________________________________________________________________
dense_407 (Dense)            (None, 20)                1020      
_________________________________________________________________
dense_408 (Dense)            (None, 4)                 84        
=================================================================
Total params: 2,430,754
Trainable params: 2,430,754
Non-trainable params: 0
_________________________________________________________________
None

Accuracy Train: 86.48%
Accuracy Test: 84.58%
Loss Train: 0.34
Loss Test: 0.43
Numero dati esaminati: 1712
True Positive 1448
False Positive 264


------------------------------------------------------------------------
…
