…
 - 0s - loss: 0.2128 - accuracy: 0.9080 - val_loss: 0.5923 - val_accuracy: 0.8409
Epoch 109/110
 - 0s - loss: 0.2091 - accuracy: 0.9078 - val_loss: 0.5791 - val_accuracy: 0.8504
Epoch 110/110
 - 0s - loss: 0.1961 - accuracy: 0.9129 - val_loss: 0.5816 - val_accuracy: 0.8547

Fit: epochs= 110 , batch_size= 64 , verbose= 2 , shuffle= False , validation_split= 0.2 

Model: "sequential_145"
_________________________________________________________________
Layer (type)                 Output Shape              Param #   
=================================================================
dense_979 (Dense)            (None, 10)                110       
_________________________________________________________________
dense_980 (Dense)            (None, 500)               5500      
_________________________________________________________________
dense_981 (Dense)            (None, 300)               150300    
_________________________________________________________________
dense_982 (Dense)            (None, 200)               60200     
_________________________________________________________________
dense_983 (Dense)            (None, 100)               20100     
_________________________________________________________________
dense_984 (Dense)            (None, 50)                5050      
_________________________________________________________________
dense_985 (Dense)            (None, 20)                1020      
_________________________________________________________________
dense_986 (Dense)            (None, 4)                 84        
=================================================================
Total params: 242,364
Trainable params: 242,364
Non-trainable params: 0
_________________________________________________________________
None

Accuracy Train: 90.89%
Accuracy Test: 85.86%
Loss Train: 0.26
Loss Test: 0.61
Numero dati esaminati: 1712
True Positive 1470
False Positive 242


------------------------------------------------------------------------
…
