…
 - 2s - loss: 0.3359 - accuracy: 0.8523 - val_loss: 0.4430 - val_accuracy: 0.8460
Epoch 109/110
 - 2s - loss: 0.3447 - accuracy: 0.8541 - val_loss: 0.4485 - val_accuracy: 0.8474
Epoch 110/110
 - 2s - loss: 0.3336 - accuracy: 0.8600 - val_loss: 0.4387 - val_accuracy: 0.8474

Fit: epochs= 110 , batch_size= 64 , verbose= 2 , shuffle= False , validation_split= 0.2 

Model: "sequential_43"
_________________________________________________________________
Layer (type)                 Output Shape              Param #   
=================================================================
lstm_1 (LSTM)                (None, 500)               1022000   
_________________________________________________________________
dropout_43 (Dropout)         (None, 500)               0         
_________________________________________________________________
dense_295 (Dense)            (None, 300)               150300    
_________________________________________________________________
dense_296 (Dense)            (None, 200)               60200     
_________________________________________________________________
dense_297 (Dense)            (None, 100)               20100     
_________________________________________________________________
dense_298 (Dense)            (None, 50)                5050      
_________________________________________________________________
dense_299 (Dense)            (None, 20)                1020      
_________________________________________________________________
dense_300 (Dense)            (None, 4)                 84        
=================================================================
Total params: 1,258,754
Trainable params: 1,258,754
Non-trainable params: 0
_________________________________________________________________
None

Accuracy Train: 86.33%
Accuracy Test: 84.46%
Loss Train: 0.34
Loss Test: 0.42
Numero dati esaminati: 1712
True Positive 1446
False Positive 266


------------------------------------------------------------------------
…
