…
 - 1s - loss: 0.3341 - accuracy: 0.8580 - val_loss: 0.4421 - val_accuracy: 0.8642
Epoch 109/110
 - 1s - loss: 0.3448 - accuracy: 0.8549 - val_loss: 0.4290 - val_accuracy: 0.8511
Epoch 110/110
 - 1s - loss: 0.3317 - accuracy: 0.8609 - val_loss: 0.4287 - val_accuracy: 0.8584

Fit: epochs= 110 , batch_size= 64 , verbose= 2 , shuffle= False , validation_split= 0.2 

Model: "sequential_37"
_________________________________________________________________
Layer (type)                 Output Shape              Param #   
=================================================================
conv1d_37 (Conv1D)           (None, 11, 500)           1000      
_________________________________________________________________
activation_73 (Activation)   (None, 11, 500)           0         
_________________________________________________________________
flatten_37 (Flatten)         (None, 5500)              0         
_________________________________________________________________
dropout_37 (Dropout)         (None, 5500)              0         
_________________________________________________________________
dense_253 (Dense)            (None, 400)               2200400   
_________________________________________________________________
dense_254 (Dense)            (None, 300)               120300    
_________________________________________________________________
dense_255 (Dense)            (None, 200)               60200     
_________________________________________________________________
dense_256 (Dense)            (None, 100)               20100     
_________________________________________________________________
dense_257 (Dense)            (None, 50)                5050      
_________________________________________________________________
dense_258 (Dense)            (None, 20)                1020      
_________________________________________________________________
dense_259 (Dense)            (None, 4)                 84        
_________________________________________________________________
activation_74 (Activation)   (None, 4)                 0         
=================================================================
Total params: 2,408,154
Trainable params: 2,408,154
Non-trainable params: 0
_________________________________________________________________
None

Accuracy Train: 86.89%
Accuracy Test: 84.99%
Loss Train: 0.32
Loss Test: 0.41
Numero dati esaminati: 1712
True Positive 1455
False Positive 257


------------------------------------------------------------------------
…
