…
 - 0s - loss: 0.1949 - accuracy: 0.9111 - val_loss: 0.5733 - val_accuracy: 0.8723
Epoch 109/110
 - 0s - loss: 0.1858 - accuracy: 0.9146 - val_loss: 0.5400 - val_accuracy: 0.8642
Epoch 110/110
 - 0s - loss: 0.1893 - accuracy: 0.9126 - val_loss: 0.5476 - val_accuracy: 0.8599

Fit: epochs= 110 , batch_size= 64 , verbose= 2 , shuffle= False , validation_split= 0.2 

Model: "sequential_139"
_________________________________________________________________
Layer (type)                 Output Shape              Param #   
=================================================================
dense_931 (Dense)            (None, 10)                110       
_________________________________________________________________
dense_932 (Dense)            (None, 500)               5500      
_________________________________________________________________
dense_933 (Dense)            (None, 300)               150300    
_________________________________________________________________
dense_934 (Dense)            (None, 200)               60200     
_________________________________________________________________
dense_935 (Dense)            (None, 100)               20100     
_________________________________________________________________
dense_936 (Dense)            (None, 50)                5050      
_________________________________________________________________
dense_937 (Dense)            (None, 20)                1020      
_________________________________________________________________
dense_938 (Dense)            (None, 4)                 84        
=================================================================
Total params: 242,364
Trainable params: 242,364
Non-trainable params: 0
_________________________________________________________________
None

Accuracy Train: 90.60%
Accuracy Test: 85.28%
Loss Train: 0.25
Loss Test: 0.63
Numero dati esaminati: 1712
True Positive 1460
False Positive 252


------------------------------------------------------------------------
…
