…
 - 3s - loss: 0.3340 - accuracy: 0.8569 - val_loss: 0.4196 - val_accuracy: 0.8474
Epoch 109/110
 - 3s - loss: 0.3467 - accuracy: 0.8556 - val_loss: 0.4277 - val_accuracy: 0.8453
Epoch 110/110
 - 3s - loss: 0.3246 - accuracy: 0.8583 - val_loss: 0.4221 - val_accuracy: 0.8496

Fit: epochs= 110 , batch_size= 64 , verbose= 2 , shuffle= False , validation_split= 0.2 

Model: "sequential_55"
_________________________________________________________________
Layer (type)                 Output Shape              Param #   
=================================================================
bidirectional_1 (Bidirection (None, 1000)              2048000   
_________________________________________________________________
dropout_55 (Dropout)         (None, 1000)              0         
_________________________________________________________________
dense_367 (Dense)            (None, 300)               300300    
_________________________________________________________________
dense_368 (Dense)            (None, 200)               60200     
_________________________________________________________________
dense_369 (Dense)            (None, 100)               20100     
_________________________________________________________________
dense_370 (Dense)            (None, 50)                5050      
_________________________________________________________________
dense_371 (Dense)            (None, 20)                1020      
_________________________________________________________________
dense_372 (Dense)            (None, 4)                 84        
=================================================================
Total params: 2,434,754
Trainable params: 2,434,754
Non-trainable params: 0
_________________________________________________________________
None

Accuracy Train: 87.02%
Accuracy Test: 84.87%
Loss Train: 0.33
Loss Test: 0.41
Numero dati esaminati: 1712
True Positive 1453
False Positive 259


------------------------------------------------------------------------
…
