…
 - 0s - loss: 0.3047 - accuracy: 0.8686 - val_loss: 0.4290 - val_accuracy: 0.8504
Epoch 109/110
 - 0s - loss: 0.3021 - accuracy: 0.8693 - val_loss: 0.4263 - val_accuracy: 0.8533
Epoch 110/110
 - 0s - loss: 0.3081 - accuracy: 0.8693 - val_loss: 0.4337 - val_accuracy: 0.8569

Fit: epochs= 110 , batch_size= 64 , verbose= 2 , shuffle= False , validation_split= 0.2 

Model: "sequential_109"
_________________________________________________________________
Layer (type)                 Output Shape              Param #   
=================================================================
dense_691 (Dense)            (None, 11)                132       
_________________________________________________________________
dense_692 (Dense)            (None, 500)               6000      
_________________________________________________________________
dense_693 (Dense)            (None, 300)               150300    
_________________________________________________________________
dense_694 (Dense)            (None, 200)               60200     
_________________________________________________________________
dense_695 (Dense)            (None, 100)               20100     
_________________________________________________________________
dense_696 (Dense)            (None, 50)                5050      
_________________________________________________________________
dense_697 (Dense)            (None, 20)                1020      
_________________________________________________________________
dense_698 (Dense)            (None, 4)                 84        
=================================================================
Total params: 242,886
Trainable params: 242,886
Non-trainable params: 0
_________________________________________________________________
None

Accuracy Train: 87.13%
Accuracy Test: 85.11%
Loss Train: 0.32
Loss Test: 0.43
Numero dati esaminati: 1712
True Positive 1457
False Positive 255


------------------------------------------------------------------------
…
