…
 - 0s - loss: 0.3702 - accuracy: 0.8574 - val_loss: 0.6211 - val_accuracy: 0.8123
Epoch 109/110
 - 0s - loss: 0.3706 - accuracy: 0.8533 - val_loss: 0.6414 - val_accuracy: 0.8123
Epoch 110/110
 - 0s - loss: 0.3655 - accuracy: 0.8516 - val_loss: 0.6443 - val_accuracy: 0.8173

Fit: epochs= 110 , batch_size= 64 , verbose= 2 , shuffle= False , validation_split= 0.2 

Model: "sequential_157"
_________________________________________________________________
Layer (type)                 Output Shape              Param #   
=================================================================
dense_1075 (Dense)           (None, 10)                110       
_________________________________________________________________
dense_1076 (Dense)           (None, 500)               5500      
_________________________________________________________________
dense_1077 (Dense)           (None, 300)               150300    
_________________________________________________________________
dense_1078 (Dense)           (None, 200)               60200     
_________________________________________________________________
dense_1079 (Dense)           (None, 100)               20100     
_________________________________________________________________
dense_1080 (Dense)           (None, 50)                5050      
_________________________________________________________________
dense_1081 (Dense)           (None, 20)                1020      
_________________________________________________________________
dense_1082 (Dense)           (None, 4)                 84        
=================================================================
Total params: 242,364
Trainable params: 242,364
Non-trainable params: 0
_________________________________________________________________
None

Accuracy Train: 85.67%
Accuracy Test: 79.26%
Loss Train: 0.40
Loss Test: 0.65
Numero dati esaminati: 752
True Positive 596
False Positive 156


------------------------------------------------------------------------
…
