…
 - 2s - loss: 0.2533 - accuracy: 0.8932 - val_loss: 0.5577 - val_accuracy: 0.8431
Epoch 109/110
 - 2s - loss: 0.2506 - accuracy: 0.8956 - val_loss: 0.5816 - val_accuracy: 0.8474
Epoch 110/110
 - 2s - loss: 0.2617 - accuracy: 0.8885 - val_loss: 0.5614 - val_accuracy: 0.8431

Fit: epochs= 110 , batch_size= 64 , verbose= 2 , shuffle= False , validation_split= 0.2 

Model: "sequential_91"
_________________________________________________________________
Layer (type)                 Output Shape              Param #   
=================================================================
lstm_49 (LSTM)               (None, 500)               1022000   
_________________________________________________________________
dropout_91 (Dropout)         (None, 500)               0         
_________________________________________________________________
dense_583 (Dense)            (None, 300)               150300    
_________________________________________________________________
dense_584 (Dense)            (None, 200)               60200     
_________________________________________________________________
dense_585 (Dense)            (None, 100)               20100     
_________________________________________________________________
dense_586 (Dense)            (None, 50)                5050      
_________________________________________________________________
dense_587 (Dense)            (None, 20)                1020      
_________________________________________________________________
dense_588 (Dense)            (None, 4)                 84        
=================================================================
Total params: 1,258,754
Trainable params: 1,258,754
Non-trainable params: 0
_________________________________________________________________
None

Accuracy Train: 89.27%
Accuracy Test: 85.69%
Loss Train: 0.29
Loss Test: 0.50
Numero dati esaminati: 1712
True Positive 1467
False Positive 245


------------------------------------------------------------------------
…
