…
 - 6s - loss: 0.3595 - accuracy: 0.8470 - val_loss: 0.4379 - val_accuracy: 0.8343
Epoch 109/110
 - 6s - loss: 0.3645 - accuracy: 0.8468 - val_loss: 0.4390 - val_accuracy: 0.8445
Epoch 110/110
 - 6s - loss: 0.3610 - accuracy: 0.8490 - val_loss: 0.4277 - val_accuracy: 0.8511

Fit: epochs= 110 , batch_size= 64 , verbose= 2 , shuffle= False , validation_split= 0.2 

Model: "sequential_103"
_________________________________________________________________
Layer (type)                 Output Shape              Param #   
=================================================================
lstm_61 (LSTM)               (None, 1, 500)            1022000   
_________________________________________________________________
lstm_62 (LSTM)               (None, 1, 500)            2002000   
_________________________________________________________________
lstm_63 (LSTM)               (None, 500)               2002000   
_________________________________________________________________
dropout_103 (Dropout)        (None, 500)               0         
_________________________________________________________________
dense_655 (Dense)            (None, 300)               150300    
_________________________________________________________________
dense_656 (Dense)            (None, 200)               60200     
_________________________________________________________________
dense_657 (Dense)            (None, 100)               20100     
_________________________________________________________________
dense_658 (Dense)            (None, 50)                5050      
_________________________________________________________________
dense_659 (Dense)            (None, 20)                1020      
_________________________________________________________________
dense_660 (Dense)            (None, 4)                 84        
=================================================================
Total params: 5,262,754
Trainable params: 5,262,754
Non-trainable params: 0
_________________________________________________________________
None

Accuracy Train: 86.16%
Accuracy Test: 84.58%
Loss Train: 0.35
Loss Test: 0.45
Numero dati esaminati: 1712
True Positive 1448
False Positive 264


------------------------------------------------------------------------
…
