…
 - 2s - loss: 0.1901 - accuracy: 0.9162 - val_loss: 0.5758 - val_accuracy: 0.8569
Epoch 109/110
 - 3s - loss: 0.1954 - accuracy: 0.9133 - val_loss: 0.6175 - val_accuracy: 0.8540
Epoch 110/110
 - 3s - loss: 0.2041 - accuracy: 0.9065 - val_loss: 0.5719 - val_accuracy: 0.8628

Fit: epochs= 110 , batch_size= 64 , verbose= 2 , shuffle= False , validation_split= 0.2 

Model: "sequential_7"
_________________________________________________________________
Layer (type)                 Output Shape              Param #   
=================================================================
conv1d_7 (Conv1D)            (None, 10, 500)           1000      
_________________________________________________________________
activation_13 (Activation)   (None, 10, 500)           0         
_________________________________________________________________
flatten_7 (Flatten)          (None, 5000)              0         
_________________________________________________________________
dropout_7 (Dropout)          (None, 5000)              0         
_________________________________________________________________
dense_43 (Dense)             (None, 400)               2000400   
_________________________________________________________________
dense_44 (Dense)             (None, 300)               120300    
_________________________________________________________________
dense_45 (Dense)             (None, 200)               60200     
_________________________________________________________________
dense_46 (Dense)             (None, 100)               20100     
_________________________________________________________________
dense_47 (Dense)             (None, 50)                5050      
_________________________________________________________________
dense_48 (Dense)             (None, 20)                1020      
_________________________________________________________________
dense_49 (Dense)             (None, 4)                 84        
_________________________________________________________________
activation_14 (Activation)   (None, 4)                 0         
=================================================================
Total params: 2,208,154
Trainable params: 2,208,154
Non-trainable params: 0
_________________________________________________________________
None

Accuracy Train: 90.96%
Accuracy Test: 84.93%
Loss Train: 0.26
Loss Test: 0.56
Numero dati esaminati: 1712
True Positive 1454
False Positive 258


------------------------------------------------------------------------
…
