…
 - 15s - loss: 0.1582 - accuracy: 0.9321 - val_loss: 0.5919 - val_accuracy: 0.8650
Epoch 109/110
 - 15s - loss: 0.1564 - accuracy: 0.9350 - val_loss: 0.5605 - val_accuracy: 0.8693
Epoch 110/110
 - 16s - loss: 0.1474 - accuracy: 0.9412 - val_loss: 0.5110 - val_accuracy: 0.8752

Fit: epochs= 110 , batch_size= 64 , verbose= 2 , shuffle= False , validation_split= 0.2 

Model: "sequential_7"
_________________________________________________________________
Layer (type)                 Output Shape              Param #   
=================================================================
conv1d_7 (Conv1D)            (None, 10, 500)           1000      
_________________________________________________________________
activation_7 (Activation)    (None, 10, 500)           0         
_________________________________________________________________
lstm_7 (LSTM)                (None, 500)               2002000   
_________________________________________________________________
dropout_7 (Dropout)          (None, 500)               0         
_________________________________________________________________
dense_43 (Dense)             (None, 400)               200400    
_________________________________________________________________
dense_44 (Dense)             (None, 300)               120300    
_________________________________________________________________
dense_45 (Dense)             (None, 200)               60200     
_________________________________________________________________
dense_46 (Dense)             (None, 100)               20100     
_________________________________________________________________
dense_47 (Dense)             (None, 50)                5050      
_________________________________________________________________
dense_48 (Dense)             (None, 20)                1020      
_________________________________________________________________
dense_49 (Dense)             (None, 4)                 84        
=================================================================
Total params: 2,410,154
Trainable params: 2,410,154
Non-trainable params: 0
_________________________________________________________________
None

Accuracy Train: 92.52%
Accuracy Test: 87.32%
Loss Train: 0.22
Loss Test: 0.49
Numero dati esaminati: 1712
True Positive 1495
False Positive 217


------------------------------------------------------------------------
…
