…
 - 1s - loss: 0.3845 - accuracy: 0.8458 - val_loss: 0.6158 - val_accuracy: 0.8256
Epoch 109/110
 - 1s - loss: 0.3925 - accuracy: 0.8404 - val_loss: 0.5860 - val_accuracy: 0.8206
Epoch 110/110
 - 1s - loss: 0.4037 - accuracy: 0.8367 - val_loss: 0.5915 - val_accuracy: 0.8156

Fit: epochs= 110 , batch_size= 64 , verbose= 2 , shuffle= False , validation_split= 0.2 

Model: "sequential_67"
_________________________________________________________________
Layer (type)                 Output Shape              Param #   
=================================================================
lstm_25 (LSTM)               (None, 500)               1022000   
_________________________________________________________________
dropout_67 (Dropout)         (None, 500)               0         
_________________________________________________________________
dense_439 (Dense)            (None, 300)               150300    
_________________________________________________________________
dense_440 (Dense)            (None, 200)               60200     
_________________________________________________________________
dense_441 (Dense)            (None, 100)               20100     
_________________________________________________________________
dense_442 (Dense)            (None, 50)                5050      
_________________________________________________________________
dense_443 (Dense)            (None, 20)                1020      
_________________________________________________________________
dense_444 (Dense)            (None, 4)                 84        
=================================================================
Total params: 1,258,754
Trainable params: 1,258,754
Non-trainable params: 0
_________________________________________________________________
None

Accuracy Train: 83.38%
Accuracy Test: 78.46%
Loss Train: 0.43
Loss Test: 0.64
Numero dati esaminati: 752
True Positive 590
False Positive 162


------------------------------------------------------------------------
…
