…
 - 1s - loss: 0.3755 - accuracy: 0.8512 - val_loss: 0.5923 - val_accuracy: 0.8189
Epoch 109/110
 - 1s - loss: 0.3747 - accuracy: 0.8458 - val_loss: 0.5822 - val_accuracy: 0.8256
Epoch 110/110
 - 1s - loss: 0.3670 - accuracy: 0.8487 - val_loss: 0.6000 - val_accuracy: 0.8223

Fit: epochs= 110 , batch_size= 64 , verbose= 2 , shuffle= False , validation_split= 0.2 

Model: "sequential_73"
_________________________________________________________________
Layer (type)                 Output Shape              Param #   
=================================================================
bidirectional_13 (Bidirectio (None, 1000)              2044000   
_________________________________________________________________
dropout_73 (Dropout)         (None, 1000)              0         
_________________________________________________________________
dense_475 (Dense)            (None, 300)               300300    
_________________________________________________________________
dense_476 (Dense)            (None, 200)               60200     
_________________________________________________________________
dense_477 (Dense)            (None, 100)               20100     
_________________________________________________________________
dense_478 (Dense)            (None, 50)                5050      
_________________________________________________________________
dense_479 (Dense)            (None, 20)                1020      
_________________________________________________________________
dense_480 (Dense)            (None, 4)                 84        
=================================================================
Total params: 2,430,754
Trainable params: 2,430,754
Non-trainable params: 0
_________________________________________________________________
None

Accuracy Train: 85.24%
Accuracy Test: 79.65%
Loss Train: 0.40
Loss Test: 0.64
Numero dati esaminati: 752
True Positive 599
False Positive 153


------------------------------------------------------------------------
…
