…
 - 2s - loss: 0.3325 - accuracy: 0.8609 - val_loss: 0.4353 - val_accuracy: 0.8467
Epoch 109/110
 - 2s - loss: 0.3286 - accuracy: 0.8611 - val_loss: 0.4437 - val_accuracy: 0.8453
Epoch 110/110
 - 2s - loss: 0.3313 - accuracy: 0.8611 - val_loss: 0.4336 - val_accuracy: 0.8482

Fit: epochs= 110 , batch_size= 64 , verbose= 2 , shuffle= False , validation_split= 0.2 

Model: "sequential_49"
_________________________________________________________________
Layer (type)                 Output Shape              Param #   
=================================================================
lstm_7 (LSTM)                (None, 500)               1024000   
_________________________________________________________________
dropout_49 (Dropout)         (None, 500)               0         
_________________________________________________________________
dense_331 (Dense)            (None, 300)               150300    
_________________________________________________________________
dense_332 (Dense)            (None, 200)               60200     
_________________________________________________________________
dense_333 (Dense)            (None, 100)               20100     
_________________________________________________________________
dense_334 (Dense)            (None, 50)                5050      
_________________________________________________________________
dense_335 (Dense)            (None, 20)                1020      
_________________________________________________________________
dense_336 (Dense)            (None, 4)                 84        
=================================================================
Total params: 1,260,754
Trainable params: 1,260,754
Non-trainable params: 0
_________________________________________________________________
None

Accuracy Train: 86.39%
Accuracy Test: 84.87%
Loss Train: 0.34
Loss Test: 0.41
Numero dati esaminati: 1712
True Positive 1453
False Positive 259


------------------------------------------------------------------------
…
