…
 - 11s - loss: 0.1882 - accuracy: 0.9182 - val_loss: 0.7207 - val_accuracy: 0.8620
Epoch 109/110
 - 12s - loss: 0.1610 - accuracy: 0.9279 - val_loss: 0.7557 - val_accuracy: 0.8606
Epoch 110/110
 - 12s - loss: 0.1712 - accuracy: 0.9221 - val_loss: 0.6964 - val_accuracy: 0.8628

Fit: epochs= 110 , batch_size= 64 , verbose= 2 , shuffle= False , validation_split= 0.2 

Model: "sequential_1"
_________________________________________________________________
Layer (type)                 Output Shape              Param #   
=================================================================
conv1d_1 (Conv1D)            (None, 10, 500)           1000      
_________________________________________________________________
activation_1 (Activation)    (None, 10, 500)           0         
_________________________________________________________________
lstm_1 (LSTM)                (None, 400)               1441600   
_________________________________________________________________
dropout_1 (Dropout)          (None, 400)               0         
_________________________________________________________________
dense_1 (Dense)              (None, 300)               120300    
_________________________________________________________________
dense_2 (Dense)              (None, 200)               60200     
_________________________________________________________________
dense_3 (Dense)              (None, 100)               20100     
_________________________________________________________________
dense_4 (Dense)              (None, 50)                5050      
_________________________________________________________________
dense_5 (Dense)              (None, 20)                1020      
_________________________________________________________________
dense_6 (Dense)              (None, 4)                 84        
=================================================================
Total params: 1,649,354
Trainable params: 1,649,354
Non-trainable params: 0
_________________________________________________________________
None

Accuracy Train: 91.81%
Accuracy Test: 85.57%
Loss Train: 0.26
Loss Test: 0.65
Numero dati esaminati: 1712
True Positive 1465
False Positive 247


------------------------------------------------------------------------
…
