…
 - 1s - loss: 0.3812 - accuracy: 0.8504 - val_loss: 0.5687 - val_accuracy: 0.8439
Epoch 109/110
 - 1s - loss: 0.3760 - accuracy: 0.8512 - val_loss: 0.5855 - val_accuracy: 0.8306
Epoch 110/110
 - 1s - loss: 0.3787 - accuracy: 0.8462 - val_loss: 0.5991 - val_accuracy: 0.8405

Fit: epochs= 110 , batch_size= 64 , verbose= 2 , shuffle= False , validation_split= 0.2 

Model: "sequential_31"
_________________________________________________________________
Layer (type)                 Output Shape              Param #   
=================================================================
conv1d_31 (Conv1D)           (None, 10, 500)           1000      
_________________________________________________________________
activation_61 (Activation)   (None, 10, 500)           0         
_________________________________________________________________
flatten_31 (Flatten)         (None, 5000)              0         
_________________________________________________________________
dropout_31 (Dropout)         (None, 5000)              0         
_________________________________________________________________
dense_211 (Dense)            (None, 400)               2000400   
_________________________________________________________________
dense_212 (Dense)            (None, 300)               120300    
_________________________________________________________________
dense_213 (Dense)            (None, 200)               60200     
_________________________________________________________________
dense_214 (Dense)            (None, 100)               20100     
_________________________________________________________________
dense_215 (Dense)            (None, 50)                5050      
_________________________________________________________________
dense_216 (Dense)            (None, 20)                1020      
_________________________________________________________________
dense_217 (Dense)            (None, 4)                 84        
_________________________________________________________________
activation_62 (Activation)   (None, 4)                 0         
=================================================================
Total params: 2,208,154
Trainable params: 2,208,154
Non-trainable params: 0
_________________________________________________________________
None

Accuracy Train: 85.61%
Accuracy Test: 80.59%
Loss Train: 0.39
Loss Test: 0.62
Numero dati esaminati: 752
True Positive 606
False Positive 146


------------------------------------------------------------------------
…
