…
 - 14s - loss: 0.1670 - accuracy: 0.9310 - val_loss: 0.5892 - val_accuracy: 0.8723
Epoch 109/110
 - 13s - loss: 0.1407 - accuracy: 0.9416 - val_loss: 0.6493 - val_accuracy: 0.8723
Epoch 110/110
 - 14s - loss: 0.1522 - accuracy: 0.9385 - val_loss: 0.6367 - val_accuracy: 0.8606

Fit: epochs= 110 , batch_size= 64 , verbose= 2 , shuffle= False , validation_split= 0.2 

Model: "sequential_13"
_________________________________________________________________
Layer (type)                 Output Shape              Param #   
=================================================================
conv1d_13 (Conv1D)           (None, 10, 500)           1000      
_________________________________________________________________
activation_13 (Activation)   (None, 10, 500)           0         
_________________________________________________________________
lstm_13 (LSTM)               (None, 400)               1441600   
_________________________________________________________________
dropout_13 (Dropout)         (None, 400)               0         
_________________________________________________________________
dense_73 (Dense)             (None, 300)               120300    
_________________________________________________________________
dense_74 (Dense)             (None, 200)               60200     
_________________________________________________________________
dense_75 (Dense)             (None, 100)               20100     
_________________________________________________________________
dense_76 (Dense)             (None, 50)                5050      
_________________________________________________________________
dense_77 (Dense)             (None, 20)                1020      
_________________________________________________________________
dense_78 (Dense)             (None, 4)                 84        
=================================================================
Total params: 1,649,354
Trainable params: 1,649,354
Non-trainable params: 0
_________________________________________________________________
None

Accuracy Train: 92.01%
Accuracy Test: 86.10%
Loss Train: 0.25
Loss Test: 0.57
Numero dati esaminati: 1712
True Positive 1474
False Positive 238


------------------------------------------------------------------------
…
