…
 - 3s - loss: 0.3335 - accuracy: 0.8582 - val_loss: 0.4460 - val_accuracy: 0.8569
Epoch 109/110
 - 3s - loss: 0.3334 - accuracy: 0.8594 - val_loss: 0.4460 - val_accuracy: 0.8599
Epoch 110/110
 - 3s - loss: 0.3412 - accuracy: 0.8596 - val_loss: 0.4540 - val_accuracy: 0.8518

Fit: epochs= 110 , batch_size= 64 , verbose= 2 , shuffle= False , validation_split= 0.2 

Model: "sequential_1"
_________________________________________________________________
Layer (type)                 Output Shape              Param #   
=================================================================
conv1d_1 (Conv1D)            (None, 10, 500)           1000      
_________________________________________________________________
activation_1 (Activation)    (None, 10, 500)           0         
_________________________________________________________________
flatten_1 (Flatten)          (None, 5000)              0         
_________________________________________________________________
dropout_1 (Dropout)          (None, 5000)              0         
_________________________________________________________________
dense_1 (Dense)              (None, 400)               2000400   
_________________________________________________________________
dense_2 (Dense)              (None, 300)               120300    
_________________________________________________________________
dense_3 (Dense)              (None, 200)               60200     
_________________________________________________________________
dense_4 (Dense)              (None, 100)               20100     
_________________________________________________________________
dense_5 (Dense)              (None, 50)                5050      
_________________________________________________________________
dense_6 (Dense)              (None, 20)                1020      
_________________________________________________________________
dense_7 (Dense)              (None, 4)                 84        
_________________________________________________________________
activation_2 (Activation)    (None, 4)                 0         
=================================================================
Total params: 2,208,154
Trainable params: 2,208,154
Non-trainable params: 0
_________________________________________________________________
None

Accuracy Train: 86.36%
Accuracy Test: 84.64%
Loss Train: 0.33
Loss Test: 0.42
Numero dati esaminati: 1712
True Positive 1449
False Positive 263


------------------------------------------------------------------------
…
