…
 - 3s - loss: 0.3500 - accuracy: 0.9370 - val_loss: 1.5704 - val_accuracy: 0.6781

Number of filters: 16 , Kernel Size: 3 , Strides: 1 Batch Normalization: True , Conv_First: True , Depth Value: 20

Fit: epochs= 110 , batch_size= 64 , verbose= 2 , shuffle= False , validation_split= 0.2 

Model: "model_25"
__________________________________________________________________________________________________
Layer (type)                    Output Shape         Param #     Connected to                     
==================================================================================================
input_25 (InputLayer)           (None, 10, 1)        0                                            
__________________________________________________________________________________________________
conv1d_505 (Conv1D)             (None, 10, 16)       64          input_25[0][0]                   
__________________________________________________________________________________________________
batch_normalization_457 (BatchN (None, 10, 16)       64          conv1d_505[0][0]                 
__________________________________________________________________________________________________
activation_457 (Activation)     (None, 10, 16)       0           batch_normalization_457[0][0]    
__________________________________________________________________________________________________
conv1d_506 (Conv1D)             (None, 10, 16)       784         activation_457[0][0]             
__________________________________________________________________________________________________
batch_normalization_458 (BatchN (None, 10, 16)       64          conv1d_506[0][0]                 
__________________________________________________________________________________________________
activation_458 (Activation)     (None, 10, 16)       0           batch_normalization_458[0][0]    
__________________________________________________________________________________________________
conv1d_507 (Conv1D)             (None, 10, 16)       784         activation_458[0][0]             
__________________________________________________________________________________________________
batch_normalization_459 (BatchN (None, 10, 16)       64          conv1d_507[0][0]                 
__________________________________________________________________________________________________
add_217 (Add)                   (None, 10, 16)       0           activation_457[0][0]             
                                                                 batch_normalization_459[0][0]    
__________________________________________________________________________________________________
activation_459 (Activation)     (None, 10, 16)       0           add_217[0][0]                    
__________________________________________________________________________________________________
conv1d_508 (Conv1D)             (None, 10, 16)       784         activation_459[0][0]             
__________________________________________________________________________________________________
batch_normalization_460 (BatchN (None, 10, 16)       64          conv1d_508[0][0]                 
__________________________________________________________________________________________________
activation_460 (Activation)     (None, 10, 16)       0           batch_normalization_460[0][0]    
__________________________________________________________________________________________________
conv1d_509 (Conv1D)             (None, 10, 16)       784         activation_460[0][0]             
__________________________________________________________________________________________________
batch_normalization_461 (BatchN (None, 10, 16)       64          conv1d_509[0][0]                 
__________________________________________________________________________________________________
add_218 (Add)                   (None, 10, 16)       0           activation_459[0][0]             
                                                                 batch_normalization_461[0][0]    
__________________________________________________________________________________________________
activation_461 (Activation)     (None, 10, 16)       0           add_218[0][0]                    
__________________________________________________________________________________________________
conv1d_510 (Conv1D)             (None, 10, 16)       784         activation_461[0][0]             
__________________________________________________________________________________________________
batch_normalization_462 (BatchN (None, 10, 16)       64          conv1d_510[0][0]                 
__________________________________________________________________________________________________
activation_462 (Activation)     (None, 10, 16)       0           batch_normalization_462[0][0]    
__________________________________________________________________________________________________
conv1d_511 (Conv1D)             (None, 10, 16)       784         activation_462[0][0]             
__________________________________________________________________________________________________
batch_normalization_463 (BatchN (None, 10, 16)       64          conv1d_511[0][0]                 
__________________________________________________________________________________________________
add_219 (Add)                   (None, 10, 16)       0           activation_461[0][0]             
                                                                 batch_normalization_463[0][0]    
__________________________________________________________________________________________________
activation_463 (Activation)     (None, 10, 16)       0           add_219[0][0]                    
__________________________________________________________________________________________________
conv1d_512 (Conv1D)             (None, 5, 32)        1568        activation_463[0][0]             
__________________________________________________________________________________________________
batch_normalization_464 (BatchN (None, 5, 32)        128         conv1d_512[0][0]                 
__________________________________________________________________________________________________
activation_464 (Activation)     (None, 5, 32)        0           batch_normalization_464[0][0]    
__________________________________________________________________________________________________
conv1d_513 (Conv1D)             (None, 5, 32)        3104        activation_464[0][0]             
__________________________________________________________________________________________________
conv1d_514 (Conv1D)             (None, 5, 32)        544         activation_463[0][0]             
__________________________________________________________________________________________________
batch_normalization_465 (BatchN (None, 5, 32)        128         conv1d_513[0][0]                 
__________________________________________________________________________________________________
add_220 (Add)                   (None, 5, 32)        0           conv1d_514[0][0]                 
                                                                 batch_normalization_465[0][0]    
__________________________________________________________________________________________________
activation_465 (Activation)     (None, 5, 32)        0           add_220[0][0]                    
__________________________________________________________________________________________________
conv1d_515 (Conv1D)             (None, 5, 32)        3104        activation_465[0][0]             
__________________________________________________________________________________________________
batch_normalization_466 (BatchN (None, 5, 32)        128         conv1d_515[0][0]                 
__________________________________________________________________________________________________
activation_466 (Activation)     (None, 5, 32)        0           batch_normalization_466[0][0]    
__________________________________________________________________________________________________
conv1d_516 (Conv1D)             (None, 5, 32)        3104        activation_466[0][0]             
__________________________________________________________________________________________________
batch_normalization_467 (BatchN (None, 5, 32)        128         conv1d_516[0][0]                 
__________________________________________________________________________________________________
add_221 (Add)                   (None, 5, 32)        0           activation_465[0][0]             
                                                                 batch_normalization_467[0][0]    
__________________________________________________________________________________________________
activation_467 (Activation)     (None, 5, 32)        0           add_221[0][0]                    
__________________________________________________________________________________________________
conv1d_517 (Conv1D)             (None, 5, 32)        3104        activation_467[0][0]             
__________________________________________________________________________________________________
batch_normalization_468 (BatchN (None, 5, 32)        128         conv1d_517[0][0]                 
__________________________________________________________________________________________________
activation_468 (Activation)     (None, 5, 32)        0           batch_normalization_468[0][0]    
__________________________________________________________________________________________________
conv1d_518 (Conv1D)             (None, 5, 32)        3104        activation_468[0][0]             
__________________________________________________________________________________________________
batch_normalization_469 (BatchN (None, 5, 32)        128         conv1d_518[0][0]                 
__________________________________________________________________________________________________
add_222 (Add)                   (None, 5, 32)        0           activation_467[0][0]             
                                                                 batch_normalization_469[0][0]    
__________________________________________________________________________________________________
activation_469 (Activation)     (None, 5, 32)        0           add_222[0][0]                    
__________________________________________________________________________________________________
conv1d_519 (Conv1D)             (None, 3, 64)        6208        activation_469[0][0]             
__________________________________________________________________________________________________
batch_normalization_470 (BatchN (None, 3, 64)        256         conv1d_519[0][0]                 
__________________________________________________________________________________________________
activation_470 (Activation)     (None, 3, 64)        0           batch_normalization_470[0][0]    
__________________________________________________________________________________________________
conv1d_520 (Conv1D)             (None, 3, 64)        12352       activation_470[0][0]             
__________________________________________________________________________________________________
conv1d_521 (Conv1D)             (None, 3, 64)        2112        activation_469[0][0]             
__________________________________________________________________________________________________
batch_normalization_471 (BatchN (None, 3, 64)        256         conv1d_520[0][0]                 
__________________________________________________________________________________________________
add_223 (Add)                   (None, 3, 64)        0           conv1d_521[0][0]                 
                                                                 batch_normalization_471[0][0]    
__________________________________________________________________________________________________
activation_471 (Activation)     (None, 3, 64)        0           add_223[0][0]                    
__________________________________________________________________________________________________
conv1d_522 (Conv1D)             (None, 3, 64)        12352       activation_471[0][0]             
__________________________________________________________________________________________________
batch_normalization_472 (BatchN (None, 3, 64)        256         conv1d_522[0][0]                 
__________________________________________________________________________________________________
activation_472 (Activation)     (None, 3, 64)        0           batch_normalization_472[0][0]    
__________________________________________________________________________________________________
conv1d_523 (Conv1D)             (None, 3, 64)        12352       activation_472[0][0]             
__________________________________________________________________________________________________
batch_normalization_473 (BatchN (None, 3, 64)        256         conv1d_523[0][0]                 
__________________________________________________________________________________________________
add_224 (Add)                   (None, 3, 64)        0           activation_471[0][0]             
                                                                 batch_normalization_473[0][0]    
__________________________________________________________________________________________________
activation_473 (Activation)     (None, 3, 64)        0           add_224[0][0]                    
__________________________________________________________________________________________________
conv1d_524 (Conv1D)             (None, 3, 64)        12352       activation_473[0][0]             
__________________________________________________________________________________________________
batch_normalization_474 (BatchN (None, 3, 64)        256         conv1d_524[0][0]                 
__________________________________________________________________________________________________
activation_474 (Activation)     (None, 3, 64)        0           batch_normalization_474[0][0]    
__________________________________________________________________________________________________
conv1d_525 (Conv1D)             (None, 3, 64)        12352       activation_474[0][0]             
__________________________________________________________________________________________________
batch_normalization_475 (BatchN (None, 3, 64)        256         conv1d_525[0][0]                 
__________________________________________________________________________________________________
add_225 (Add)                   (None, 3, 64)        0           activation_473[0][0]             
                                                                 batch_normalization_475[0][0]    
__________________________________________________________________________________________________
activation_475 (Activation)     (None, 3, 64)        0           add_225[0][0]                    
__________________________________________________________________________________________________
average_pooling1d_25 (AveragePo (None, 3, 64)        0           activation_475[0][0]             
__________________________________________________________________________________________________
flatten_25 (Flatten)            (None, 192)          0           average_pooling1d_25[0][0]       
__________________________________________________________________________________________________
dense_25 (Dense)                (None, 4)            772         flatten_25[0][0]                 
==================================================================================================
Total params: 96,004
Trainable params: 94,628
Non-trainable params: 1,376
__________________________________________________________________________________________________
None

Accuracy Train: 76.72%
Accuracy Test: 67.52%
Loss Train: 1.01
Loss Test: 1.63
Numero dati esaminati: 1712
…
