…
 - 3s - loss: 0.2015 - accuracy: 0.9087 - val_loss: 0.5150 - val_accuracy: 0.8657
Epoch 109/110
 - 3s - loss: 0.2070 - accuracy: 0.9065 - val_loss: 0.5081 - val_accuracy: 0.8737
Epoch 110/110
 - 3s - loss: 0.1898 - accuracy: 0.9135 - val_loss: 0.5464 - val_accuracy: 0.8730

Fit: epochs= 110 , batch_size= 64 , verbose= 2 , shuffle= False , validation_split= 0.2 

Model: "sequential_13"
_________________________________________________________________
Layer (type)                 Output Shape              Param #   
=================================================================
conv1d_13 (Conv1D)           (None, 10, 500)           1000      
_________________________________________________________________
activation_25 (Activation)   (None, 10, 500)           0         
_________________________________________________________________
flatten_13 (Flatten)         (None, 5000)              0         
_________________________________________________________________
dropout_13 (Dropout)         (None, 5000)              0         
_________________________________________________________________
dense_85 (Dense)             (None, 400)               2000400   
_________________________________________________________________
dense_86 (Dense)             (None, 300)               120300    
_________________________________________________________________
dense_87 (Dense)             (None, 200)               60200     
_________________________________________________________________
dense_88 (Dense)             (None, 100)               20100     
_________________________________________________________________
dense_89 (Dense)             (None, 50)                5050      
_________________________________________________________________
dense_90 (Dense)             (None, 20)                1020      
_________________________________________________________________
dense_91 (Dense)             (None, 4)                 84        
_________________________________________________________________
activation_26 (Activation)   (None, 4)                 0         
=================================================================
Total params: 2,208,154
Trainable params: 2,208,154
Non-trainable params: 0
_________________________________________________________________
None

Accuracy Train: 91.34%
Accuracy Test: 85.69%
Loss Train: 0.24
Loss Test: 0.60
Numero dati esaminati: 1712
True Positive 1467
False Positive 245


------------------------------------------------------------------------
…
