…
 - 2s - loss: 0.2553 - accuracy: 0.9566 - val_loss: 0.7474 - val_accuracy: 0.8460

Number of filters: 16 , Kernel Size: 3 , Strides: 1 Batch Normalization: True , Conv_First: True , Depth Value: 20

Fit: epochs= 110 , batch_size= 64 , verbose= 2 , shuffle= False , validation_split= 0.2 

Model: "model_7"
__________________________________________________________________________________________________
Layer (type)                    Output Shape         Param #     Connected to                     
==================================================================================================
input_7 (InputLayer)            (None, 10, 1)        0                                            
__________________________________________________________________________________________________
conv1d_169 (Conv1D)             (None, 10, 16)       64          input_7[0][0]                    
__________________________________________________________________________________________________
batch_normalization_115 (BatchN (None, 10, 16)       64          conv1d_169[0][0]                 
__________________________________________________________________________________________________
activation_199 (Activation)     (None, 10, 16)       0           batch_normalization_115[0][0]    
__________________________________________________________________________________________________
conv1d_170 (Conv1D)             (None, 10, 16)       784         activation_199[0][0]             
__________________________________________________________________________________________________
batch_normalization_116 (BatchN (None, 10, 16)       64          conv1d_170[0][0]                 
__________________________________________________________________________________________________
activation_200 (Activation)     (None, 10, 16)       0           batch_normalization_116[0][0]    
__________________________________________________________________________________________________
conv1d_171 (Conv1D)             (None, 10, 16)       784         activation_200[0][0]             
__________________________________________________________________________________________________
batch_normalization_117 (BatchN (None, 10, 16)       64          conv1d_171[0][0]                 
__________________________________________________________________________________________________
add_55 (Add)                    (None, 10, 16)       0           activation_199[0][0]             
                                                                 batch_normalization_117[0][0]    
__________________________________________________________________________________________________
activation_201 (Activation)     (None, 10, 16)       0           add_55[0][0]                     
__________________________________________________________________________________________________
conv1d_172 (Conv1D)             (None, 10, 16)       784         activation_201[0][0]             
__________________________________________________________________________________________________
batch_normalization_118 (BatchN (None, 10, 16)       64          conv1d_172[0][0]                 
__________________________________________________________________________________________________
activation_202 (Activation)     (None, 10, 16)       0           batch_normalization_118[0][0]    
__________________________________________________________________________________________________
conv1d_173 (Conv1D)             (None, 10, 16)       784         activation_202[0][0]             
__________________________________________________________________________________________________
batch_normalization_119 (BatchN (None, 10, 16)       64          conv1d_173[0][0]                 
__________________________________________________________________________________________________
add_56 (Add)                    (None, 10, 16)       0           activation_201[0][0]             
                                                                 batch_normalization_119[0][0]    
__________________________________________________________________________________________________
activation_203 (Activation)     (None, 10, 16)       0           add_56[0][0]                     
__________________________________________________________________________________________________
conv1d_174 (Conv1D)             (None, 10, 16)       784         activation_203[0][0]             
__________________________________________________________________________________________________
batch_normalization_120 (BatchN (None, 10, 16)       64          conv1d_174[0][0]                 
__________________________________________________________________________________________________
activation_204 (Activation)     (None, 10, 16)       0           batch_normalization_120[0][0]    
__________________________________________________________________________________________________
conv1d_175 (Conv1D)             (None, 10, 16)       784         activation_204[0][0]             
__________________________________________________________________________________________________
batch_normalization_121 (BatchN (None, 10, 16)       64          conv1d_175[0][0]                 
__________________________________________________________________________________________________
add_57 (Add)                    (None, 10, 16)       0           activation_203[0][0]             
                                                                 batch_normalization_121[0][0]    
__________________________________________________________________________________________________
activation_205 (Activation)     (None, 10, 16)       0           add_57[0][0]                     
__________________________________________________________________________________________________
conv1d_176 (Conv1D)             (None, 5, 32)        1568        activation_205[0][0]             
__________________________________________________________________________________________________
batch_normalization_122 (BatchN (None, 5, 32)        128         conv1d_176[0][0]                 
__________________________________________________________________________________________________
activation_206 (Activation)     (None, 5, 32)        0           batch_normalization_122[0][0]    
__________________________________________________________________________________________________
conv1d_177 (Conv1D)             (None, 5, 32)        3104        activation_206[0][0]             
__________________________________________________________________________________________________
conv1d_178 (Conv1D)             (None, 5, 32)        544         activation_205[0][0]             
__________________________________________________________________________________________________
batch_normalization_123 (BatchN (None, 5, 32)        128         conv1d_177[0][0]                 
__________________________________________________________________________________________________
add_58 (Add)                    (None, 5, 32)        0           conv1d_178[0][0]                 
                                                                 batch_normalization_123[0][0]    
__________________________________________________________________________________________________
activation_207 (Activation)     (None, 5, 32)        0           add_58[0][0]                     
__________________________________________________________________________________________________
conv1d_179 (Conv1D)             (None, 5, 32)        3104        activation_207[0][0]             
__________________________________________________________________________________________________
batch_normalization_124 (BatchN (None, 5, 32)        128         conv1d_179[0][0]                 
__________________________________________________________________________________________________
activation_208 (Activation)     (None, 5, 32)        0           batch_normalization_124[0][0]    
__________________________________________________________________________________________________
conv1d_180 (Conv1D)             (None, 5, 32)        3104        activation_208[0][0]             
__________________________________________________________________________________________________
batch_normalization_125 (BatchN (None, 5, 32)        128         conv1d_180[0][0]                 
__________________________________________________________________________________________________
add_59 (Add)                    (None, 5, 32)        0           activation_207[0][0]             
                                                                 batch_normalization_125[0][0]    
__________________________________________________________________________________________________
activation_209 (Activation)     (None, 5, 32)        0           add_59[0][0]                     
__________________________________________________________________________________________________
conv1d_181 (Conv1D)             (None, 5, 32)        3104        activation_209[0][0]             
__________________________________________________________________________________________________
batch_normalization_126 (BatchN (None, 5, 32)        128         conv1d_181[0][0]                 
__________________________________________________________________________________________________
activation_210 (Activation)     (None, 5, 32)        0           batch_normalization_126[0][0]    
__________________________________________________________________________________________________
conv1d_182 (Conv1D)             (None, 5, 32)        3104        activation_210[0][0]             
__________________________________________________________________________________________________
batch_normalization_127 (BatchN (None, 5, 32)        128         conv1d_182[0][0]                 
__________________________________________________________________________________________________
add_60 (Add)                    (None, 5, 32)        0           activation_209[0][0]             
                                                                 batch_normalization_127[0][0]    
__________________________________________________________________________________________________
activation_211 (Activation)     (None, 5, 32)        0           add_60[0][0]                     
__________________________________________________________________________________________________
conv1d_183 (Conv1D)             (None, 3, 64)        6208        activation_211[0][0]             
__________________________________________________________________________________________________
batch_normalization_128 (BatchN (None, 3, 64)        256         conv1d_183[0][0]                 
__________________________________________________________________________________________________
activation_212 (Activation)     (None, 3, 64)        0           batch_normalization_128[0][0]    
__________________________________________________________________________________________________
conv1d_184 (Conv1D)             (None, 3, 64)        12352       activation_212[0][0]             
__________________________________________________________________________________________________
conv1d_185 (Conv1D)             (None, 3, 64)        2112        activation_211[0][0]             
__________________________________________________________________________________________________
batch_normalization_129 (BatchN (None, 3, 64)        256         conv1d_184[0][0]                 
__________________________________________________________________________________________________
add_61 (Add)                    (None, 3, 64)        0           conv1d_185[0][0]                 
                                                                 batch_normalization_129[0][0]    
__________________________________________________________________________________________________
activation_213 (Activation)     (None, 3, 64)        0           add_61[0][0]                     
__________________________________________________________________________________________________
conv1d_186 (Conv1D)             (None, 3, 64)        12352       activation_213[0][0]             
__________________________________________________________________________________________________
batch_normalization_130 (BatchN (None, 3, 64)        256         conv1d_186[0][0]                 
__________________________________________________________________________________________________
activation_214 (Activation)     (None, 3, 64)        0           batch_normalization_130[0][0]    
__________________________________________________________________________________________________
conv1d_187 (Conv1D)             (None, 3, 64)        12352       activation_214[0][0]             
__________________________________________________________________________________________________
batch_normalization_131 (BatchN (None, 3, 64)        256         conv1d_187[0][0]                 
__________________________________________________________________________________________________
add_62 (Add)                    (None, 3, 64)        0           activation_213[0][0]             
                                                                 batch_normalization_131[0][0]    
__________________________________________________________________________________________________
activation_215 (Activation)     (None, 3, 64)        0           add_62[0][0]                     
__________________________________________________________________________________________________
conv1d_188 (Conv1D)             (None, 3, 64)        12352       activation_215[0][0]             
__________________________________________________________________________________________________
batch_normalization_132 (BatchN (None, 3, 64)        256         conv1d_188[0][0]                 
__________________________________________________________________________________________________
activation_216 (Activation)     (None, 3, 64)        0           batch_normalization_132[0][0]    
__________________________________________________________________________________________________
conv1d_189 (Conv1D)             (None, 3, 64)        12352       activation_216[0][0]             
__________________________________________________________________________________________________
batch_normalization_133 (BatchN (None, 3, 64)        256         conv1d_189[0][0]                 
__________________________________________________________________________________________________
add_63 (Add)                    (None, 3, 64)        0           activation_215[0][0]             
                                                                 batch_normalization_133[0][0]    
__________________________________________________________________________________________________
activation_217 (Activation)     (None, 3, 64)        0           add_63[0][0]                     
__________________________________________________________________________________________________
average_pooling1d_7 (AveragePoo (None, 3, 64)        0           activation_217[0][0]             
__________________________________________________________________________________________________
flatten_49 (Flatten)            (None, 192)          0           average_pooling1d_7[0][0]        
__________________________________________________________________________________________________
dense_1177 (Dense)              (None, 4)            772         flatten_49[0][0]                 
==================================================================================================
Total params: 96,004
Trainable params: 94,628
Non-trainable params: 1,376
__________________________________________________________________________________________________
None

Accuracy Train: 85.88%
Accuracy Test: 83.70%
Loss Train: 0.62
Loss Test: 0.75
Numero dati esaminati: 1712
…
