…
 - 0s - loss: 0.0508 - accuracy: 0.8627 - val_loss: 0.0597 - val_accuracy: 0.8453
Epoch 109/110
 - 0s - loss: 0.0500 - accuracy: 0.8629 - val_loss: 0.0587 - val_accuracy: 0.8460
Epoch 110/110
 - 0s - loss: 0.0498 - accuracy: 0.8625 - val_loss: 0.0591 - val_accuracy: 0.8482

Fit: epochs= 110 , batch_size= 64 , verbose= 2 , shuffle= False , validation_split= 0.2 

Model: "sequential_151"
_________________________________________________________________
Layer (type)                 Output Shape              Param #   
=================================================================
dense_1027 (Dense)           (None, 10)                110       
_________________________________________________________________
dense_1028 (Dense)           (None, 500)               5500      
_________________________________________________________________
dense_1029 (Dense)           (None, 300)               150300    
_________________________________________________________________
dense_1030 (Dense)           (None, 200)               60200     
_________________________________________________________________
dense_1031 (Dense)           (None, 100)               20100     
_________________________________________________________________
dense_1032 (Dense)           (None, 50)                5050      
_________________________________________________________________
dense_1033 (Dense)           (None, 20)                1020      
_________________________________________________________________
dense_1034 (Dense)           (None, 4)                 84        
=================================================================
Total params: 242,364
Trainable params: 242,364
Non-trainable params: 0
_________________________________________________________________
None

Accuracy Train: 86.21%
Accuracy Test: 83.18%
Loss Train: 0.05
Loss Test: 0.06
Numero dati esaminati: 1712
True Positive 1424
False Positive 288


------------------------------------------------------------------------
…
