…
 - 0s - loss: 0.2207 - accuracy: 0.8992 - val_loss: 0.4748 - val_accuracy: 0.8591
Epoch 109/110
 - 0s - loss: 0.2151 - accuracy: 0.9040 - val_loss: 0.5429 - val_accuracy: 0.8518
Epoch 110/110
 - 0s - loss: 0.2177 - accuracy: 0.9025 - val_loss: 0.4878 - val_accuracy: 0.8628

Fit: epochs= 110 , batch_size= 64 , verbose= 2 , shuffle= False , validation_split= 0.2 

Model: "sequential_133"
_________________________________________________________________
Layer (type)                 Output Shape              Param #   
=================================================================
dense_883 (Dense)            (None, 10)                110       
_________________________________________________________________
dense_884 (Dense)            (None, 500)               5500      
_________________________________________________________________
dense_885 (Dense)            (None, 300)               150300    
_________________________________________________________________
dense_886 (Dense)            (None, 200)               60200     
_________________________________________________________________
dense_887 (Dense)            (None, 100)               20100     
_________________________________________________________________
dense_888 (Dense)            (None, 50)                5050      
_________________________________________________________________
dense_889 (Dense)            (None, 20)                1020      
_________________________________________________________________
dense_890 (Dense)            (None, 4)                 84        
=================================================================
Total params: 242,364
Trainable params: 242,364
Non-trainable params: 0
_________________________________________________________________
None

Accuracy Train: 89.81%
Accuracy Test: 84.40%
Loss Train: 0.27
Loss Test: 0.59
Numero dati esaminati: 1712
True Positive 1445
False Positive 267


------------------------------------------------------------------------
…
