…
 - 15s - loss: 0.1815 - accuracy: 0.9210 - val_loss: 0.5607 - val_accuracy: 0.8730
Epoch 109/110
 - 15s - loss: 0.1755 - accuracy: 0.9204 - val_loss: 0.5973 - val_accuracy: 0.8642
Epoch 110/110
 - 13s - loss: 0.1841 - accuracy: 0.9179 - val_loss: 0.6507 - val_accuracy: 0.8672

Fit: epochs= 110 , batch_size= 64 , verbose= 2 , shuffle= False , validation_split= 0.2 

Model: "sequential_1"
_________________________________________________________________
Layer (type)                 Output Shape              Param #   
=================================================================
conv1d_1 (Conv1D)            (None, 10, 500)           1000      
_________________________________________________________________
activation_1 (Activation)    (None, 10, 500)           0         
_________________________________________________________________
lstm_1 (LSTM)                (None, 500)               2002000   
_________________________________________________________________
dropout_1 (Dropout)          (None, 500)               0         
_________________________________________________________________
dense_1 (Dense)              (None, 400)               200400    
_________________________________________________________________
dense_2 (Dense)              (None, 300)               120300    
_________________________________________________________________
dense_3 (Dense)              (None, 200)               60200     
_________________________________________________________________
dense_4 (Dense)              (None, 100)               20100     
_________________________________________________________________
dense_5 (Dense)              (None, 50)                5050      
_________________________________________________________________
dense_6 (Dense)              (None, 20)                1020      
_________________________________________________________________
dense_7 (Dense)              (None, 4)                 84        
=================================================================
Total params: 2,410,154
Trainable params: 2,410,154
Non-trainable params: 0
_________________________________________________________________
None

Accuracy Train: 91.49%
Accuracy Test: 84.75%
Loss Train: 0.26
Loss Test: 0.59
Numero dati esaminati: 1712
True Positive 1451
False Positive 261


------------------------------------------------------------------------
…
