…
 - 0s - loss: 0.5281 - accuracy: 0.7691 - val_loss: 0.9775 - val_accuracy: 0.6562
Epoch 109/110
 - 0s - loss: 0.5395 - accuracy: 0.7627 - val_loss: 0.9956 - val_accuracy: 0.6679
Epoch 110/110
 - 0s - loss: 0.5462 - accuracy: 0.7643 - val_loss: 1.0325 - val_accuracy: 0.6533

Fit: epochs= 110 , batch_size= 64 , verbose= 2 , shuffle= False , validation_split= 0.2 

Model: "sequential_127"
_________________________________________________________________
Layer (type)                 Output Shape              Param #   
=================================================================
dense_835 (Dense)            (None, 10)                110       
_________________________________________________________________
dense_836 (Dense)            (None, 500)               5500      
_________________________________________________________________
dense_837 (Dense)            (None, 300)               150300    
_________________________________________________________________
dense_838 (Dense)            (None, 200)               60200     
_________________________________________________________________
dense_839 (Dense)            (None, 100)               20100     
_________________________________________________________________
dense_840 (Dense)            (None, 50)                5050      
_________________________________________________________________
dense_841 (Dense)            (None, 20)                1020      
_________________________________________________________________
dense_842 (Dense)            (None, 4)                 84        
=================================================================
Total params: 242,364
Trainable params: 242,364
Non-trainable params: 0
_________________________________________________________________
None

Accuracy Train: 74.17%
Accuracy Test: 67.23%
Loss Train: 0.65
Loss Test: 1.02
Numero dati esaminati: 1712
True Positive 1151
False Positive 561


------------------------------------------------------------------------
…
