…
 - 15s - loss: 0.2978 - accuracy: 0.8724 - val_loss: 1.2165 - val_accuracy: 0.7401
Epoch 109/110
 - 15s - loss: 0.3199 - accuracy: 0.8602 - val_loss: 1.1158 - val_accuracy: 0.7314
Epoch 110/110
 - 16s - loss: 0.3065 - accuracy: 0.8680 - val_loss: 1.1973 - val_accuracy: 0.7285

Fit: epochs= 110 , batch_size= 64 , verbose= 2 , shuffle= False , validation_split= 0.2 

Model: "sequential_13"
_________________________________________________________________
Layer (type)                 Output Shape              Param #   
=================================================================
conv1d_13 (Conv1D)           (None, 10, 500)           1000      
_________________________________________________________________
activation_13 (Activation)   (None, 10, 500)           0         
_________________________________________________________________
lstm_13 (LSTM)               (None, 500)               2002000   
_________________________________________________________________
dropout_13 (Dropout)         (None, 500)               0         
_________________________________________________________________
dense_85 (Dense)             (None, 400)               200400    
_________________________________________________________________
dense_86 (Dense)             (None, 300)               120300    
_________________________________________________________________
dense_87 (Dense)             (None, 200)               60200     
_________________________________________________________________
dense_88 (Dense)             (None, 100)               20100     
_________________________________________________________________
dense_89 (Dense)             (None, 50)                5050      
_________________________________________________________________
dense_90 (Dense)             (None, 20)                1020      
_________________________________________________________________
dense_91 (Dense)             (None, 4)                 84        
=================================================================
Total params: 2,410,154
Trainable params: 2,410,154
Non-trainable params: 0
_________________________________________________________________
None

Accuracy Train: 84.87%
Accuracy Test: 74.30%
Loss Train: 0.46
Loss Test: 1.15
Numero dati esaminati: 1712
True Positive 1272
False Positive 440


------------------------------------------------------------------------
…
