…
 - 2s - loss: 0.2515 - accuracy: 0.8885 - val_loss: 0.5241 - val_accuracy: 0.8496
Epoch 109/110
 - 2s - loss: 0.2475 - accuracy: 0.8894 - val_loss: 0.4788 - val_accuracy: 0.8496
Epoch 110/110
 - 2s - loss: 0.2523 - accuracy: 0.8896 - val_loss: 0.4935 - val_accuracy: 0.8445

Fit: epochs= 110 , batch_size= 64 , verbose= 2 , shuffle= False , validation_split= 0.2 

Model: "sequential_79"
_________________________________________________________________
Layer (type)                 Output Shape              Param #   
=================================================================
lstm_37 (LSTM)               (None, 500)               1022000   
_________________________________________________________________
dropout_79 (Dropout)         (None, 500)               0         
_________________________________________________________________
dense_511 (Dense)            (None, 300)               150300    
_________________________________________________________________
dense_512 (Dense)            (None, 200)               60200     
_________________________________________________________________
dense_513 (Dense)            (None, 100)               20100     
_________________________________________________________________
dense_514 (Dense)            (None, 50)                5050      
_________________________________________________________________
dense_515 (Dense)            (None, 20)                1020      
_________________________________________________________________
dense_516 (Dense)            (None, 4)                 84        
=================================================================
Total params: 1,258,754
Trainable params: 1,258,754
Non-trainable params: 0
_________________________________________________________________
None

Accuracy Train: 88.61%
Accuracy Test: 84.93%
Loss Train: 0.29
Loss Test: 0.52
Numero dati esaminati: 1712
True Positive 1454
False Positive 258


------------------------------------------------------------------------
…
