…
 - 16s - loss: 0.1829 - accuracy: 0.9158 - val_loss: 0.5963 - val_accuracy: 0.8672
Epoch 109/110
 - 17s - loss: 0.1754 - accuracy: 0.9202 - val_loss: 0.6383 - val_accuracy: 0.8642
Epoch 110/110
 - 17s - loss: 0.1721 - accuracy: 0.9235 - val_loss: 0.6396 - val_accuracy: 0.8635

Fit: epochs= 110 , batch_size= 64 , verbose= 2 , shuffle= False , validation_split= 0.2 

Model: "sequential_7"
_________________________________________________________________
Layer (type)                 Output Shape              Param #   
=================================================================
conv1d_7 (Conv1D)            (None, 10, 500)           1000      
_________________________________________________________________
activation_7 (Activation)    (None, 10, 500)           0         
_________________________________________________________________
lstm_7 (LSTM)                (None, 500)               2002000   
_________________________________________________________________
dropout_7 (Dropout)          (None, 500)               0         
_________________________________________________________________
dense_43 (Dense)             (None, 400)               200400    
_________________________________________________________________
dense_44 (Dense)             (None, 300)               120300    
_________________________________________________________________
dense_45 (Dense)             (None, 200)               60200     
_________________________________________________________________
dense_46 (Dense)             (None, 100)               20100     
_________________________________________________________________
dense_47 (Dense)             (None, 50)                5050      
_________________________________________________________________
dense_48 (Dense)             (None, 20)                1020      
_________________________________________________________________
dense_49 (Dense)             (None, 4)                 84        
=================================================================
Total params: 2,410,154
Trainable params: 2,410,154
Non-trainable params: 0
_________________________________________________________________
None

Accuracy Train: 91.22%
Accuracy Test: 84.81%
Loss Train: 0.26
Loss Test: 0.66
Numero dati esaminati: 1712
True Positive 1452
False Positive 260


------------------------------------------------------------------------
…
