…
 - 2s - loss: 0.5701 - accuracy: 0.7521 - val_loss: 0.8944 - val_accuracy: 0.6737
Epoch 109/110
 - 2s - loss: 0.5671 - accuracy: 0.7561 - val_loss: 0.8955 - val_accuracy: 0.6847
Epoch 110/110
 - 2s - loss: 0.5667 - accuracy: 0.7561 - val_loss: 0.9234 - val_accuracy: 0.6788

Fit: epochs= 110 , batch_size= 64 , verbose= 2 , shuffle= False , validation_split= 0.2 

Model: "sequential_97"
_________________________________________________________________
Layer (type)                 Output Shape              Param #   
=================================================================
lstm_55 (LSTM)               (None, 500)               1022000   
_________________________________________________________________
dropout_97 (Dropout)         (None, 500)               0         
_________________________________________________________________
dense_619 (Dense)            (None, 300)               150300    
_________________________________________________________________
dense_620 (Dense)            (None, 200)               60200     
_________________________________________________________________
dense_621 (Dense)            (None, 100)               20100     
_________________________________________________________________
dense_622 (Dense)            (None, 50)                5050      
_________________________________________________________________
dense_623 (Dense)            (None, 20)                1020      
_________________________________________________________________
dense_624 (Dense)            (None, 4)                 84        
=================================================================
Total params: 1,258,754
Trainable params: 1,258,754
Non-trainable params: 0
_________________________________________________________________
None

Accuracy Train: 75.22%
Accuracy Test: 68.40%
Loss Train: 0.62
Loss Test: 0.96
Numero dati esaminati: 1712
True Positive 1171
False Positive 541


------------------------------------------------------------------------
…
