…
 - 0s - loss: 0.3492 - accuracy: 0.8608 - val_loss: 0.6290 - val_accuracy: 0.8306
Epoch 109/110
 - 0s - loss: 0.3525 - accuracy: 0.8595 - val_loss: 0.6321 - val_accuracy: 0.8355
Epoch 110/110
 - 0s - loss: 0.3447 - accuracy: 0.8649 - val_loss: 0.6447 - val_accuracy: 0.8256

Fit: epochs= 110 , batch_size= 64 , verbose= 2 , shuffle= False , validation_split= 0.2 

Model: "sequential_287"
_________________________________________________________________
Layer (type)                 Output Shape              Param #   
=================================================================
dense_1970 (Dense)           (None, 10)                110       
_________________________________________________________________
dense_1971 (Dense)           (None, 500)               5500      
_________________________________________________________________
dense_1972 (Dense)           (None, 300)               150300    
_________________________________________________________________
dense_1973 (Dense)           (None, 200)               60200     
_________________________________________________________________
dense_1974 (Dense)           (None, 100)               20100     
_________________________________________________________________
dense_1975 (Dense)           (None, 50)                5050      
_________________________________________________________________
dense_1976 (Dense)           (None, 20)                1020      
_________________________________________________________________
dense_1977 (Dense)           (None, 4)                 84        
=================================================================
Total params: 242,364
Trainable params: 242,364
Non-trainable params: 0
_________________________________________________________________
None

Accuracy Train: 85.90%
Accuracy Test: 80.59%
Loss Train: 0.39
Loss Test: 0.64
Numero dati esaminati: 752
True Positive 606
False Positive 146


------------------------------------------------------------------------
…
