…
 - 17s - loss: 0.2766 - accuracy: 0.8815 - val_loss: 1.1778 - val_accuracy: 0.7460
Epoch 109/110
 - 17s - loss: 0.2807 - accuracy: 0.8781 - val_loss: 1.1336 - val_accuracy: 0.7511
Epoch 110/110
 - 18s - loss: 0.2829 - accuracy: 0.8779 - val_loss: 1.1220 - val_accuracy: 0.7547

Fit: epochs= 110 , batch_size= 64 , verbose= 2 , shuffle= False , validation_split= 0.2 

Model: "sequential_12"
_________________________________________________________________
Layer (type)                 Output Shape              Param #   
=================================================================
conv1d_12 (Conv1D)           (None, 10, 500)           1000      
_________________________________________________________________
activation_12 (Activation)   (None, 10, 500)           0         
_________________________________________________________________
lstm_12 (LSTM)               (None, 500)               2002000   
_________________________________________________________________
dropout_12 (Dropout)         (None, 500)               0         
_________________________________________________________________
dense_78 (Dense)             (None, 400)               200400    
_________________________________________________________________
dense_79 (Dense)             (None, 300)               120300    
_________________________________________________________________
dense_80 (Dense)             (None, 200)               60200     
_________________________________________________________________
dense_81 (Dense)             (None, 100)               20100     
_________________________________________________________________
dense_82 (Dense)             (None, 50)                5050      
_________________________________________________________________
dense_83 (Dense)             (None, 20)                1020      
_________________________________________________________________
dense_84 (Dense)             (None, 4)                 84        
=================================================================
Total params: 2,410,154
Trainable params: 2,410,154
Non-trainable params: 0
_________________________________________________________________
None

Accuracy Train: 86.58%
Accuracy Test: 75.18%
Loss Train: 0.43
Loss Test: 1.11
Numero dati esaminati: 1712
True Positive 1287
False Positive 425


------------------------------------------------------------------------
…
