…
 - 16s - loss: 0.1773 - accuracy: 0.9208 - val_loss: 0.6446 - val_accuracy: 0.8737
Epoch 109/110
 - 15s - loss: 0.1651 - accuracy: 0.9248 - val_loss: 0.6246 - val_accuracy: 0.8613
Epoch 110/110
 - 16s - loss: 0.1750 - accuracy: 0.9230 - val_loss: 0.6041 - val_accuracy: 0.8650

Fit: epochs= 110 , batch_size= 64 , verbose= 2 , shuffle= False , validation_split= 0.2 

Model: "sequential_45"
_________________________________________________________________
Layer (type)                 Output Shape              Param #   
=================================================================
conv1d_45 (Conv1D)           (None, 10, 500)           1000      
_________________________________________________________________
activation_45 (Activation)   (None, 10, 500)           0         
_________________________________________________________________
lstm_45 (LSTM)               (None, 500)               2002000   
_________________________________________________________________
dropout_45 (Dropout)         (None, 500)               0         
_________________________________________________________________
dense_309 (Dense)            (None, 400)               200400    
_________________________________________________________________
dense_310 (Dense)            (None, 300)               120300    
_________________________________________________________________
dense_311 (Dense)            (None, 200)               60200     
_________________________________________________________________
dense_312 (Dense)            (None, 100)               20100     
_________________________________________________________________
dense_313 (Dense)            (None, 50)                5050      
_________________________________________________________________
dense_314 (Dense)            (None, 20)                1020      
_________________________________________________________________
dense_315 (Dense)            (None, 4)                 84        
=================================================================
Total params: 2,410,154
Trainable params: 2,410,154
Non-trainable params: 0
_________________________________________________________________
None

Accuracy Train: 91.34%
Accuracy Test: 85.05%
Loss Train: 0.26
Loss Test: 0.63
Numero dati esaminati: 1712
True Positive 1456
False Positive 256


------------------------------------------------------------------------
…
