…
 - 2s - loss: 0.2314 - accuracy: 0.9723 - val_loss: 0.8656 - val_accuracy: 0.8423

Number of filters: 16 , Kernel Size: 3 , Strides: 1 Batch Normalization: True , Conv_First: True , Depth Value: 20

Fit: epochs= 110 , batch_size= 64 , verbose= 2 , shuffle= False , validation_split= 0.2 

Model: "model_56"
__________________________________________________________________________________________________
Layer (type)                    Output Shape         Param #     Connected to                     
==================================================================================================
input_56 (InputLayer)           (None, 10, 1)        0                                            
__________________________________________________________________________________________________
conv1d_1233 (Conv1D)            (None, 10, 16)       64          input_56[0][0]                   
__________________________________________________________________________________________________
batch_normalization_1046 (Batch (None, 10, 16)       64          conv1d_1233[0][0]                
__________________________________________________________________________________________________
activation_1200 (Activation)    (None, 10, 16)       0           batch_normalization_1046[0][0]   
__________________________________________________________________________________________________
conv1d_1234 (Conv1D)            (None, 10, 16)       784         activation_1200[0][0]            
__________________________________________________________________________________________________
batch_normalization_1047 (Batch (None, 10, 16)       64          conv1d_1234[0][0]                
__________________________________________________________________________________________________
activation_1201 (Activation)    (None, 10, 16)       0           batch_normalization_1047[0][0]   
__________________________________________________________________________________________________
conv1d_1235 (Conv1D)            (None, 10, 16)       784         activation_1201[0][0]            
__________________________________________________________________________________________________
batch_normalization_1048 (Batch (None, 10, 16)       64          conv1d_1235[0][0]                
__________________________________________________________________________________________________
add_496 (Add)                   (None, 10, 16)       0           activation_1200[0][0]            
                                                                 batch_normalization_1048[0][0]   
__________________________________________________________________________________________________
activation_1202 (Activation)    (None, 10, 16)       0           add_496[0][0]                    
__________________________________________________________________________________________________
conv1d_1236 (Conv1D)            (None, 10, 16)       784         activation_1202[0][0]            
__________________________________________________________________________________________________
batch_normalization_1049 (Batch (None, 10, 16)       64          conv1d_1236[0][0]                
__________________________________________________________________________________________________
activation_1203 (Activation)    (None, 10, 16)       0           batch_normalization_1049[0][0]   
__________________________________________________________________________________________________
conv1d_1237 (Conv1D)            (None, 10, 16)       784         activation_1203[0][0]            
__________________________________________________________________________________________________
batch_normalization_1050 (Batch (None, 10, 16)       64          conv1d_1237[0][0]                
__________________________________________________________________________________________________
add_497 (Add)                   (None, 10, 16)       0           activation_1202[0][0]            
                                                                 batch_normalization_1050[0][0]   
__________________________________________________________________________________________________
activation_1204 (Activation)    (None, 10, 16)       0           add_497[0][0]                    
__________________________________________________________________________________________________
conv1d_1238 (Conv1D)            (None, 10, 16)       784         activation_1204[0][0]            
__________________________________________________________________________________________________
batch_normalization_1051 (Batch (None, 10, 16)       64          conv1d_1238[0][0]                
__________________________________________________________________________________________________
activation_1205 (Activation)    (None, 10, 16)       0           batch_normalization_1051[0][0]   
__________________________________________________________________________________________________
conv1d_1239 (Conv1D)            (None, 10, 16)       784         activation_1205[0][0]            
__________________________________________________________________________________________________
batch_normalization_1052 (Batch (None, 10, 16)       64          conv1d_1239[0][0]                
__________________________________________________________________________________________________
add_498 (Add)                   (None, 10, 16)       0           activation_1204[0][0]            
                                                                 batch_normalization_1052[0][0]   
__________________________________________________________________________________________________
activation_1206 (Activation)    (None, 10, 16)       0           add_498[0][0]                    
__________________________________________________________________________________________________
conv1d_1240 (Conv1D)            (None, 5, 32)        1568        activation_1206[0][0]            
__________________________________________________________________________________________________
batch_normalization_1053 (Batch (None, 5, 32)        128         conv1d_1240[0][0]                
__________________________________________________________________________________________________
activation_1207 (Activation)    (None, 5, 32)        0           batch_normalization_1053[0][0]   
__________________________________________________________________________________________________
conv1d_1241 (Conv1D)            (None, 5, 32)        3104        activation_1207[0][0]            
__________________________________________________________________________________________________
conv1d_1242 (Conv1D)            (None, 5, 32)        544         activation_1206[0][0]            
__________________________________________________________________________________________________
batch_normalization_1054 (Batch (None, 5, 32)        128         conv1d_1241[0][0]                
__________________________________________________________________________________________________
add_499 (Add)                   (None, 5, 32)        0           conv1d_1242[0][0]                
                                                                 batch_normalization_1054[0][0]   
__________________________________________________________________________________________________
activation_1208 (Activation)    (None, 5, 32)        0           add_499[0][0]                    
__________________________________________________________________________________________________
conv1d_1243 (Conv1D)            (None, 5, 32)        3104        activation_1208[0][0]            
__________________________________________________________________________________________________
batch_normalization_1055 (Batch (None, 5, 32)        128         conv1d_1243[0][0]                
__________________________________________________________________________________________________
activation_1209 (Activation)    (None, 5, 32)        0           batch_normalization_1055[0][0]   
__________________________________________________________________________________________________
conv1d_1244 (Conv1D)            (None, 5, 32)        3104        activation_1209[0][0]            
__________________________________________________________________________________________________
batch_normalization_1056 (Batch (None, 5, 32)        128         conv1d_1244[0][0]                
__________________________________________________________________________________________________
add_500 (Add)                   (None, 5, 32)        0           activation_1208[0][0]            
                                                                 batch_normalization_1056[0][0]   
__________________________________________________________________________________________________
activation_1210 (Activation)    (None, 5, 32)        0           add_500[0][0]                    
__________________________________________________________________________________________________
conv1d_1245 (Conv1D)            (None, 5, 32)        3104        activation_1210[0][0]            
__________________________________________________________________________________________________
batch_normalization_1057 (Batch (None, 5, 32)        128         conv1d_1245[0][0]                
__________________________________________________________________________________________________
activation_1211 (Activation)    (None, 5, 32)        0           batch_normalization_1057[0][0]   
__________________________________________________________________________________________________
conv1d_1246 (Conv1D)            (None, 5, 32)        3104        activation_1211[0][0]            
__________________________________________________________________________________________________
batch_normalization_1058 (Batch (None, 5, 32)        128         conv1d_1246[0][0]                
__________________________________________________________________________________________________
add_501 (Add)                   (None, 5, 32)        0           activation_1210[0][0]            
                                                                 batch_normalization_1058[0][0]   
__________________________________________________________________________________________________
activation_1212 (Activation)    (None, 5, 32)        0           add_501[0][0]                    
__________________________________________________________________________________________________
conv1d_1247 (Conv1D)            (None, 3, 64)        6208        activation_1212[0][0]            
__________________________________________________________________________________________________
batch_normalization_1059 (Batch (None, 3, 64)        256         conv1d_1247[0][0]                
__________________________________________________________________________________________________
activation_1213 (Activation)    (None, 3, 64)        0           batch_normalization_1059[0][0]   
__________________________________________________________________________________________________
conv1d_1248 (Conv1D)            (None, 3, 64)        12352       activation_1213[0][0]            
__________________________________________________________________________________________________
conv1d_1249 (Conv1D)            (None, 3, 64)        2112        activation_1212[0][0]            
__________________________________________________________________________________________________
batch_normalization_1060 (Batch (None, 3, 64)        256         conv1d_1248[0][0]                
__________________________________________________________________________________________________
add_502 (Add)                   (None, 3, 64)        0           conv1d_1249[0][0]                
                                                                 batch_normalization_1060[0][0]   
__________________________________________________________________________________________________
activation_1214 (Activation)    (None, 3, 64)        0           add_502[0][0]                    
__________________________________________________________________________________________________
conv1d_1250 (Conv1D)            (None, 3, 64)        12352       activation_1214[0][0]            
__________________________________________________________________________________________________
batch_normalization_1061 (Batch (None, 3, 64)        256         conv1d_1250[0][0]                
__________________________________________________________________________________________________
activation_1215 (Activation)    (None, 3, 64)        0           batch_normalization_1061[0][0]   
__________________________________________________________________________________________________
conv1d_1251 (Conv1D)            (None, 3, 64)        12352       activation_1215[0][0]            
__________________________________________________________________________________________________
batch_normalization_1062 (Batch (None, 3, 64)        256         conv1d_1251[0][0]                
__________________________________________________________________________________________________
add_503 (Add)                   (None, 3, 64)        0           activation_1214[0][0]            
                                                                 batch_normalization_1062[0][0]   
__________________________________________________________________________________________________
activation_1216 (Activation)    (None, 3, 64)        0           add_503[0][0]                    
__________________________________________________________________________________________________
conv1d_1252 (Conv1D)            (None, 3, 64)        12352       activation_1216[0][0]            
__________________________________________________________________________________________________
batch_normalization_1063 (Batch (None, 3, 64)        256         conv1d_1252[0][0]                
__________________________________________________________________________________________________
activation_1217 (Activation)    (None, 3, 64)        0           batch_normalization_1063[0][0]   
__________________________________________________________________________________________________
conv1d_1253 (Conv1D)            (None, 3, 64)        12352       activation_1217[0][0]            
__________________________________________________________________________________________________
batch_normalization_1064 (Batch (None, 3, 64)        256         conv1d_1253[0][0]                
__________________________________________________________________________________________________
add_504 (Add)                   (None, 3, 64)        0           activation_1216[0][0]            
                                                                 batch_normalization_1064[0][0]   
__________________________________________________________________________________________________
activation_1218 (Activation)    (None, 3, 64)        0           add_504[0][0]                    
__________________________________________________________________________________________________
average_pooling1d_56 (AveragePo (None, 3, 64)        0           activation_1218[0][0]            
__________________________________________________________________________________________________
flatten_133 (Flatten)           (None, 192)          0           average_pooling1d_56[0][0]       
__________________________________________________________________________________________________
dense_2201 (Dense)              (None, 4)            772         flatten_133[0][0]                
==================================================================================================
Total params: 96,004
Trainable params: 94,628
Non-trainable params: 1,376
__________________________________________________________________________________________________
None

Accuracy Train: 89.25%
Accuracy Test: 83.94%
Loss Train: 0.55
Loss Test: 0.84
Numero dati esaminati: 1712
…
