…
 - 1s - loss: 0.3918 - accuracy: 0.8433 - val_loss: 0.6325 - val_accuracy: 0.8106
Epoch 109/110
 - 1s - loss: 0.3846 - accuracy: 0.8421 - val_loss: 0.5898 - val_accuracy: 0.8405
Epoch 110/110
 - 1s - loss: 0.3825 - accuracy: 0.8429 - val_loss: 0.6059 - val_accuracy: 0.8339

Fit: epochs= 110 , batch_size= 64 , verbose= 2 , shuffle= False , validation_split= 0.2 

Model: "sequential_122"
_________________________________________________________________
Layer (type)                 Output Shape              Param #   
=================================================================
lstm_45 (LSTM)               (None, 500)               1022000   
_________________________________________________________________
dropout_122 (Dropout)        (None, 500)               0         
_________________________________________________________________
dense_804 (Dense)            (None, 300)               150300    
_________________________________________________________________
dense_805 (Dense)            (None, 200)               60200     
_________________________________________________________________
dense_806 (Dense)            (None, 100)               20100     
_________________________________________________________________
dense_807 (Dense)            (None, 50)                5050      
_________________________________________________________________
dense_808 (Dense)            (None, 20)                1020      
_________________________________________________________________
dense_809 (Dense)            (None, 4)                 84        
=================================================================
Total params: 1,258,754
Trainable params: 1,258,754
Non-trainable params: 0
_________________________________________________________________
None

Accuracy Train: 84.87%
Accuracy Test: 79.92%
Loss Train: 0.41
Loss Test: 0.65
Numero dati esaminati: 752
True Positive 601
False Positive 151


------------------------------------------------------------------------
…
