…
 - 1s - loss: 0.3462 - accuracy: 0.8595 - val_loss: 0.6119 - val_accuracy: 0.8455
Epoch 109/110
 - 1s - loss: 0.3511 - accuracy: 0.8587 - val_loss: 0.5913 - val_accuracy: 0.8522
Epoch 110/110
 - 1s - loss: 0.3441 - accuracy: 0.8591 - val_loss: 0.6064 - val_accuracy: 0.8505

Fit: epochs= 110 , batch_size= 64 , verbose= 2 , shuffle= False , validation_split= 0.2 

Model: "sequential_133"
_________________________________________________________________
Layer (type)                 Output Shape              Param #   
=================================================================
bidirectional_23 (Bidirectio (None, 1000)              2044000   
_________________________________________________________________
dropout_133 (Dropout)        (None, 1000)              0         
_________________________________________________________________
dense_870 (Dense)            (None, 300)               300300    
_________________________________________________________________
dense_871 (Dense)            (None, 200)               60200     
_________________________________________________________________
dense_872 (Dense)            (None, 100)               20100     
_________________________________________________________________
dense_873 (Dense)            (None, 50)                5050      
_________________________________________________________________
dense_874 (Dense)            (None, 20)                1020      
_________________________________________________________________
dense_875 (Dense)            (None, 4)                 84        
=================================================================
Total params: 2,430,754
Trainable params: 2,430,754
Non-trainable params: 0
_________________________________________________________________
None

Accuracy Train: 87.13%
Accuracy Test: 80.59%
Loss Train: 0.37
Loss Test: 0.65
Numero dati esaminati: 752
True Positive 606
False Positive 146


------------------------------------------------------------------------
…
