…
 - 2s - loss: 0.3339 - accuracy: 0.8605 - val_loss: 0.4223 - val_accuracy: 0.8518
Epoch 109/110
 - 2s - loss: 0.3352 - accuracy: 0.8596 - val_loss: 0.4282 - val_accuracy: 0.8401
Epoch 110/110
 - 2s - loss: 0.3420 - accuracy: 0.8545 - val_loss: 0.4178 - val_accuracy: 0.8533

Fit: epochs= 110 , batch_size= 64 , verbose= 2 , shuffle= False , validation_split= 0.2 

Model: "sequential_89"
_________________________________________________________________
Layer (type)                 Output Shape              Param #   
=================================================================
lstm_12 (LSTM)               (None, 500)               1024000   
_________________________________________________________________
dropout_89 (Dropout)         (None, 500)               0         
_________________________________________________________________
dense_606 (Dense)            (None, 300)               150300    
_________________________________________________________________
dense_607 (Dense)            (None, 200)               60200     
_________________________________________________________________
dense_608 (Dense)            (None, 100)               20100     
_________________________________________________________________
dense_609 (Dense)            (None, 50)                5050      
_________________________________________________________________
dense_610 (Dense)            (None, 20)                1020      
_________________________________________________________________
dense_611 (Dense)            (None, 4)                 84        
=================================================================
Total params: 1,260,754
Trainable params: 1,260,754
Non-trainable params: 0
_________________________________________________________________
None

Accuracy Train: 86.01%
Accuracy Test: 83.59%
Loss Train: 0.34
Loss Test: 0.44
Numero dati esaminati: 1712
True Positive 1431
False Positive 281


------------------------------------------------------------------------
…
