…
 - 2s - loss: 0.1781 - accuracy: 0.9244 - val_loss: 0.5560 - val_accuracy: 0.8781
Epoch 109/110
 - 2s - loss: 0.1732 - accuracy: 0.9217 - val_loss: 0.5736 - val_accuracy: 0.8715
Epoch 110/110
 - 2s - loss: 0.1857 - accuracy: 0.9199 - val_loss: 0.5263 - val_accuracy: 0.8613

Fit: epochs= 110 , batch_size= 64 , verbose= 2 , shuffle= False , validation_split= 0.2 

Model: "sequential_34"
_________________________________________________________________
Layer (type)                 Output Shape              Param #   
=================================================================
conv1d_34 (Conv1D)           (None, 10, 500)           1000      
_________________________________________________________________
activation_67 (Activation)   (None, 10, 500)           0         
_________________________________________________________________
flatten_34 (Flatten)         (None, 5000)              0         
_________________________________________________________________
dropout_34 (Dropout)         (None, 5000)              0         
_________________________________________________________________
dense_232 (Dense)            (None, 400)               2000400   
_________________________________________________________________
dense_233 (Dense)            (None, 300)               120300    
_________________________________________________________________
dense_234 (Dense)            (None, 200)               60200     
_________________________________________________________________
dense_235 (Dense)            (None, 100)               20100     
_________________________________________________________________
dense_236 (Dense)            (None, 50)                5050      
_________________________________________________________________
dense_237 (Dense)            (None, 20)                1020      
_________________________________________________________________
dense_238 (Dense)            (None, 4)                 84        
_________________________________________________________________
activation_68 (Activation)   (None, 4)                 0         
=================================================================
Total params: 2,208,154
Trainable params: 2,208,154
Non-trainable params: 0
_________________________________________________________________
None

Accuracy Train: 91.50%
Accuracy Test: 86.27%
Loss Train: 0.23
Loss Test: 0.47
Numero dati esaminati: 1712
True Positive 1477
False Positive 235


------------------------------------------------------------------------
…
