…
 - 2s - loss: 0.5667 - accuracy: 0.7572 - val_loss: 0.8913 - val_accuracy: 0.6861
Epoch 109/110
 - 1s - loss: 0.5721 - accuracy: 0.7570 - val_loss: 0.8589 - val_accuracy: 0.6942
Epoch 110/110
 - 2s - loss: 0.5720 - accuracy: 0.7581 - val_loss: 0.8932 - val_accuracy: 0.6869

Fit: epochs= 110 , batch_size= 64 , verbose= 2 , shuffle= False , validation_split= 0.2 

Model: "sequential_177"
_________________________________________________________________
Layer (type)                 Output Shape              Param #   
=================================================================
lstm_100 (LSTM)              (None, 500)               1022000   
_________________________________________________________________
dropout_177 (Dropout)        (None, 500)               0         
_________________________________________________________________
dense_1134 (Dense)           (None, 300)               150300    
_________________________________________________________________
dense_1135 (Dense)           (None, 200)               60200     
_________________________________________________________________
dense_1136 (Dense)           (None, 100)               20100     
_________________________________________________________________
dense_1137 (Dense)           (None, 50)                5050      
_________________________________________________________________
dense_1138 (Dense)           (None, 20)                1020      
_________________________________________________________________
dense_1139 (Dense)           (None, 4)                 84        
=================================================================
Total params: 1,258,754
Trainable params: 1,258,754
Non-trainable params: 0
_________________________________________________________________
None

Accuracy Train: 76.61%
Accuracy Test: 69.33%
Loss Train: 0.59
Loss Test: 0.97
Numero dati esaminati: 1712
True Positive 1187
False Positive 525


------------------------------------------------------------------------
…
