…
 - 0s - loss: 0.0529 - accuracy: 0.8520 - val_loss: 0.0637 - val_accuracy: 0.8322
Epoch 109/110
 - 0s - loss: 0.0542 - accuracy: 0.8529 - val_loss: 0.0658 - val_accuracy: 0.8306
Epoch 110/110
 - 0s - loss: 0.0541 - accuracy: 0.8512 - val_loss: 0.0660 - val_accuracy: 0.8306

Fit: epochs= 110 , batch_size= 64 , verbose= 2 , shuffle= False , validation_split= 0.2 

Model: "sequential_298"
_________________________________________________________________
Layer (type)                 Output Shape              Param #   
=================================================================
dense_2058 (Dense)           (None, 10)                110       
_________________________________________________________________
dense_2059 (Dense)           (None, 500)               5500      
_________________________________________________________________
dense_2060 (Dense)           (None, 300)               150300    
_________________________________________________________________
dense_2061 (Dense)           (None, 200)               60200     
_________________________________________________________________
dense_2062 (Dense)           (None, 100)               20100     
_________________________________________________________________
dense_2063 (Dense)           (None, 50)                5050      
_________________________________________________________________
dense_2064 (Dense)           (None, 20)                1020      
_________________________________________________________________
dense_2065 (Dense)           (None, 4)                 84        
=================================================================
Total params: 242,364
Trainable params: 242,364
Non-trainable params: 0
_________________________________________________________________
None

Accuracy Train: 85.64%
Accuracy Test: 80.19%
Loss Train: 0.05
Loss Test: 0.08
Numero dati esaminati: 752
True Positive 603
False Positive 149


------------------------------------------------------------------------
…
