…
 - 0s - loss: 0.3100 - accuracy: 0.8651 - val_loss: 0.4399 - val_accuracy: 0.8438
Epoch 109/110
 - 0s - loss: 0.3070 - accuracy: 0.8678 - val_loss: 0.4444 - val_accuracy: 0.8533
Epoch 110/110
 - 0s - loss: 0.3007 - accuracy: 0.8731 - val_loss: 0.4496 - val_accuracy: 0.8474

Fit: epochs= 110 , batch_size= 64 , verbose= 2 , shuffle= False , validation_split= 0.2 

Model: "sequential_199"
_________________________________________________________________
Layer (type)                 Output Shape              Param #   
=================================================================
dense_1266 (Dense)           (None, 11)                132       
_________________________________________________________________
dense_1267 (Dense)           (None, 500)               6000      
_________________________________________________________________
dense_1268 (Dense)           (None, 300)               150300    
_________________________________________________________________
dense_1269 (Dense)           (None, 200)               60200     
_________________________________________________________________
dense_1270 (Dense)           (None, 100)               20100     
_________________________________________________________________
dense_1271 (Dense)           (None, 50)                5050      
_________________________________________________________________
dense_1272 (Dense)           (None, 20)                1020      
_________________________________________________________________
dense_1273 (Dense)           (None, 4)                 84        
=================================================================
Total params: 242,886
Trainable params: 242,886
Non-trainable params: 0
_________________________________________________________________
None

Accuracy Train: 87.06%
Accuracy Test: 85.86%
Loss Train: 0.33
Loss Test: 0.42
Numero dati esaminati: 1712
True Positive 1470
False Positive 242


------------------------------------------------------------------------
…
