…
 - 2s - loss: 0.3311 - accuracy: 0.8605 - val_loss: 0.4477 - val_accuracy: 0.8555
Epoch 109/110
 - 2s - loss: 0.3344 - accuracy: 0.8616 - val_loss: 0.4591 - val_accuracy: 0.8474
Epoch 110/110
 - 2s - loss: 0.3366 - accuracy: 0.8567 - val_loss: 0.4473 - val_accuracy: 0.8423

Fit: epochs= 110 , batch_size= 64 , verbose= 2 , shuffle= False , validation_split= 0.2 

Model: "sequential_78"
_________________________________________________________________
Layer (type)                 Output Shape              Param #   
=================================================================
lstm_1 (LSTM)                (None, 500)               1022000   
_________________________________________________________________
dropout_78 (Dropout)         (None, 500)               0         
_________________________________________________________________
dense_540 (Dense)            (None, 300)               150300    
_________________________________________________________________
dense_541 (Dense)            (None, 200)               60200     
_________________________________________________________________
dense_542 (Dense)            (None, 100)               20100     
_________________________________________________________________
dense_543 (Dense)            (None, 50)                5050      
_________________________________________________________________
dense_544 (Dense)            (None, 20)                1020      
_________________________________________________________________
dense_545 (Dense)            (None, 4)                 84        
=================================================================
Total params: 1,258,754
Trainable params: 1,258,754
Non-trainable params: 0
_________________________________________________________________
None

Accuracy Train: 85.54%
Accuracy Test: 83.82%
Loss Train: 0.34
Loss Test: 0.41
Numero dati esaminati: 1712
True Positive 1435
False Positive 277


------------------------------------------------------------------------
…
