…
 - 2s - loss: 0.3410 - accuracy: 0.9392 - val_loss: 1.5557 - val_accuracy: 0.6825

Number of filters: 16 , Kernel Size: 3 , Strides: 1 Batch Normalization: True , Conv_First: True , Depth Value: 20

Fit: epochs= 110 , batch_size= 64 , verbose= 2 , shuffle= False , validation_split= 0.2 

Model: "model_67"
__________________________________________________________________________________________________
Layer (type)                    Output Shape         Param #     Connected to                     
==================================================================================================
input_67 (InputLayer)           (None, 10, 1)        0                                            
__________________________________________________________________________________________________
conv1d_1464 (Conv1D)            (None, 10, 16)       64          input_67[0][0]                   
__________________________________________________________________________________________________
batch_normalization_1255 (Batch (None, 10, 16)       64          conv1d_1464[0][0]                
__________________________________________________________________________________________________
activation_1409 (Activation)    (None, 10, 16)       0           batch_normalization_1255[0][0]   
__________________________________________________________________________________________________
conv1d_1465 (Conv1D)            (None, 10, 16)       784         activation_1409[0][0]            
__________________________________________________________________________________________________
batch_normalization_1256 (Batch (None, 10, 16)       64          conv1d_1465[0][0]                
__________________________________________________________________________________________________
activation_1410 (Activation)    (None, 10, 16)       0           batch_normalization_1256[0][0]   
__________________________________________________________________________________________________
conv1d_1466 (Conv1D)            (None, 10, 16)       784         activation_1410[0][0]            
__________________________________________________________________________________________________
batch_normalization_1257 (Batch (None, 10, 16)       64          conv1d_1466[0][0]                
__________________________________________________________________________________________________
add_595 (Add)                   (None, 10, 16)       0           activation_1409[0][0]            
                                                                 batch_normalization_1257[0][0]   
__________________________________________________________________________________________________
activation_1411 (Activation)    (None, 10, 16)       0           add_595[0][0]                    
__________________________________________________________________________________________________
conv1d_1467 (Conv1D)            (None, 10, 16)       784         activation_1411[0][0]            
__________________________________________________________________________________________________
batch_normalization_1258 (Batch (None, 10, 16)       64          conv1d_1467[0][0]                
__________________________________________________________________________________________________
activation_1412 (Activation)    (None, 10, 16)       0           batch_normalization_1258[0][0]   
__________________________________________________________________________________________________
conv1d_1468 (Conv1D)            (None, 10, 16)       784         activation_1412[0][0]            
__________________________________________________________________________________________________
batch_normalization_1259 (Batch (None, 10, 16)       64          conv1d_1468[0][0]                
__________________________________________________________________________________________________
add_596 (Add)                   (None, 10, 16)       0           activation_1411[0][0]            
                                                                 batch_normalization_1259[0][0]   
__________________________________________________________________________________________________
activation_1413 (Activation)    (None, 10, 16)       0           add_596[0][0]                    
__________________________________________________________________________________________________
conv1d_1469 (Conv1D)            (None, 10, 16)       784         activation_1413[0][0]            
__________________________________________________________________________________________________
batch_normalization_1260 (Batch (None, 10, 16)       64          conv1d_1469[0][0]                
__________________________________________________________________________________________________
activation_1414 (Activation)    (None, 10, 16)       0           batch_normalization_1260[0][0]   
__________________________________________________________________________________________________
conv1d_1470 (Conv1D)            (None, 10, 16)       784         activation_1414[0][0]            
__________________________________________________________________________________________________
batch_normalization_1261 (Batch (None, 10, 16)       64          conv1d_1470[0][0]                
__________________________________________________________________________________________________
add_597 (Add)                   (None, 10, 16)       0           activation_1413[0][0]            
                                                                 batch_normalization_1261[0][0]   
__________________________________________________________________________________________________
activation_1415 (Activation)    (None, 10, 16)       0           add_597[0][0]                    
__________________________________________________________________________________________________
conv1d_1471 (Conv1D)            (None, 5, 32)        1568        activation_1415[0][0]            
__________________________________________________________________________________________________
batch_normalization_1262 (Batch (None, 5, 32)        128         conv1d_1471[0][0]                
__________________________________________________________________________________________________
activation_1416 (Activation)    (None, 5, 32)        0           batch_normalization_1262[0][0]   
__________________________________________________________________________________________________
conv1d_1472 (Conv1D)            (None, 5, 32)        3104        activation_1416[0][0]            
__________________________________________________________________________________________________
conv1d_1473 (Conv1D)            (None, 5, 32)        544         activation_1415[0][0]            
__________________________________________________________________________________________________
batch_normalization_1263 (Batch (None, 5, 32)        128         conv1d_1472[0][0]                
__________________________________________________________________________________________________
add_598 (Add)                   (None, 5, 32)        0           conv1d_1473[0][0]                
                                                                 batch_normalization_1263[0][0]   
__________________________________________________________________________________________________
activation_1417 (Activation)    (None, 5, 32)        0           add_598[0][0]                    
__________________________________________________________________________________________________
conv1d_1474 (Conv1D)            (None, 5, 32)        3104        activation_1417[0][0]            
__________________________________________________________________________________________________
batch_normalization_1264 (Batch (None, 5, 32)        128         conv1d_1474[0][0]                
__________________________________________________________________________________________________
activation_1418 (Activation)    (None, 5, 32)        0           batch_normalization_1264[0][0]   
__________________________________________________________________________________________________
conv1d_1475 (Conv1D)            (None, 5, 32)        3104        activation_1418[0][0]            
__________________________________________________________________________________________________
batch_normalization_1265 (Batch (None, 5, 32)        128         conv1d_1475[0][0]                
__________________________________________________________________________________________________
add_599 (Add)                   (None, 5, 32)        0           activation_1417[0][0]            
                                                                 batch_normalization_1265[0][0]   
__________________________________________________________________________________________________
activation_1419 (Activation)    (None, 5, 32)        0           add_599[0][0]                    
__________________________________________________________________________________________________
conv1d_1476 (Conv1D)            (None, 5, 32)        3104        activation_1419[0][0]            
__________________________________________________________________________________________________
batch_normalization_1266 (Batch (None, 5, 32)        128         conv1d_1476[0][0]                
__________________________________________________________________________________________________
activation_1420 (Activation)    (None, 5, 32)        0           batch_normalization_1266[0][0]   
__________________________________________________________________________________________________
conv1d_1477 (Conv1D)            (None, 5, 32)        3104        activation_1420[0][0]            
__________________________________________________________________________________________________
batch_normalization_1267 (Batch (None, 5, 32)        128         conv1d_1477[0][0]                
__________________________________________________________________________________________________
add_600 (Add)                   (None, 5, 32)        0           activation_1419[0][0]            
                                                                 batch_normalization_1267[0][0]   
__________________________________________________________________________________________________
activation_1421 (Activation)    (None, 5, 32)        0           add_600[0][0]                    
__________________________________________________________________________________________________
conv1d_1478 (Conv1D)            (None, 3, 64)        6208        activation_1421[0][0]            
__________________________________________________________________________________________________
batch_normalization_1268 (Batch (None, 3, 64)        256         conv1d_1478[0][0]                
__________________________________________________________________________________________________
activation_1422 (Activation)    (None, 3, 64)        0           batch_normalization_1268[0][0]   
__________________________________________________________________________________________________
conv1d_1479 (Conv1D)            (None, 3, 64)        12352       activation_1422[0][0]            
__________________________________________________________________________________________________
conv1d_1480 (Conv1D)            (None, 3, 64)        2112        activation_1421[0][0]            
__________________________________________________________________________________________________
batch_normalization_1269 (Batch (None, 3, 64)        256         conv1d_1479[0][0]                
__________________________________________________________________________________________________
add_601 (Add)                   (None, 3, 64)        0           conv1d_1480[0][0]                
                                                                 batch_normalization_1269[0][0]   
__________________________________________________________________________________________________
activation_1423 (Activation)    (None, 3, 64)        0           add_601[0][0]                    
__________________________________________________________________________________________________
conv1d_1481 (Conv1D)            (None, 3, 64)        12352       activation_1423[0][0]            
__________________________________________________________________________________________________
batch_normalization_1270 (Batch (None, 3, 64)        256         conv1d_1481[0][0]                
__________________________________________________________________________________________________
activation_1424 (Activation)    (None, 3, 64)        0           batch_normalization_1270[0][0]   
__________________________________________________________________________________________________
conv1d_1482 (Conv1D)            (None, 3, 64)        12352       activation_1424[0][0]            
__________________________________________________________________________________________________
batch_normalization_1271 (Batch (None, 3, 64)        256         conv1d_1482[0][0]                
__________________________________________________________________________________________________
add_602 (Add)                   (None, 3, 64)        0           activation_1423[0][0]            
                                                                 batch_normalization_1271[0][0]   
__________________________________________________________________________________________________
activation_1425 (Activation)    (None, 3, 64)        0           add_602[0][0]                    
__________________________________________________________________________________________________
conv1d_1483 (Conv1D)            (None, 3, 64)        12352       activation_1425[0][0]            
__________________________________________________________________________________________________
batch_normalization_1272 (Batch (None, 3, 64)        256         conv1d_1483[0][0]                
__________________________________________________________________________________________________
activation_1426 (Activation)    (None, 3, 64)        0           batch_normalization_1272[0][0]   
__________________________________________________________________________________________________
conv1d_1484 (Conv1D)            (None, 3, 64)        12352       activation_1426[0][0]            
__________________________________________________________________________________________________
batch_normalization_1273 (Batch (None, 3, 64)        256         conv1d_1484[0][0]                
__________________________________________________________________________________________________
add_603 (Add)                   (None, 3, 64)        0           activation_1425[0][0]            
                                                                 batch_normalization_1273[0][0]   
__________________________________________________________________________________________________
activation_1427 (Activation)    (None, 3, 64)        0           add_603[0][0]                    
__________________________________________________________________________________________________
average_pooling1d_67 (AveragePo (None, 3, 64)        0           activation_1427[0][0]            
__________________________________________________________________________________________________
flatten_144 (Flatten)           (None, 192)          0           average_pooling1d_67[0][0]       
__________________________________________________________________________________________________
dense_2212 (Dense)              (None, 4)            772         flatten_144[0][0]                
==================================================================================================
Total params: 96,004
Trainable params: 94,628
Non-trainable params: 1,376
__________________________________________________________________________________________________
None

Accuracy Train: 76.11%
Accuracy Test: 67.35%
Loss Train: 1.00
Loss Test: 1.63
Numero dati esaminati: 1712
…
