…
 - 1s - loss: 0.2510 - accuracy: 0.9634 - val_loss: 1.0248 - val_accuracy: 0.8239

Number of filters: 16 , Kernel Size: 3 , Strides: 1 Batch Normalization: True , Conv_First: True , Depth Value: 20

Fit: epochs= 110 , batch_size= 64 , verbose= 2 , shuffle= False , validation_split= 0.2 

Model: "model_23"
__________________________________________________________________________________________________
Layer (type)                    Output Shape         Param #     Connected to                     
==================================================================================================
input_23 (InputLayer)           (None, 10, 1)        0                                            
__________________________________________________________________________________________________
conv1d_540 (Conv1D)             (None, 10, 16)       64          input_23[0][0]                   
__________________________________________________________________________________________________
batch_normalization_419 (BatchN (None, 10, 16)       64          conv1d_540[0][0]                 
__________________________________________________________________________________________________
activation_573 (Activation)     (None, 10, 16)       0           batch_normalization_419[0][0]    
__________________________________________________________________________________________________
conv1d_541 (Conv1D)             (None, 10, 16)       784         activation_573[0][0]             
__________________________________________________________________________________________________
batch_normalization_420 (BatchN (None, 10, 16)       64          conv1d_541[0][0]                 
__________________________________________________________________________________________________
activation_574 (Activation)     (None, 10, 16)       0           batch_normalization_420[0][0]    
__________________________________________________________________________________________________
conv1d_542 (Conv1D)             (None, 10, 16)       784         activation_574[0][0]             
__________________________________________________________________________________________________
batch_normalization_421 (BatchN (None, 10, 16)       64          conv1d_542[0][0]                 
__________________________________________________________________________________________________
add_199 (Add)                   (None, 10, 16)       0           activation_573[0][0]             
                                                                 batch_normalization_421[0][0]    
__________________________________________________________________________________________________
activation_575 (Activation)     (None, 10, 16)       0           add_199[0][0]                    
__________________________________________________________________________________________________
conv1d_543 (Conv1D)             (None, 10, 16)       784         activation_575[0][0]             
__________________________________________________________________________________________________
batch_normalization_422 (BatchN (None, 10, 16)       64          conv1d_543[0][0]                 
__________________________________________________________________________________________________
activation_576 (Activation)     (None, 10, 16)       0           batch_normalization_422[0][0]    
__________________________________________________________________________________________________
conv1d_544 (Conv1D)             (None, 10, 16)       784         activation_576[0][0]             
__________________________________________________________________________________________________
batch_normalization_423 (BatchN (None, 10, 16)       64          conv1d_544[0][0]                 
__________________________________________________________________________________________________
add_200 (Add)                   (None, 10, 16)       0           activation_575[0][0]             
                                                                 batch_normalization_423[0][0]    
__________________________________________________________________________________________________
activation_577 (Activation)     (None, 10, 16)       0           add_200[0][0]                    
__________________________________________________________________________________________________
conv1d_545 (Conv1D)             (None, 10, 16)       784         activation_577[0][0]             
__________________________________________________________________________________________________
batch_normalization_424 (BatchN (None, 10, 16)       64          conv1d_545[0][0]                 
__________________________________________________________________________________________________
activation_578 (Activation)     (None, 10, 16)       0           batch_normalization_424[0][0]    
__________________________________________________________________________________________________
conv1d_546 (Conv1D)             (None, 10, 16)       784         activation_578[0][0]             
__________________________________________________________________________________________________
batch_normalization_425 (BatchN (None, 10, 16)       64          conv1d_546[0][0]                 
__________________________________________________________________________________________________
add_201 (Add)                   (None, 10, 16)       0           activation_577[0][0]             
                                                                 batch_normalization_425[0][0]    
__________________________________________________________________________________________________
activation_579 (Activation)     (None, 10, 16)       0           add_201[0][0]                    
__________________________________________________________________________________________________
conv1d_547 (Conv1D)             (None, 5, 32)        1568        activation_579[0][0]             
__________________________________________________________________________________________________
batch_normalization_426 (BatchN (None, 5, 32)        128         conv1d_547[0][0]                 
__________________________________________________________________________________________________
activation_580 (Activation)     (None, 5, 32)        0           batch_normalization_426[0][0]    
__________________________________________________________________________________________________
conv1d_548 (Conv1D)             (None, 5, 32)        3104        activation_580[0][0]             
__________________________________________________________________________________________________
conv1d_549 (Conv1D)             (None, 5, 32)        544         activation_579[0][0]             
__________________________________________________________________________________________________
batch_normalization_427 (BatchN (None, 5, 32)        128         conv1d_548[0][0]                 
__________________________________________________________________________________________________
add_202 (Add)                   (None, 5, 32)        0           conv1d_549[0][0]                 
                                                                 batch_normalization_427[0][0]    
__________________________________________________________________________________________________
activation_581 (Activation)     (None, 5, 32)        0           add_202[0][0]                    
__________________________________________________________________________________________________
conv1d_550 (Conv1D)             (None, 5, 32)        3104        activation_581[0][0]             
__________________________________________________________________________________________________
batch_normalization_428 (BatchN (None, 5, 32)        128         conv1d_550[0][0]                 
__________________________________________________________________________________________________
activation_582 (Activation)     (None, 5, 32)        0           batch_normalization_428[0][0]    
__________________________________________________________________________________________________
conv1d_551 (Conv1D)             (None, 5, 32)        3104        activation_582[0][0]             
__________________________________________________________________________________________________
batch_normalization_429 (BatchN (None, 5, 32)        128         conv1d_551[0][0]                 
__________________________________________________________________________________________________
add_203 (Add)                   (None, 5, 32)        0           activation_581[0][0]             
                                                                 batch_normalization_429[0][0]    
__________________________________________________________________________________________________
activation_583 (Activation)     (None, 5, 32)        0           add_203[0][0]                    
__________________________________________________________________________________________________
conv1d_552 (Conv1D)             (None, 5, 32)        3104        activation_583[0][0]             
__________________________________________________________________________________________________
batch_normalization_430 (BatchN (None, 5, 32)        128         conv1d_552[0][0]                 
__________________________________________________________________________________________________
activation_584 (Activation)     (None, 5, 32)        0           batch_normalization_430[0][0]    
__________________________________________________________________________________________________
conv1d_553 (Conv1D)             (None, 5, 32)        3104        activation_584[0][0]             
__________________________________________________________________________________________________
batch_normalization_431 (BatchN (None, 5, 32)        128         conv1d_553[0][0]                 
__________________________________________________________________________________________________
add_204 (Add)                   (None, 5, 32)        0           activation_583[0][0]             
                                                                 batch_normalization_431[0][0]    
__________________________________________________________________________________________________
activation_585 (Activation)     (None, 5, 32)        0           add_204[0][0]                    
__________________________________________________________________________________________________
conv1d_554 (Conv1D)             (None, 3, 64)        6208        activation_585[0][0]             
__________________________________________________________________________________________________
batch_normalization_432 (BatchN (None, 3, 64)        256         conv1d_554[0][0]                 
__________________________________________________________________________________________________
activation_586 (Activation)     (None, 3, 64)        0           batch_normalization_432[0][0]    
__________________________________________________________________________________________________
conv1d_555 (Conv1D)             (None, 3, 64)        12352       activation_586[0][0]             
__________________________________________________________________________________________________
conv1d_556 (Conv1D)             (None, 3, 64)        2112        activation_585[0][0]             
__________________________________________________________________________________________________
batch_normalization_433 (BatchN (None, 3, 64)        256         conv1d_555[0][0]                 
__________________________________________________________________________________________________
add_205 (Add)                   (None, 3, 64)        0           conv1d_556[0][0]                 
                                                                 batch_normalization_433[0][0]    
__________________________________________________________________________________________________
activation_587 (Activation)     (None, 3, 64)        0           add_205[0][0]                    
__________________________________________________________________________________________________
conv1d_557 (Conv1D)             (None, 3, 64)        12352       activation_587[0][0]             
__________________________________________________________________________________________________
batch_normalization_434 (BatchN (None, 3, 64)        256         conv1d_557[0][0]                 
__________________________________________________________________________________________________
activation_588 (Activation)     (None, 3, 64)        0           batch_normalization_434[0][0]    
__________________________________________________________________________________________________
conv1d_558 (Conv1D)             (None, 3, 64)        12352       activation_588[0][0]             
__________________________________________________________________________________________________
batch_normalization_435 (BatchN (None, 3, 64)        256         conv1d_558[0][0]                 
__________________________________________________________________________________________________
add_206 (Add)                   (None, 3, 64)        0           activation_587[0][0]             
                                                                 batch_normalization_435[0][0]    
__________________________________________________________________________________________________
activation_589 (Activation)     (None, 3, 64)        0           add_206[0][0]                    
__________________________________________________________________________________________________
conv1d_559 (Conv1D)             (None, 3, 64)        12352       activation_589[0][0]             
__________________________________________________________________________________________________
batch_normalization_436 (BatchN (None, 3, 64)        256         conv1d_559[0][0]                 
__________________________________________________________________________________________________
activation_590 (Activation)     (None, 3, 64)        0           batch_normalization_436[0][0]    
__________________________________________________________________________________________________
conv1d_560 (Conv1D)             (None, 3, 64)        12352       activation_590[0][0]             
__________________________________________________________________________________________________
batch_normalization_437 (BatchN (None, 3, 64)        256         conv1d_560[0][0]                 
__________________________________________________________________________________________________
add_207 (Add)                   (None, 3, 64)        0           activation_589[0][0]             
                                                                 batch_normalization_437[0][0]    
__________________________________________________________________________________________________
activation_591 (Activation)     (None, 3, 64)        0           add_207[0][0]                    
__________________________________________________________________________________________________
average_pooling1d_23 (AveragePo (None, 3, 64)        0           activation_591[0][0]             
__________________________________________________________________________________________________
flatten_100 (Flatten)           (None, 192)          0           average_pooling1d_23[0][0]       
__________________________________________________________________________________________________
dense_2168 (Dense)              (None, 4)            772         flatten_100[0][0]                
==================================================================================================
Total params: 96,004
Trainable params: 94,628
Non-trainable params: 1,376
__________________________________________________________________________________________________
None

Accuracy Train: 85.11%
Accuracy Test: 80.45%
Loss Train: 0.72
Loss Test: 1.12
Numero dati esaminati: 752
…
