…
 - 1s - loss: 0.2450 - accuracy: 0.8936 - val_loss: 0.4695 - val_accuracy: 0.8606
Epoch 109/110
 - 1s - loss: 0.2452 - accuracy: 0.8932 - val_loss: 0.4528 - val_accuracy: 0.8540
Epoch 110/110
 - 2s - loss: 0.2526 - accuracy: 0.8877 - val_loss: 0.4468 - val_accuracy: 0.8569

Fit: epochs= 110 , batch_size= 64 , verbose= 2 , shuffle= False , validation_split= 0.2 

Model: "sequential_155"
_________________________________________________________________
Layer (type)                 Output Shape              Param #   
=================================================================
lstm_78 (LSTM)               (None, 500)               1022000   
_________________________________________________________________
dropout_155 (Dropout)        (None, 500)               0         
_________________________________________________________________
dense_1002 (Dense)           (None, 300)               150300    
_________________________________________________________________
dense_1003 (Dense)           (None, 200)               60200     
_________________________________________________________________
dense_1004 (Dense)           (None, 100)               20100     
_________________________________________________________________
dense_1005 (Dense)           (None, 50)                5050      
_________________________________________________________________
dense_1006 (Dense)           (None, 20)                1020      
_________________________________________________________________
dense_1007 (Dense)           (None, 4)                 84        
=================================================================
Total params: 1,258,754
Trainable params: 1,258,754
Non-trainable params: 0
_________________________________________________________________
None

Accuracy Train: 89.21%
Accuracy Test: 84.52%
Loss Train: 0.27
Loss Test: 0.51
Numero dati esaminati: 1712
True Positive 1447
False Positive 265


------------------------------------------------------------------------
…
