…
 - 2s - loss: 0.2531 - accuracy: 0.8914 - val_loss: 0.5480 - val_accuracy: 0.8467
Epoch 109/110
 - 1s - loss: 0.2549 - accuracy: 0.8917 - val_loss: 0.5430 - val_accuracy: 0.8431
Epoch 110/110
 - 2s - loss: 0.2609 - accuracy: 0.8928 - val_loss: 0.5451 - val_accuracy: 0.8372

Fit: epochs= 110 , batch_size= 64 , verbose= 2 , shuffle= False , validation_split= 0.2 

Model: "sequential_166"
_________________________________________________________________
Layer (type)                 Output Shape              Param #   
=================================================================
lstm_89 (LSTM)               (None, 500)               1022000   
_________________________________________________________________
dropout_166 (Dropout)        (None, 500)               0         
_________________________________________________________________
dense_1068 (Dense)           (None, 300)               150300    
_________________________________________________________________
dense_1069 (Dense)           (None, 200)               60200     
_________________________________________________________________
dense_1070 (Dense)           (None, 100)               20100     
_________________________________________________________________
dense_1071 (Dense)           (None, 50)                5050      
_________________________________________________________________
dense_1072 (Dense)           (None, 20)                1020      
_________________________________________________________________
dense_1073 (Dense)           (None, 4)                 84        
=================================================================
Total params: 1,258,754
Trainable params: 1,258,754
Non-trainable params: 0
_________________________________________________________________
None

Accuracy Train: 88.99%
Accuracy Test: 84.81%
Loss Train: 0.30
Loss Test: 0.50
Numero dati esaminati: 1712
True Positive 1452
False Positive 260


------------------------------------------------------------------------
…
