…
 - 1s - loss: 0.2367 - accuracy: 0.8950 - val_loss: 0.4968 - val_accuracy: 0.8584
Epoch 109/110
 - 2s - loss: 0.2394 - accuracy: 0.8950 - val_loss: 0.4939 - val_accuracy: 0.8577
Epoch 110/110
 - 2s - loss: 0.2393 - accuracy: 0.8921 - val_loss: 0.5116 - val_accuracy: 0.8606

Fit: epochs= 110 , batch_size= 64 , verbose= 2 , shuffle= False , validation_split= 0.2 

Model: "sequential_144"
_________________________________________________________________
Layer (type)                 Output Shape              Param #   
=================================================================
lstm_67 (LSTM)               (None, 500)               1022000   
_________________________________________________________________
dropout_144 (Dropout)        (None, 500)               0         
_________________________________________________________________
dense_936 (Dense)            (None, 300)               150300    
_________________________________________________________________
dense_937 (Dense)            (None, 200)               60200     
_________________________________________________________________
dense_938 (Dense)            (None, 100)               20100     
_________________________________________________________________
dense_939 (Dense)            (None, 50)                5050      
_________________________________________________________________
dense_940 (Dense)            (None, 20)                1020      
_________________________________________________________________
dense_941 (Dense)            (None, 4)                 84        
=================================================================
Total params: 1,258,754
Trainable params: 1,258,754
Non-trainable params: 0
_________________________________________________________________
None

Accuracy Train: 89.54%
Accuracy Test: 83.64%
Loss Train: 0.27
Loss Test: 0.56
Numero dati esaminati: 1712
True Positive 1432
False Positive 280


------------------------------------------------------------------------
…
