…
 - 3s - loss: 0.3355 - accuracy: 0.8538 - val_loss: 0.4234 - val_accuracy: 0.8504
Epoch 109/110
 - 3s - loss: 0.3283 - accuracy: 0.8591 - val_loss: 0.4347 - val_accuracy: 0.8423
Epoch 110/110
 - 3s - loss: 0.3336 - accuracy: 0.8600 - val_loss: 0.4268 - val_accuracy: 0.8453

Fit: epochs= 110 , batch_size= 64 , verbose= 2 , shuffle= False , validation_split= 0.2 

Model: "sequential_100"
_________________________________________________________________
Layer (type)                 Output Shape              Param #   
=================================================================
bidirectional_1 (Bidirection (None, 1000)              2048000   
_________________________________________________________________
dropout_100 (Dropout)        (None, 1000)              0         
_________________________________________________________________
dense_672 (Dense)            (None, 300)               300300    
_________________________________________________________________
dense_673 (Dense)            (None, 200)               60200     
_________________________________________________________________
dense_674 (Dense)            (None, 100)               20100     
_________________________________________________________________
dense_675 (Dense)            (None, 50)                5050      
_________________________________________________________________
dense_676 (Dense)            (None, 20)                1020      
_________________________________________________________________
dense_677 (Dense)            (None, 4)                 84        
=================================================================
Total params: 2,434,754
Trainable params: 2,434,754
Non-trainable params: 0
_________________________________________________________________
None

Accuracy Train: 85.65%
Accuracy Test: 84.05%
Loss Train: 0.35
Loss Test: 0.43
Numero dati esaminati: 1712
True Positive 1439
False Positive 273


------------------------------------------------------------------------
…
