…
 - 3s - loss: 0.2625 - accuracy: 0.9551 - val_loss: 0.7570 - val_accuracy: 0.8336

Number of filters: 16 , Kernel Size: 3 , Strides: 1 Batch Normalization: True , Conv_First: True , Depth Value: 20

Fit: epochs= 110 , batch_size= 64 , verbose= 2 , shuffle= False , validation_split= 0.2 

Model: "model_12"
__________________________________________________________________________________________________
Layer (type)                    Output Shape         Param #     Connected to                     
==================================================================================================
input_12 (InputLayer)           (None, 10, 1)        0                                            
__________________________________________________________________________________________________
conv1d_232 (Conv1D)             (None, 10, 16)       64          input_12[0][0]                   
__________________________________________________________________________________________________
batch_normalization_210 (BatchN (None, 10, 16)       64          conv1d_232[0][0]                 
__________________________________________________________________________________________________
activation_210 (Activation)     (None, 10, 16)       0           batch_normalization_210[0][0]    
__________________________________________________________________________________________________
conv1d_233 (Conv1D)             (None, 10, 16)       784         activation_210[0][0]             
__________________________________________________________________________________________________
batch_normalization_211 (BatchN (None, 10, 16)       64          conv1d_233[0][0]                 
__________________________________________________________________________________________________
activation_211 (Activation)     (None, 10, 16)       0           batch_normalization_211[0][0]    
__________________________________________________________________________________________________
conv1d_234 (Conv1D)             (None, 10, 16)       784         activation_211[0][0]             
__________________________________________________________________________________________________
batch_normalization_212 (BatchN (None, 10, 16)       64          conv1d_234[0][0]                 
__________________________________________________________________________________________________
add_100 (Add)                   (None, 10, 16)       0           activation_210[0][0]             
                                                                 batch_normalization_212[0][0]    
__________________________________________________________________________________________________
activation_212 (Activation)     (None, 10, 16)       0           add_100[0][0]                    
__________________________________________________________________________________________________
conv1d_235 (Conv1D)             (None, 10, 16)       784         activation_212[0][0]             
__________________________________________________________________________________________________
batch_normalization_213 (BatchN (None, 10, 16)       64          conv1d_235[0][0]                 
__________________________________________________________________________________________________
activation_213 (Activation)     (None, 10, 16)       0           batch_normalization_213[0][0]    
__________________________________________________________________________________________________
conv1d_236 (Conv1D)             (None, 10, 16)       784         activation_213[0][0]             
__________________________________________________________________________________________________
batch_normalization_214 (BatchN (None, 10, 16)       64          conv1d_236[0][0]                 
__________________________________________________________________________________________________
add_101 (Add)                   (None, 10, 16)       0           activation_212[0][0]             
                                                                 batch_normalization_214[0][0]    
__________________________________________________________________________________________________
activation_214 (Activation)     (None, 10, 16)       0           add_101[0][0]                    
__________________________________________________________________________________________________
conv1d_237 (Conv1D)             (None, 10, 16)       784         activation_214[0][0]             
__________________________________________________________________________________________________
batch_normalization_215 (BatchN (None, 10, 16)       64          conv1d_237[0][0]                 
__________________________________________________________________________________________________
activation_215 (Activation)     (None, 10, 16)       0           batch_normalization_215[0][0]    
__________________________________________________________________________________________________
conv1d_238 (Conv1D)             (None, 10, 16)       784         activation_215[0][0]             
__________________________________________________________________________________________________
batch_normalization_216 (BatchN (None, 10, 16)       64          conv1d_238[0][0]                 
__________________________________________________________________________________________________
add_102 (Add)                   (None, 10, 16)       0           activation_214[0][0]             
                                                                 batch_normalization_216[0][0]    
__________________________________________________________________________________________________
activation_216 (Activation)     (None, 10, 16)       0           add_102[0][0]                    
__________________________________________________________________________________________________
conv1d_239 (Conv1D)             (None, 5, 32)        1568        activation_216[0][0]             
__________________________________________________________________________________________________
batch_normalization_217 (BatchN (None, 5, 32)        128         conv1d_239[0][0]                 
__________________________________________________________________________________________________
activation_217 (Activation)     (None, 5, 32)        0           batch_normalization_217[0][0]    
__________________________________________________________________________________________________
conv1d_240 (Conv1D)             (None, 5, 32)        3104        activation_217[0][0]             
__________________________________________________________________________________________________
conv1d_241 (Conv1D)             (None, 5, 32)        544         activation_216[0][0]             
__________________________________________________________________________________________________
batch_normalization_218 (BatchN (None, 5, 32)        128         conv1d_240[0][0]                 
__________________________________________________________________________________________________
add_103 (Add)                   (None, 5, 32)        0           conv1d_241[0][0]                 
                                                                 batch_normalization_218[0][0]    
__________________________________________________________________________________________________
activation_218 (Activation)     (None, 5, 32)        0           add_103[0][0]                    
__________________________________________________________________________________________________
conv1d_242 (Conv1D)             (None, 5, 32)        3104        activation_218[0][0]             
__________________________________________________________________________________________________
batch_normalization_219 (BatchN (None, 5, 32)        128         conv1d_242[0][0]                 
__________________________________________________________________________________________________
activation_219 (Activation)     (None, 5, 32)        0           batch_normalization_219[0][0]    
__________________________________________________________________________________________________
conv1d_243 (Conv1D)             (None, 5, 32)        3104        activation_219[0][0]             
__________________________________________________________________________________________________
batch_normalization_220 (BatchN (None, 5, 32)        128         conv1d_243[0][0]                 
__________________________________________________________________________________________________
add_104 (Add)                   (None, 5, 32)        0           activation_218[0][0]             
                                                                 batch_normalization_220[0][0]    
__________________________________________________________________________________________________
activation_220 (Activation)     (None, 5, 32)        0           add_104[0][0]                    
__________________________________________________________________________________________________
conv1d_244 (Conv1D)             (None, 5, 32)        3104        activation_220[0][0]             
__________________________________________________________________________________________________
batch_normalization_221 (BatchN (None, 5, 32)        128         conv1d_244[0][0]                 
__________________________________________________________________________________________________
activation_221 (Activation)     (None, 5, 32)        0           batch_normalization_221[0][0]    
__________________________________________________________________________________________________
conv1d_245 (Conv1D)             (None, 5, 32)        3104        activation_221[0][0]             
__________________________________________________________________________________________________
batch_normalization_222 (BatchN (None, 5, 32)        128         conv1d_245[0][0]                 
__________________________________________________________________________________________________
add_105 (Add)                   (None, 5, 32)        0           activation_220[0][0]             
                                                                 batch_normalization_222[0][0]    
__________________________________________________________________________________________________
activation_222 (Activation)     (None, 5, 32)        0           add_105[0][0]                    
__________________________________________________________________________________________________
conv1d_246 (Conv1D)             (None, 3, 64)        6208        activation_222[0][0]             
__________________________________________________________________________________________________
batch_normalization_223 (BatchN (None, 3, 64)        256         conv1d_246[0][0]                 
__________________________________________________________________________________________________
activation_223 (Activation)     (None, 3, 64)        0           batch_normalization_223[0][0]    
__________________________________________________________________________________________________
conv1d_247 (Conv1D)             (None, 3, 64)        12352       activation_223[0][0]             
__________________________________________________________________________________________________
conv1d_248 (Conv1D)             (None, 3, 64)        2112        activation_222[0][0]             
__________________________________________________________________________________________________
batch_normalization_224 (BatchN (None, 3, 64)        256         conv1d_247[0][0]                 
__________________________________________________________________________________________________
add_106 (Add)                   (None, 3, 64)        0           conv1d_248[0][0]                 
                                                                 batch_normalization_224[0][0]    
__________________________________________________________________________________________________
activation_224 (Activation)     (None, 3, 64)        0           add_106[0][0]                    
__________________________________________________________________________________________________
conv1d_249 (Conv1D)             (None, 3, 64)        12352       activation_224[0][0]             
__________________________________________________________________________________________________
batch_normalization_225 (BatchN (None, 3, 64)        256         conv1d_249[0][0]                 
__________________________________________________________________________________________________
activation_225 (Activation)     (None, 3, 64)        0           batch_normalization_225[0][0]    
__________________________________________________________________________________________________
conv1d_250 (Conv1D)             (None, 3, 64)        12352       activation_225[0][0]             
__________________________________________________________________________________________________
batch_normalization_226 (BatchN (None, 3, 64)        256         conv1d_250[0][0]                 
__________________________________________________________________________________________________
add_107 (Add)                   (None, 3, 64)        0           activation_224[0][0]             
                                                                 batch_normalization_226[0][0]    
__________________________________________________________________________________________________
activation_226 (Activation)     (None, 3, 64)        0           add_107[0][0]                    
__________________________________________________________________________________________________
conv1d_251 (Conv1D)             (None, 3, 64)        12352       activation_226[0][0]             
__________________________________________________________________________________________________
batch_normalization_227 (BatchN (None, 3, 64)        256         conv1d_251[0][0]                 
__________________________________________________________________________________________________
activation_227 (Activation)     (None, 3, 64)        0           batch_normalization_227[0][0]    
__________________________________________________________________________________________________
conv1d_252 (Conv1D)             (None, 3, 64)        12352       activation_227[0][0]             
__________________________________________________________________________________________________
batch_normalization_228 (BatchN (None, 3, 64)        256         conv1d_252[0][0]                 
__________________________________________________________________________________________________
add_108 (Add)                   (None, 3, 64)        0           activation_226[0][0]             
                                                                 batch_normalization_228[0][0]    
__________________________________________________________________________________________________
activation_228 (Activation)     (None, 3, 64)        0           add_108[0][0]                    
__________________________________________________________________________________________________
average_pooling1d_12 (AveragePo (None, 3, 64)        0           activation_228[0][0]             
__________________________________________________________________________________________________
flatten_12 (Flatten)            (None, 192)          0           average_pooling1d_12[0][0]       
__________________________________________________________________________________________________
dense_12 (Dense)                (None, 4)            772         flatten_12[0][0]                 
==================================================================================================
Total params: 96,004
Trainable params: 94,628
Non-trainable params: 1,376
__________________________________________________________________________________________________
None

Accuracy Train: 84.96%
Accuracy Test: 82.83%
Loss Train: 0.62
Loss Test: 0.75
Numero dati esaminati: 1712
…
