…
 - 2s - loss: 0.4104 - accuracy: 0.8196 - val_loss: 0.8661 - val_accuracy: 0.7270
Epoch 109/110
 - 2s - loss: 0.4069 - accuracy: 0.8233 - val_loss: 0.9183 - val_accuracy: 0.7380
Epoch 110/110
 - 2s - loss: 0.4060 - accuracy: 0.8209 - val_loss: 0.8730 - val_accuracy: 0.7365

Fit: epochs= 110 , batch_size= 64 , verbose= 2 , shuffle= False , validation_split= 0.2 

Model: "sequential_45"
_________________________________________________________________
Layer (type)                 Output Shape              Param #   
=================================================================
conv1d_45 (Conv1D)           (None, 10, 500)           1000      
_________________________________________________________________
activation_89 (Activation)   (None, 10, 500)           0         
_________________________________________________________________
flatten_45 (Flatten)         (None, 5000)              0         
_________________________________________________________________
dropout_45 (Dropout)         (None, 5000)              0         
_________________________________________________________________
dense_309 (Dense)            (None, 400)               2000400   
_________________________________________________________________
dense_310 (Dense)            (None, 300)               120300    
_________________________________________________________________
dense_311 (Dense)            (None, 200)               60200     
_________________________________________________________________
dense_312 (Dense)            (None, 100)               20100     
_________________________________________________________________
dense_313 (Dense)            (None, 50)                5050      
_________________________________________________________________
dense_314 (Dense)            (None, 20)                1020      
_________________________________________________________________
dense_315 (Dense)            (None, 4)                 84        
_________________________________________________________________
activation_90 (Activation)   (None, 4)                 0         
=================================================================
Total params: 2,208,154
Trainable params: 2,208,154
Non-trainable params: 0
_________________________________________________________________
None

Accuracy Train: 83.37%
Accuracy Test: 73.71%
Loss Train: 0.45
Loss Test: 0.94
Numero dati esaminati: 1712
True Positive 1262
False Positive 450


------------------------------------------------------------------------
…
