…
 - 3s - loss: 0.3303 - accuracy: 0.9425 - val_loss: 1.5664 - val_accuracy: 0.6927

Number of filters: 16 , Kernel Size: 3 , Strides: 1 Batch Normalization: True , Conv_First: True , Depth Value: 20

Fit: epochs= 110 , batch_size= 64 , verbose= 2 , shuffle= False , validation_split= 0.2 

Model: "model_45"
__________________________________________________________________________________________________
Layer (type)                    Output Shape         Param #     Connected to                     
==================================================================================================
input_45 (InputLayer)           (None, 10, 1)        0                                            
__________________________________________________________________________________________________
conv1d_925 (Conv1D)             (None, 10, 16)       64          input_45[0][0]                   
__________________________________________________________________________________________________
batch_normalization_837 (BatchN (None, 10, 16)       64          conv1d_925[0][0]                 
__________________________________________________________________________________________________
activation_837 (Activation)     (None, 10, 16)       0           batch_normalization_837[0][0]    
__________________________________________________________________________________________________
conv1d_926 (Conv1D)             (None, 10, 16)       784         activation_837[0][0]             
__________________________________________________________________________________________________
batch_normalization_838 (BatchN (None, 10, 16)       64          conv1d_926[0][0]                 
__________________________________________________________________________________________________
activation_838 (Activation)     (None, 10, 16)       0           batch_normalization_838[0][0]    
__________________________________________________________________________________________________
conv1d_927 (Conv1D)             (None, 10, 16)       784         activation_838[0][0]             
__________________________________________________________________________________________________
batch_normalization_839 (BatchN (None, 10, 16)       64          conv1d_927[0][0]                 
__________________________________________________________________________________________________
add_397 (Add)                   (None, 10, 16)       0           activation_837[0][0]             
                                                                 batch_normalization_839[0][0]    
__________________________________________________________________________________________________
activation_839 (Activation)     (None, 10, 16)       0           add_397[0][0]                    
__________________________________________________________________________________________________
conv1d_928 (Conv1D)             (None, 10, 16)       784         activation_839[0][0]             
__________________________________________________________________________________________________
batch_normalization_840 (BatchN (None, 10, 16)       64          conv1d_928[0][0]                 
__________________________________________________________________________________________________
activation_840 (Activation)     (None, 10, 16)       0           batch_normalization_840[0][0]    
__________________________________________________________________________________________________
conv1d_929 (Conv1D)             (None, 10, 16)       784         activation_840[0][0]             
__________________________________________________________________________________________________
batch_normalization_841 (BatchN (None, 10, 16)       64          conv1d_929[0][0]                 
__________________________________________________________________________________________________
add_398 (Add)                   (None, 10, 16)       0           activation_839[0][0]             
                                                                 batch_normalization_841[0][0]    
__________________________________________________________________________________________________
activation_841 (Activation)     (None, 10, 16)       0           add_398[0][0]                    
__________________________________________________________________________________________________
conv1d_930 (Conv1D)             (None, 10, 16)       784         activation_841[0][0]             
__________________________________________________________________________________________________
batch_normalization_842 (BatchN (None, 10, 16)       64          conv1d_930[0][0]                 
__________________________________________________________________________________________________
activation_842 (Activation)     (None, 10, 16)       0           batch_normalization_842[0][0]    
__________________________________________________________________________________________________
conv1d_931 (Conv1D)             (None, 10, 16)       784         activation_842[0][0]             
__________________________________________________________________________________________________
batch_normalization_843 (BatchN (None, 10, 16)       64          conv1d_931[0][0]                 
__________________________________________________________________________________________________
add_399 (Add)                   (None, 10, 16)       0           activation_841[0][0]             
                                                                 batch_normalization_843[0][0]    
__________________________________________________________________________________________________
activation_843 (Activation)     (None, 10, 16)       0           add_399[0][0]                    
__________________________________________________________________________________________________
conv1d_932 (Conv1D)             (None, 5, 32)        1568        activation_843[0][0]             
__________________________________________________________________________________________________
batch_normalization_844 (BatchN (None, 5, 32)        128         conv1d_932[0][0]                 
__________________________________________________________________________________________________
activation_844 (Activation)     (None, 5, 32)        0           batch_normalization_844[0][0]    
__________________________________________________________________________________________________
conv1d_933 (Conv1D)             (None, 5, 32)        3104        activation_844[0][0]             
__________________________________________________________________________________________________
conv1d_934 (Conv1D)             (None, 5, 32)        544         activation_843[0][0]             
__________________________________________________________________________________________________
batch_normalization_845 (BatchN (None, 5, 32)        128         conv1d_933[0][0]                 
__________________________________________________________________________________________________
add_400 (Add)                   (None, 5, 32)        0           conv1d_934[0][0]                 
                                                                 batch_normalization_845[0][0]    
__________________________________________________________________________________________________
activation_845 (Activation)     (None, 5, 32)        0           add_400[0][0]                    
__________________________________________________________________________________________________
conv1d_935 (Conv1D)             (None, 5, 32)        3104        activation_845[0][0]             
__________________________________________________________________________________________________
batch_normalization_846 (BatchN (None, 5, 32)        128         conv1d_935[0][0]                 
__________________________________________________________________________________________________
activation_846 (Activation)     (None, 5, 32)        0           batch_normalization_846[0][0]    
__________________________________________________________________________________________________
conv1d_936 (Conv1D)             (None, 5, 32)        3104        activation_846[0][0]             
__________________________________________________________________________________________________
batch_normalization_847 (BatchN (None, 5, 32)        128         conv1d_936[0][0]                 
__________________________________________________________________________________________________
add_401 (Add)                   (None, 5, 32)        0           activation_845[0][0]             
                                                                 batch_normalization_847[0][0]    
__________________________________________________________________________________________________
activation_847 (Activation)     (None, 5, 32)        0           add_401[0][0]                    
__________________________________________________________________________________________________
conv1d_937 (Conv1D)             (None, 5, 32)        3104        activation_847[0][0]             
__________________________________________________________________________________________________
batch_normalization_848 (BatchN (None, 5, 32)        128         conv1d_937[0][0]                 
__________________________________________________________________________________________________
activation_848 (Activation)     (None, 5, 32)        0           batch_normalization_848[0][0]    
__________________________________________________________________________________________________
conv1d_938 (Conv1D)             (None, 5, 32)        3104        activation_848[0][0]             
__________________________________________________________________________________________________
batch_normalization_849 (BatchN (None, 5, 32)        128         conv1d_938[0][0]                 
__________________________________________________________________________________________________
add_402 (Add)                   (None, 5, 32)        0           activation_847[0][0]             
                                                                 batch_normalization_849[0][0]    
__________________________________________________________________________________________________
activation_849 (Activation)     (None, 5, 32)        0           add_402[0][0]                    
__________________________________________________________________________________________________
conv1d_939 (Conv1D)             (None, 3, 64)        6208        activation_849[0][0]             
__________________________________________________________________________________________________
batch_normalization_850 (BatchN (None, 3, 64)        256         conv1d_939[0][0]                 
__________________________________________________________________________________________________
activation_850 (Activation)     (None, 3, 64)        0           batch_normalization_850[0][0]    
__________________________________________________________________________________________________
conv1d_940 (Conv1D)             (None, 3, 64)        12352       activation_850[0][0]             
__________________________________________________________________________________________________
conv1d_941 (Conv1D)             (None, 3, 64)        2112        activation_849[0][0]             
__________________________________________________________________________________________________
batch_normalization_851 (BatchN (None, 3, 64)        256         conv1d_940[0][0]                 
__________________________________________________________________________________________________
add_403 (Add)                   (None, 3, 64)        0           conv1d_941[0][0]                 
                                                                 batch_normalization_851[0][0]    
__________________________________________________________________________________________________
activation_851 (Activation)     (None, 3, 64)        0           add_403[0][0]                    
__________________________________________________________________________________________________
conv1d_942 (Conv1D)             (None, 3, 64)        12352       activation_851[0][0]             
__________________________________________________________________________________________________
batch_normalization_852 (BatchN (None, 3, 64)        256         conv1d_942[0][0]                 
__________________________________________________________________________________________________
activation_852 (Activation)     (None, 3, 64)        0           batch_normalization_852[0][0]    
__________________________________________________________________________________________________
conv1d_943 (Conv1D)             (None, 3, 64)        12352       activation_852[0][0]             
__________________________________________________________________________________________________
batch_normalization_853 (BatchN (None, 3, 64)        256         conv1d_943[0][0]                 
__________________________________________________________________________________________________
add_404 (Add)                   (None, 3, 64)        0           activation_851[0][0]             
                                                                 batch_normalization_853[0][0]    
__________________________________________________________________________________________________
activation_853 (Activation)     (None, 3, 64)        0           add_404[0][0]                    
__________________________________________________________________________________________________
conv1d_944 (Conv1D)             (None, 3, 64)        12352       activation_853[0][0]             
__________________________________________________________________________________________________
batch_normalization_854 (BatchN (None, 3, 64)        256         conv1d_944[0][0]                 
__________________________________________________________________________________________________
activation_854 (Activation)     (None, 3, 64)        0           batch_normalization_854[0][0]    
__________________________________________________________________________________________________
conv1d_945 (Conv1D)             (None, 3, 64)        12352       activation_854[0][0]             
__________________________________________________________________________________________________
batch_normalization_855 (BatchN (None, 3, 64)        256         conv1d_945[0][0]                 
__________________________________________________________________________________________________
add_405 (Add)                   (None, 3, 64)        0           activation_853[0][0]             
                                                                 batch_normalization_855[0][0]    
__________________________________________________________________________________________________
activation_855 (Activation)     (None, 3, 64)        0           add_405[0][0]                    
__________________________________________________________________________________________________
average_pooling1d_45 (AveragePo (None, 3, 64)        0           activation_855[0][0]             
__________________________________________________________________________________________________
flatten_45 (Flatten)            (None, 192)          0           average_pooling1d_45[0][0]       
__________________________________________________________________________________________________
dense_45 (Dense)                (None, 4)            772         flatten_45[0][0]                 
==================================================================================================
Total params: 96,004
Trainable params: 94,628
Non-trainable params: 1,376
__________________________________________________________________________________________________
None

Accuracy Train: 76.93%
Accuracy Test: 67.41%
Loss Train: 1.01
Loss Test: 1.64
Numero dati esaminati: 1712
…
