…
 - 2s - loss: 0.3210 - accuracy: 0.8622 - val_loss: 0.4636 - val_accuracy: 0.8482
Epoch 109/110
 - 2s - loss: 0.3201 - accuracy: 0.8609 - val_loss: 0.4575 - val_accuracy: 0.8467
Epoch 110/110
 - 3s - loss: 0.3277 - accuracy: 0.8622 - val_loss: 0.4542 - val_accuracy: 0.8423

Fit: epochs= 110 , batch_size= 64 , verbose= 2 , shuffle= False , validation_split= 0.2 

Model: "sequential_111"
_________________________________________________________________
Layer (type)                 Output Shape              Param #   
=================================================================
bidirectional_12 (Bidirectio (None, 1000)              2044000   
_________________________________________________________________
dropout_111 (Dropout)        (None, 1000)              0         
_________________________________________________________________
dense_738 (Dense)            (None, 300)               300300    
_________________________________________________________________
dense_739 (Dense)            (None, 200)               60200     
_________________________________________________________________
dense_740 (Dense)            (None, 100)               20100     
_________________________________________________________________
dense_741 (Dense)            (None, 50)                5050      
_________________________________________________________________
dense_742 (Dense)            (None, 20)                1020      
_________________________________________________________________
dense_743 (Dense)            (None, 4)                 84        
=================================================================
Total params: 2,430,754
Trainable params: 2,430,754
Non-trainable params: 0
_________________________________________________________________
None

Accuracy Train: 86.16%
Accuracy Test: 83.88%
Loss Train: 0.33
Loss Test: 0.43
Numero dati esaminati: 1712
True Positive 1436
False Positive 276


------------------------------------------------------------------------
…
