…
 - 0s - loss: 0.0511 - accuracy: 0.8616 - val_loss: 0.0592 - val_accuracy: 0.8489
Epoch 109/110
 - 0s - loss: 0.0519 - accuracy: 0.8540 - val_loss: 0.0588 - val_accuracy: 0.8504
Epoch 110/110
 - 0s - loss: 0.0532 - accuracy: 0.8554 - val_loss: 0.0627 - val_accuracy: 0.8387

Fit: epochs= 110 , batch_size= 64 , verbose= 2 , shuffle= False , validation_split= 0.2 

Model: "sequential_276"
_________________________________________________________________
Layer (type)                 Output Shape              Param #   
=================================================================
dense_1882 (Dense)           (None, 10)                110       
_________________________________________________________________
dense_1883 (Dense)           (None, 500)               5500      
_________________________________________________________________
dense_1884 (Dense)           (None, 300)               150300    
_________________________________________________________________
dense_1885 (Dense)           (None, 200)               60200     
_________________________________________________________________
dense_1886 (Dense)           (None, 100)               20100     
_________________________________________________________________
dense_1887 (Dense)           (None, 50)                5050      
_________________________________________________________________
dense_1888 (Dense)           (None, 20)                1020      
_________________________________________________________________
dense_1889 (Dense)           (None, 4)                 84        
=================================================================
Total params: 242,364
Trainable params: 242,364
Non-trainable params: 0
_________________________________________________________________
None

Accuracy Train: 85.73%
Accuracy Test: 83.82%
Loss Train: 0.05
Loss Test: 0.06
Numero dati esaminati: 1712
True Positive 1435
False Positive 277


------------------------------------------------------------------------
…
