…
 - 0s - loss: 0.2153 - accuracy: 0.9104 - val_loss: 0.5860 - val_accuracy: 0.8489
Epoch 109/110
 - 0s - loss: 0.2188 - accuracy: 0.9073 - val_loss: 0.5613 - val_accuracy: 0.8482
Epoch 110/110
 - 0s - loss: 0.2076 - accuracy: 0.9116 - val_loss: 0.5726 - val_accuracy: 0.8540

Fit: epochs= 110 , batch_size= 64 , verbose= 2 , shuffle= False , validation_split= 0.2 

Model: "sequential_265"
_________________________________________________________________
Layer (type)                 Output Shape              Param #   
=================================================================
dense_1794 (Dense)           (None, 10)                110       
_________________________________________________________________
dense_1795 (Dense)           (None, 500)               5500      
_________________________________________________________________
dense_1796 (Dense)           (None, 300)               150300    
_________________________________________________________________
dense_1797 (Dense)           (None, 200)               60200     
_________________________________________________________________
dense_1798 (Dense)           (None, 100)               20100     
_________________________________________________________________
dense_1799 (Dense)           (None, 50)                5050      
_________________________________________________________________
dense_1800 (Dense)           (None, 20)                1020      
_________________________________________________________________
dense_1801 (Dense)           (None, 4)                 84        
=================================================================
Total params: 242,364
Trainable params: 242,364
Non-trainable params: 0
_________________________________________________________________
None

Accuracy Train: 90.06%
Accuracy Test: 84.35%
Loss Train: 0.28
Loss Test: 0.60
Numero dati esaminati: 1712
True Positive 1444
False Positive 268


------------------------------------------------------------------------
…
