…
 - 1s - loss: 0.3421 - accuracy: 0.8563 - val_loss: 0.4442 - val_accuracy: 0.8591
Epoch 109/110
 - 1s - loss: 0.3399 - accuracy: 0.8543 - val_loss: 0.4365 - val_accuracy: 0.8591
Epoch 110/110
 - 1s - loss: 0.3473 - accuracy: 0.8507 - val_loss: 0.4438 - val_accuracy: 0.8496

Fit: epochs= 110 , batch_size= 64 , verbose= 2 , shuffle= False , validation_split= 0.2 

Model: "sequential_67"
_________________________________________________________________
Layer (type)                 Output Shape              Param #   
=================================================================
conv1d_67 (Conv1D)           (None, 11, 500)           1000      
_________________________________________________________________
activation_133 (Activation)  (None, 11, 500)           0         
_________________________________________________________________
flatten_67 (Flatten)         (None, 5500)              0         
_________________________________________________________________
dropout_67 (Dropout)         (None, 5500)              0         
_________________________________________________________________
dense_463 (Dense)            (None, 400)               2200400   
_________________________________________________________________
dense_464 (Dense)            (None, 300)               120300    
_________________________________________________________________
dense_465 (Dense)            (None, 200)               60200     
_________________________________________________________________
dense_466 (Dense)            (None, 100)               20100     
_________________________________________________________________
dense_467 (Dense)            (None, 50)                5050      
_________________________________________________________________
dense_468 (Dense)            (None, 20)                1020      
_________________________________________________________________
dense_469 (Dense)            (None, 4)                 84        
_________________________________________________________________
activation_134 (Activation)  (None, 4)                 0         
=================================================================
Total params: 2,408,154
Trainable params: 2,408,154
Non-trainable params: 0
_________________________________________________________________
None

Accuracy Train: 86.86%
Accuracy Test: 84.52%
Loss Train: 0.33
Loss Test: 0.42
Numero dati esaminati: 1712
True Positive 1447
False Positive 265


------------------------------------------------------------------------
…
