…
 - 3s - loss: 0.2489 - accuracy: 0.9666 - val_loss: 0.8857 - val_accuracy: 0.8511

Number of filters: 16 , Kernel Size: 3 , Strides: 1 Batch Normalization: True , Conv_First: True , Depth Value: 20

Fit: epochs= 110 , batch_size= 64 , verbose= 2 , shuffle= False , validation_split= 0.2 

Model: "model_56"
__________________________________________________________________________________________________
Layer (type)                    Output Shape         Param #     Connected to                     
==================================================================================================
input_56 (InputLayer)           (None, 10, 1)        0                                            
__________________________________________________________________________________________________
conv1d_1156 (Conv1D)            (None, 10, 16)       64          input_56[0][0]                   
__________________________________________________________________________________________________
batch_normalization_1046 (Batch (None, 10, 16)       64          conv1d_1156[0][0]                
__________________________________________________________________________________________________
activation_1046 (Activation)    (None, 10, 16)       0           batch_normalization_1046[0][0]   
__________________________________________________________________________________________________
conv1d_1157 (Conv1D)            (None, 10, 16)       784         activation_1046[0][0]            
__________________________________________________________________________________________________
batch_normalization_1047 (Batch (None, 10, 16)       64          conv1d_1157[0][0]                
__________________________________________________________________________________________________
activation_1047 (Activation)    (None, 10, 16)       0           batch_normalization_1047[0][0]   
__________________________________________________________________________________________________
conv1d_1158 (Conv1D)            (None, 10, 16)       784         activation_1047[0][0]            
__________________________________________________________________________________________________
batch_normalization_1048 (Batch (None, 10, 16)       64          conv1d_1158[0][0]                
__________________________________________________________________________________________________
add_496 (Add)                   (None, 10, 16)       0           activation_1046[0][0]            
                                                                 batch_normalization_1048[0][0]   
__________________________________________________________________________________________________
activation_1048 (Activation)    (None, 10, 16)       0           add_496[0][0]                    
__________________________________________________________________________________________________
conv1d_1159 (Conv1D)            (None, 10, 16)       784         activation_1048[0][0]            
__________________________________________________________________________________________________
batch_normalization_1049 (Batch (None, 10, 16)       64          conv1d_1159[0][0]                
__________________________________________________________________________________________________
activation_1049 (Activation)    (None, 10, 16)       0           batch_normalization_1049[0][0]   
__________________________________________________________________________________________________
conv1d_1160 (Conv1D)            (None, 10, 16)       784         activation_1049[0][0]            
__________________________________________________________________________________________________
batch_normalization_1050 (Batch (None, 10, 16)       64          conv1d_1160[0][0]                
__________________________________________________________________________________________________
add_497 (Add)                   (None, 10, 16)       0           activation_1048[0][0]            
                                                                 batch_normalization_1050[0][0]   
__________________________________________________________________________________________________
activation_1050 (Activation)    (None, 10, 16)       0           add_497[0][0]                    
__________________________________________________________________________________________________
conv1d_1161 (Conv1D)            (None, 10, 16)       784         activation_1050[0][0]            
__________________________________________________________________________________________________
batch_normalization_1051 (Batch (None, 10, 16)       64          conv1d_1161[0][0]                
__________________________________________________________________________________________________
activation_1051 (Activation)    (None, 10, 16)       0           batch_normalization_1051[0][0]   
__________________________________________________________________________________________________
conv1d_1162 (Conv1D)            (None, 10, 16)       784         activation_1051[0][0]            
__________________________________________________________________________________________________
batch_normalization_1052 (Batch (None, 10, 16)       64          conv1d_1162[0][0]                
__________________________________________________________________________________________________
add_498 (Add)                   (None, 10, 16)       0           activation_1050[0][0]            
                                                                 batch_normalization_1052[0][0]   
__________________________________________________________________________________________________
activation_1052 (Activation)    (None, 10, 16)       0           add_498[0][0]                    
__________________________________________________________________________________________________
conv1d_1163 (Conv1D)            (None, 5, 32)        1568        activation_1052[0][0]            
__________________________________________________________________________________________________
batch_normalization_1053 (Batch (None, 5, 32)        128         conv1d_1163[0][0]                
__________________________________________________________________________________________________
activation_1053 (Activation)    (None, 5, 32)        0           batch_normalization_1053[0][0]   
__________________________________________________________________________________________________
conv1d_1164 (Conv1D)            (None, 5, 32)        3104        activation_1053[0][0]            
__________________________________________________________________________________________________
conv1d_1165 (Conv1D)            (None, 5, 32)        544         activation_1052[0][0]            
__________________________________________________________________________________________________
batch_normalization_1054 (Batch (None, 5, 32)        128         conv1d_1164[0][0]                
__________________________________________________________________________________________________
add_499 (Add)                   (None, 5, 32)        0           conv1d_1165[0][0]                
                                                                 batch_normalization_1054[0][0]   
__________________________________________________________________________________________________
activation_1054 (Activation)    (None, 5, 32)        0           add_499[0][0]                    
__________________________________________________________________________________________________
conv1d_1166 (Conv1D)            (None, 5, 32)        3104        activation_1054[0][0]            
__________________________________________________________________________________________________
batch_normalization_1055 (Batch (None, 5, 32)        128         conv1d_1166[0][0]                
__________________________________________________________________________________________________
activation_1055 (Activation)    (None, 5, 32)        0           batch_normalization_1055[0][0]   
__________________________________________________________________________________________________
conv1d_1167 (Conv1D)            (None, 5, 32)        3104        activation_1055[0][0]            
__________________________________________________________________________________________________
batch_normalization_1056 (Batch (None, 5, 32)        128         conv1d_1167[0][0]                
__________________________________________________________________________________________________
add_500 (Add)                   (None, 5, 32)        0           activation_1054[0][0]            
                                                                 batch_normalization_1056[0][0]   
__________________________________________________________________________________________________
activation_1056 (Activation)    (None, 5, 32)        0           add_500[0][0]                    
__________________________________________________________________________________________________
conv1d_1168 (Conv1D)            (None, 5, 32)        3104        activation_1056[0][0]            
__________________________________________________________________________________________________
batch_normalization_1057 (Batch (None, 5, 32)        128         conv1d_1168[0][0]                
__________________________________________________________________________________________________
activation_1057 (Activation)    (None, 5, 32)        0           batch_normalization_1057[0][0]   
__________________________________________________________________________________________________
conv1d_1169 (Conv1D)            (None, 5, 32)        3104        activation_1057[0][0]            
__________________________________________________________________________________________________
batch_normalization_1058 (Batch (None, 5, 32)        128         conv1d_1169[0][0]                
__________________________________________________________________________________________________
add_501 (Add)                   (None, 5, 32)        0           activation_1056[0][0]            
                                                                 batch_normalization_1058[0][0]   
__________________________________________________________________________________________________
activation_1058 (Activation)    (None, 5, 32)        0           add_501[0][0]                    
__________________________________________________________________________________________________
conv1d_1170 (Conv1D)            (None, 3, 64)        6208        activation_1058[0][0]            
__________________________________________________________________________________________________
batch_normalization_1059 (Batch (None, 3, 64)        256         conv1d_1170[0][0]                
__________________________________________________________________________________________________
activation_1059 (Activation)    (None, 3, 64)        0           batch_normalization_1059[0][0]   
__________________________________________________________________________________________________
conv1d_1171 (Conv1D)            (None, 3, 64)        12352       activation_1059[0][0]            
__________________________________________________________________________________________________
conv1d_1172 (Conv1D)            (None, 3, 64)        2112        activation_1058[0][0]            
__________________________________________________________________________________________________
batch_normalization_1060 (Batch (None, 3, 64)        256         conv1d_1171[0][0]                
__________________________________________________________________________________________________
add_502 (Add)                   (None, 3, 64)        0           conv1d_1172[0][0]                
                                                                 batch_normalization_1060[0][0]   
__________________________________________________________________________________________________
activation_1060 (Activation)    (None, 3, 64)        0           add_502[0][0]                    
__________________________________________________________________________________________________
conv1d_1173 (Conv1D)            (None, 3, 64)        12352       activation_1060[0][0]            
__________________________________________________________________________________________________
batch_normalization_1061 (Batch (None, 3, 64)        256         conv1d_1173[0][0]                
__________________________________________________________________________________________________
activation_1061 (Activation)    (None, 3, 64)        0           batch_normalization_1061[0][0]   
__________________________________________________________________________________________________
conv1d_1174 (Conv1D)            (None, 3, 64)        12352       activation_1061[0][0]            
__________________________________________________________________________________________________
batch_normalization_1062 (Batch (None, 3, 64)        256         conv1d_1174[0][0]                
__________________________________________________________________________________________________
add_503 (Add)                   (None, 3, 64)        0           activation_1060[0][0]            
                                                                 batch_normalization_1062[0][0]   
__________________________________________________________________________________________________
activation_1062 (Activation)    (None, 3, 64)        0           add_503[0][0]                    
__________________________________________________________________________________________________
conv1d_1175 (Conv1D)            (None, 3, 64)        12352       activation_1062[0][0]            
__________________________________________________________________________________________________
batch_normalization_1063 (Batch (None, 3, 64)        256         conv1d_1175[0][0]                
__________________________________________________________________________________________________
activation_1063 (Activation)    (None, 3, 64)        0           batch_normalization_1063[0][0]   
__________________________________________________________________________________________________
conv1d_1176 (Conv1D)            (None, 3, 64)        12352       activation_1063[0][0]            
__________________________________________________________________________________________________
batch_normalization_1064 (Batch (None, 3, 64)        256         conv1d_1176[0][0]                
__________________________________________________________________________________________________
add_504 (Add)                   (None, 3, 64)        0           activation_1062[0][0]            
                                                                 batch_normalization_1064[0][0]   
__________________________________________________________________________________________________
activation_1064 (Activation)    (None, 3, 64)        0           add_504[0][0]                    
__________________________________________________________________________________________________
average_pooling1d_56 (AveragePo (None, 3, 64)        0           activation_1064[0][0]            
__________________________________________________________________________________________________
flatten_56 (Flatten)            (None, 192)          0           average_pooling1d_56[0][0]       
__________________________________________________________________________________________________
dense_56 (Dense)                (None, 4)            772         flatten_56[0][0]                 
==================================================================================================
Total params: 96,004
Trainable params: 94,628
Non-trainable params: 1,376
__________________________________________________________________________________________________
None

Accuracy Train: 89.59%
Accuracy Test: 83.88%
Loss Train: 0.55
Loss Test: 0.98
Numero dati esaminati: 1712
…
