…
 - 16s - loss: 0.1654 - accuracy: 0.9241 - val_loss: 0.7006 - val_accuracy: 0.8664
Epoch 109/110
 - 16s - loss: 0.1773 - accuracy: 0.9202 - val_loss: 0.7482 - val_accuracy: 0.8664
Epoch 110/110
 - 16s - loss: 0.1727 - accuracy: 0.9241 - val_loss: 0.7729 - val_accuracy: 0.8679

Fit: epochs= 110 , batch_size= 64 , verbose= 2 , shuffle= False , validation_split= 0.2 

Model: "sequential_56"
_________________________________________________________________
Layer (type)                 Output Shape              Param #   
=================================================================
conv1d_56 (Conv1D)           (None, 10, 500)           1000      
_________________________________________________________________
activation_56 (Activation)   (None, 10, 500)           0         
_________________________________________________________________
lstm_56 (LSTM)               (None, 500)               2002000   
_________________________________________________________________
dropout_56 (Dropout)         (None, 500)               0         
_________________________________________________________________
dense_386 (Dense)            (None, 400)               200400    
_________________________________________________________________
dense_387 (Dense)            (None, 300)               120300    
_________________________________________________________________
dense_388 (Dense)            (None, 200)               60200     
_________________________________________________________________
dense_389 (Dense)            (None, 100)               20100     
_________________________________________________________________
dense_390 (Dense)            (None, 50)                5050      
_________________________________________________________________
dense_391 (Dense)            (None, 20)                1020      
_________________________________________________________________
dense_392 (Dense)            (None, 4)                 84        
=================================================================
Total params: 2,410,154
Trainable params: 2,410,154
Non-trainable params: 0
_________________________________________________________________
None

Accuracy Train: 91.28%
Accuracy Test: 85.40%
Loss Train: 0.29
Loss Test: 0.70
Numero dati esaminati: 1712
True Positive 1462
False Positive 250


------------------------------------------------------------------------
…
