…
 - 0s - loss: 0.5036 - accuracy: 0.7791 - val_loss: 1.0877 - val_accuracy: 0.6723
Epoch 109/110
 - 0s - loss: 0.5002 - accuracy: 0.7771 - val_loss: 1.0724 - val_accuracy: 0.6818
Epoch 110/110
 - 0s - loss: 0.5065 - accuracy: 0.7797 - val_loss: 1.0518 - val_accuracy: 0.6664

Fit: epochs= 110 , batch_size= 64 , verbose= 2 , shuffle= False , validation_split= 0.2 

Model: "sequential_232"
_________________________________________________________________
Layer (type)                 Output Shape              Param #   
=================================================================
dense_1530 (Dense)           (None, 10)                110       
_________________________________________________________________
dense_1531 (Dense)           (None, 500)               5500      
_________________________________________________________________
dense_1532 (Dense)           (None, 300)               150300    
_________________________________________________________________
dense_1533 (Dense)           (None, 200)               60200     
_________________________________________________________________
dense_1534 (Dense)           (None, 100)               20100     
_________________________________________________________________
dense_1535 (Dense)           (None, 50)                5050      
_________________________________________________________________
dense_1536 (Dense)           (None, 20)                1020      
_________________________________________________________________
dense_1537 (Dense)           (None, 4)                 84        
=================================================================
Total params: 242,364
Trainable params: 242,364
Non-trainable params: 0
_________________________________________________________________
None

Accuracy Train: 75.39%
Accuracy Test: 65.36%
Loss Train: 0.65
Loss Test: 1.11
Numero dati esaminati: 1712
True Positive 1119
False Positive 593


------------------------------------------------------------------------
…
