…
 - 17s - loss: 0.2989 - accuracy: 0.8682 - val_loss: 0.5330 - val_accuracy: 0.8613
Epoch 109/110
 - 18s - loss: 0.3046 - accuracy: 0.8669 - val_loss: 0.5450 - val_accuracy: 0.8562
Epoch 110/110
 - 18s - loss: 0.3057 - accuracy: 0.8671 - val_loss: 0.5097 - val_accuracy: 0.8562

Fit: epochs= 110 , batch_size= 64 , verbose= 2 , shuffle= False , validation_split= 0.2 

Model: "sequential_34"
_________________________________________________________________
Layer (type)                 Output Shape              Param #   
=================================================================
conv1d_34 (Conv1D)           (None, 11, 500)           1000      
_________________________________________________________________
activation_34 (Activation)   (None, 11, 500)           0         
_________________________________________________________________
lstm_34 (LSTM)               (None, 500)               2002000   
_________________________________________________________________
dropout_34 (Dropout)         (None, 500)               0         
_________________________________________________________________
dense_232 (Dense)            (None, 400)               200400    
_________________________________________________________________
dense_233 (Dense)            (None, 300)               120300    
_________________________________________________________________
dense_234 (Dense)            (None, 200)               60200     
_________________________________________________________________
dense_235 (Dense)            (None, 100)               20100     
_________________________________________________________________
dense_236 (Dense)            (None, 50)                5050      
_________________________________________________________________
dense_237 (Dense)            (None, 20)                1020      
_________________________________________________________________
dense_238 (Dense)            (None, 4)                 84        
=================================================================
Total params: 2,410,154
Trainable params: 2,410,154
Non-trainable params: 0
_________________________________________________________________
None

Accuracy Train: 86.77%
Accuracy Test: 84.35%
Loss Train: 0.35
Loss Test: 0.46
Numero dati esaminati: 1712
True Positive 1444
False Positive 268


------------------------------------------------------------------------
…
