…
 - 1s - loss: 0.3629 - accuracy: 0.8520 - val_loss: 0.5673 - val_accuracy: 0.8571
Epoch 109/110
 - 1s - loss: 0.3624 - accuracy: 0.8508 - val_loss: 0.5964 - val_accuracy: 0.8422
Epoch 110/110
 - 1s - loss: 0.3712 - accuracy: 0.8475 - val_loss: 0.5949 - val_accuracy: 0.8306

Fit: epochs= 110 , batch_size= 64 , verbose= 2 , shuffle= False , validation_split= 0.2 

Model: "sequential_56"
_________________________________________________________________
Layer (type)                 Output Shape              Param #   
=================================================================
conv1d_56 (Conv1D)           (None, 10, 500)           1000      
_________________________________________________________________
activation_111 (Activation)  (None, 10, 500)           0         
_________________________________________________________________
flatten_56 (Flatten)         (None, 5000)              0         
_________________________________________________________________
dropout_56 (Dropout)         (None, 5000)              0         
_________________________________________________________________
dense_386 (Dense)            (None, 400)               2000400   
_________________________________________________________________
dense_387 (Dense)            (None, 300)               120300    
_________________________________________________________________
dense_388 (Dense)            (None, 200)               60200     
_________________________________________________________________
dense_389 (Dense)            (None, 100)               20100     
_________________________________________________________________
dense_390 (Dense)            (None, 50)                5050      
_________________________________________________________________
dense_391 (Dense)            (None, 20)                1020      
_________________________________________________________________
dense_392 (Dense)            (None, 4)                 84        
_________________________________________________________________
activation_112 (Activation)  (None, 4)                 0         
=================================================================
Total params: 2,208,154
Trainable params: 2,208,154
Non-trainable params: 0
_________________________________________________________________
None

Accuracy Train: 85.57%
Accuracy Test: 79.12%
Loss Train: 0.40
Loss Test: 0.65
Numero dati esaminati: 752
True Positive 595
False Positive 157


------------------------------------------------------------------------
…
