…
 - 7s - loss: 0.3572 - accuracy: 0.8537 - val_loss: 0.6342 - val_accuracy: 0.8189
Epoch 109/110
 - 7s - loss: 0.3481 - accuracy: 0.8554 - val_loss: 0.6921 - val_accuracy: 0.8256
Epoch 110/110
 - 7s - loss: 0.3729 - accuracy: 0.8487 - val_loss: 0.6177 - val_accuracy: 0.8322

Fit: epochs= 110 , batch_size= 64 , verbose= 2 , shuffle= False , validation_split= 0.2 

Model: "sequential_23"
_________________________________________________________________
Layer (type)                 Output Shape              Param #   
=================================================================
conv1d_23 (Conv1D)           (None, 10, 500)           1000      
_________________________________________________________________
activation_23 (Activation)   (None, 10, 500)           0         
_________________________________________________________________
lstm_23 (LSTM)               (None, 500)               2002000   
_________________________________________________________________
dropout_23 (Dropout)         (None, 500)               0         
_________________________________________________________________
dense_155 (Dense)            (None, 400)               200400    
_________________________________________________________________
dense_156 (Dense)            (None, 300)               120300    
_________________________________________________________________
dense_157 (Dense)            (None, 200)               60200     
_________________________________________________________________
dense_158 (Dense)            (None, 100)               20100     
_________________________________________________________________
dense_159 (Dense)            (None, 50)                5050      
_________________________________________________________________
dense_160 (Dense)            (None, 20)                1020      
_________________________________________________________________
dense_161 (Dense)            (None, 4)                 84        
=================================================================
Total params: 2,410,154
Trainable params: 2,410,154
Non-trainable params: 0
_________________________________________________________________
None

Accuracy Train: 84.97%
Accuracy Test: 78.72%
Loss Train: 0.40
Loss Test: 0.63
Numero dati esaminati: 752
True Positive 592
False Positive 160


------------------------------------------------------------------------
…
