…
 - 13s - loss: 0.1550 - accuracy: 0.9357 - val_loss: 0.6276 - val_accuracy: 0.8650
Epoch 109/110
 - 12s - loss: 0.1646 - accuracy: 0.9314 - val_loss: 0.5842 - val_accuracy: 0.8606
Epoch 110/110
 - 13s - loss: 0.1865 - accuracy: 0.9221 - val_loss: 0.5853 - val_accuracy: 0.8642

Fit: epochs= 110 , batch_size= 64 , verbose= 2 , shuffle= False , validation_split= 0.2 

Model: "sequential_1"
_________________________________________________________________
Layer (type)                 Output Shape              Param #   
=================================================================
conv1d_1 (Conv1D)            (None, 10, 500)           1000      
_________________________________________________________________
activation_1 (Activation)    (None, 10, 500)           0         
_________________________________________________________________
lstm_1 (LSTM)                (None, 500)               2002000   
_________________________________________________________________
dropout_1 (Dropout)          (None, 500)               0         
_________________________________________________________________
dense_1 (Dense)              (None, 400)               200400    
_________________________________________________________________
dense_2 (Dense)              (None, 300)               120300    
_________________________________________________________________
dense_3 (Dense)              (None, 200)               60200     
_________________________________________________________________
dense_4 (Dense)              (None, 100)               20100     
_________________________________________________________________
dense_5 (Dense)              (None, 50)                5050      
_________________________________________________________________
dense_6 (Dense)              (None, 20)                1020      
_________________________________________________________________
dense_7 (Dense)              (None, 4)                 84        
=================================================================
Total params: 2,410,154
Trainable params: 2,410,154
Non-trainable params: 0
_________________________________________________________________
None

Accuracy Train: 92.29%
Accuracy Test: 88.26%
Loss Train: 0.24
Loss Test: 0.53
Numero dati esaminati: 1712
True Positive 1511
False Positive 201


------------------------------------------------------------------------
…
