…
 - 0s - loss: 0.0511 - accuracy: 0.8574 - val_loss: 0.0618 - val_accuracy: 0.8380
Epoch 109/110
 - 0s - loss: 0.0495 - accuracy: 0.8629 - val_loss: 0.0607 - val_accuracy: 0.8474
Epoch 110/110
 - 0s - loss: 0.0502 - accuracy: 0.8602 - val_loss: 0.0626 - val_accuracy: 0.8328

Fit: epochs= 110 , batch_size= 64 , verbose= 2 , shuffle= False , validation_split= 0.2 

Model: "sequential_210"
_________________________________________________________________
Layer (type)                 Output Shape              Param #   
=================================================================
dense_1354 (Dense)           (None, 11)                132       
_________________________________________________________________
dense_1355 (Dense)           (None, 500)               6000      
_________________________________________________________________
dense_1356 (Dense)           (None, 300)               150300    
_________________________________________________________________
dense_1357 (Dense)           (None, 200)               60200     
_________________________________________________________________
dense_1358 (Dense)           (None, 100)               20100     
_________________________________________________________________
dense_1359 (Dense)           (None, 50)                5050      
_________________________________________________________________
dense_1360 (Dense)           (None, 20)                1020      
_________________________________________________________________
dense_1361 (Dense)           (None, 4)                 84        
=================================================================
Total params: 242,886
Trainable params: 242,886
Non-trainable params: 0
_________________________________________________________________
None

Accuracy Train: 85.38%
Accuracy Test: 83.35%
Loss Train: 0.05
Loss Test: 0.06
Numero dati esaminati: 1712
True Positive 1427
False Positive 285


------------------------------------------------------------------------
…
