…
 - 0s - loss: 0.3076 - accuracy: 0.8698 - val_loss: 0.4454 - val_accuracy: 0.8526
Epoch 109/110
 - 0s - loss: 0.3029 - accuracy: 0.8728 - val_loss: 0.4327 - val_accuracy: 0.8599
Epoch 110/110
 - 0s - loss: 0.2875 - accuracy: 0.8770 - val_loss: 0.4464 - val_accuracy: 0.8555

Fit: epochs= 110 , batch_size= 64 , verbose= 2 , shuffle= False , validation_split= 0.2 

Model: "sequential_221"
_________________________________________________________________
Layer (type)                 Output Shape              Param #   
=================================================================
dense_1442 (Dense)           (None, 10)                110       
_________________________________________________________________
dense_1443 (Dense)           (None, 500)               5500      
_________________________________________________________________
dense_1444 (Dense)           (None, 300)               150300    
_________________________________________________________________
dense_1445 (Dense)           (None, 200)               60200     
_________________________________________________________________
dense_1446 (Dense)           (None, 100)               20100     
_________________________________________________________________
dense_1447 (Dense)           (None, 50)                5050      
_________________________________________________________________
dense_1448 (Dense)           (None, 20)                1020      
_________________________________________________________________
dense_1449 (Dense)           (None, 4)                 84        
=================================================================
Total params: 242,364
Trainable params: 242,364
Non-trainable params: 0
_________________________________________________________________
None

Accuracy Train: 87.19%
Accuracy Test: 85.05%
Loss Train: 0.32
Loss Test: 0.45
Numero dati esaminati: 1712
True Positive 1456
False Positive 256


------------------------------------------------------------------------
…
