…
 - 5s - loss: 0.3521 - accuracy: 0.8523 - val_loss: 0.4231 - val_accuracy: 0.8445
Epoch 109/110
 - 5s - loss: 0.3609 - accuracy: 0.8499 - val_loss: 0.4298 - val_accuracy: 0.8482
Epoch 110/110
 - 5s - loss: 0.3852 - accuracy: 0.8456 - val_loss: 0.4250 - val_accuracy: 0.8409

Fit: epochs= 110 , batch_size= 64 , verbose= 2 , shuffle= False , validation_split= 0.2 

Model: "sequential_188"
_________________________________________________________________
Layer (type)                 Output Shape              Param #   
=================================================================
lstm_111 (LSTM)              (None, 1, 500)            1022000   
_________________________________________________________________
lstm_112 (LSTM)              (None, 1, 500)            2002000   
_________________________________________________________________
lstm_113 (LSTM)              (None, 500)               2002000   
_________________________________________________________________
dropout_188 (Dropout)        (None, 500)               0         
_________________________________________________________________
dense_1200 (Dense)           (None, 300)               150300    
_________________________________________________________________
dense_1201 (Dense)           (None, 200)               60200     
_________________________________________________________________
dense_1202 (Dense)           (None, 100)               20100     
_________________________________________________________________
dense_1203 (Dense)           (None, 50)                5050      
_________________________________________________________________
dense_1204 (Dense)           (None, 20)                1020      
_________________________________________________________________
dense_1205 (Dense)           (None, 4)                 84        
=================================================================
Total params: 5,262,754
Trainable params: 5,262,754
Non-trainable params: 0
_________________________________________________________________
None

Accuracy Train: 85.25%
Accuracy Test: 83.29%
Loss Train: 0.36
Loss Test: 0.45
Numero dati esaminati: 1712
True Positive 1426
False Positive 286


------------------------------------------------------------------------
…
