…
 - 3s - loss: 0.3675 - accuracy: 0.8448 - val_loss: 0.4391 - val_accuracy: 0.8606
Epoch 499/500
 - 2s - loss: 0.3724 - accuracy: 0.8430 - val_loss: 0.4238 - val_accuracy: 0.8591
Epoch 500/500
 - 2s - loss: 0.3794 - accuracy: 0.8417 - val_loss: 0.4256 - val_accuracy: 0.8584

Fit: epochs = 500, batch_size = 80, verbose = 2, shuffle=False, validation_split = 0.20

Model: "sequential_3"
_________________________________________________________________
Layer (type)                 Output Shape              Param #   
=================================================================
conv1d_3 (Conv1D)            (None, 11, 512)           1024      
_________________________________________________________________
conv1d_4 (Conv1D)            (None, 11, 256)           131328    
_________________________________________________________________
max_pooling1d_1 (MaxPooling1 (None, 11, 256)           0         
_________________________________________________________________
dropout_3 (Dropout)          (None, 11, 256)           0         
_________________________________________________________________
flatten_3 (Flatten)          (None, 2816)              0         
_________________________________________________________________
dense_11 (Dense)             (None, 128)               360576    
_________________________________________________________________
dropout_4 (Dropout)          (None, 128)               0         
_________________________________________________________________
dense_12 (Dense)             (None, 4)                 516       
=================================================================
Total params: 493,444
Trainable params: 493,444
Non-trainable params: 0
_________________________________________________________________
None

Accuracy Train: 87.05%
Accuracy Test: 85.05%
Loss Train: 0.32
Loss Test: 0.39
Numero dati esaminati: 1712
True Positive 1456
False Positive 256
