…
 - 0s - loss: 0.0396 - accuracy: 0.8839 - val_loss: 0.0538 - val_accuracy: 0.8584
Epoch 499/500
 - 0s - loss: 0.0378 - accuracy: 0.8886 - val_loss: 0.0537 - val_accuracy: 0.8518
Epoch 500/500
 - 0s - loss: 0.0372 - accuracy: 0.8932 - val_loss: 0.0542 - val_accuracy: 0.8599

Fit: epochs=500, batch_size=80, verbose=2, shuffle=False, validation_split=0.20

Model: "sequential_1"
_________________________________________________________________
Layer (type)                 Output Shape              Param #   
=================================================================
dense_1 (Dense)              (None, 10)                110       
_________________________________________________________________
dense_2 (Dense)              (None, 192)               2112      
_________________________________________________________________
dense_3 (Dense)              (None, 128)               24704     
_________________________________________________________________
dense_4 (Dense)              (None, 64)                8256      
_________________________________________________________________
dense_5 (Dense)              (None, 32)                2080      
_________________________________________________________________
dense_6 (Dense)              (None, 16)                528       
_________________________________________________________________
dense_7 (Dense)              (None, 8)                 136       
_________________________________________________________________
dense_8 (Dense)              (None, 4)                 36        
=================================================================
Total params: 37,962
Trainable params: 37,962
Non-trainable params: 0
_________________________________________________________________
None

Accuracy Train: 88.87%
Accuracy Test: 86.68%
Loss Train: 0.04
Loss Test: 0.05
Numero dati esaminati: 1712
True Positive 1484
False Positive 228
