…
 - 0s - loss: 0.0156 - accuracy: 0.9589 - val_loss: 0.0483 - val_accuracy: 0.8876
Epoch 499/500
 - 0s - loss: 0.0147 - accuracy: 0.9633 - val_loss: 0.0501 - val_accuracy: 0.8832
Epoch 500/500
 - 0s - loss: 0.0143 - accuracy: 0.9628 - val_loss: 0.0493 - val_accuracy: 0.8803

Fit: epochs=500, batch_size=80, verbose=2, shuffle=False, validation_split=0.20

Model: "sequential_8"
_________________________________________________________________
Layer (type)                 Output Shape              Param #   
=================================================================
dense_43 (Dense)             (None, 11)                132       
_________________________________________________________________
dense_44 (Dense)             (None, 500)               6000      
_________________________________________________________________
dense_45 (Dense)             (None, 200)               100200    
_________________________________________________________________
dense_46 (Dense)             (None, 100)               20100     
_________________________________________________________________
dense_47 (Dense)             (None, 50)                5050      
_________________________________________________________________
dense_48 (Dense)             (None, 4)                 204       
=================================================================
Total params: 131,686
Trainable params: 131,686
Non-trainable params: 0
_________________________________________________________________
None

Accuracy Train: 94.85%
Accuracy Test: 88.84%
Loss Train: 0.02
Loss Test: 0.05
Numero dati esaminati: 1712
True Positive 1521
False Positive 191
