…
 - 0s - loss: 0.0349 - accuracy: 0.8991 - val_loss: 0.0512 - val_accuracy: 0.8657
Epoch 499/500
 - 0s - loss: 0.0342 - accuracy: 0.8992 - val_loss: 0.0491 - val_accuracy: 0.8657
Epoch 500/500
 - 0s - loss: 0.0350 - accuracy: 0.8987 - val_loss: 0.0530 - val_accuracy: 0.8584

Fit: epochs=500, batch_size=80, verbose=2, shuffle=False, validation_split=0.20

Model: "sequential_3"
_________________________________________________________________
Layer (type)                 Output Shape              Param #   
=================================================================
dense_13 (Dense)             (None, 11)                132       
_________________________________________________________________
dense_14 (Dense)             (None, 500)               6000      
_________________________________________________________________
dense_15 (Dense)             (None, 200)               100200    
_________________________________________________________________
dense_16 (Dense)             (None, 100)               20100     
_________________________________________________________________
dense_17 (Dense)             (None, 50)                5050      
_________________________________________________________________
dense_18 (Dense)             (None, 4)                 204       
=================================================================
Total params: 131,686
Trainable params: 131,686
Non-trainable params: 0
_________________________________________________________________
None

Accuracy Train: 89.43%
Accuracy Test: 87.44%
Numero dati esaminati: 1712
True Positive 1497
False Positive 215
