…
 - 5s - loss: 0.1693 - accuracy: 0.9303 - val_loss: 0.5302 - val_accuracy: 0.8810
Epoch 191/192
 - 5s - loss: 0.1709 - accuracy: 0.9286 - val_loss: 0.5251 - val_accuracy: 0.8759
Epoch 192/192
 - 4s - loss: 0.1716 - accuracy: 0.9281 - val_loss: 0.5316 - val_accuracy: 0.8715

Fit: epochs = 192, batch_size = 32, verbose = 2, shuffle=False, validation_split = 0.20

Model: "sequential_1"
_________________________________________________________________
Layer (type)                 Output Shape              Param #   
=================================================================
conv1d_1 (Conv1D)            (None, 11, 512)           1024      
_________________________________________________________________
activation_1 (Activation)    (None, 11, 512)           0         
_________________________________________________________________
flatten_1 (Flatten)          (None, 5632)              0         
_________________________________________________________________
dropout_1 (Dropout)          (None, 5632)              0         
_________________________________________________________________
dense_1 (Dense)              (None, 200)               1126600   
_________________________________________________________________
dense_2 (Dense)              (None, 100)               20100     
_________________________________________________________________
dense_3 (Dense)              (None, 4)                 404       
_________________________________________________________________
activation_2 (Activation)    (None, 4)                 0         
=================================================================
Total params: 1,148,128
Trainable params: 1,148,128
Non-trainable params: 0
_________________________________________________________________
None

Accuracy Train: 92.38%
Accuracy Test: 87.79%
Loss Train: 0.23
Loss Test: 0.46
Numero dati esaminati: 1712
True Positive 1503
False Positive 209
