…
 - 0s - loss: 0.0204 - accuracy: 0.9491 - val_loss: 0.0528 - val_accuracy: 0.8766
Epoch 499/500
 - 0s - loss: 0.0212 - accuracy: 0.9451 - val_loss: 0.0511 - val_accuracy: 0.8818
Epoch 500/500
 - 0s - loss: 0.0224 - accuracy: 0.9441 - val_loss: 0.0573 - val_accuracy: 0.8657

Fit: epochs=500, batch_size=80, verbose=2, shuffle=False, validation_split=0.20

Model: "sequential_1"
_________________________________________________________________
Layer (type)                 Output Shape              Param #   
=================================================================
dense_1 (Dense)              (None, 11)                132       
_________________________________________________________________
dense_2 (Dense)              (None, 256)               3072      
_________________________________________________________________
dense_3 (Dense)              (None, 192)               49344     
_________________________________________________________________
dense_4 (Dense)              (None, 128)               24704     
_________________________________________________________________
dense_5 (Dense)              (None, 64)                8256      
_________________________________________________________________
dense_6 (Dense)              (None, 32)                2080      
_________________________________________________________________
dense_7 (Dense)              (None, 16)                528       
_________________________________________________________________
dense_8 (Dense)              (None, 8)                 136       
_________________________________________________________________
dense_9 (Dense)              (None, 4)                 36        
=================================================================
Total params: 88,288
Trainable params: 88,288
Non-trainable params: 0
_________________________________________________________________
None

Accuracy Train: 92.84%
Accuracy Test: 87.97%
Loss Train: 0.03
Loss Test: 0.05
Numero dati esaminati: 1712
True Positive 1506
False Positive 206
