…
 - 0s - loss: 0.1979 - accuracy: 0.9215 - val_loss: 0.6648 - val_accuracy: 0.8365
Epoch 499/500
 - 0s - loss: 0.1979 - accuracy: 0.9206 - val_loss: 0.6570 - val_accuracy: 0.8423
Epoch 500/500
 - 0s - loss: 0.1958 - accuracy: 0.9210 - val_loss: 0.6588 - val_accuracy: 0.8372

Fit: epochs=500, batch_size=80, verbose=2, shuffle=False, validation_split=0.20

Model: "sequential_1"
_________________________________________________________________
Layer (type)                 Output Shape              Param #   
=================================================================
dense_1 (Dense)              (None, 10)                110       
_________________________________________________________________
dense_2 (Dense)              (None, 128)               1408      
_________________________________________________________________
dense_3 (Dense)              (None, 64)                8256      
_________________________________________________________________
dense_4 (Dense)              (None, 32)                2080      
_________________________________________________________________
dense_5 (Dense)              (None, 16)                528       
_________________________________________________________________
dense_6 (Dense)              (None, 8)                 136       
_________________________________________________________________
dense_7 (Dense)              (None, 4)                 36        
=================================================================
Total params: 12,554
Trainable params: 12,554
Non-trainable params: 0
_________________________________________________________________
None

Accuracy Train: 89.16%
Accuracy Test: 84.64%
Loss Train: 0.31
Loss Test: 0.68
Numero dati esaminati: 1712
True Positive 1449
False Positive 263
