…
 - 0s - loss: 0.1957 - accuracy: 0.9093 - val_loss: 0.4479 - val_accuracy: 0.8677
Epoch 499/500
 - 0s - loss: 0.2011 - accuracy: 0.9069 - val_loss: 0.4065 - val_accuracy: 0.8797
Epoch 500/500
 - 0s - loss: 0.1983 - accuracy: 0.9074 - val_loss: 0.4175 - val_accuracy: 0.8797

Fit: epochs=500, batch_size=80, verbose=2, shuffle=False, validation_split=0.20

Model: "sequential_4"
_________________________________________________________________
Layer (type)                 Output Shape              Param #   
=================================================================
dense_19 (Dense)             (None, 11)                132       
_________________________________________________________________
dense_20 (Dense)             (None, 500)               6000      
_________________________________________________________________
dense_21 (Dense)             (None, 200)               100200    
_________________________________________________________________
dense_22 (Dense)             (None, 100)               20100     
_________________________________________________________________
dense_23 (Dense)             (None, 50)                5050      
_________________________________________________________________
dense_24 (Dense)             (None, 4)                 204       
=================================================================
Total params: 131,686
Trainable params: 131,686
Non-trainable params: 0
_________________________________________________________________
None

Accuracy Train: 91.06%
Accuracy Test: 88.59%
Loss Train: 0.23
Loss Test: 0.42
Numero dati esaminati: 1455
True Positive 1289
False Positive 166
