…
 - 0s - loss: 0.2246 - accuracy: 0.9007 - val_loss: 0.4828 - val_accuracy: 0.8642
Epoch 499/500
 - 0s - loss: 0.2409 - accuracy: 0.8945 - val_loss: 0.4935 - val_accuracy: 0.8650
Epoch 500/500
 - 0s - loss: 0.2454 - accuracy: 0.8943 - val_loss: 0.4694 - val_accuracy: 0.8606

Fit: epochs=500, batch_size=80, verbose=2, shuffle=False, validation_split=0.20

Model: "sequential_2"
_________________________________________________________________
Layer (type)                 Output Shape              Param #   
=================================================================
dense_9 (Dense)              (None, 11)                132       
_________________________________________________________________
dense_10 (Dense)             (None, 500)               6000      
_________________________________________________________________
dense_11 (Dense)             (None, 300)               150300    
_________________________________________________________________
dense_12 (Dense)             (None, 200)               60200     
_________________________________________________________________
dense_13 (Dense)             (None, 100)               20100     
_________________________________________________________________
dense_14 (Dense)             (None, 50)                5050      
_________________________________________________________________
dense_15 (Dense)             (None, 20)                1020      
_________________________________________________________________
dense_16 (Dense)             (None, 4)                 84        
=================================================================
Total params: 242,886
Trainable params: 242,886
Non-trainable params: 0
_________________________________________________________________
None

Accuracy Train: 89.72%
Accuracy Test: 87.32%
Loss Train: 0.27
Loss Test: 0.42
Numero dati esaminati: 1712
True Positive 1495
False Positive 217
