…
 - 0s - loss: 0.1039 - accuracy: 0.9576 - val_loss: 0.7567 - val_accuracy: 0.8730
Epoch 499/500
 - 0s - loss: 0.0869 - accuracy: 0.9628 - val_loss: 0.7589 - val_accuracy: 0.8825
Epoch 500/500
 - 0s - loss: 0.0902 - accuracy: 0.9631 - val_loss: 0.7327 - val_accuracy: 0.8723

Fit: epochs=500, batch_size=80, verbose=2, shuffle=False, validation_split=0.20

Model: "sequential_1"
_________________________________________________________________
Layer (type)                 Output Shape              Param #   
=================================================================
dense_1 (Dense)              (None, 10)                110       
_________________________________________________________________
dense_2 (Dense)              (None, 512)               5632      
_________________________________________________________________
dense_3 (Dense)              (None, 256)               131328    
_________________________________________________________________
dense_4 (Dense)              (None, 128)               32896     
_________________________________________________________________
dense_5 (Dense)              (None, 64)                8256      
_________________________________________________________________
dense_6 (Dense)              (None, 32)                2080      
_________________________________________________________________
dense_7 (Dense)              (None, 16)                528       
_________________________________________________________________
dense_8 (Dense)              (None, 8)                 136       
_________________________________________________________________
dense_9 (Dense)              (None, 4)                 36        
=================================================================
Total params: 181,002
Trainable params: 181,002
Non-trainable params: 0
_________________________________________________________________
None

Accuracy Train: 94.49%
Accuracy Test: 88.26%
Loss Train: 0.22
Loss Test: 0.76
Numero dati esaminati: 1712
True Positive 1511
False Positive 201
