…
 - 0s - loss: 0.0488 - accuracy: 0.9781 - val_loss: 1.0817 - val_accuracy: 0.8719
Epoch 499/500
 - 0s - loss: 0.0499 - accuracy: 0.9767 - val_loss: 1.0688 - val_accuracy: 0.8726
Epoch 500/500
 - 0s - loss: 0.0590 - accuracy: 0.9747 - val_loss: 1.0413 - val_accuracy: 0.8767

Fit: epochs=500, batch_size=80, verbose=2, shuffle=False, validation_split=0.20

Model: "sequential_1"
_________________________________________________________________
Layer (type)                 Output Shape              Param #   
=================================================================
dense_1 (Dense)              (None, 11)                132       
_________________________________________________________________
dense_2 (Dense)              (None, 500)               6000      
_________________________________________________________________
dense_3 (Dense)              (None, 200)               100200    
_________________________________________________________________
dense_4 (Dense)              (None, 100)               20100     
_________________________________________________________________
dense_5 (Dense)              (None, 50)                5050      
_________________________________________________________________
dense_6 (Dense)              (None, 4)                 204       
=================================================================
Total params: 131,686
Trainable params: 131,686
Non-trainable params: 0
_________________________________________________________________
None

Accuracy Train: 95.85%
Accuracy Test: 87.44%
Loss Train: 0.25
Loss Test: 1.11
Numero dati esaminati: 1712
True Positive 1497
False Positive 215
