…
 - 0s - loss: 0.2316 - accuracy: 0.9000 - val_loss: 0.4376 - val_accuracy: 0.8628
Epoch 499/500
 - 0s - loss: 0.2237 - accuracy: 0.8992 - val_loss: 0.4489 - val_accuracy: 0.8693
Epoch 500/500
 - 0s - loss: 0.2267 - accuracy: 0.8938 - val_loss: 0.4619 - val_accuracy: 0.8628

Fit: epochs=500, batch_size=80, verbose=2, shuffle=False, validation_split=0.20

Model: "sequential_1"
_________________________________________________________________
Layer (type)                 Output Shape              Param #   
=================================================================
dense_1 (Dense)              (None, 10)                110       
_________________________________________________________________
dense_2 (Dense)              (None, 500)               5500      
_________________________________________________________________
dense_3 (Dense)              (None, 200)               100200    
_________________________________________________________________
dense_4 (Dense)              (None, 100)               20100     
_________________________________________________________________
dense_5 (Dense)              (None, 50)                5050      
_________________________________________________________________
dense_6 (Dense)              (None, 20)                1020      
_________________________________________________________________
dense_7 (Dense)              (None, 4)                 84        
=================================================================
Total params: 132,064
Trainable params: 132,064
Non-trainable params: 0
_________________________________________________________________
None

Accuracy Train: 89.94%
Accuracy Test: 86.92%
Loss Train: 0.26
Loss Test: 0.39
Numero dati esaminati: 1712
True Positive 1488
False Positive 224
