…
 - 0s - loss: 0.5034 - accuracy: 0.7483 - val_loss: 0.5116 - val_accuracy: 0.7445
Epoch 499/500
 - 0s - loss: 0.5074 - accuracy: 0.7461 - val_loss: 0.5029 - val_accuracy: 0.7482
Epoch 500/500
 - 0s - loss: 0.5146 - accuracy: 0.7428 - val_loss: 0.5025 - val_accuracy: 0.7489

Fit: epochs=500, batch_size=80, verbose=2, shuffle=False, validation_split=0.20

Model: "sequential_1"
_________________________________________________________________
Layer (type)                 Output Shape              Param #   
=================================================================
dense_1 (Dense)              (None, 11)                132       
_________________________________________________________________
dense_2 (Dense)              (None, 500)               6000      
_________________________________________________________________
dense_3 (Dense)              (None, 200)               100200    
_________________________________________________________________
dense_4 (Dense)              (None, 100)               20100     
_________________________________________________________________
dense_5 (Dense)              (None, 50)                5050      
_________________________________________________________________
dense_6 (Dense)              (None, 4)                 204       
=================================================================
Total params: 131,686
Trainable params: 131,686
Non-trainable params: 0
_________________________________________________________________
None

Accuracy Train: 74.80%
Accuracy Test: 74.42%
Loss Train: 0.50
Loss Test: 0.51
Numero dati esaminati: 1712
True Positive 1274
False Positive 438
