…
 - 0s - loss: 0.0300 - accuracy: 0.9861 - val_loss: 0.9427 - val_accuracy: 0.9004
Epoch 499/500
 - 0s - loss: 0.0307 - accuracy: 0.9876 - val_loss: 0.9338 - val_accuracy: 0.9018
Epoch 500/500
 - 0s - loss: 0.0362 - accuracy: 0.9854 - val_loss: 1.0081 - val_accuracy: 0.8929

Fit: epochs=500, batch_size=80, verbose=2, shuffle=False, validation_split=0.20

Model: "sequential_7"
_________________________________________________________________
Layer (type)                 Output Shape              Param #   
=================================================================
dense_47 (Dense)             (None, 11)                132       
_________________________________________________________________
dense_48 (Dense)             (None, 500)               6000      
_________________________________________________________________
dense_49 (Dense)             (None, 200)               100200    
_________________________________________________________________
dense_50 (Dense)             (None, 100)               20100     
_________________________________________________________________
dense_51 (Dense)             (None, 50)                5050      
_________________________________________________________________
dense_52 (Dense)             (None, 4)                 204       
=================================================================
Total params: 131,686
Trainable params: 131,686
Non-trainable params: 0
_________________________________________________________________
None

Accuracy Train: 96.59%
Accuracy Test: 88.14%
Loss Train: 0.24
Loss Test: 0.95
Numero dati esaminati: 1712
True Positive 1509
False Positive 203
