…
 - 0s - loss: 0.3539 - accuracy: 0.8574 - val_loss: 0.9724 - val_accuracy: 0.7022
Epoch 499/500
 - 0s - loss: 0.3574 - accuracy: 0.8560 - val_loss: 1.0052 - val_accuracy: 0.6956
Epoch 500/500
 - 0s - loss: 0.3625 - accuracy: 0.8439 - val_loss: 0.9570 - val_accuracy: 0.7066

Fit: epochs=500, batch_size=80, verbose=2, shuffle=False, validation_split=0.20

Model: "sequential_1"
_________________________________________________________________
Layer (type)                 Output Shape              Param #   
=================================================================
dense_1 (Dense)              (None, 10)                110       
_________________________________________________________________
dropout_1 (Dropout)          (None, 10)                0         
_________________________________________________________________
dense_2 (Dense)              (None, 512)               5632      
_________________________________________________________________
dense_3 (Dense)              (None, 256)               131328    
_________________________________________________________________
dense_4 (Dense)              (None, 128)               32896     
_________________________________________________________________
dense_5 (Dense)              (None, 64)                8256      
_________________________________________________________________
dense_6 (Dense)              (None, 32)                2080      
_________________________________________________________________
dense_7 (Dense)              (None, 16)                528       
_________________________________________________________________
dense_8 (Dense)              (None, 8)                 136       
_________________________________________________________________
dense_9 (Dense)              (None, 4)                 36        
=================================================================
Total params: 181,002
Trainable params: 181,002
Non-trainable params: 0
_________________________________________________________________
None

Accuracy Train: 72.46%
Accuracy Test: 70.04%
Loss Train: 0.86
Loss Test: 0.99
Numero dati esaminati: 1712
True Positive 1199
False Positive 513
