…
 - 1s - loss: 0.5693 - accuracy: 0.7459 - val_loss: 0.6895 - val_accuracy: 0.7431
Epoch 499/500
 - 1s - loss: 0.5648 - accuracy: 0.7468 - val_loss: 0.6850 - val_accuracy: 0.7299
Epoch 500/500
 - 1s - loss: 0.5580 - accuracy: 0.7483 - val_loss: 0.6881 - val_accuracy: 0.7489

Fit: epochs = 500, batch_size = 80, verbose = 2, shuffle=False, validation_split = 0.20

Model: "sequential_11"
_________________________________________________________________
Layer (type)                 Output Shape              Param #   
=================================================================
conv1d_2 (Conv1D)            (None, 9, 128)            512       
_________________________________________________________________
conv1d_3 (Conv1D)            (None, 9, 256)            33024     
_________________________________________________________________
max_pooling1d_1 (MaxPooling1 (None, 4, 256)            0         
_________________________________________________________________
dropout_2 (Dropout)          (None, 4, 256)            0         
_________________________________________________________________
flatten_2 (Flatten)          (None, 1024)              0         
_________________________________________________________________
dense_49 (Dense)             (None, 512)               524800    
_________________________________________________________________
dropout_3 (Dropout)          (None, 512)               0         
_________________________________________________________________
dense_50 (Dense)             (None, 4)                 2052      
=================================================================
Total params: 560,388
Trainable params: 560,388
Non-trainable params: 0
_________________________________________________________________
None

Accuracy Train: 77.67%
Accuracy Test: 74.65%
Loss Train: 0.53
Loss Test: 0.61
Numero dati esaminati: 1712
True Positive 1278
False Positive 434
