…
 - 1s - loss: 0.2577 - accuracy: 0.8884 - val_loss: 0.2979 - val_accuracy: 0.8926
Epoch 149/150
 - 1s - loss: 0.2568 - accuracy: 0.8885 - val_loss: 0.2961 - val_accuracy: 0.8952
Epoch 150/150
 - 1s - loss: 0.2567 - accuracy: 0.8868 - val_loss: 0.2952 - val_accuracy: 0.8959

Fit: epochs=200, batch_size=150, verbose=2, shuffle=False, validation_split=0.20

Model: "sequential_1"
_________________________________________________________________
Layer (type)                 Output Shape              Param #   
=================================================================
dense_1 (Dense)              (None, 10)                110       
_________________________________________________________________
dense_2 (Dense)              (None, 500)               5500      
_________________________________________________________________
dense_3 (Dense)              (None, 300)               150300    
_________________________________________________________________
dense_4 (Dense)              (None, 200)               60200     
_________________________________________________________________
dense_5 (Dense)              (None, 100)               20100     
_________________________________________________________________
dense_6 (Dense)              (None, 50)                5050      
_________________________________________________________________
dense_7 (Dense)              (None, 20)                1020      
_________________________________________________________________
dense_8 (Dense)              (None, 4)                 84        
=================================================================
Total params: 242,364
Trainable params: 242,364
Non-trainable params: 0
_________________________________________________________________
None

Accuracy Train: 89.28%
Accuracy Test: 88.12%
Loss Train: 0.26
Loss Test: 0.31
Numero dati esaminati: 4949
True Positive 4361
False Positive 588
