…
69/69 - 0s - loss: 0.0348 - accuracy: 0.8989 - val_loss: 0.0504 - val_accuracy: 0.8679
Epoch 499/500
69/69 - 0s - loss: 0.0338 - accuracy: 0.9007 - val_loss: 0.0506 - val_accuracy: 0.8628
Epoch 500/500
69/69 - 0s - loss: 0.0353 - accuracy: 0.8970 - val_loss: 0.0511 - val_accuracy: 0.8650

Fit: epochs=500, batch_size=80, verbose=2, shuffle=False, validation_split=0.20

Model: "sequential"
_________________________________________________________________
Layer (type)                 Output Shape              Param #   
=================================================================
dense (Dense)                (None, 11)                132       
_________________________________________________________________
dense_1 (Dense)              (None, 500)               6000      
_________________________________________________________________
dense_2 (Dense)              (None, 300)               150300    
_________________________________________________________________
dense_3 (Dense)              (None, 200)               60200     
_________________________________________________________________
dense_4 (Dense)              (None, 100)               20100     
_________________________________________________________________
dense_5 (Dense)              (None, 50)                5050      
_________________________________________________________________
dense_6 (Dense)              (None, 20)                1020      
_________________________________________________________________
dense_7 (Dense)              (None, 4)                 84        
=================================================================
Total params: 242,886
Trainable params: 242,886
Non-trainable params: 0
_________________________________________________________________
None
54/54 - 0s - loss: 0.0480 - accuracy: 0.8686
214/214 - 0s - loss: 0.0362 - accuracy: 0.8991

Accuracy Train: 89.91%
Accuracy Test: 86.86%
Loss Train: 0.04
Loss Test: 0.05
Numero dati esaminati: 1712
…
