…
 - 0s - loss: 0.0533 - accuracy: 0.9787 - val_loss: 0.8781 - val_accuracy: 0.8961
Epoch 499/500
 - 0s - loss: 0.0417 - accuracy: 0.9839 - val_loss: 0.9143 - val_accuracy: 0.8928
Epoch 500/500
 - 0s - loss: 0.0653 - accuracy: 0.9811 - val_loss: 0.9797 - val_accuracy: 0.8693

Fit: epochs=500, batch_size=80, verbose=2, shuffle=False, validation_split=0.20

Model: "sequential_1"
_________________________________________________________________
Layer (type)                 Output Shape              Param #   
=================================================================
dense_1 (Dense)              (None, 11)                132       
_________________________________________________________________
dense_2 (Dense)              (None, 500)               6000      
_________________________________________________________________
dense_3 (Dense)              (None, 200)               100200    
_________________________________________________________________
dense_4 (Dense)              (None, 100)               20100     
_________________________________________________________________
dense_5 (Dense)              (None, 50)                5050      
_________________________________________________________________
dense_6 (Dense)              (None, 4)                 204       
=================================================================
Total params: 131,686
Trainable params: 131,686
Non-trainable params: 0
_________________________________________________________________
None

Accuracy Train: 93.67%
Accuracy Test: 86.62%
Loss Train: 0.31
Loss Test: 0.92
Numero dati esaminati: 1712
True Positive 1483
False Positive 229
