…
 - 0s - loss: 0.4383 - accuracy: 0.7809 - val_loss: 0.4710 - val_accuracy: 0.7642
Epoch 499/500
 - 0s - loss: 0.4361 - accuracy: 0.7819 - val_loss: 0.4756 - val_accuracy: 0.7620
Epoch 500/500
 - 0s - loss: 0.4331 - accuracy: 0.7835 - val_loss: 0.4742 - val_accuracy: 0.7628

Fit: epochs=500, batch_size=80, verbose=2, shuffle=False, validation_split=0.20

Model: "sequential_9"
_________________________________________________________________
Layer (type)                 Output Shape              Param #   
=================================================================
dense_49 (Dense)             (None, 11)                132       
_________________________________________________________________
dense_50 (Dense)             (None, 500)               6000      
_________________________________________________________________
dense_51 (Dense)             (None, 200)               100200    
_________________________________________________________________
dense_52 (Dense)             (None, 100)               20100     
_________________________________________________________________
dense_53 (Dense)             (None, 50)                5050      
_________________________________________________________________
dense_54 (Dense)             (None, 4)                 204       
=================================================================
Total params: 131,686
Trainable params: 131,686
Non-trainable params: 0
_________________________________________________________________
None

Accuracy Train: 77.89%
Accuracy Test: 76.40%
Loss Train: 0.44
Loss Test: 0.47
Numero dati esaminati: 1712
True Positive 1308
False Positive 404
