…
 - 0s - loss: 0.1223 - accuracy: 0.9454 - val_loss: 0.6951 - val_accuracy: 0.8737
Epoch 499/500
 - 0s - loss: 0.1224 - accuracy: 0.9472 - val_loss: 0.6978 - val_accuracy: 0.8723
Epoch 500/500
 - 0s - loss: 0.1330 - accuracy: 0.9432 - val_loss: 0.7160 - val_accuracy: 0.8715

Fit: epochs=500, batch_size=80, verbose=2, shuffle=False, validation_split=0.20

Model: "sequential_1"
_________________________________________________________________
Layer (type)                 Output Shape              Param #   
=================================================================
dense_1 (Dense)              (None, 10)                110       
_________________________________________________________________
dense_2 (Dense)              (None, 256)               2816      
_________________________________________________________________
dense_3 (Dense)              (None, 128)               32896     
_________________________________________________________________
dense_4 (Dense)              (None, 64)                8256      
_________________________________________________________________
dense_5 (Dense)              (None, 32)                2080      
_________________________________________________________________
dense_6 (Dense)              (None, 16)                528       
_________________________________________________________________
dense_7 (Dense)              (None, 4)                 68        
=================================================================
Total params: 46,754
Trainable params: 46,754
Non-trainable params: 0
_________________________________________________________________
None

Accuracy Train: 92.83%
Accuracy Test: 87.73%
Loss Train: 0.25
Loss Test: 0.68
Numero dati esaminati: 1712
True Positive 1502
False Positive 210
