…
 - 0s - loss: 0.0161 - accuracy: 0.9587 - val_loss: 0.0539 - val_accuracy: 0.8723
Epoch 499/500
 - 0s - loss: 0.0160 - accuracy: 0.9571 - val_loss: 0.0519 - val_accuracy: 0.8766
Epoch 500/500
 - 0s - loss: 0.0169 - accuracy: 0.9562 - val_loss: 0.0516 - val_accuracy: 0.8781

Fit: epochs=500, batch_size=80, verbose=2, shuffle=False, validation_split=0.20

Model: "sequential_8"
_________________________________________________________________
Layer (type)                 Output Shape              Param #   
=================================================================
dense_53 (Dense)             (None, 11)                132       
_________________________________________________________________
dense_54 (Dense)             (None, 500)               6000      
_________________________________________________________________
dense_55 (Dense)             (None, 300)               150300    
_________________________________________________________________
dense_56 (Dense)             (None, 200)               60200     
_________________________________________________________________
dense_57 (Dense)             (None, 100)               20100     
_________________________________________________________________
dense_58 (Dense)             (None, 50)                5050      
_________________________________________________________________
dense_59 (Dense)             (None, 20)                1020      
_________________________________________________________________
dense_60 (Dense)             (None, 4)                 84        
=================================================================
Total params: 242,886
Trainable params: 242,886
Non-trainable params: 0
_________________________________________________________________
None

Accuracy Train: 94.68%
Accuracy Test: 89.31%
Loss Train: 0.02
Loss Test: 0.05
Numero dati esaminati: 1712
True Positive 1529
False Positive 183
