…
 - 0s - loss: 0.0356 - accuracy: 0.8969 - val_loss: 0.0518 - val_accuracy: 0.8628
Epoch 499/500
 - 0s - loss: 0.0344 - accuracy: 0.9007 - val_loss: 0.0511 - val_accuracy: 0.8657
Epoch 500/500
 - 0s - loss: 0.0336 - accuracy: 0.9000 - val_loss: 0.0499 - val_accuracy: 0.8708

Fit: epochs=500, batch_size=80, verbose=2, shuffle=False, validation_split=0.20

Model: "sequential_3"
_________________________________________________________________
Layer (type)                 Output Shape              Param #   
=================================================================
dense_13 (Dense)             (None, 11)                132       
_________________________________________________________________
dense_14 (Dense)             (None, 500)               6000      
_________________________________________________________________
dense_15 (Dense)             (None, 200)               100200    
_________________________________________________________________
dense_16 (Dense)             (None, 100)               20100     
_________________________________________________________________
dense_17 (Dense)             (None, 50)                5050      
_________________________________________________________________
dense_18 (Dense)             (None, 4)                 204       
=================================================================
Total params: 131,686
Trainable params: 131,686
Non-trainable params: 0
_________________________________________________________________
None

Accuracy Train: 90.27%
Accuracy Test: 88.08%
Loss Train: 0.04
Loss Test: 0.04
Numero dati esaminati: 1712
True Positive 1508
False Positive 204
