…
 - 1s - loss: 0.2667 - accuracy: 0.8823 - val_loss: 0.4444 - val_accuracy: 0.8496
Epoch 499/500
 - 1s - loss: 0.2644 - accuracy: 0.8817 - val_loss: 0.4366 - val_accuracy: 0.8489
Epoch 500/500
 - 1s - loss: 0.2649 - accuracy: 0.8804 - val_loss: 0.4408 - val_accuracy: 0.8423

Fit: epochs = 500, batch_size = 80, verbose = 2, shuffle=False, validation_split = 0.20

Model: "sequential_1"
_________________________________________________________________
Layer (type)                 Output Shape              Param #   
=================================================================
lstm_1 (LSTM)                (None, 256)               273408    
_________________________________________________________________
dense_1 (Dense)              (None, 128)               32896     
_________________________________________________________________
dense_2 (Dense)              (None, 64)                8256      
_________________________________________________________________
dense_3 (Dense)              (None, 32)                2080      
_________________________________________________________________
dense_4 (Dense)              (None, 16)                528       
_________________________________________________________________
dense_5 (Dense)              (None, 4)                 68        
=================================================================
Total params: 317,236
Trainable params: 317,236
Non-trainable params: 0
_________________________________________________________________
None

Accuracy Train: 87.34%
Accuracy Test: 85.22%
Loss Train: 0.30
Loss Test: 0.44
Numero dati esaminati: 1712
True Positive 1459
False Positive 253
