…
 - 0s - loss: 0.1973 - accuracy: 0.9121 - val_loss: 0.4728 - val_accuracy: 0.8729
Epoch 499/500
 - 0s - loss: 0.2000 - accuracy: 0.9097 - val_loss: 0.4473 - val_accuracy: 0.8806
Epoch 500/500
 - 0s - loss: 0.2045 - accuracy: 0.9063 - val_loss: 0.4717 - val_accuracy: 0.8729

Fit: epochs=500, batch_size=80, verbose=2, shuffle=False, validation_split=0.20

Model: "sequential_4"
_________________________________________________________________
Layer (type)                 Output Shape              Param #   
=================================================================
dense_19 (Dense)             (None, 11)                132       
_________________________________________________________________
dense_20 (Dense)             (None, 500)               6000      
_________________________________________________________________
dense_21 (Dense)             (None, 200)               100200    
_________________________________________________________________
dense_22 (Dense)             (None, 100)               20100     
_________________________________________________________________
dense_23 (Dense)             (None, 50)                5050      
_________________________________________________________________
dense_24 (Dense)             (None, 4)                 204       
=================================================================
Total params: 131,686
Trainable params: 131,686
Non-trainable params: 0
_________________________________________________________________
None

Accuracy Train: 89.89%
Accuracy Test: 87.08%
Loss Train: 0.26
Loss Test: 0.51
Numero dati esaminati: 1455
True Positive 1267
False Positive 188
