…
 - 1s - loss: 0.5588 - accuracy: 0.7601 - val_loss: 0.6823 - val_accuracy: 0.7482
Epoch 499/500
 - 1s - loss: 0.5765 - accuracy: 0.7441 - val_loss: 0.6916 - val_accuracy: 0.7482
Epoch 500/500
 - 1s - loss: 0.5656 - accuracy: 0.7525 - val_loss: 0.6921 - val_accuracy: 0.7277

Fit: epochs = 500, batch_size = 80, verbose = 2, shuffle=False, validation_split = 0.20

Model: "sequential_1"
_________________________________________________________________
Layer (type)                 Output Shape              Param #   
=================================================================
conv1d_1 (Conv1D)            (None, 9, 128)            512       
_________________________________________________________________
conv1d_2 (Conv1D)            (None, 9, 256)            33024     
_________________________________________________________________
max_pooling1d_1 (MaxPooling1 (None, 4, 256)            0         
_________________________________________________________________
dropout_1 (Dropout)          (None, 4, 256)            0         
_________________________________________________________________
flatten_1 (Flatten)          (None, 1024)              0         
_________________________________________________________________
dense_1 (Dense)              (None, 512)               524800    
_________________________________________________________________
dropout_2 (Dropout)          (None, 512)               0         
_________________________________________________________________
dense_2 (Dense)              (None, 4)                 2052      
=================================================================
Total params: 560,388
Trainable params: 560,388
Non-trainable params: 0
_________________________________________________________________
None

Accuracy Train: 75.73%
Accuracy Test: 74.42%
Numero dati esaminati: 1712
True Positive 1274
False Positive 438
