…
 - 0s - loss: 0.0640 - accuracy: 0.9796 - val_loss: 0.8886 - val_accuracy: 0.8780
Epoch 499/500
 - 0s - loss: 0.0507 - accuracy: 0.9792 - val_loss: 0.9497 - val_accuracy: 0.8797
Epoch 500/500
 - 0s - loss: 0.0411 - accuracy: 0.9839 - val_loss: 0.9221 - val_accuracy: 0.8832

Fit: epochs=500, batch_size=80, verbose=2, shuffle=False, validation_split=0.20

Model: "sequential_1"
_________________________________________________________________
Layer (type)                 Output Shape              Param #   
=================================================================
dense_1 (Dense)              (None, 11)                132       
_________________________________________________________________
dense_2 (Dense)              (None, 500)               6000      
_________________________________________________________________
dense_3 (Dense)              (None, 200)               100200    
_________________________________________________________________
dense_4 (Dense)              (None, 100)               20100     
_________________________________________________________________
dense_5 (Dense)              (None, 50)                5050      
_________________________________________________________________
dense_6 (Dense)              (None, 4)                 204       
=================================================================
Total params: 131,686
Trainable params: 131,686
Non-trainable params: 0
_________________________________________________________________
None

Accuracy Train: 96.87%
Accuracy Test: 89.00%
Loss Train: 0.20
Loss Test: 0.80
Numero dati esaminati: 1455
True Positive 1295
False Positive 160
