…
 - 0s - loss: 0.0427 - accuracy: 0.9803 - val_loss: 0.9230 - val_accuracy: 0.8989
Epoch 499/500
 - 0s - loss: 0.0549 - accuracy: 0.9799 - val_loss: 0.9134 - val_accuracy: 0.8899
Epoch 500/500
 - 0s - loss: 0.0396 - accuracy: 0.9848 - val_loss: 0.9008 - val_accuracy: 0.8934

Fit: epochs=500, batch_size=80, verbose=2, shuffle=False, validation_split=0.20

Model: "sequential_7"
_________________________________________________________________
Layer (type)                 Output Shape              Param #   
=================================================================
dense_37 (Dense)             (None, 11)                132       
_________________________________________________________________
dense_38 (Dense)             (None, 500)               6000      
_________________________________________________________________
dense_39 (Dense)             (None, 200)               100200    
_________________________________________________________________
dense_40 (Dense)             (None, 100)               20100     
_________________________________________________________________
dense_41 (Dense)             (None, 50)                5050      
_________________________________________________________________
dense_42 (Dense)             (None, 4)                 204       
=================================================================
Total params: 131,686
Trainable params: 131,686
Non-trainable params: 0
_________________________________________________________________
None

Accuracy Train: 96.80%
Accuracy Test: 87.85%
Loss Train: 0.21
Loss Test: 0.95
Numero dati esaminati: 1712
True Positive 1504
False Positive 208
