…
 - 0s - loss: 0.0900 - accuracy: 0.7662 - val_loss: 0.0954 - val_accuracy: 0.7500
Epoch 499/500
 - 0s - loss: 0.0899 - accuracy: 0.7664 - val_loss: 0.0954 - val_accuracy: 0.7509
Epoch 500/500
 - 0s - loss: 0.0899 - accuracy: 0.7664 - val_loss: 0.0954 - val_accuracy: 0.7517

Fit: epochs=500, batch_size=80, verbose=2, shuffle=False, validation_split=0.20

Model: "sequential_2"
_________________________________________________________________
Layer (type)                 Output Shape              Param #   
=================================================================
dense_7 (Dense)              (None, 11)                132       
_________________________________________________________________
dense_8 (Dense)              (None, 500)               6000      
_________________________________________________________________
dense_9 (Dense)              (None, 200)               100200    
_________________________________________________________________
dense_10 (Dense)             (None, 100)               20100     
_________________________________________________________________
dense_11 (Dense)             (None, 50)                5050      
_________________________________________________________________
dense_12 (Dense)             (None, 4)                 204       
=================================================================
Total params: 131,686
Trainable params: 131,686
Non-trainable params: 0
_________________________________________________________________
None

Accuracy Train: 76.40%
Accuracy Test: 77.66%
Loss Train: 0.09
Loss Test: 0.09
Numero dati esaminati: 1455
True Positive 1130
False Positive 325
