…
 - 0s - loss: 0.0582 - accuracy: 0.9779 - val_loss: 0.9433 - val_accuracy: 0.8812
Epoch 499/500
 - 0s - loss: 0.0761 - accuracy: 0.9727 - val_loss: 0.8814 - val_accuracy: 0.8923
Epoch 500/500
 - 0s - loss: 0.0854 - accuracy: 0.9719 - val_loss: 0.8708 - val_accuracy: 0.8825

Fit: epochs=500, batch_size=80, verbose=2, shuffle=False, validation_split=0.20

Model: "sequential_1"
_________________________________________________________________
Layer (type)                 Output Shape              Param #   
=================================================================
dense_1 (Dense)              (None, 11)                132       
_________________________________________________________________
dense_2 (Dense)              (None, 500)               6000      
_________________________________________________________________
dense_3 (Dense)              (None, 200)               100200    
_________________________________________________________________
dense_4 (Dense)              (None, 100)               20100     
_________________________________________________________________
dense_5 (Dense)              (None, 50)                5050      
_________________________________________________________________
dense_6 (Dense)              (None, 4)                 204       
=================================================================
Total params: 131,686
Trainable params: 131,686
Non-trainable params: 0
_________________________________________________________________
None

Accuracy Train: 95.82%
Accuracy Test: 86.33%
Loss Train: 0.23
Loss Test: 1.01
Numero dati esaminati: 1712
True Positive 1478
False Positive 234
