…
 - 7s - loss: 0.3260 - accuracy: 0.8625 - val_loss: 0.4690 - val_accuracy: 0.8460
Epoch 99/100
 - 8s - loss: 0.3034 - accuracy: 0.8708 - val_loss: 0.4698 - val_accuracy: 0.8526
Epoch 100/100
 - 7s - loss: 0.3176 - accuracy: 0.8651 - val_loss: 0.4804 - val_accuracy: 0.8445

Fit: epochs = 100, batch_size = 16, verbose = 2, shuffle=False, validation_split = 0.20

Model: "sequential_1"
_________________________________________________________________
Layer (type)                 Output Shape              Param #   
=================================================================
lstm_1 (LSTM)                (None, 500)               1024000   
_________________________________________________________________
dense_1 (Dense)              (None, 300)               150300    
_________________________________________________________________
dense_2 (Dense)              (None, 200)               60200     
_________________________________________________________________
dense_3 (Dense)              (None, 100)               20100     
_________________________________________________________________
dense_4 (Dense)              (None, 50)                5050      
_________________________________________________________________
dense_5 (Dense)              (None, 20)                1020      
_________________________________________________________________
dense_6 (Dense)              (None, 4)                 84        
=================================================================
Total params: 1,260,754
Trainable params: 1,260,754
Non-trainable params: 0
_________________________________________________________________
None

Accuracy Train: 86.13%
Accuracy Test: 85.16%
Loss Train: 0.35
Loss Test: 0.44
Numero dati esaminati: 1712
True Positive 1458
False Positive 254
