…
 - 0s - loss: 0.0542 - accuracy: 0.9801 - val_loss: 0.8751 - val_accuracy: 0.8885
Epoch 499/500
 - 0s - loss: 0.0331 - accuracy: 0.9861 - val_loss: 0.9093 - val_accuracy: 0.8899
Epoch 500/500
 - 0s - loss: 0.0327 - accuracy: 0.9853 - val_loss: 0.9141 - val_accuracy: 0.9017

Fit: epochs=500, batch_size=80, verbose=2, shuffle=False, validation_split=0.20

Model: "sequential_1"
_________________________________________________________________
Layer (type)                 Output Shape              Param #   
=================================================================
dense_1 (Dense)              (None, 11)                132       
_________________________________________________________________
dense_2 (Dense)              (None, 500)               6000      
_________________________________________________________________
dense_3 (Dense)              (None, 200)               100200    
_________________________________________________________________
dense_4 (Dense)              (None, 100)               20100     
_________________________________________________________________
dense_5 (Dense)              (None, 50)                5050      
_________________________________________________________________
dense_6 (Dense)              (None, 4)                 204       
=================================================================
Total params: 131,686
Trainable params: 131,686
Non-trainable params: 0
_________________________________________________________________
None

Accuracy Train: 97.23%
Accuracy Test: 88.67%
Loss Train: 0.20
Loss Test: 0.98
Numero dati esaminati: 1712
True Positive 1518
False Positive 194
