…
 - 4s - loss: 0.3543 - accuracy: 0.8559 - val_loss: 0.3774 - val_accuracy: 0.8545
Epoch 127/128
 - 3s - loss: 0.3525 - accuracy: 0.8540 - val_loss: 0.3643 - val_accuracy: 0.8646
Epoch 128/128
 - 3s - loss: 0.3529 - accuracy: 0.8568 - val_loss: 0.3733 - val_accuracy: 0.8583

Fit: epochs= 128 , batch_size= 32 , verbose= 2 , shuffle= False , validation_split= 0.2 

Model: "sequential_1"
_________________________________________________________________
Layer (type)                 Output Shape              Param #   
=================================================================
lstm_1 (LSTM)                (None, 1, 10)             840       
_________________________________________________________________
lstm_2 (LSTM)                (None, 1, 10)             840       
_________________________________________________________________
lstm_3 (LSTM)                (None, 10)                840       
_________________________________________________________________
dense_1 (Dense)              (None, 500)               5500      
_________________________________________________________________
dense_2 (Dense)              (None, 300)               150300    
_________________________________________________________________
dense_3 (Dense)              (None, 200)               60200     
_________________________________________________________________
dense_4 (Dense)              (None, 100)               20100     
_________________________________________________________________
dense_5 (Dense)              (None, 50)                5050      
_________________________________________________________________
dense_6 (Dense)              (None, 20)                1020      
_________________________________________________________________
dense_7 (Dense)              (None, 4)                 84        
=================================================================
Total params: 244,774
Trainable params: 244,774
Non-trainable params: 0
_________________________________________________________________
None

Accuracy Train: 85.68%
Accuracy Test: 84.85%
Loss Train: 0.35
Loss Test: 0.39
Numero dati esaminati: 4949
True Positive 4199
False Positive 750
