…
 - 0s - loss: 0.2155 - accuracy: 0.9140 - val_loss: 0.5675 - val_accuracy: 0.8599
Epoch 499/500
 - 0s - loss: 0.1951 - accuracy: 0.9226 - val_loss: 0.5881 - val_accuracy: 0.8526
Epoch 500/500
 - 0s - loss: 0.2017 - accuracy: 0.9157 - val_loss: 0.5524 - val_accuracy: 0.8628

Fit: epochs=500, batch_size=80, verbose=2, shuffle=False, validation_split=0.20

Model: "sequential_1"
_________________________________________________________________
Layer (type)                 Output Shape              Param #   
=================================================================
dense_1 (Dense)              (None, 10)                110       
_________________________________________________________________
dropout_1 (Dropout)          (None, 10)                0         
_________________________________________________________________
dense_2 (Dense)              (None, 500)               5500      
_________________________________________________________________
dense_3 (Dense)              (None, 300)               150300    
_________________________________________________________________
dense_4 (Dense)              (None, 200)               60200     
_________________________________________________________________
dense_5 (Dense)              (None, 100)               20100     
_________________________________________________________________
dense_6 (Dense)              (None, 50)                5050      
_________________________________________________________________
dense_7 (Dense)              (None, 20)                1020      
_________________________________________________________________
dense_8 (Dense)              (None, 4)                 84        
=================================================================
Total params: 242,364
Trainable params: 242,364
Non-trainable params: 0
_________________________________________________________________
None

Accuracy Train: 91.34%
Accuracy Test: 87.56%
Loss Train: 0.25
Loss Test: 0.55
Numero dati esaminati: 1712
True Positive 1499
False Positive 213
