…
 - 1s - loss: 0.0352 - accuracy: 0.9004 - val_loss: 0.0369 - val_accuracy: 0.8980
Epoch 499/500
 - 1s - loss: 0.0334 - accuracy: 0.9063 - val_loss: 0.0356 - val_accuracy: 0.8995
Epoch 500/500
 - 1s - loss: 0.0340 - accuracy: 0.9038 - val_loss: 0.0357 - val_accuracy: 0.9004

Fit: epochs=500, batch_size=80, verbose=2, shuffle=False, validation_split=0.20

Model: "sequential_1"
_________________________________________________________________
Layer (type)                 Output Shape              Param #   
=================================================================
dense_1 (Dense)              (None, 10)                110       
_________________________________________________________________
dense_2 (Dense)              (None, 500)               5500      
_________________________________________________________________
dense_3 (Dense)              (None, 300)               150300    
_________________________________________________________________
dense_4 (Dense)              (None, 200)               60200     
_________________________________________________________________
dense_5 (Dense)              (None, 100)               20100     
_________________________________________________________________
dense_6 (Dense)              (None, 50)                5050      
_________________________________________________________________
dense_7 (Dense)              (None, 20)                1020      
_________________________________________________________________
dense_8 (Dense)              (None, 4)                 84        
=================================================================
Total params: 242,364
Trainable params: 242,364
Non-trainable params: 0
_________________________________________________________________
None

Accuracy Train: 90.46%
Accuracy Test: 89.30%
Loss Train: 0.03
Loss Test: 0.04
Numero dati esaminati: 4178
True Positive 3731
False Positive 447


------------------------------------------------------------------------
…
