…
 - 1s - loss: 0.2475 - accuracy: 0.8923 - val_loss: 0.4826 - val_accuracy: 0.8518
Epoch 499/500
 - 1s - loss: 0.2543 - accuracy: 0.8877 - val_loss: 0.4873 - val_accuracy: 0.8526
Epoch 500/500
 - 1s - loss: 0.2448 - accuracy: 0.8927 - val_loss: 0.4880 - val_accuracy: 0.8635

Fit: epochs = 500, batch_size = 80, verbose = 2, shuffle=False, validation_split = 0.20

Model: "sequential_1"
_________________________________________________________________
Layer (type)                 Output Shape              Param #   
=================================================================
bidirectional_1 (Bidirection (None, 512)               546816    
_________________________________________________________________
dense_1 (Dense)              (None, 128)               65664     
_________________________________________________________________
dense_2 (Dense)              (None, 64)                8256      
_________________________________________________________________
dense_3 (Dense)              (None, 32)                2080      
_________________________________________________________________
dense_4 (Dense)              (None, 16)                528       
_________________________________________________________________
dense_5 (Dense)              (None, 4)                 68        
=================================================================
Total params: 623,412
Trainable params: 623,412
Non-trainable params: 0
_________________________________________________________________
None

Accuracy Train: 88.11%
Accuracy Test: 85.28%
Loss Train: 0.30
Loss Test: 0.46
Numero dati esaminati: 1712
True Positive 1460
False Positive 252
