…
 - 0s - loss: 0.7512 - accuracy: 0.6579 - val_loss: 0.7155 - val_accuracy: 0.7044
Epoch 499/500
 - 0s - loss: 0.7559 - accuracy: 0.6546 - val_loss: 0.7136 - val_accuracy: 0.6942
Epoch 500/500
 - 0s - loss: 0.7563 - accuracy: 0.6588 - val_loss: 0.7143 - val_accuracy: 0.7066

Fit: epochs = 500, batch_size = 80, verbose = 2, shuffle=False, validation_split = 0.20

Model: "sequential_1"
_________________________________________________________________
Layer (type)                 Output Shape              Param #   
=================================================================
conv1d_1 (Conv1D)            (None, 9, 32)             128       
_________________________________________________________________
conv1d_2 (Conv1D)            (None, 9, 64)             2112      
_________________________________________________________________
max_pooling1d_1 (MaxPooling1 (None, 4, 64)             0         
_________________________________________________________________
dropout_1 (Dropout)          (None, 4, 64)             0         
_________________________________________________________________
flatten_1 (Flatten)          (None, 256)               0         
_________________________________________________________________
dense_1 (Dense)              (None, 128)               32896     
_________________________________________________________________
dropout_2 (Dropout)          (None, 128)               0         
_________________________________________________________________
dense_2 (Dense)              (None, 4)                 516       
=================================================================
Total params: 35,652
Trainable params: 35,652
Non-trainable params: 0
_________________________________________________________________
None

Accuracy Train: 72.24%
Accuracy Test: 71.14%
Numero dati esaminati: 1712
True Positive 1218
False Positive 494
