…
 - 0s - loss: 0.0998 - accuracy: 0.9573 - val_loss: 0.6420 - val_accuracy: 0.8847
Epoch 499/500
 - 1s - loss: 0.1047 - accuracy: 0.9597 - val_loss: 0.6498 - val_accuracy: 0.8788
Epoch 500/500
 - 0s - loss: 0.0970 - accuracy: 0.9597 - val_loss: 0.6464 - val_accuracy: 0.8861

Fit: epochs=500, batch_size=80, verbose=2, shuffle=False, validation_split=0.20

Model: "sequential_2"
_________________________________________________________________
Layer (type)                 Output Shape              Param #   
=================================================================
dense_9 (Dense)              (None, 10)                110       
_________________________________________________________________
dense_10 (Dense)             (None, 500)               5500      
_________________________________________________________________
dense_11 (Dense)             (None, 300)               150300    
_________________________________________________________________
dense_12 (Dense)             (None, 200)               60200     
_________________________________________________________________
dense_13 (Dense)             (None, 100)               20100     
_________________________________________________________________
dense_14 (Dense)             (None, 50)                5050      
_________________________________________________________________
dense_15 (Dense)             (None, 20)                1020      
_________________________________________________________________
dense_16 (Dense)             (None, 4)                 84        
=================================================================
Total params: 242,364
Trainable params: 242,364
Non-trainable params: 0
_________________________________________________________________
None

Accuracy Train: 95.31%
Accuracy Test: 89.72%
Loss Train: 0.19
Loss Test: 0.69
Numero dati esaminati: 1712
True Positive 1536
False Positive 176
