…
 - 0s - loss: 0.4664 - accuracy: 0.7667 - val_loss: 0.4992 - val_accuracy: 0.7504
Epoch 499/500
 - 0s - loss: 0.4641 - accuracy: 0.7680 - val_loss: 0.4934 - val_accuracy: 0.7540
Epoch 500/500
 - 0s - loss: 0.4589 - accuracy: 0.7705 - val_loss: 0.4915 - val_accuracy: 0.7540

Fit: epochs=500, batch_size=80, verbose=2, shuffle=False, validation_split=0.20

Model: "sequential_1"
_________________________________________________________________
Layer (type)                 Output Shape              Param #   
=================================================================
dense_1 (Dense)              (None, 11)                132       
_________________________________________________________________
dense_2 (Dense)              (None, 500)               6000      
_________________________________________________________________
dense_3 (Dense)              (None, 200)               100200    
_________________________________________________________________
dense_4 (Dense)              (None, 100)               20100     
_________________________________________________________________
dense_5 (Dense)              (None, 50)                5050      
_________________________________________________________________
dense_6 (Dense)              (None, 4)                 204       
=================================================================
Total params: 131,686
Trainable params: 131,686
Non-trainable params: 0
_________________________________________________________________
None

Accuracy Train: 76.69%
Accuracy Test: 74.88%
Loss Train: 0.47
Loss Test: 0.50
Numero dati esaminati: 1712
True Positive 1282
False Positive 430
