…
 - 0s - loss: 0.2212 - accuracy: 0.8963 - val_loss: 0.5853 - val_accuracy: 0.8599
Epoch 499/500
 - 0s - loss: 0.2170 - accuracy: 0.9022 - val_loss: 0.5974 - val_accuracy: 0.8474
Epoch 500/500
 - 0s - loss: 0.2212 - accuracy: 0.8978 - val_loss: 0.6292 - val_accuracy: 0.8569

Fit: epochs=500, batch_size=80, verbose=2, shuffle=False, validation_split=0.20

Model: "sequential_12"
_________________________________________________________________
Layer (type)                 Output Shape              Param #   
=================================================================
dense_85 (Dense)             (None, 10)                110       
_________________________________________________________________
dense_86 (Dense)             (None, 500)               5500      
_________________________________________________________________
dense_87 (Dense)             (None, 300)               150300    
_________________________________________________________________
dense_88 (Dense)             (None, 200)               60200     
_________________________________________________________________
dense_89 (Dense)             (None, 100)               20100     
_________________________________________________________________
dense_90 (Dense)             (None, 50)                5050      
_________________________________________________________________
dense_91 (Dense)             (None, 20)                1020      
_________________________________________________________________
dense_92 (Dense)             (None, 4)                 84        
=================================================================
Total params: 242,364
Trainable params: 242,364
Non-trainable params: 0
_________________________________________________________________
None

Accuracy Train: 90.06%
Accuracy Test: 87.68%
Loss Train: 0.29
Loss Test: 0.41
Numero dati esaminati: 1712
True Positive 1501
False Positive 211
