…
 - 0s - loss: 0.1831 - accuracy: 0.9138 - val_loss: 0.4313 - val_accuracy: 0.8900
Epoch 499/500
 - 0s - loss: 0.1815 - accuracy: 0.9130 - val_loss: 0.4466 - val_accuracy: 0.8840
Epoch 500/500
 - 0s - loss: 0.1901 - accuracy: 0.9104 - val_loss: 0.4646 - val_accuracy: 0.8814

Fit: epochs=500, batch_size=80, verbose=2, shuffle=False, validation_split=0.20

Model: "sequential_4"
_________________________________________________________________
Layer (type)                 Output Shape              Param #   
=================================================================
dense_19 (Dense)             (None, 11)                132       
_________________________________________________________________
dense_20 (Dense)             (None, 500)               6000      
_________________________________________________________________
dense_21 (Dense)             (None, 200)               100200    
_________________________________________________________________
dense_22 (Dense)             (None, 100)               20100     
_________________________________________________________________
dense_23 (Dense)             (None, 50)                5050      
_________________________________________________________________
dense_24 (Dense)             (None, 4)                 204       
=================================================================
Total params: 131,686
Trainable params: 131,686
Non-trainable params: 0
_________________________________________________________________
None

Accuracy Train: 90.94%
Accuracy Test: 88.45%
Numero dati esaminati: 1455
True Positive 1287
False Positive 168
