…
 - 7s - loss: 0.3105 - accuracy: 0.8704 - val_loss: 0.8714 - val_accuracy: 0.7825
Epoch 191/192
 - 7s - loss: 0.2969 - accuracy: 0.8735 - val_loss: 0.8577 - val_accuracy: 0.7847
Epoch 192/192
 - 8s - loss: 0.2938 - accuracy: 0.8786 - val_loss: 0.8639 - val_accuracy: 0.7876

Fit: epochs = 192, batch_size = 32, verbose = 2, shuffle=False, validation_split = 0.20

Model: "sequential_3"
_________________________________________________________________
Layer (type)                 Output Shape              Param #   
=================================================================
conv1d_3 (Conv1D)            (None, 11, 500)           1000      
_________________________________________________________________
activation_5 (Activation)    (None, 11, 500)           0         
_________________________________________________________________
flatten_3 (Flatten)          (None, 5500)              0         
_________________________________________________________________
dropout_3 (Dropout)          (None, 5500)              0         
_________________________________________________________________
dense_11 (Dense)             (None, 400)               2200400   
_________________________________________________________________
dense_12 (Dense)             (None, 300)               120300    
_________________________________________________________________
dense_13 (Dense)             (None, 200)               60200     
_________________________________________________________________
dense_14 (Dense)             (None, 100)               20100     
_________________________________________________________________
dense_15 (Dense)             (None, 4)                 404       
_________________________________________________________________
activation_6 (Activation)    (None, 4)                 0         
=================================================================
Total params: 2,402,404
Trainable params: 2,402,404
Non-trainable params: 0
_________________________________________________________________
None

Accuracy Train: 88.81%
Accuracy Test: 78.86%
Loss Train: 0.34
Loss Test: 0.97
Numero dati esaminati: 1712
True Positive 1350
False Positive 362
