…
 - 0s - loss: 0.0175 - accuracy: 0.9558 - val_loss: 0.0521 - val_accuracy: 0.8825
Epoch 499/500
 - 0s - loss: 0.0171 - accuracy: 0.9575 - val_loss: 0.0540 - val_accuracy: 0.8715
Epoch 500/500
 - 0s - loss: 0.0172 - accuracy: 0.9575 - val_loss: 0.0527 - val_accuracy: 0.8774

Fit: epochs=500, batch_size=80, verbose=2, shuffle=False, validation_split=0.20

Model: "sequential_1"
_________________________________________________________________
Layer (type)                 Output Shape              Param #   
=================================================================
dense_1 (Dense)              (None, 11)                132       
_________________________________________________________________
dense_2 (Dense)              (None, 500)               6000      
_________________________________________________________________
dense_3 (Dense)              (None, 200)               100200    
_________________________________________________________________
dense_4 (Dense)              (None, 100)               20100     
_________________________________________________________________
dense_5 (Dense)              (None, 50)                5050      
_________________________________________________________________
dense_6 (Dense)              (None, 4)                 204       
=================================================================
Total params: 131,686
Trainable params: 131,686
Non-trainable params: 0
_________________________________________________________________
None

Accuracy Train: 94.26%
Accuracy Test: 89.25%
Loss Train: 0.02
Loss Test: 0.05
Numero dati esaminati: 1712
True Positive 1528
False Positive 184
