…
 - 0s - loss: 0.9306 - accuracy: 0.5347 - val_loss: 0.9693 - val_accuracy: 0.5153
Epoch 499/500
 - 0s - loss: 0.9306 - accuracy: 0.5347 - val_loss: 0.9693 - val_accuracy: 0.5153
Epoch 500/500
 - 0s - loss: 0.9306 - accuracy: 0.5347 - val_loss: 0.9693 - val_accuracy: 0.5153

Fit: epochs=500, batch_size=80, verbose=2, shuffle=False, validation_split=0.20

Model: "sequential_10"
_________________________________________________________________
Layer (type)                 Output Shape              Param #   
=================================================================
dense_69 (Dense)             (None, 11)                132       
_________________________________________________________________
dense_70 (Dense)             (None, 500)               6000      
_________________________________________________________________
dense_71 (Dense)             (None, 300)               150300    
_________________________________________________________________
dense_72 (Dense)             (None, 200)               60200     
_________________________________________________________________
dense_73 (Dense)             (None, 100)               20100     
_________________________________________________________________
dense_74 (Dense)             (None, 50)                5050      
_________________________________________________________________
dense_75 (Dense)             (None, 20)                1020      
_________________________________________________________________
dense_76 (Dense)             (None, 4)                 84        
=================================================================
Total params: 242,886
Trainable params: 242,886
Non-trainable params: 0
_________________________________________________________________
None

Accuracy Train: 53.08%
Accuracy Test: 52.04%
Loss Train: 0.94
Loss Test: 0.96
Numero dati esaminati: 1712
True Positive 891
False Positive 821
