…
 - 4s - loss: 0.2729 - accuracy: 0.8746 - val_loss: 0.4542 - val_accuracy: 0.8482
Epoch 499/500
 - 5s - loss: 0.2640 - accuracy: 0.8788 - val_loss: 0.4704 - val_accuracy: 0.8453
Epoch 500/500
 - 4s - loss: 0.2634 - accuracy: 0.8792 - val_loss: 0.4676 - val_accuracy: 0.8562

Fit: epochs = 500, batch_size = 80, verbose = 2, shuffle=False, validation_split = 0.20

Model: "sequential_1"
_________________________________________________________________
Layer (type)                 Output Shape              Param #   
=================================================================
bidirectional_1 (Bidirection (None, 1000)              2044000   
_________________________________________________________________
dropout_1 (Dropout)          (None, 1000)              0         
_________________________________________________________________
dense_1 (Dense)              (None, 300)               300300    
_________________________________________________________________
dense_2 (Dense)              (None, 200)               60200     
_________________________________________________________________
dense_3 (Dense)              (None, 100)               20100     
_________________________________________________________________
dense_4 (Dense)              (None, 50)                5050      
_________________________________________________________________
dense_5 (Dense)              (None, 20)                1020      
_________________________________________________________________
dense_6 (Dense)              (None, 4)                 84        
=================================================================
Total params: 2,430,754
Trainable params: 2,430,754
Non-trainable params: 0
_________________________________________________________________
None

Accuracy Train: 88.36%
Accuracy Test: 86.16%
Loss Train: 0.28
Loss Test: 0.42
Numero dati esaminati: 1712
True Positive 1475
False Positive 237
