…
 - 4s - loss: 0.1401 - accuracy: 0.9336 - val_loss: 0.6532 - val_accuracy: 0.8766
Epoch 499/500
 - 4s - loss: 0.1266 - accuracy: 0.9407 - val_loss: 0.6692 - val_accuracy: 0.8803
Epoch 500/500
 - 4s - loss: 0.1377 - accuracy: 0.9378 - val_loss: 0.6721 - val_accuracy: 0.8715

Fit: epochs = 500, batch_size = 80, verbose = 2, shuffle=False, validation_split = 0.20

Model: "sequential_1"
_________________________________________________________________
Layer (type)                 Output Shape              Param #   
=================================================================
bidirectional_1 (Bidirection (None, 1000)              2044000   
_________________________________________________________________
dropout_1 (Dropout)          (None, 1000)              0         
_________________________________________________________________
dense_1 (Dense)              (None, 300)               300300    
_________________________________________________________________
dense_2 (Dense)              (None, 200)               60200     
_________________________________________________________________
dense_3 (Dense)              (None, 100)               20100     
_________________________________________________________________
dense_4 (Dense)              (None, 50)                5050      
_________________________________________________________________
dense_5 (Dense)              (None, 20)                1020      
_________________________________________________________________
dense_6 (Dense)              (None, 4)                 84        
=================================================================
Total params: 2,430,754
Trainable params: 2,430,754
Non-trainable params: 0
_________________________________________________________________
None

Accuracy Train: 93.20%
Accuracy Test: 88.79%
Loss Train: 0.23
Loss Test: 0.60
Numero dati esaminati: 1712
True Positive 1520
False Positive 192
