…
 - 0s - loss: 0.1145 - accuracy: 0.9513 - val_loss: 0.7268 - val_accuracy: 0.8869
Epoch 499/500
 - 0s - loss: 0.1140 - accuracy: 0.9516 - val_loss: 0.7529 - val_accuracy: 0.8752
Epoch 500/500
 - 0s - loss: 0.1138 - accuracy: 0.9518 - val_loss: 0.7602 - val_accuracy: 0.8818

Fit: epochs=500, batch_size=80, verbose=2, shuffle=False, validation_split=0.20

Model: "sequential_1"
_________________________________________________________________
Layer (type)                 Output Shape              Param #   
=================================================================
dense_1 (Dense)              (None, 10)                110       
_________________________________________________________________
dense_2 (Dense)              (None, 256)               2816      
_________________________________________________________________
dense_3 (Dense)              (None, 128)               32896     
_________________________________________________________________
dense_4 (Dense)              (None, 64)                8256      
_________________________________________________________________
dense_5 (Dense)              (None, 32)                2080      
_________________________________________________________________
dense_6 (Dense)              (None, 16)                528       
_________________________________________________________________
dense_7 (Dense)              (None, 8)                 136       
_________________________________________________________________
dense_8 (Dense)              (None, 4)                 36        
=================================================================
Total params: 46,858
Trainable params: 46,858
Non-trainable params: 0
_________________________________________________________________
None

Accuracy Train: 94.13%
Accuracy Test: 89.43%
Loss Train: 0.24
Loss Test: 0.73
Numero dati esaminati: 1712
True Positive 1531
False Positive 181
