…
 - 0s - loss: 0.2218 - accuracy: 0.8988 - val_loss: 0.5535 - val_accuracy: 0.8565
Epoch 499/500
 - 0s - loss: 0.2172 - accuracy: 0.8964 - val_loss: 0.4743 - val_accuracy: 0.8866
Epoch 500/500
 - 0s - loss: 0.1957 - accuracy: 0.9082 - val_loss: 0.4838 - val_accuracy: 0.8849

Fit: epochs=500, batch_size=80, verbose=2, shuffle=False, validation_split=0.20

Model: "sequential_4"
_________________________________________________________________
Layer (type)                 Output Shape              Param #   
=================================================================
dense_23 (Dense)             (None, 11)                132       
_________________________________________________________________
dense_24 (Dense)             (None, 500)               6000      
_________________________________________________________________
dense_25 (Dense)             (None, 300)               150300    
_________________________________________________________________
dense_26 (Dense)             (None, 200)               60200     
_________________________________________________________________
dense_27 (Dense)             (None, 100)               20100     
_________________________________________________________________
dense_28 (Dense)             (None, 50)                5050      
_________________________________________________________________
dense_29 (Dense)             (None, 20)                1020      
_________________________________________________________________
dense_30 (Dense)             (None, 4)                 84        
=================================================================
Total params: 242,886
Trainable params: 242,886
Non-trainable params: 0
_________________________________________________________________
None

Accuracy Train: 91.20%
Accuracy Test: 88.45%
Loss Train: 0.24
Loss Test: 0.41
Numero dati esaminati: 1455
True Positive 1287
False Positive 168
