…
 - 1s - loss: 0.2566 - accuracy: 0.8870 - val_loss: 0.2987 - val_accuracy: 0.8906
Epoch 149/150
 - 1s - loss: 0.2568 - accuracy: 0.8870 - val_loss: 0.2974 - val_accuracy: 0.8926
Epoch 150/150
 - 1s - loss: 0.2587 - accuracy: 0.8872 - val_loss: 0.3141 - val_accuracy: 0.8861

Fit: epochs=150, batch_size=200, verbose=2, shuffle=False, validation_split=0.20

Model: "sequential_1"
_________________________________________________________________
Layer (type)                 Output Shape              Param #   
=================================================================
dense_1 (Dense)              (None, 10)                110       
_________________________________________________________________
dense_2 (Dense)              (None, 500)               5500      
_________________________________________________________________
dense_3 (Dense)              (None, 300)               150300    
_________________________________________________________________
dense_4 (Dense)              (None, 200)               60200     
_________________________________________________________________
dense_5 (Dense)              (None, 100)               20100     
_________________________________________________________________
dense_6 (Dense)              (None, 50)                5050      
_________________________________________________________________
dense_7 (Dense)              (None, 20)                1020      
_________________________________________________________________
dense_8 (Dense)              (None, 4)                 84        
=================================================================
Total params: 242,364
Trainable params: 242,364
Non-trainable params: 0
_________________________________________________________________
None

Accuracy Train: 88.81%
Accuracy Test: 87.69%
Loss Train: 0.27
Loss Test: 0.32
Numero dati esaminati: 4949
True Positive 4340
False Positive 609
