…
 - 1s - loss: 0.0267 - accuracy: 0.9225 - val_loss: 0.0291 - val_accuracy: 0.9207
Epoch 1454/1455
 - 1s - loss: 0.0254 - accuracy: 0.9264 - val_loss: 0.0294 - val_accuracy: 0.9189
Epoch 1455/1455
 - 1s - loss: 0.0285 - accuracy: 0.9176 - val_loss: 0.0305 - val_accuracy: 0.9151

Fit: epochs=1455, batch_size=233, verbose=2, shuffle=False, validation_split=0.20

Model: "sequential_1"
_________________________________________________________________
Layer (type)                 Output Shape              Param #   
=================================================================
dense_1 (Dense)              (None, 10)                110       
_________________________________________________________________
dense_2 (Dense)              (None, 500)               5500      
_________________________________________________________________
dense_3 (Dense)              (None, 300)               150300    
_________________________________________________________________
dense_4 (Dense)              (None, 200)               60200     
_________________________________________________________________
dense_5 (Dense)              (None, 100)               20100     
_________________________________________________________________
dense_6 (Dense)              (None, 50)                5050      
_________________________________________________________________
dense_7 (Dense)              (None, 20)                1020      
_________________________________________________________________
dense_8 (Dense)              (None, 4)                 84        
=================================================================
Total params: 242,364
Trainable params: 242,364
Non-trainable params: 0
_________________________________________________________________
None

Accuracy Train: 92.37%
Accuracy Test: 91.07%
Loss Train: 0.03
Loss Test: 0.03
Numero dati esaminati: 4949
True Positive 4507
False Positive 442
