…
 - 0s - loss: 0.1271 - accuracy: 0.9489 - val_loss: 0.6922 - val_accuracy: 0.8832
Epoch 499/500
 - 0s - loss: 0.1276 - accuracy: 0.9487 - val_loss: 0.6264 - val_accuracy: 0.8766
Epoch 500/500
 - 0s - loss: 0.1186 - accuracy: 0.9487 - val_loss: 0.6297 - val_accuracy: 0.8788

Fit: epochs=500, batch_size=80, verbose=2, shuffle=False, validation_split=0.20

Model: "sequential_6"
_________________________________________________________________
Layer (type)                 Output Shape              Param #   
=================================================================
dense_31 (Dense)             (None, 11)                132       
_________________________________________________________________
dense_32 (Dense)             (None, 500)               6000      
_________________________________________________________________
dense_33 (Dense)             (None, 200)               100200    
_________________________________________________________________
dense_34 (Dense)             (None, 100)               20100     
_________________________________________________________________
dense_35 (Dense)             (None, 50)                5050      
_________________________________________________________________
dense_36 (Dense)             (None, 4)                 204       
=================================================================
Total params: 131,686
Trainable params: 131,686
Non-trainable params: 0
_________________________________________________________________
None

Accuracy Train: 94.33%
Accuracy Test: 89.43%
Loss Train: 0.21
Loss Test: 0.63
Numero dati esaminati: 1712
True Positive 1531
False Positive 181
