…
 - 9s - loss: 0.0245 - accuracy: 0.9337 - val_loss: 0.0513 - val_accuracy: 0.8766
Epoch 191/192
 - 9s - loss: 0.0251 - accuracy: 0.9337 - val_loss: 0.0534 - val_accuracy: 0.8701
Epoch 192/192
 - 8s - loss: 0.0236 - accuracy: 0.9363 - val_loss: 0.0493 - val_accuracy: 0.8818

Fit: epochs = 192, batch_size = 32, verbose = 2, shuffle=False, validation_split = 0.20

Model: "sequential_1"
_________________________________________________________________
Layer (type)                 Output Shape              Param #   
=================================================================
conv1d_1 (Conv1D)            (None, 11, 500)           1000      
_________________________________________________________________
activation_1 (Activation)    (None, 11, 500)           0         
_________________________________________________________________
flatten_1 (Flatten)          (None, 5500)              0         
_________________________________________________________________
dropout_1 (Dropout)          (None, 5500)              0         
_________________________________________________________________
dense_1 (Dense)              (None, 400)               2200400   
_________________________________________________________________
dense_2 (Dense)              (None, 300)               120300    
_________________________________________________________________
dense_3 (Dense)              (None, 200)               60200     
_________________________________________________________________
dense_4 (Dense)              (None, 100)               20100     
_________________________________________________________________
dense_5 (Dense)              (None, 4)                 404       
_________________________________________________________________
activation_2 (Activation)    (None, 4)                 0         
=================================================================
Total params: 2,402,404
Trainable params: 2,402,404
Non-trainable params: 0
_________________________________________________________________
None

Accuracy Train: 93.76%
Accuracy Test: 89.31%
Loss Train: 0.03
Loss Test: 0.04
Numero dati esaminati: 1712
True Positive 1529
False Positive 183
