…
 - 0s - loss: 0.0180 - accuracy: 0.9524 - val_loss: 0.0514 - val_accuracy: 0.8752
Epoch 499/500
 - 0s - loss: 0.0145 - accuracy: 0.9626 - val_loss: 0.0495 - val_accuracy: 0.8810
Epoch 500/500
 - 0s - loss: 0.0147 - accuracy: 0.9609 - val_loss: 0.0513 - val_accuracy: 0.8810

Fit: epochs=500, batch_size=80, verbose=2, shuffle=False, validation_split=0.20

Model: "sequential_1"
_________________________________________________________________
Layer (type)                 Output Shape              Param #   
=================================================================
dense_1 (Dense)              (None, 10)                110       
_________________________________________________________________
dense_2 (Dense)              (None, 500)               5500      
_________________________________________________________________
dense_3 (Dense)              (None, 300)               150300    
_________________________________________________________________
dense_4 (Dense)              (None, 200)               60200     
_________________________________________________________________
dense_5 (Dense)              (None, 100)               20100     
_________________________________________________________________
dense_6 (Dense)              (None, 50)                5050      
_________________________________________________________________
dense_7 (Dense)              (None, 20)                1020      
_________________________________________________________________
dense_8 (Dense)              (None, 4)                 84        
=================================================================
Total params: 242,364
Trainable params: 242,364
Non-trainable params: 0
_________________________________________________________________
None

Accuracy Train: 94.87%
Accuracy Test: 89.08%
Loss Train: 0.02
Loss Test: 0.05
Numero dati esaminati: 1712
True Positive 1525
False Positive 187
