…
 - 0s - loss: 0.7962 - accuracy: 0.6019 - val_loss: 0.8304 - val_accuracy: 0.5847
Epoch 499/500
 - 0s - loss: 0.7948 - accuracy: 0.6026 - val_loss: 0.8360 - val_accuracy: 0.5818
Epoch 500/500
 - 0s - loss: 0.8105 - accuracy: 0.5947 - val_loss: 0.8495 - val_accuracy: 0.5752

Fit: epochs=500, batch_size=80, verbose=2, shuffle=False, validation_split=0.20

Model: "sequential_9"
_________________________________________________________________
Layer (type)                 Output Shape              Param #   
=================================================================
dense_61 (Dense)             (None, 11)                132       
_________________________________________________________________
dense_62 (Dense)             (None, 500)               6000      
_________________________________________________________________
dense_63 (Dense)             (None, 300)               150300    
_________________________________________________________________
dense_64 (Dense)             (None, 200)               60200     
_________________________________________________________________
dense_65 (Dense)             (None, 100)               20100     
_________________________________________________________________
dense_66 (Dense)             (None, 50)                5050      
_________________________________________________________________
dense_67 (Dense)             (None, 20)                1020      
_________________________________________________________________
dense_68 (Dense)             (None, 4)                 84        
=================================================================
Total params: 242,886
Trainable params: 242,886
Non-trainable params: 0
_________________________________________________________________
None

Accuracy Train: 58.75%
Accuracy Test: 57.83%
Loss Train: 0.82
Loss Test: 0.84
Numero dati esaminati: 1712
True Positive 990
False Positive 722
