…
 - 0s - loss: 0.0284 - accuracy: 0.9199 - val_loss: 0.0495 - val_accuracy: 0.8745
Epoch 1499/1500
 - 0s - loss: 0.0308 - accuracy: 0.9146 - val_loss: 0.0489 - val_accuracy: 0.8715
Epoch 1500/1500
 - 0s - loss: 0.0286 - accuracy: 0.9211 - val_loss: 0.0471 - val_accuracy: 0.8810

Fit: epochs=1500, batch_size=160, verbose=2, shuffle=False, validation_split=0.20

Model: "sequential_1"
_________________________________________________________________
Layer (type)                 Output Shape              Param #   
=================================================================
dense_1 (Dense)              (None, 11)                132       
_________________________________________________________________
dense_2 (Dense)              (None, 500)               6000      
_________________________________________________________________
dense_3 (Dense)              (None, 200)               100200    
_________________________________________________________________
dense_4 (Dense)              (None, 100)               20100     
_________________________________________________________________
dense_5 (Dense)              (None, 50)                5050      
_________________________________________________________________
dense_6 (Dense)              (None, 4)                 204       
=================================================================
Total params: 131,686
Trainable params: 131,686
Non-trainable params: 0
_________________________________________________________________
None

Accuracy Train: 91.62%
Accuracy Test: 89.02%
Numero dati esaminati: 1712
True Positive 1524
False Positive 188
