…
 - 27s - loss: 0.2552 - accuracy: 0.8897 - val_loss: 0.2869 - val_accuracy: 0.8937
Epoch 127/128
 - 27s - loss: 0.2590 - accuracy: 0.8878 - val_loss: 0.2884 - val_accuracy: 0.8932
Epoch 128/128
 - 25s - loss: 0.2571 - accuracy: 0.8894 - val_loss: 0.2872 - val_accuracy: 0.8904

Fit: epochs= 128 , batch_size= 32 , verbose= 2 , shuffle= False , validation_split= 0.2 

Model: "sequential_1"
_________________________________________________________________
Layer (type)                 Output Shape              Param #   
=================================================================
lstm_1 (LSTM)                (None, 1, 500)            1022000   
_________________________________________________________________
lstm_2 (LSTM)                (None, 1, 300)            961200    
_________________________________________________________________
lstm_3 (LSTM)                (None, 200)               400800    
_________________________________________________________________
dropout_1 (Dropout)          (None, 200)               0         
_________________________________________________________________
dense_1 (Dense)              (None, 100)               20100     
_________________________________________________________________
dense_2 (Dense)              (None, 50)                5050      
_________________________________________________________________
dense_3 (Dense)              (None, 20)                1020      
_________________________________________________________________
dense_4 (Dense)              (None, 4)                 84        
=================================================================
Total params: 2,410,254
Trainable params: 2,410,254
Non-trainable params: 0
_________________________________________________________________
None

Accuracy Train: 88.94%
Accuracy Test: 88.12%
Loss Train: 0.26
Loss Test: 0.30
Numero dati esaminati: 4949
True Positive 4361
False Positive 588
