…
 - 0s - loss: 0.0769 - accuracy: 0.9675 - val_loss: 0.8013 - val_accuracy: 0.8854
Epoch 499/500
 - 0s - loss: 0.0927 - accuracy: 0.9629 - val_loss: 0.7563 - val_accuracy: 0.8803
Epoch 500/500
 - 0s - loss: 0.1017 - accuracy: 0.9575 - val_loss: 0.7535 - val_accuracy: 0.8752

Fit: epochs=500, batch_size=80, verbose=2, shuffle=False, validation_split=0.20

Model: "sequential_6"
_________________________________________________________________
Layer (type)                 Output Shape              Param #   
=================================================================
dense_39 (Dense)             (None, 11)                132       
_________________________________________________________________
dense_40 (Dense)             (None, 500)               6000      
_________________________________________________________________
dense_41 (Dense)             (None, 300)               150300    
_________________________________________________________________
dense_42 (Dense)             (None, 200)               60200     
_________________________________________________________________
dense_43 (Dense)             (None, 100)               20100     
_________________________________________________________________
dense_44 (Dense)             (None, 50)                5050      
_________________________________________________________________
dense_45 (Dense)             (None, 20)                1020      
_________________________________________________________________
dense_46 (Dense)             (None, 4)                 84        
=================================================================
Total params: 242,886
Trainable params: 242,886
Non-trainable params: 0
_________________________________________________________________
None

Accuracy Train: 94.63%
Accuracy Test: 89.37%
Loss Train: 0.22
Loss Test: 0.60
Numero dati esaminati: 1712
True Positive 1530
False Positive 182
