…
 - 0s - loss: 0.2198 - accuracy: 0.9016 - val_loss: 0.4615 - val_accuracy: 0.8686
Epoch 499/500
 - 0s - loss: 0.2156 - accuracy: 0.9023 - val_loss: 0.4810 - val_accuracy: 0.8650
Epoch 500/500
 - 0s - loss: 0.2140 - accuracy: 0.9023 - val_loss: 0.4883 - val_accuracy: 0.8606

Fit: epochs=500, batch_size=80, verbose=2, shuffle=False, validation_split=0.20

Model: "sequential_1"
_________________________________________________________________
Layer (type)                 Output Shape              Param #   
=================================================================
dense_1 (Dense)              (None, 10)                110       
_________________________________________________________________
dense_2 (Dense)              (None, 500)               5500      
_________________________________________________________________
dense_3 (Dense)              (None, 200)               100200    
_________________________________________________________________
dense_4 (Dense)              (None, 100)               20100     
_________________________________________________________________
dense_5 (Dense)              (None, 50)                5050      
_________________________________________________________________
dense_6 (Dense)              (None, 4)                 204       
=================================================================
Total params: 131,164
Trainable params: 131,164
Non-trainable params: 0
_________________________________________________________________
None

Accuracy Train: 90.03%
Accuracy Test: 87.09%
Loss Train: 0.26
Loss Test: 0.39
Numero dati esaminati: 1712
True Positive 1491
False Positive 221
