…
 - 5s - loss: 0.3332 - accuracy: 0.8614 - val_loss: 0.4386 - val_accuracy: 0.8526
Epoch 159/160
 - 5s - loss: 0.3389 - accuracy: 0.8572 - val_loss: 0.4423 - val_accuracy: 0.8518
Epoch 160/160
 - 5s - loss: 0.3337 - accuracy: 0.8594 - val_loss: 0.4430 - val_accuracy: 0.8577

Fit: epochs = 160, batch_size = 27, verbose = 2, shuffle=False, validation_split = 0.20

Model: "sequential_10"
_________________________________________________________________
Layer (type)                 Output Shape              Param #   
=================================================================
conv1d_1 (Conv1D)            (None, 11, 512)           1024      
_________________________________________________________________
activation_1 (Activation)    (None, 11, 512)           0         
_________________________________________________________________
flatten_1 (Flatten)          (None, 5632)              0         
_________________________________________________________________
dropout_1 (Dropout)          (None, 5632)              0         
_________________________________________________________________
dense_46 (Dense)             (None, 200)               1126600   
_________________________________________________________________
dense_47 (Dense)             (None, 100)               20100     
_________________________________________________________________
dense_48 (Dense)             (None, 4)                 404       
_________________________________________________________________
activation_2 (Activation)    (None, 4)                 0         
=================================================================
Total params: 1,148,128
Trainable params: 1,148,128
Non-trainable params: 0
_________________________________________________________________
None

Accuracy Train: 86.99%
Accuracy Test: 84.81%
Loss Train: 0.33
Loss Test: 0.43
Numero dati esaminati: 1712
True Positive 1452
False Positive 260
