…
 - 0s - loss: 0.2227 - accuracy: 0.8952 - val_loss: 0.5222 - val_accuracy: 0.8482
Epoch 499/500
 - 0s - loss: 0.2294 - accuracy: 0.8963 - val_loss: 0.4403 - val_accuracy: 0.8584
Epoch 500/500
 - 0s - loss: 0.2256 - accuracy: 0.8972 - val_loss: 0.4667 - val_accuracy: 0.8664

Fit: epochs=500, batch_size=80, verbose=2, shuffle=False, validation_split=0.20

Model: "sequential_2"
_________________________________________________________________
Layer (type)                 Output Shape              Param #   
=================================================================
dense_9 (Dense)              (None, 11)                132       
_________________________________________________________________
dense_10 (Dense)             (None, 500)               6000      
_________________________________________________________________
dense_11 (Dense)             (None, 200)               100200    
_________________________________________________________________
dense_12 (Dense)             (None, 100)               20100     
_________________________________________________________________
dense_13 (Dense)             (None, 50)                5050      
_________________________________________________________________
dense_14 (Dense)             (None, 4)                 204       
=================================================================
Total params: 131,686
Trainable params: 131,686
Non-trainable params: 0
_________________________________________________________________
None

Accuracy Train: 89.27%
Accuracy Test: 87.38%
Loss Train: 0.27
Loss Test: 0.39
Numero dati esaminati: 1712
True Positive 1496
False Positive 216
