…
 - 0s - loss: 0.0388 - accuracy: 0.9846 - val_loss: 0.8919 - val_accuracy: 0.8983
Epoch 499/500
 - 0s - loss: 0.0385 - accuracy: 0.9843 - val_loss: 0.8935 - val_accuracy: 0.8962
Epoch 500/500
 - 0s - loss: 0.0355 - accuracy: 0.9851 - val_loss: 0.9022 - val_accuracy: 0.8969

Fit: epochs=500, batch_size=80, verbose=2, shuffle=False, validation_split=0.20

Model: "sequential_1"
_________________________________________________________________
Layer (type)                 Output Shape              Param #   
=================================================================
dense_1 (Dense)              (None, 11)                132       
_________________________________________________________________
dense_2 (Dense)              (None, 500)               6000      
_________________________________________________________________
dense_3 (Dense)              (None, 200)               100200    
_________________________________________________________________
dense_4 (Dense)              (None, 100)               20100     
_________________________________________________________________
dense_5 (Dense)              (None, 50)                5050      
_________________________________________________________________
dense_6 (Dense)              (None, 4)                 204       
=================================================================
Total params: 131,686
Trainable params: 131,686
Non-trainable params: 0
_________________________________________________________________
None

Accuracy Train: 96.91%
Accuracy Test: 88.08%
Loss Train: 0.21
Loss Test: 0.93
Numero dati esaminati: 1712
True Positive 1508
False Positive 204
