…
 - 60s - loss: 0.2530 - accuracy: 0.8903 - val_loss: 0.2829 - val_accuracy: 0.8947
Epoch 127/128
 - 58s - loss: 0.2462 - accuracy: 0.8905 - val_loss: 0.2761 - val_accuracy: 0.8992
Epoch 128/128
 - 58s - loss: 0.2542 - accuracy: 0.8895 - val_loss: 0.2789 - val_accuracy: 0.8977

Fit: epochs= 128 , batch_size= 32 , verbose= 2 , shuffle= False , validation_split= 0.2 

Model: "sequential_1"
_________________________________________________________________
Layer (type)                 Output Shape              Param #   
=================================================================
bidirectional_1 (Bidirection (None, 1, 1000)           2044000   
_________________________________________________________________
bidirectional_2 (Bidirection (None, 1, 600)            3122400   
_________________________________________________________________
bidirectional_3 (Bidirection (None, 400)               1281600   
_________________________________________________________________
dropout_1 (Dropout)          (None, 400)               0         
_________________________________________________________________
dense_1 (Dense)              (None, 100)               40100     
_________________________________________________________________
dense_2 (Dense)              (None, 50)                5050      
_________________________________________________________________
dense_3 (Dense)              (None, 20)                1020      
_________________________________________________________________
dense_4 (Dense)              (None, 4)                 84        
=================================================================
Total params: 6,494,254
Trainable params: 6,494,254
Non-trainable params: 0
_________________________________________________________________
None

Accuracy Train: 89.66%
Accuracy Test: 88.24%
Loss Train: 0.24
Loss Test: 0.28
Numero dati esaminati: 4949
True Positive 4367
False Positive 582
