…
 - 0s - loss: 0.0862 - accuracy: 0.7808 - val_loss: 0.0916 - val_accuracy: 0.7680
Epoch 499/500
 - 0s - loss: 0.0862 - accuracy: 0.7808 - val_loss: 0.0916 - val_accuracy: 0.7680
Epoch 500/500
 - 0s - loss: 0.0862 - accuracy: 0.7810 - val_loss: 0.0915 - val_accuracy: 0.7680

Fit: epochs=500, batch_size=80, verbose=2, shuffle=False, validation_split=0.20

Model: "sequential_5"
_________________________________________________________________
Layer (type)                 Output Shape              Param #   
=================================================================
dense_31 (Dense)             (None, 11)                132       
_________________________________________________________________
dense_32 (Dense)             (None, 500)               6000      
_________________________________________________________________
dense_33 (Dense)             (None, 300)               150300    
_________________________________________________________________
dense_34 (Dense)             (None, 200)               60200     
_________________________________________________________________
dense_35 (Dense)             (None, 100)               20100     
_________________________________________________________________
dense_36 (Dense)             (None, 50)                5050      
_________________________________________________________________
dense_37 (Dense)             (None, 20)                1020      
_________________________________________________________________
dense_38 (Dense)             (None, 4)                 84        
=================================================================
Total params: 242,886
Trainable params: 242,886
Non-trainable params: 0
_________________________________________________________________
None

Accuracy Train: 77.89%
Accuracy Test: 78.97%
Loss Train: 0.09
Loss Test: 0.09
Numero dati esaminati: 1455
True Positive 1149
False Positive 306
