…
 - 1s - loss: 0.2589 - accuracy: 0.8839 - val_loss: 0.4496 - val_accuracy: 0.8584
Epoch 499/500
 - 1s - loss: 0.2559 - accuracy: 0.8868 - val_loss: 0.4430 - val_accuracy: 0.8584
Epoch 500/500
 - 2s - loss: 0.2572 - accuracy: 0.8854 - val_loss: 0.4402 - val_accuracy: 0.8599

Fit: epochs = 500, batch_size = 80, verbose = 2, shuffle=False, validation_split = 0.20

Model: "sequential_1"
_________________________________________________________________
Layer (type)                 Output Shape              Param #   
=================================================================
bidirectional_1 (Bidirection (None, 512)               546816    
_________________________________________________________________
dense_1 (Dense)              (None, 128)               65664     
_________________________________________________________________
dense_2 (Dense)              (None, 64)                8256      
_________________________________________________________________
dense_3 (Dense)              (None, 32)                2080      
_________________________________________________________________
dense_4 (Dense)              (None, 16)                528       
_________________________________________________________________
dense_5 (Dense)              (None, 4)                 68        
=================================================================
Total params: 623,412
Trainable params: 623,412
Non-trainable params: 0
_________________________________________________________________
None

Accuracy Train: 88.35%
Accuracy Test: 86.97%
Loss Train: 0.28
Loss Test: 0.41
Numero dati esaminati: 1712
True Positive 1489
False Positive 223
