…
 - 1s - loss: 0.2214 - accuracy: 0.9039 - val_loss: 0.4134 - val_accuracy: 0.9040
Epoch 399/400
 - 1s - loss: 0.2382 - accuracy: 0.8990 - val_loss: 0.3728 - val_accuracy: 0.9005
Epoch 400/400
 - 1s - loss: 0.2231 - accuracy: 0.9034 - val_loss: 0.3487 - val_accuracy: 0.8957

Fit: epochs=400, batch_size=49, verbose=2, shuffle=False, validation_split=0.20

Model: "sequential_1"
_________________________________________________________________
Layer (type)                 Output Shape              Param #   
=================================================================
dense_1 (Dense)              (None, 10)                110       
_________________________________________________________________
dense_2 (Dense)              (None, 500)               5500      
_________________________________________________________________
dense_3 (Dense)              (None, 300)               150300    
_________________________________________________________________
dense_4 (Dense)              (None, 200)               60200     
_________________________________________________________________
dense_5 (Dense)              (None, 100)               20100     
_________________________________________________________________
dense_6 (Dense)              (None, 50)                5050      
_________________________________________________________________
dense_7 (Dense)              (None, 20)                1020      
_________________________________________________________________
dense_8 (Dense)              (None, 4)                 84        
=================================================================
Total params: 242,364
Trainable params: 242,364
Non-trainable params: 0
_________________________________________________________________
None

Accuracy Train: 90.30%
Accuracy Test: 89.07%
Loss Train: 0.24
Loss Test: 0.38
Numero dati esaminati: 4949
True Positive 4408
False Positive 541
