…
 - 7s - loss: 0.1364 - accuracy: 0.9434 - val_loss: 0.6912 - val_accuracy: 0.8810
Epoch 191/192
 - 8s - loss: 0.1343 - accuracy: 0.9429 - val_loss: 0.7288 - val_accuracy: 0.8876
Epoch 192/192
 - 9s - loss: 0.1358 - accuracy: 0.9436 - val_loss: 0.7790 - val_accuracy: 0.8912

Fit: epochs = 192, batch_size = 32, verbose = 2, shuffle=False, validation_split = 0.20

Model: "sequential_2"
_________________________________________________________________
Layer (type)                 Output Shape              Param #   
=================================================================
conv1d_2 (Conv1D)            (None, 11, 500)           1000      
_________________________________________________________________
activation_3 (Activation)    (None, 11, 500)           0         
_________________________________________________________________
flatten_2 (Flatten)          (None, 5500)              0         
_________________________________________________________________
dropout_2 (Dropout)          (None, 5500)              0         
_________________________________________________________________
dense_6 (Dense)              (None, 400)               2200400   
_________________________________________________________________
dense_7 (Dense)              (None, 300)               120300    
_________________________________________________________________
dense_8 (Dense)              (None, 200)               60200     
_________________________________________________________________
dense_9 (Dense)              (None, 100)               20100     
_________________________________________________________________
dense_10 (Dense)             (None, 4)                 404       
_________________________________________________________________
activation_4 (Activation)    (None, 4)                 0         
=================================================================
Total params: 2,402,404
Trainable params: 2,402,404
Non-trainable params: 0
_________________________________________________________________
None

Accuracy Train: 94.16%
Accuracy Test: 89.89%
Loss Train: 0.25
Loss Test: 0.62
Numero dati esaminati: 1712
True Positive 1539
False Positive 173
