…
 - 17s - loss: 0.3416 - accuracy: 0.8552 - val_loss: 0.5037 - val_accuracy: 0.8445
Epoch 127/128
 - 17s - loss: 0.3415 - accuracy: 0.8551 - val_loss: 0.4990 - val_accuracy: 0.8511
Epoch 128/128
 - 17s - loss: 0.3440 - accuracy: 0.8571 - val_loss: 0.4750 - val_accuracy: 0.8453

Fit: epochs= 128 , batch_size= 32 , verbose= 2 , shuffle= False , validation_split= 0.2 

Model: "sequential_1"
_________________________________________________________________
Layer (type)                 Output Shape              Param #   
=================================================================
lstm_1 (LSTM)                (None, 1, 500)            1022000   
_________________________________________________________________
lstm_2 (LSTM)                (None, 1, 500)            2002000   
_________________________________________________________________
lstm_3 (LSTM)                (None, 500)               2002000   
_________________________________________________________________
dropout_1 (Dropout)          (None, 500)               0         
_________________________________________________________________
dense_1 (Dense)              (None, 300)               150300    
_________________________________________________________________
dense_2 (Dense)              (None, 200)               60200     
_________________________________________________________________
dense_3 (Dense)              (None, 100)               20100     
_________________________________________________________________
dense_4 (Dense)              (None, 50)                5050      
_________________________________________________________________
dense_5 (Dense)              (None, 20)                1020      
_________________________________________________________________
dense_6 (Dense)              (None, 4)                 84        
=================================================================
Total params: 5,262,754
Trainable params: 5,262,754
Non-trainable params: 0
_________________________________________________________________
None

Accuracy Train: 85.50%
Accuracy Test: 83.18%
Loss Train: 0.36
Loss Test: 0.47
Numero dati esaminati: 1712
True Positive 1424
False Positive 288
