…
 - 4s - loss: 0.3153 - accuracy: 0.8656 - val_loss: 0.5038 - val_accuracy: 0.8474
Epoch 127/128
 - 4s - loss: 0.3243 - accuracy: 0.8625 - val_loss: 0.4767 - val_accuracy: 0.8526
Epoch 128/128
 - 4s - loss: 0.3244 - accuracy: 0.8627 - val_loss: 0.4723 - val_accuracy: 0.8518

Fit: epochs= 128 , batch_size= 32 , verbose= 2 , shuffle= False , validation_split= 0.2 

Model: "sequential_1"
_________________________________________________________________
Layer (type)                 Output Shape              Param #   
=================================================================
lstm_1 (LSTM)                (None, 500)               1022000   
_________________________________________________________________
dropout_1 (Dropout)          (None, 500)               0         
_________________________________________________________________
dense_1 (Dense)              (None, 300)               150300    
_________________________________________________________________
dense_2 (Dense)              (None, 200)               60200     
_________________________________________________________________
dense_3 (Dense)              (None, 100)               20100     
_________________________________________________________________
dense_4 (Dense)              (None, 50)                5050      
_________________________________________________________________
dense_5 (Dense)              (None, 20)                1020      
_________________________________________________________________
dense_6 (Dense)              (None, 4)                 84        
=================================================================
Total params: 1,258,754
Trainable params: 1,258,754
Non-trainable params: 0
_________________________________________________________________
None

Accuracy Train: 86.24%
Accuracy Test: 83.94%
Loss Train: 0.34
Loss Test: 0.44
Numero dati esaminati: 1712
True Positive 1437
False Positive 275
