…
 - 3s - loss: 0.3856 - accuracy: 0.8425 - val_loss: 0.6138 - val_accuracy: 0.8405
Epoch 127/128
 - 2s - loss: 0.3624 - accuracy: 0.8525 - val_loss: 0.5929 - val_accuracy: 0.8422
Epoch 128/128
 - 2s - loss: 0.3580 - accuracy: 0.8537 - val_loss: 0.5952 - val_accuracy: 0.8422

Fit: epochs= 128 , batch_size= 32 , verbose= 2 , shuffle= False , validation_split= 0.2 

Model: "sequential_9"
_________________________________________________________________
Layer (type)                 Output Shape              Param #   
=================================================================
lstm_9 (LSTM)                (None, 500)               1022000   
_________________________________________________________________
dropout_9 (Dropout)          (None, 500)               0         
_________________________________________________________________
dense_49 (Dense)             (None, 300)               150300    
_________________________________________________________________
dense_50 (Dense)             (None, 200)               60200     
_________________________________________________________________
dense_51 (Dense)             (None, 100)               20100     
_________________________________________________________________
dense_52 (Dense)             (None, 50)                5050      
_________________________________________________________________
dense_53 (Dense)             (None, 20)                1020      
_________________________________________________________________
dense_54 (Dense)             (None, 4)                 84        
=================================================================
Total params: 1,258,754
Trainable params: 1,258,754
Non-trainable params: 0
_________________________________________________________________
None

Accuracy Train: 85.87%
Accuracy Test: 80.98%
Loss Train: 0.39
Loss Test: 0.65
Numero dati esaminati: 752
True Positive 609
False Positive 143
