…
 - 0s - loss: 0.3241 - accuracy: 0.8645 - val_loss: 0.7163 - val_accuracy: 0.8505
Epoch 127/128
 - 0s - loss: 0.3287 - accuracy: 0.8570 - val_loss: 0.6997 - val_accuracy: 0.8455
Epoch 128/128
 - 0s - loss: 0.3357 - accuracy: 0.8595 - val_loss: 0.6996 - val_accuracy: 0.8505

Fit: epochs= 128 , batch_size= 32 , verbose= 2 , shuffle= False , validation_split= 0.2 

Model: "sequential_13"
_________________________________________________________________
Layer (type)                 Output Shape              Param #   
=================================================================
dense_97 (Dense)             (None, 10)                110       
_________________________________________________________________
dense_98 (Dense)             (None, 500)               5500      
_________________________________________________________________
dense_99 (Dense)             (None, 300)               150300    
_________________________________________________________________
dense_100 (Dense)            (None, 200)               60200     
_________________________________________________________________
dense_101 (Dense)            (None, 100)               20100     
_________________________________________________________________
dense_102 (Dense)            (None, 50)                5050      
_________________________________________________________________
dense_103 (Dense)            (None, 20)                1020      
_________________________________________________________________
dense_104 (Dense)            (None, 4)                 84        
=================================================================
Total params: 242,364
Trainable params: 242,364
Non-trainable params: 0
_________________________________________________________________
None

Accuracy Train: 86.40%
Accuracy Test: 81.25%
Loss Train: 0.39
Loss Test: 0.71
Numero dati esaminati: 752
True Positive 611
False Positive 141
