…
 - 7s - loss: 0.1800 - accuracy: 0.9215 - val_loss: 0.5698 - val_accuracy: 0.8737
Epoch 127/128
 - 7s - loss: 0.1570 - accuracy: 0.9323 - val_loss: 0.5753 - val_accuracy: 0.8788
Epoch 128/128
 - 7s - loss: 0.2014 - accuracy: 0.9186 - val_loss: 0.5253 - val_accuracy: 0.8672

Fit: epochs= 128 , batch_size= 32 , verbose= 2 , shuffle= False , validation_split= 0.2 

Model: "sequential_4"
_________________________________________________________________
Layer (type)                 Output Shape              Param #   
=================================================================
conv1d_4 (Conv1D)            (None, 10, 500)           1000      
_________________________________________________________________
activation_7 (Activation)    (None, 10, 500)           0         
_________________________________________________________________
flatten_4 (Flatten)          (None, 5000)              0         
_________________________________________________________________
dropout_4 (Dropout)          (None, 5000)              0         
_________________________________________________________________
dense_22 (Dense)             (None, 400)               2000400   
_________________________________________________________________
dense_23 (Dense)             (None, 300)               120300    
_________________________________________________________________
dense_24 (Dense)             (None, 200)               60200     
_________________________________________________________________
dense_25 (Dense)             (None, 100)               20100     
_________________________________________________________________
dense_26 (Dense)             (None, 50)                5050      
_________________________________________________________________
dense_27 (Dense)             (None, 20)                1020      
_________________________________________________________________
dense_28 (Dense)             (None, 4)                 84        
_________________________________________________________________
activation_8 (Activation)    (None, 4)                 0         
=================================================================
Total params: 2,208,154
Trainable params: 2,208,154
Non-trainable params: 0
_________________________________________________________________
None

Accuracy Train: 91.31%
Accuracy Test: 87.73%
Loss Train: 0.24
Loss Test: 0.48
Numero dati esaminati: 1712
True Positive 1502
False Positive 210
