…
 - 1s - loss: 0.2023 - accuracy: 0.9082 - val_loss: 0.6677 - val_accuracy: 0.8321
Epoch 127/128
 - 1s - loss: 0.1941 - accuracy: 0.9124 - val_loss: 0.6963 - val_accuracy: 0.8438
Epoch 128/128
 - 1s - loss: 0.1889 - accuracy: 0.9162 - val_loss: 0.6943 - val_accuracy: 0.8409

Fit: epochs= 128 , batch_size= 32 , verbose= 2 , shuffle= False , validation_split= 0.2 

Model: "sequential_7"
_________________________________________________________________
Layer (type)                 Output Shape              Param #   
=================================================================
dense_49 (Dense)             (None, 10)                110       
_________________________________________________________________
dense_50 (Dense)             (None, 500)               5500      
_________________________________________________________________
dense_51 (Dense)             (None, 300)               150300    
_________________________________________________________________
dense_52 (Dense)             (None, 200)               60200     
_________________________________________________________________
dense_53 (Dense)             (None, 100)               20100     
_________________________________________________________________
dense_54 (Dense)             (None, 50)                5050      
_________________________________________________________________
dense_55 (Dense)             (None, 20)                1020      
_________________________________________________________________
dense_56 (Dense)             (None, 4)                 84        
=================================================================
Total params: 242,364
Trainable params: 242,364
Non-trainable params: 0
_________________________________________________________________
None

Accuracy Train: 90.19%
Accuracy Test: 85.11%
Loss Train: 0.29
Loss Test: 0.63
Numero dati esaminati: 1712
True Positive 1457
False Positive 255
