…
 - 2s - loss: 0.0421 - accuracy: 0.8819 - val_loss: 0.0398 - val_accuracy: 0.8905
Epoch 127/128
 - 2s - loss: 0.0419 - accuracy: 0.8831 - val_loss: 0.0412 - val_accuracy: 0.8899
Epoch 128/128
 - 2s - loss: 0.0415 - accuracy: 0.8848 - val_loss: 0.0420 - val_accuracy: 0.8833

Fit: epochs= 128 , batch_size= 32 , verbose= 2 , shuffle= False , validation_split= 0.2 

Model: "sequential_12"
_________________________________________________________________
Layer (type)                 Output Shape              Param #   
=================================================================
dense_89 (Dense)             (None, 10)                110       
_________________________________________________________________
dense_90 (Dense)             (None, 500)               5500      
_________________________________________________________________
dense_91 (Dense)             (None, 300)               150300    
_________________________________________________________________
dense_92 (Dense)             (None, 200)               60200     
_________________________________________________________________
dense_93 (Dense)             (None, 100)               20100     
_________________________________________________________________
dense_94 (Dense)             (None, 50)                5050      
_________________________________________________________________
dense_95 (Dense)             (None, 20)                1020      
_________________________________________________________________
dense_96 (Dense)             (None, 4)                 84        
=================================================================
Total params: 242,364
Trainable params: 242,364
Non-trainable params: 0
_________________________________________________________________
None

Accuracy Train: 88.61%
Accuracy Test: 87.75%
Loss Train: 0.04
Loss Test: 0.04
Numero dati esaminati: 4178
True Positive 3666
False Positive 512
