…
 - 5s - loss: 0.2324 - accuracy: 0.8963 - val_loss: 0.5083 - val_accuracy: 0.8489
Epoch 127/128
 - 5s - loss: 0.2241 - accuracy: 0.8978 - val_loss: 0.5035 - val_accuracy: 0.8569
Epoch 128/128
 - 5s - loss: 0.2227 - accuracy: 0.9012 - val_loss: 0.4896 - val_accuracy: 0.8577

Fit: epochs= 128 , batch_size= 32 , verbose= 2 , shuffle= False , validation_split= 0.2 

Model: "sequential_12"
_________________________________________________________________
Layer (type)                 Output Shape              Param #   
=================================================================
lstm_12 (LSTM)               (None, 500)               1022000   
_________________________________________________________________
dropout_12 (Dropout)         (None, 500)               0         
_________________________________________________________________
dense_67 (Dense)             (None, 300)               150300    
_________________________________________________________________
dense_68 (Dense)             (None, 200)               60200     
_________________________________________________________________
dense_69 (Dense)             (None, 100)               20100     
_________________________________________________________________
dense_70 (Dense)             (None, 50)                5050      
_________________________________________________________________
dense_71 (Dense)             (None, 20)                1020      
_________________________________________________________________
dense_72 (Dense)             (None, 4)                 84        
=================================================================
Total params: 1,258,754
Trainable params: 1,258,754
Non-trainable params: 0
_________________________________________________________________
None

Accuracy Train: 89.97%
Accuracy Test: 84.81%
Loss Train: 0.26
Loss Test: 0.54
Numero dati esaminati: 1712
True Positive 1452
False Positive 260
