…
 - 4s - loss: 0.2173 - accuracy: 0.9058 - val_loss: 0.5417 - val_accuracy: 0.8628
Epoch 127/128
 - 4s - loss: 0.2208 - accuracy: 0.8976 - val_loss: 0.5344 - val_accuracy: 0.8635
Epoch 128/128
 - 4s - loss: 0.2237 - accuracy: 0.9018 - val_loss: 0.5266 - val_accuracy: 0.8613

Fit: epochs= 128 , batch_size= 32 , verbose= 2 , shuffle= False , validation_split= 0.2 

Model: "sequential_11"
_________________________________________________________________
Layer (type)                 Output Shape              Param #   
=================================================================
lstm_11 (LSTM)               (None, 500)               1022000   
_________________________________________________________________
dropout_11 (Dropout)         (None, 500)               0         
_________________________________________________________________
dense_61 (Dense)             (None, 300)               150300    
_________________________________________________________________
dense_62 (Dense)             (None, 200)               60200     
_________________________________________________________________
dense_63 (Dense)             (None, 100)               20100     
_________________________________________________________________
dense_64 (Dense)             (None, 50)                5050      
_________________________________________________________________
dense_65 (Dense)             (None, 20)                1020      
_________________________________________________________________
dense_66 (Dense)             (None, 4)                 84        
=================================================================
Total params: 1,258,754
Trainable params: 1,258,754
Non-trainable params: 0
_________________________________________________________________
None

Accuracy Train: 90.16%
Accuracy Test: 83.70%
Loss Train: 0.26
Loss Test: 0.56
Numero dati esaminati: 1712
True Positive 1433
False Positive 279
