…
 - 4s - loss: 0.2269 - accuracy: 0.9058 - val_loss: 0.5461 - val_accuracy: 0.8460
Epoch 127/128
 - 4s - loss: 0.2376 - accuracy: 0.8989 - val_loss: 0.5949 - val_accuracy: 0.8526
Epoch 128/128
 - 4s - loss: 0.2352 - accuracy: 0.9005 - val_loss: 0.5931 - val_accuracy: 0.8460

Fit: epochs= 128 , batch_size= 32 , verbose= 2 , shuffle= False , validation_split= 0.2 

Model: "sequential_13"
_________________________________________________________________
Layer (type)                 Output Shape              Param #   
=================================================================
lstm_13 (LSTM)               (None, 500)               1022000   
_________________________________________________________________
dropout_13 (Dropout)         (None, 500)               0         
_________________________________________________________________
dense_73 (Dense)             (None, 300)               150300    
_________________________________________________________________
dense_74 (Dense)             (None, 200)               60200     
_________________________________________________________________
dense_75 (Dense)             (None, 100)               20100     
_________________________________________________________________
dense_76 (Dense)             (None, 50)                5050      
_________________________________________________________________
dense_77 (Dense)             (None, 20)                1020      
_________________________________________________________________
dense_78 (Dense)             (None, 4)                 84        
=================================================================
Total params: 1,258,754
Trainable params: 1,258,754
Non-trainable params: 0
_________________________________________________________________
None

Accuracy Train: 89.97%
Accuracy Test: 84.46%
Loss Train: 0.28
Loss Test: 0.54
Numero dati esaminati: 1712
True Positive 1446
False Positive 266
