…
 - 3s - loss: 0.1977 - accuracy: 0.9872 - val_loss: 0.8815 - val_accuracy: 0.8489

Number of filters: 16 , Kernel Size: 3 , Strides: 1 Batch Normalization: True , Conv_First: True , Depth Value: 20

Fit: epochs= 128 , batch_size= 32 , verbose= 2 , shuffle= False , validation_split= 0.2 

Model: "model_8"
__________________________________________________________________________________________________
Layer (type)                    Output Shape         Param #     Connected to                     
==================================================================================================
input_8 (InputLayer)            (None, 10, 1)        0                                            
__________________________________________________________________________________________________
conv1d_148 (Conv1D)             (None, 10, 16)       64          input_8[0][0]                    
__________________________________________________________________________________________________
batch_normalization_134 (BatchN (None, 10, 16)       64          conv1d_148[0][0]                 
__________________________________________________________________________________________________
activation_134 (Activation)     (None, 10, 16)       0           batch_normalization_134[0][0]    
__________________________________________________________________________________________________
conv1d_149 (Conv1D)             (None, 10, 16)       784         activation_134[0][0]             
__________________________________________________________________________________________________
batch_normalization_135 (BatchN (None, 10, 16)       64          conv1d_149[0][0]                 
__________________________________________________________________________________________________
activation_135 (Activation)     (None, 10, 16)       0           batch_normalization_135[0][0]    
__________________________________________________________________________________________________
conv1d_150 (Conv1D)             (None, 10, 16)       784         activation_135[0][0]             
__________________________________________________________________________________________________
batch_normalization_136 (BatchN (None, 10, 16)       64          conv1d_150[0][0]                 
__________________________________________________________________________________________________
add_64 (Add)                    (None, 10, 16)       0           activation_134[0][0]             
                                                                 batch_normalization_136[0][0]    
__________________________________________________________________________________________________
activation_136 (Activation)     (None, 10, 16)       0           add_64[0][0]                     
__________________________________________________________________________________________________
conv1d_151 (Conv1D)             (None, 10, 16)       784         activation_136[0][0]             
__________________________________________________________________________________________________
batch_normalization_137 (BatchN (None, 10, 16)       64          conv1d_151[0][0]                 
__________________________________________________________________________________________________
activation_137 (Activation)     (None, 10, 16)       0           batch_normalization_137[0][0]    
__________________________________________________________________________________________________
conv1d_152 (Conv1D)             (None, 10, 16)       784         activation_137[0][0]             
__________________________________________________________________________________________________
batch_normalization_138 (BatchN (None, 10, 16)       64          conv1d_152[0][0]                 
__________________________________________________________________________________________________
add_65 (Add)                    (None, 10, 16)       0           activation_136[0][0]             
                                                                 batch_normalization_138[0][0]    
__________________________________________________________________________________________________
activation_138 (Activation)     (None, 10, 16)       0           add_65[0][0]                     
__________________________________________________________________________________________________
conv1d_153 (Conv1D)             (None, 10, 16)       784         activation_138[0][0]             
__________________________________________________________________________________________________
batch_normalization_139 (BatchN (None, 10, 16)       64          conv1d_153[0][0]                 
__________________________________________________________________________________________________
activation_139 (Activation)     (None, 10, 16)       0           batch_normalization_139[0][0]    
__________________________________________________________________________________________________
conv1d_154 (Conv1D)             (None, 10, 16)       784         activation_139[0][0]             
__________________________________________________________________________________________________
batch_normalization_140 (BatchN (None, 10, 16)       64          conv1d_154[0][0]                 
__________________________________________________________________________________________________
add_66 (Add)                    (None, 10, 16)       0           activation_138[0][0]             
                                                                 batch_normalization_140[0][0]    
__________________________________________________________________________________________________
activation_140 (Activation)     (None, 10, 16)       0           add_66[0][0]                     
__________________________________________________________________________________________________
conv1d_155 (Conv1D)             (None, 5, 32)        1568        activation_140[0][0]             
__________________________________________________________________________________________________
batch_normalization_141 (BatchN (None, 5, 32)        128         conv1d_155[0][0]                 
__________________________________________________________________________________________________
activation_141 (Activation)     (None, 5, 32)        0           batch_normalization_141[0][0]    
__________________________________________________________________________________________________
conv1d_156 (Conv1D)             (None, 5, 32)        3104        activation_141[0][0]             
__________________________________________________________________________________________________
conv1d_157 (Conv1D)             (None, 5, 32)        544         activation_140[0][0]             
__________________________________________________________________________________________________
batch_normalization_142 (BatchN (None, 5, 32)        128         conv1d_156[0][0]                 
__________________________________________________________________________________________________
add_67 (Add)                    (None, 5, 32)        0           conv1d_157[0][0]                 
                                                                 batch_normalization_142[0][0]    
__________________________________________________________________________________________________
activation_142 (Activation)     (None, 5, 32)        0           add_67[0][0]                     
__________________________________________________________________________________________________
conv1d_158 (Conv1D)             (None, 5, 32)        3104        activation_142[0][0]             
__________________________________________________________________________________________________
batch_normalization_143 (BatchN (None, 5, 32)        128         conv1d_158[0][0]                 
__________________________________________________________________________________________________
activation_143 (Activation)     (None, 5, 32)        0           batch_normalization_143[0][0]    
__________________________________________________________________________________________________
conv1d_159 (Conv1D)             (None, 5, 32)        3104        activation_143[0][0]             
__________________________________________________________________________________________________
batch_normalization_144 (BatchN (None, 5, 32)        128         conv1d_159[0][0]                 
__________________________________________________________________________________________________
add_68 (Add)                    (None, 5, 32)        0           activation_142[0][0]             
                                                                 batch_normalization_144[0][0]    
__________________________________________________________________________________________________
activation_144 (Activation)     (None, 5, 32)        0           add_68[0][0]                     
__________________________________________________________________________________________________
conv1d_160 (Conv1D)             (None, 5, 32)        3104        activation_144[0][0]             
__________________________________________________________________________________________________
batch_normalization_145 (BatchN (None, 5, 32)        128         conv1d_160[0][0]                 
__________________________________________________________________________________________________
activation_145 (Activation)     (None, 5, 32)        0           batch_normalization_145[0][0]    
__________________________________________________________________________________________________
conv1d_161 (Conv1D)             (None, 5, 32)        3104        activation_145[0][0]             
__________________________________________________________________________________________________
batch_normalization_146 (BatchN (None, 5, 32)        128         conv1d_161[0][0]                 
__________________________________________________________________________________________________
add_69 (Add)                    (None, 5, 32)        0           activation_144[0][0]             
                                                                 batch_normalization_146[0][0]    
__________________________________________________________________________________________________
activation_146 (Activation)     (None, 5, 32)        0           add_69[0][0]                     
__________________________________________________________________________________________________
conv1d_162 (Conv1D)             (None, 3, 64)        6208        activation_146[0][0]             
__________________________________________________________________________________________________
batch_normalization_147 (BatchN (None, 3, 64)        256         conv1d_162[0][0]                 
__________________________________________________________________________________________________
activation_147 (Activation)     (None, 3, 64)        0           batch_normalization_147[0][0]    
__________________________________________________________________________________________________
conv1d_163 (Conv1D)             (None, 3, 64)        12352       activation_147[0][0]             
__________________________________________________________________________________________________
conv1d_164 (Conv1D)             (None, 3, 64)        2112        activation_146[0][0]             
__________________________________________________________________________________________________
batch_normalization_148 (BatchN (None, 3, 64)        256         conv1d_163[0][0]                 
__________________________________________________________________________________________________
add_70 (Add)                    (None, 3, 64)        0           conv1d_164[0][0]                 
                                                                 batch_normalization_148[0][0]    
__________________________________________________________________________________________________
activation_148 (Activation)     (None, 3, 64)        0           add_70[0][0]                     
__________________________________________________________________________________________________
conv1d_165 (Conv1D)             (None, 3, 64)        12352       activation_148[0][0]             
__________________________________________________________________________________________________
batch_normalization_149 (BatchN (None, 3, 64)        256         conv1d_165[0][0]                 
__________________________________________________________________________________________________
activation_149 (Activation)     (None, 3, 64)        0           batch_normalization_149[0][0]    
__________________________________________________________________________________________________
conv1d_166 (Conv1D)             (None, 3, 64)        12352       activation_149[0][0]             
__________________________________________________________________________________________________
batch_normalization_150 (BatchN (None, 3, 64)        256         conv1d_166[0][0]                 
__________________________________________________________________________________________________
add_71 (Add)                    (None, 3, 64)        0           activation_148[0][0]             
                                                                 batch_normalization_150[0][0]    
__________________________________________________________________________________________________
activation_150 (Activation)     (None, 3, 64)        0           add_71[0][0]                     
__________________________________________________________________________________________________
conv1d_167 (Conv1D)             (None, 3, 64)        12352       activation_150[0][0]             
__________________________________________________________________________________________________
batch_normalization_151 (BatchN (None, 3, 64)        256         conv1d_167[0][0]                 
__________________________________________________________________________________________________
activation_151 (Activation)     (None, 3, 64)        0           batch_normalization_151[0][0]    
__________________________________________________________________________________________________
conv1d_168 (Conv1D)             (None, 3, 64)        12352       activation_151[0][0]             
__________________________________________________________________________________________________
batch_normalization_152 (BatchN (None, 3, 64)        256         conv1d_168[0][0]                 
__________________________________________________________________________________________________
add_72 (Add)                    (None, 3, 64)        0           activation_150[0][0]             
                                                                 batch_normalization_152[0][0]    
__________________________________________________________________________________________________
activation_152 (Activation)     (None, 3, 64)        0           add_72[0][0]                     
__________________________________________________________________________________________________
average_pooling1d_8 (AveragePoo (None, 3, 64)        0           activation_152[0][0]             
__________________________________________________________________________________________________
flatten_8 (Flatten)             (None, 192)          0           average_pooling1d_8[0][0]        
__________________________________________________________________________________________________
dense_8 (Dense)                 (None, 4)            772         flatten_8[0][0]                  
==================================================================================================
Total params: 96,004
Trainable params: 94,628
Non-trainable params: 1,376
__________________________________________________________________________________________________
None

Accuracy Train: 89.49%
Accuracy Test: 84.70%
Loss Train: 0.55
Loss Test: 0.89
Numero dati esaminati: 1712
…
