…
 - 8s - loss: 0.3071 - accuracy: 0.8640 - val_loss: 0.4934 - val_accuracy: 0.8606
Epoch 191/192
 - 8s - loss: 0.3121 - accuracy: 0.8666 - val_loss: 0.4827 - val_accuracy: 0.8555
Epoch 192/192
 - 8s - loss: 0.3029 - accuracy: 0.8680 - val_loss: 0.4871 - val_accuracy: 0.8628

Fit: epochs = 192, batch_size = 32, verbose = 2, shuffle=False, validation_split = 0.20

Model: "sequential_1"
_________________________________________________________________
Layer (type)                 Output Shape              Param #   
=================================================================
conv1d_1 (Conv1D)            (None, 11, 500)           1000      
_________________________________________________________________
activation_1 (Activation)    (None, 11, 500)           0         
_________________________________________________________________
flatten_1 (Flatten)          (None, 5500)              0         
_________________________________________________________________
dropout_1 (Dropout)          (None, 5500)              0         
_________________________________________________________________
dense_1 (Dense)              (None, 400)               2200400   
_________________________________________________________________
dense_2 (Dense)              (None, 300)               120300    
_________________________________________________________________
dense_3 (Dense)              (None, 200)               60200     
_________________________________________________________________
dense_4 (Dense)              (None, 100)               20100     
_________________________________________________________________
dense_5 (Dense)              (None, 50)                5050      
_________________________________________________________________
dense_6 (Dense)              (None, 20)                1020      
_________________________________________________________________
dense_7 (Dense)              (None, 4)                 84        
_________________________________________________________________
activation_2 (Activation)    (None, 4)                 0         
=================================================================
Total params: 2,408,154
Trainable params: 2,408,154
Non-trainable params: 0
_________________________________________________________________
None

Accuracy Train: 87.50%
Accuracy Test: 85.57%
Loss Train: 0.32
Loss Test: 0.44
Numero dati esaminati: 1712
True Positive 1465
False Positive 247
