…
 - 0s - loss: 0.2178 - accuracy: 0.9073 - val_loss: 0.7133 - val_accuracy: 0.8322
Epoch 499/500
 - 0s - loss: 0.2371 - accuracy: 0.8957 - val_loss: 0.7980 - val_accuracy: 0.8289
Epoch 500/500
 - 0s - loss: 0.2609 - accuracy: 0.8907 - val_loss: 0.7247 - val_accuracy: 0.8372

Fit: epochs=500, batch_size=80, verbose=2, shuffle=False, validation_split=0.20

Model: "sequential_1"
_________________________________________________________________
Layer (type)                 Output Shape              Param #   
=================================================================
dense_1 (Dense)              (None, 10)                110       
_________________________________________________________________
dense_2 (Dense)              (None, 500)               5500      
_________________________________________________________________
dense_3 (Dense)              (None, 300)               150300    
_________________________________________________________________
dense_4 (Dense)              (None, 200)               60200     
_________________________________________________________________
dense_5 (Dense)              (None, 100)               20100     
_________________________________________________________________
dense_6 (Dense)              (None, 50)                5050      
_________________________________________________________________
dense_7 (Dense)              (None, 20)                1020      
_________________________________________________________________
dense_8 (Dense)              (None, 4)                 84        
=================================================================
Total params: 242,364
Trainable params: 242,364
Non-trainable params: 0
_________________________________________________________________
None

Accuracy Train: 88.56%
Accuracy Test: 80.98%
Loss Train: 0.34
Loss Test: 0.75
Numero dati esaminati: 752
True Positive 609
False Positive 143
