…
 - 5s - loss: 0.5177 - accuracy: 0.7698 - val_loss: 0.9449 - val_accuracy: 0.6810
Epoch 127/128
 - 5s - loss: 0.5067 - accuracy: 0.7762 - val_loss: 0.9330 - val_accuracy: 0.6803
Epoch 128/128
 - 5s - loss: 0.5085 - accuracy: 0.7798 - val_loss: 0.9171 - val_accuracy: 0.6869

Fit: epochs= 128 , batch_size= 32 , verbose= 2 , shuffle= False , validation_split= 0.2 

Model: "sequential_14"
_________________________________________________________________
Layer (type)                 Output Shape              Param #   
=================================================================
lstm_14 (LSTM)               (None, 500)               1022000   
_________________________________________________________________
dropout_14 (Dropout)         (None, 500)               0         
_________________________________________________________________
dense_79 (Dense)             (None, 300)               150300    
_________________________________________________________________
dense_80 (Dense)             (None, 200)               60200     
_________________________________________________________________
dense_81 (Dense)             (None, 100)               20100     
_________________________________________________________________
dense_82 (Dense)             (None, 50)                5050      
_________________________________________________________________
dense_83 (Dense)             (None, 20)                1020      
_________________________________________________________________
dense_84 (Dense)             (None, 4)                 84        
=================================================================
Total params: 1,258,754
Trainable params: 1,258,754
Non-trainable params: 0
_________________________________________________________________
None

Accuracy Train: 76.83%
Accuracy Test: 70.15%
Loss Train: 0.57
Loss Test: 0.98
Numero dati esaminati: 1712
True Positive 1201
False Positive 511
