…
 - 2s - loss: 0.2520 - accuracy: 0.8897 - val_loss: 0.3092 - val_accuracy: 0.8893
Epoch 127/128
 - 2s - loss: 0.2611 - accuracy: 0.8862 - val_loss: 0.3075 - val_accuracy: 0.8884
Epoch 128/128
 - 2s - loss: 0.2761 - accuracy: 0.8829 - val_loss: 0.3031 - val_accuracy: 0.8890

Fit: epochs= 128 , batch_size= 32 , verbose= 2 , shuffle= False , validation_split= 0.2 

Model: "sequential_11"
_________________________________________________________________
Layer (type)                 Output Shape              Param #   
=================================================================
dense_81 (Dense)             (None, 10)                110       
_________________________________________________________________
dense_82 (Dense)             (None, 500)               5500      
_________________________________________________________________
dense_83 (Dense)             (None, 300)               150300    
_________________________________________________________________
dense_84 (Dense)             (None, 200)               60200     
_________________________________________________________________
dense_85 (Dense)             (None, 100)               20100     
_________________________________________________________________
dense_86 (Dense)             (None, 50)                5050      
_________________________________________________________________
dense_87 (Dense)             (None, 20)                1020      
_________________________________________________________________
dense_88 (Dense)             (None, 4)                 84        
=================================================================
Total params: 242,364
Trainable params: 242,364
Non-trainable params: 0
_________________________________________________________________
None

Accuracy Train: 88.83%
Accuracy Test: 87.84%
Loss Train: 0.27
Loss Test: 0.33
Numero dati esaminati: 4178
True Positive 3670
False Positive 508
