…
 - 0s - loss: 0.0177 - accuracy: 0.9540 - val_loss: 0.0510 - val_accuracy: 0.8759
Epoch 499/500
 - 0s - loss: 0.0178 - accuracy: 0.9535 - val_loss: 0.0502 - val_accuracy: 0.8818
Epoch 500/500
 - 0s - loss: 0.0180 - accuracy: 0.9524 - val_loss: 0.0501 - val_accuracy: 0.8832

Fit: epochs=500, batch_size=80, verbose=2, shuffle=False, validation_split=0.20

Model: "sequential_3"
_________________________________________________________________
Layer (type)                 Output Shape              Param #   
=================================================================
dense_13 (Dense)             (None, 11)                132       
_________________________________________________________________
dense_14 (Dense)             (None, 500)               6000      
_________________________________________________________________
dense_15 (Dense)             (None, 200)               100200    
_________________________________________________________________
dense_16 (Dense)             (None, 100)               20100     
_________________________________________________________________
dense_17 (Dense)             (None, 50)                5050      
_________________________________________________________________
dense_18 (Dense)             (None, 4)                 204       
=================================================================
Total params: 131,686
Trainable params: 131,686
Non-trainable params: 0
_________________________________________________________________
None

Accuracy Train: 94.36%
Accuracy Test: 87.97%
Loss Train: 0.02
Loss Test: 0.05
Numero dati esaminati: 1712
True Positive 1506
False Positive 206
