…
 - 16s - loss: 0.2960 - accuracy: 0.8745 - val_loss: 0.3479 - val_accuracy: 0.8701
Epoch 127/128
 - 16s - loss: 0.2923 - accuracy: 0.8765 - val_loss: 0.3127 - val_accuracy: 0.8797
Epoch 128/128
 - 16s - loss: 0.2963 - accuracy: 0.8751 - val_loss: 0.3158 - val_accuracy: 0.8821

Fit: epochs= 128 , batch_size= 32 , verbose= 2 , shuffle= False , validation_split= 0.2 

Model: "sequential_7"
_________________________________________________________________
Layer (type)                 Output Shape              Param #   
=================================================================
conv1d_7 (Conv1D)            (None, 10, 500)           1000      
_________________________________________________________________
activation_13 (Activation)   (None, 10, 500)           0         
_________________________________________________________________
flatten_7 (Flatten)          (None, 5000)              0         
_________________________________________________________________
dropout_7 (Dropout)          (None, 5000)              0         
_________________________________________________________________
dense_43 (Dense)             (None, 400)               2000400   
_________________________________________________________________
dense_44 (Dense)             (None, 300)               120300    
_________________________________________________________________
dense_45 (Dense)             (None, 200)               60200     
_________________________________________________________________
dense_46 (Dense)             (None, 100)               20100     
_________________________________________________________________
dense_47 (Dense)             (None, 50)                5050      
_________________________________________________________________
dense_48 (Dense)             (None, 20)                1020      
_________________________________________________________________
dense_49 (Dense)             (None, 4)                 84        
_________________________________________________________________
activation_14 (Activation)   (None, 4)                 0         
=================================================================
Total params: 2,208,154
Trainable params: 2,208,154
Non-trainable params: 0
_________________________________________________________________
None

Accuracy Train: 88.07%
Accuracy Test: 86.96%
Loss Train: 0.28
Loss Test: 0.34
Numero dati esaminati: 4178
True Positive 3633
False Positive 545
