…
 - 3s - loss: 0.2684 - accuracy: 0.8846 - val_loss: 0.3111 - val_accuracy: 0.8879
Epoch 127/128
 - 3s - loss: 0.2596 - accuracy: 0.8860 - val_loss: 0.3122 - val_accuracy: 0.8916
Epoch 128/128
 - 2s - loss: 0.2570 - accuracy: 0.8887 - val_loss: 0.3095 - val_accuracy: 0.8866

Fit: epochs= 128 , batch_size= 32 , verbose= 2 , shuffle= False , validation_split= 0.2 

Model: "sequential_1"
_________________________________________________________________
Layer (type)                 Output Shape              Param #   
=================================================================
dense_1 (Dense)              (None, 10)                110       
_________________________________________________________________
dense_2 (Dense)              (None, 500)               5500      
_________________________________________________________________
dense_3 (Dense)              (None, 300)               150300    
_________________________________________________________________
dense_4 (Dense)              (None, 200)               60200     
_________________________________________________________________
dense_5 (Dense)              (None, 100)               20100     
_________________________________________________________________
dense_6 (Dense)              (None, 50)                5050      
_________________________________________________________________
dense_7 (Dense)              (None, 20)                1020      
_________________________________________________________________
dense_8 (Dense)              (None, 4)                 84        
=================================================================
Total params: 242,364
Trainable params: 242,364
Non-trainable params: 0
_________________________________________________________________
None

Accuracy Train: 88.88%
Accuracy Test: 87.47%
Loss Train: 0.26
Loss Test: 0.31
Numero dati esaminati: 4949
True Positive 4329
False Positive 620
