…
 - 2s - loss: 0.2898 - accuracy: 0.8720 - val_loss: 0.5073 - val_accuracy: 0.8620
Epoch 499/500
 - 2s - loss: 0.2916 - accuracy: 0.8689 - val_loss: 0.5263 - val_accuracy: 0.8577
Epoch 500/500
 - 2s - loss: 0.2987 - accuracy: 0.8667 - val_loss: 0.5164 - val_accuracy: 0.8628

Fit: epochs = 500, batch_size = 80, verbose = 2, shuffle=False, validation_split = 0.20

Model: "sequential_3"
_________________________________________________________________
Layer (type)                 Output Shape              Param #   
=================================================================
conv1d_3 (Conv1D)            (None, 11, 512)           1024      
_________________________________________________________________
conv1d_4 (Conv1D)            (None, 11, 256)           131328    
_________________________________________________________________
max_pooling1d_1 (MaxPooling1 (None, 11, 256)           0         
_________________________________________________________________
dropout_3 (Dropout)          (None, 11, 256)           0         
_________________________________________________________________
flatten_3 (Flatten)          (None, 2816)              0         
_________________________________________________________________
dense_15 (Dense)             (None, 128)               360576    
_________________________________________________________________
dense_16 (Dense)             (None, 64)                8256      
_________________________________________________________________
dense_17 (Dense)             (None, 32)                2080      
_________________________________________________________________
dropout_4 (Dropout)          (None, 32)                0         
_________________________________________________________________
dense_18 (Dense)             (None, 4)                 132       
=================================================================
Total params: 503,396
Trainable params: 503,396
Non-trainable params: 0
_________________________________________________________________
None

Accuracy Train: 88.03%
Accuracy Test: 85.86%
Loss Train: 0.30
Loss Test: 0.46
Numero dati esaminati: 1712
True Positive 1470
False Positive 242
