…
 - 0s - loss: 0.0557 - accuracy: 0.9792 - val_loss: 0.8964 - val_accuracy: 0.8885
Epoch 499/500
 - 0s - loss: 0.0364 - accuracy: 0.9855 - val_loss: 0.9041 - val_accuracy: 0.8920
Epoch 500/500
 - 0s - loss: 0.0505 - accuracy: 0.9825 - val_loss: 0.9278 - val_accuracy: 0.8940

Fit: epochs=500, batch_size=80, verbose=2, shuffle=False, validation_split=0.20

Model: "sequential_7"
_________________________________________________________________
Layer (type)                 Output Shape              Param #   
=================================================================
dense_37 (Dense)             (None, 11)                132       
_________________________________________________________________
dense_38 (Dense)             (None, 500)               6000      
_________________________________________________________________
dense_39 (Dense)             (None, 200)               100200    
_________________________________________________________________
dense_40 (Dense)             (None, 100)               20100     
_________________________________________________________________
dense_41 (Dense)             (None, 50)                5050      
_________________________________________________________________
dense_42 (Dense)             (None, 4)                 204       
=================================================================
Total params: 131,686
Trainable params: 131,686
Non-trainable params: 0
_________________________________________________________________
None

Accuracy Train: 96.65%
Accuracy Test: 87.21%
Loss Train: 0.22
Loss Test: 0.97
Numero dati esaminati: 1712
True Positive 1493
False Positive 219
