…
 - 1s - loss: 0.0341 - accuracy: 0.9026 - val_loss: 0.0351 - val_accuracy: 0.9070
Epoch 499/500
 - 1s - loss: 0.0331 - accuracy: 0.9053 - val_loss: 0.0349 - val_accuracy: 0.9048
Epoch 500/500
 - 1s - loss: 0.0323 - accuracy: 0.9082 - val_loss: 0.0343 - val_accuracy: 0.9045

Fit: epochs=500, batch_size=80, verbose=2, shuffle=False, validation_split=0.20

Model: "sequential_1"
_________________________________________________________________
Layer (type)                 Output Shape              Param #   
=================================================================
dense_1 (Dense)              (None, 10)                110       
_________________________________________________________________
dense_2 (Dense)              (None, 500)               5500      
_________________________________________________________________
dense_3 (Dense)              (None, 300)               150300    
_________________________________________________________________
dense_4 (Dense)              (None, 200)               60200     
_________________________________________________________________
dense_5 (Dense)              (None, 100)               20100     
_________________________________________________________________
dense_6 (Dense)              (None, 50)                5050      
_________________________________________________________________
dense_7 (Dense)              (None, 20)                1020      
_________________________________________________________________
dense_8 (Dense)              (None, 4)                 84        
=================================================================
Total params: 242,364
Trainable params: 242,364
Non-trainable params: 0
_________________________________________________________________
None

Accuracy Train: 90.60%
Accuracy Test: 89.23%
Loss Train: 0.03
Loss Test: 0.04
Numero dati esaminati: 4949
True Positive 4416
False Positive 533
