…
 - 0s - loss: 0.0467 - accuracy: 0.9828 - val_loss: 1.0271 - val_accuracy: 0.8625
Epoch 499/500
 - 0s - loss: 0.0580 - accuracy: 0.9800 - val_loss: 1.0217 - val_accuracy: 0.8754
Epoch 500/500
 - 0s - loss: 0.0596 - accuracy: 0.9772 - val_loss: 0.9986 - val_accuracy: 0.8668

Fit: epochs=500, batch_size=80, verbose=2, shuffle=False, validation_split=0.20

Model: "sequential_1"
_________________________________________________________________
Layer (type)                 Output Shape              Param #   
=================================================================
dense_1 (Dense)              (None, 11)                132       
_________________________________________________________________
dense_2 (Dense)              (None, 500)               6000      
_________________________________________________________________
dense_3 (Dense)              (None, 200)               100200    
_________________________________________________________________
dense_4 (Dense)              (None, 100)               20100     
_________________________________________________________________
dense_5 (Dense)              (None, 50)                5050      
_________________________________________________________________
dense_6 (Dense)              (None, 4)                 204       
=================================================================
Total params: 131,686
Trainable params: 131,686
Non-trainable params: 0
_________________________________________________________________
None

Accuracy Train: 95.56%
Accuracy Test: 88.80%
Loss Train: 0.25
Loss Test: 0.89
Numero dati esaminati: 1455
True Positive 1292
False Positive 163
