…
 - 8s - loss: 0.1633 - accuracy: 0.9277 - val_loss: 0.5866 - val_accuracy: 0.8810
Epoch 191/192
 - 7s - loss: 0.1493 - accuracy: 0.9359 - val_loss: 0.6405 - val_accuracy: 0.8759
Epoch 192/192
 - 7s - loss: 0.1528 - accuracy: 0.9348 - val_loss: 0.6006 - val_accuracy: 0.8818

Fit: epochs = 192, batch_size = 32, verbose = 2, shuffle=False, validation_split = 0.20

Model: "sequential_2"
_________________________________________________________________
Layer (type)                 Output Shape              Param #   
=================================================================
conv1d_2 (Conv1D)            (None, 11, 500)           1000      
_________________________________________________________________
activation_3 (Activation)    (None, 11, 500)           0         
_________________________________________________________________
flatten_2 (Flatten)          (None, 5500)              0         
_________________________________________________________________
dropout_2 (Dropout)          (None, 5500)              0         
_________________________________________________________________
dense_8 (Dense)              (None, 400)               2200400   
_________________________________________________________________
dense_9 (Dense)              (None, 300)               120300    
_________________________________________________________________
dense_10 (Dense)             (None, 200)               60200     
_________________________________________________________________
dense_11 (Dense)             (None, 100)               20100     
_________________________________________________________________
dense_12 (Dense)             (None, 50)                5050      
_________________________________________________________________
dense_13 (Dense)             (None, 20)                1020      
_________________________________________________________________
dense_14 (Dense)             (None, 4)                 84        
_________________________________________________________________
activation_4 (Activation)    (None, 4)                 0         
=================================================================
Total params: 2,408,154
Trainable params: 2,408,154
Non-trainable params: 0
_________________________________________________________________
None

Accuracy Train: 93.46%
Accuracy Test: 88.26%
Loss Train: 0.21
Loss Test: 0.49
Numero dati esaminati: 1712
True Positive 1511
False Positive 201
