…
 - 0s - loss: 0.0453 - accuracy: 0.9823 - val_loss: 0.9555 - val_accuracy: 0.8920
Epoch 499/500
 - 0s - loss: 0.0372 - accuracy: 0.9856 - val_loss: 0.9427 - val_accuracy: 0.8857
Epoch 500/500
 - 0s - loss: 0.0301 - accuracy: 0.9888 - val_loss: 0.9473 - val_accuracy: 0.8908

Fit: epochs=500, batch_size=80, verbose=2, shuffle=False, validation_split=0.20

Model: "sequential_1"
_________________________________________________________________
Layer (type)                 Output Shape              Param #   
=================================================================
dense_1 (Dense)              (None, 11)                132       
_________________________________________________________________
dense_2 (Dense)              (None, 500)               6000      
_________________________________________________________________
dense_3 (Dense)              (None, 200)               100200    
_________________________________________________________________
dense_4 (Dense)              (None, 100)               20100     
_________________________________________________________________
dense_5 (Dense)              (None, 50)                5050      
_________________________________________________________________
dense_6 (Dense)              (None, 4)                 204       
=================================================================
Total params: 131,686
Trainable params: 131,686
Non-trainable params: 0
_________________________________________________________________
None

Accuracy Train: 97.20%
Accuracy Test: 88.38%
Loss Train: 0.21
Loss Test: 1.02
Numero dati esaminati: 1712
True Positive 1513
False Positive 199
