…
 - 12s - loss: 0.2748 - accuracy: 0.8831 - val_loss: 0.2969 - val_accuracy: 0.8901
Epoch 127/128
 - 12s - loss: 0.2702 - accuracy: 0.8843 - val_loss: 0.2933 - val_accuracy: 0.8906
Epoch 128/128
 - 12s - loss: 0.2708 - accuracy: 0.8825 - val_loss: 0.2860 - val_accuracy: 0.8926

Fit: epochs= 128 , batch_size= 32 , verbose= 2 , shuffle= False , validation_split= 0.2 

Model: "sequential_5"
_________________________________________________________________
Layer (type)                 Output Shape              Param #   
=================================================================
lstm_5 (LSTM)                (None, 500)               1022000   
_________________________________________________________________
dropout_5 (Dropout)          (None, 500)               0         
_________________________________________________________________
dense_25 (Dense)             (None, 300)               150300    
_________________________________________________________________
dense_26 (Dense)             (None, 200)               60200     
_________________________________________________________________
dense_27 (Dense)             (None, 100)               20100     
_________________________________________________________________
dense_28 (Dense)             (None, 50)                5050      
_________________________________________________________________
dense_29 (Dense)             (None, 20)                1020      
_________________________________________________________________
dense_30 (Dense)             (None, 4)                 84        
=================================================================
Total params: 1,258,754
Trainable params: 1,258,754
Non-trainable params: 0
_________________________________________________________________
None

Accuracy Train: 89.19%
Accuracy Test: 88.02%
Loss Train: 0.26
Loss Test: 0.30
Numero dati esaminati: 4949
True Positive 4356
False Positive 593
