…
 - 0s - loss: 0.0365 - accuracy: 0.8965 - val_loss: 0.0526 - val_accuracy: 0.8555
Epoch 499/500
 - 0s - loss: 0.0359 - accuracy: 0.8967 - val_loss: 0.0499 - val_accuracy: 0.8679
Epoch 500/500
 - 0s - loss: 0.0368 - accuracy: 0.8952 - val_loss: 0.0510 - val_accuracy: 0.8664

Fit: epochs=500, batch_size=80, verbose=2, shuffle=False, validation_split=0.20

Model: "sequential_1"
_________________________________________________________________
Layer (type)                 Output Shape              Param #   
=================================================================
dense_1 (Dense)              (None, 10)                110       
_________________________________________________________________
dense_2 (Dense)              (None, 256)               2816      
_________________________________________________________________
dense_3 (Dense)              (None, 192)               49344     
_________________________________________________________________
dense_4 (Dense)              (None, 128)               24704     
_________________________________________________________________
dense_5 (Dense)              (None, 64)                8256      
_________________________________________________________________
dense_6 (Dense)              (None, 32)                2080      
_________________________________________________________________
dense_7 (Dense)              (None, 16)                528       
_________________________________________________________________
dense_8 (Dense)              (None, 8)                 136       
_________________________________________________________________
dense_9 (Dense)              (None, 4)                 36        
=================================================================
Total params: 88,010
Trainable params: 88,010
Non-trainable params: 0
_________________________________________________________________
None

Accuracy Train: 89.52%
Accuracy Test: 86.80%
Loss Train: 0.04
Loss Test: 0.05
Numero dati esaminati: 1712
True Positive 1486
False Positive 226
