…
 - 5s - loss: 0.3126 - accuracy: 0.8720 - val_loss: 0.6705 - val_accuracy: 0.8372
Epoch 219/220
 - 4s - loss: 0.3091 - accuracy: 0.8687 - val_loss: 0.7030 - val_accuracy: 0.8405
Epoch 220/220
 - 4s - loss: 0.3064 - accuracy: 0.8786 - val_loss: 0.6633 - val_accuracy: 0.8621

Fit: epochs = 220, batch_size = 35, verbose = 2, shuffle=False, validation_split = 0.20

Model: "sequential_1"
_________________________________________________________________
Layer (type)                 Output Shape              Param #   
=================================================================
conv1d_1 (Conv1D)            (None, 10, 500)           1000      
_________________________________________________________________
activation_1 (Activation)    (None, 10, 500)           0         
_________________________________________________________________
flatten_1 (Flatten)          (None, 5000)              0         
_________________________________________________________________
dropout_1 (Dropout)          (None, 5000)              0         
_________________________________________________________________
dense_1 (Dense)              (None, 400)               2000400   
_________________________________________________________________
dense_2 (Dense)              (None, 300)               120300    
_________________________________________________________________
dense_3 (Dense)              (None, 200)               60200     
_________________________________________________________________
dense_4 (Dense)              (None, 100)               20100     
_________________________________________________________________
dense_5 (Dense)              (None, 50)                5050      
_________________________________________________________________
dense_6 (Dense)              (None, 20)                1020      
_________________________________________________________________
dense_7 (Dense)              (None, 4)                 84        
_________________________________________________________________
activation_2 (Activation)    (None, 4)                 0         
=================================================================
Total params: 2,208,154
Trainable params: 2,208,154
Non-trainable params: 0
_________________________________________________________________
None

Accuracy Train: 88.10%
Accuracy Test: 82.31%
Loss Train: 0.35
Loss Test: 0.67
Numero dati esaminati: 752
True Positive 619
False Positive 133
