…
 - 3s - loss: 0.2239 - accuracy: 0.9806 - val_loss: 0.9447 - val_accuracy: 0.8394

Number of filters: 16 , Kernel Size: 3 , Strides: 1 Batch Normalization: True , Conv_First: True , Depth Value: 20

Fit: epochs= 128 , batch_size= 32 , verbose= 2 , shuffle= False , validation_split= 0.2 

Model: "model_2"
__________________________________________________________________________________________________
Layer (type)                    Output Shape         Param #     Connected to                     
==================================================================================================
input_2 (InputLayer)            (None, 10, 1)        0                                            
__________________________________________________________________________________________________
conv1d_22 (Conv1D)              (None, 10, 16)       64          input_2[0][0]                    
__________________________________________________________________________________________________
batch_normalization_20 (BatchNo (None, 10, 16)       64          conv1d_22[0][0]                  
__________________________________________________________________________________________________
activation_20 (Activation)      (None, 10, 16)       0           batch_normalization_20[0][0]     
__________________________________________________________________________________________________
conv1d_23 (Conv1D)              (None, 10, 16)       784         activation_20[0][0]              
__________________________________________________________________________________________________
batch_normalization_21 (BatchNo (None, 10, 16)       64          conv1d_23[0][0]                  
__________________________________________________________________________________________________
activation_21 (Activation)      (None, 10, 16)       0           batch_normalization_21[0][0]     
__________________________________________________________________________________________________
conv1d_24 (Conv1D)              (None, 10, 16)       784         activation_21[0][0]              
__________________________________________________________________________________________________
batch_normalization_22 (BatchNo (None, 10, 16)       64          conv1d_24[0][0]                  
__________________________________________________________________________________________________
add_10 (Add)                    (None, 10, 16)       0           activation_20[0][0]              
                                                                 batch_normalization_22[0][0]     
__________________________________________________________________________________________________
activation_22 (Activation)      (None, 10, 16)       0           add_10[0][0]                     
__________________________________________________________________________________________________
conv1d_25 (Conv1D)              (None, 10, 16)       784         activation_22[0][0]              
__________________________________________________________________________________________________
batch_normalization_23 (BatchNo (None, 10, 16)       64          conv1d_25[0][0]                  
__________________________________________________________________________________________________
activation_23 (Activation)      (None, 10, 16)       0           batch_normalization_23[0][0]     
__________________________________________________________________________________________________
conv1d_26 (Conv1D)              (None, 10, 16)       784         activation_23[0][0]              
__________________________________________________________________________________________________
batch_normalization_24 (BatchNo (None, 10, 16)       64          conv1d_26[0][0]                  
__________________________________________________________________________________________________
add_11 (Add)                    (None, 10, 16)       0           activation_22[0][0]              
                                                                 batch_normalization_24[0][0]     
__________________________________________________________________________________________________
activation_24 (Activation)      (None, 10, 16)       0           add_11[0][0]                     
__________________________________________________________________________________________________
conv1d_27 (Conv1D)              (None, 10, 16)       784         activation_24[0][0]              
__________________________________________________________________________________________________
batch_normalization_25 (BatchNo (None, 10, 16)       64          conv1d_27[0][0]                  
__________________________________________________________________________________________________
activation_25 (Activation)      (None, 10, 16)       0           batch_normalization_25[0][0]     
__________________________________________________________________________________________________
conv1d_28 (Conv1D)              (None, 10, 16)       784         activation_25[0][0]              
__________________________________________________________________________________________________
batch_normalization_26 (BatchNo (None, 10, 16)       64          conv1d_28[0][0]                  
__________________________________________________________________________________________________
add_12 (Add)                    (None, 10, 16)       0           activation_24[0][0]              
                                                                 batch_normalization_26[0][0]     
__________________________________________________________________________________________________
activation_26 (Activation)      (None, 10, 16)       0           add_12[0][0]                     
__________________________________________________________________________________________________
conv1d_29 (Conv1D)              (None, 5, 32)        1568        activation_26[0][0]              
__________________________________________________________________________________________________
batch_normalization_27 (BatchNo (None, 5, 32)        128         conv1d_29[0][0]                  
__________________________________________________________________________________________________
activation_27 (Activation)      (None, 5, 32)        0           batch_normalization_27[0][0]     
__________________________________________________________________________________________________
conv1d_30 (Conv1D)              (None, 5, 32)        3104        activation_27[0][0]              
__________________________________________________________________________________________________
conv1d_31 (Conv1D)              (None, 5, 32)        544         activation_26[0][0]              
__________________________________________________________________________________________________
batch_normalization_28 (BatchNo (None, 5, 32)        128         conv1d_30[0][0]                  
__________________________________________________________________________________________________
add_13 (Add)                    (None, 5, 32)        0           conv1d_31[0][0]                  
                                                                 batch_normalization_28[0][0]     
__________________________________________________________________________________________________
activation_28 (Activation)      (None, 5, 32)        0           add_13[0][0]                     
__________________________________________________________________________________________________
conv1d_32 (Conv1D)              (None, 5, 32)        3104        activation_28[0][0]              
__________________________________________________________________________________________________
batch_normalization_29 (BatchNo (None, 5, 32)        128         conv1d_32[0][0]                  
__________________________________________________________________________________________________
activation_29 (Activation)      (None, 5, 32)        0           batch_normalization_29[0][0]     
__________________________________________________________________________________________________
conv1d_33 (Conv1D)              (None, 5, 32)        3104        activation_29[0][0]              
__________________________________________________________________________________________________
batch_normalization_30 (BatchNo (None, 5, 32)        128         conv1d_33[0][0]                  
__________________________________________________________________________________________________
add_14 (Add)                    (None, 5, 32)        0           activation_28[0][0]              
                                                                 batch_normalization_30[0][0]     
__________________________________________________________________________________________________
activation_30 (Activation)      (None, 5, 32)        0           add_14[0][0]                     
__________________________________________________________________________________________________
conv1d_34 (Conv1D)              (None, 5, 32)        3104        activation_30[0][0]              
__________________________________________________________________________________________________
batch_normalization_31 (BatchNo (None, 5, 32)        128         conv1d_34[0][0]                  
__________________________________________________________________________________________________
activation_31 (Activation)      (None, 5, 32)        0           batch_normalization_31[0][0]     
__________________________________________________________________________________________________
conv1d_35 (Conv1D)              (None, 5, 32)        3104        activation_31[0][0]              
__________________________________________________________________________________________________
batch_normalization_32 (BatchNo (None, 5, 32)        128         conv1d_35[0][0]                  
__________________________________________________________________________________________________
add_15 (Add)                    (None, 5, 32)        0           activation_30[0][0]              
                                                                 batch_normalization_32[0][0]     
__________________________________________________________________________________________________
activation_32 (Activation)      (None, 5, 32)        0           add_15[0][0]                     
__________________________________________________________________________________________________
conv1d_36 (Conv1D)              (None, 3, 64)        6208        activation_32[0][0]              
__________________________________________________________________________________________________
batch_normalization_33 (BatchNo (None, 3, 64)        256         conv1d_36[0][0]                  
__________________________________________________________________________________________________
activation_33 (Activation)      (None, 3, 64)        0           batch_normalization_33[0][0]     
__________________________________________________________________________________________________
conv1d_37 (Conv1D)              (None, 3, 64)        12352       activation_33[0][0]              
__________________________________________________________________________________________________
conv1d_38 (Conv1D)              (None, 3, 64)        2112        activation_32[0][0]              
__________________________________________________________________________________________________
batch_normalization_34 (BatchNo (None, 3, 64)        256         conv1d_37[0][0]                  
__________________________________________________________________________________________________
add_16 (Add)                    (None, 3, 64)        0           conv1d_38[0][0]                  
                                                                 batch_normalization_34[0][0]     
__________________________________________________________________________________________________
activation_34 (Activation)      (None, 3, 64)        0           add_16[0][0]                     
__________________________________________________________________________________________________
conv1d_39 (Conv1D)              (None, 3, 64)        12352       activation_34[0][0]              
__________________________________________________________________________________________________
batch_normalization_35 (BatchNo (None, 3, 64)        256         conv1d_39[0][0]                  
__________________________________________________________________________________________________
activation_35 (Activation)      (None, 3, 64)        0           batch_normalization_35[0][0]     
__________________________________________________________________________________________________
conv1d_40 (Conv1D)              (None, 3, 64)        12352       activation_35[0][0]              
__________________________________________________________________________________________________
batch_normalization_36 (BatchNo (None, 3, 64)        256         conv1d_40[0][0]                  
__________________________________________________________________________________________________
add_17 (Add)                    (None, 3, 64)        0           activation_34[0][0]              
                                                                 batch_normalization_36[0][0]     
__________________________________________________________________________________________________
activation_36 (Activation)      (None, 3, 64)        0           add_17[0][0]                     
__________________________________________________________________________________________________
conv1d_41 (Conv1D)              (None, 3, 64)        12352       activation_36[0][0]              
__________________________________________________________________________________________________
batch_normalization_37 (BatchNo (None, 3, 64)        256         conv1d_41[0][0]                  
__________________________________________________________________________________________________
activation_37 (Activation)      (None, 3, 64)        0           batch_normalization_37[0][0]     
__________________________________________________________________________________________________
conv1d_42 (Conv1D)              (None, 3, 64)        12352       activation_37[0][0]              
__________________________________________________________________________________________________
batch_normalization_38 (BatchNo (None, 3, 64)        256         conv1d_42[0][0]                  
__________________________________________________________________________________________________
add_18 (Add)                    (None, 3, 64)        0           activation_36[0][0]              
                                                                 batch_normalization_38[0][0]     
__________________________________________________________________________________________________
activation_38 (Activation)      (None, 3, 64)        0           add_18[0][0]                     
__________________________________________________________________________________________________
average_pooling1d_2 (AveragePoo (None, 3, 64)        0           activation_38[0][0]              
__________________________________________________________________________________________________
flatten_2 (Flatten)             (None, 192)          0           average_pooling1d_2[0][0]        
__________________________________________________________________________________________________
dense_2 (Dense)                 (None, 4)            772         flatten_2[0][0]                  
==================================================================================================
Total params: 96,004
Trainable params: 94,628
Non-trainable params: 1,376
__________________________________________________________________________________________________
None

Accuracy Train: 85.89%
Accuracy Test: 84.81%
Loss Train: 0.75
Loss Test: 0.85
Numero dati esaminati: 1712
…
