…
 - 0s - loss: 0.2184 - accuracy: 0.9034 - val_loss: 0.4723 - val_accuracy: 0.8591
Epoch 499/500
 - 0s - loss: 0.2174 - accuracy: 0.9018 - val_loss: 0.4795 - val_accuracy: 0.8584
Epoch 500/500
 - 0s - loss: 0.2166 - accuracy: 0.9032 - val_loss: 0.4766 - val_accuracy: 0.8584

Fit: epochs=500, batch_size=80, verbose=2, shuffle=False, validation_split=0.20

Model: "sequential_1"
_________________________________________________________________
Layer (type)                 Output Shape              Param #   
=================================================================
dense_1 (Dense)              (None, 11)                132       
_________________________________________________________________
dense_2 (Dense)              (None, 500)               6000      
_________________________________________________________________
dense_3 (Dense)              (None, 200)               100200    
_________________________________________________________________
dense_4 (Dense)              (None, 100)               20100     
_________________________________________________________________
dense_5 (Dense)              (None, 50)                5050      
_________________________________________________________________
dense_6 (Dense)              (None, 4)                 204       
=================================================================
Total params: 131,686
Trainable params: 131,686
Non-trainable params: 0
_________________________________________________________________
None

Accuracy Train: 89.15%
Accuracy Test: 86.97%
Loss Train: 0.28
Loss Test: 0.43
Numero dati esaminati: 1712
True Positive 1489
False Positive 223
