…
 - 3s - loss: 0.3173 - accuracy: 0.9646 - val_loss: 1.8556 - val_accuracy: 0.6474

Number of filters: 16 , Kernel Size: 3 , Strides: 1 Batch Normalization: True , Conv_First: True , Depth Value: 20

Fit: epochs= 128 , batch_size= 32 , verbose= 2 , shuffle= False , validation_split= 0.2 

Model: "model_9"
__________________________________________________________________________________________________
Layer (type)                    Output Shape         Param #     Connected to                     
==================================================================================================
input_9 (InputLayer)            (None, 10, 1)        0                                            
__________________________________________________________________________________________________
conv1d_169 (Conv1D)             (None, 10, 16)       64          input_9[0][0]                    
__________________________________________________________________________________________________
batch_normalization_153 (BatchN (None, 10, 16)       64          conv1d_169[0][0]                 
__________________________________________________________________________________________________
activation_153 (Activation)     (None, 10, 16)       0           batch_normalization_153[0][0]    
__________________________________________________________________________________________________
conv1d_170 (Conv1D)             (None, 10, 16)       784         activation_153[0][0]             
__________________________________________________________________________________________________
batch_normalization_154 (BatchN (None, 10, 16)       64          conv1d_170[0][0]                 
__________________________________________________________________________________________________
activation_154 (Activation)     (None, 10, 16)       0           batch_normalization_154[0][0]    
__________________________________________________________________________________________________
conv1d_171 (Conv1D)             (None, 10, 16)       784         activation_154[0][0]             
__________________________________________________________________________________________________
batch_normalization_155 (BatchN (None, 10, 16)       64          conv1d_171[0][0]                 
__________________________________________________________________________________________________
add_73 (Add)                    (None, 10, 16)       0           activation_153[0][0]             
                                                                 batch_normalization_155[0][0]    
__________________________________________________________________________________________________
activation_155 (Activation)     (None, 10, 16)       0           add_73[0][0]                     
__________________________________________________________________________________________________
conv1d_172 (Conv1D)             (None, 10, 16)       784         activation_155[0][0]             
__________________________________________________________________________________________________
batch_normalization_156 (BatchN (None, 10, 16)       64          conv1d_172[0][0]                 
__________________________________________________________________________________________________
activation_156 (Activation)     (None, 10, 16)       0           batch_normalization_156[0][0]    
__________________________________________________________________________________________________
conv1d_173 (Conv1D)             (None, 10, 16)       784         activation_156[0][0]             
__________________________________________________________________________________________________
batch_normalization_157 (BatchN (None, 10, 16)       64          conv1d_173[0][0]                 
__________________________________________________________________________________________________
add_74 (Add)                    (None, 10, 16)       0           activation_155[0][0]             
                                                                 batch_normalization_157[0][0]    
__________________________________________________________________________________________________
activation_157 (Activation)     (None, 10, 16)       0           add_74[0][0]                     
__________________________________________________________________________________________________
conv1d_174 (Conv1D)             (None, 10, 16)       784         activation_157[0][0]             
__________________________________________________________________________________________________
batch_normalization_158 (BatchN (None, 10, 16)       64          conv1d_174[0][0]                 
__________________________________________________________________________________________________
activation_158 (Activation)     (None, 10, 16)       0           batch_normalization_158[0][0]    
__________________________________________________________________________________________________
conv1d_175 (Conv1D)             (None, 10, 16)       784         activation_158[0][0]             
__________________________________________________________________________________________________
batch_normalization_159 (BatchN (None, 10, 16)       64          conv1d_175[0][0]                 
__________________________________________________________________________________________________
add_75 (Add)                    (None, 10, 16)       0           activation_157[0][0]             
                                                                 batch_normalization_159[0][0]    
__________________________________________________________________________________________________
activation_159 (Activation)     (None, 10, 16)       0           add_75[0][0]                     
__________________________________________________________________________________________________
conv1d_176 (Conv1D)             (None, 5, 32)        1568        activation_159[0][0]             
__________________________________________________________________________________________________
batch_normalization_160 (BatchN (None, 5, 32)        128         conv1d_176[0][0]                 
__________________________________________________________________________________________________
activation_160 (Activation)     (None, 5, 32)        0           batch_normalization_160[0][0]    
__________________________________________________________________________________________________
conv1d_177 (Conv1D)             (None, 5, 32)        3104        activation_160[0][0]             
__________________________________________________________________________________________________
conv1d_178 (Conv1D)             (None, 5, 32)        544         activation_159[0][0]             
__________________________________________________________________________________________________
batch_normalization_161 (BatchN (None, 5, 32)        128         conv1d_177[0][0]                 
__________________________________________________________________________________________________
add_76 (Add)                    (None, 5, 32)        0           conv1d_178[0][0]                 
                                                                 batch_normalization_161[0][0]    
__________________________________________________________________________________________________
activation_161 (Activation)     (None, 5, 32)        0           add_76[0][0]                     
__________________________________________________________________________________________________
conv1d_179 (Conv1D)             (None, 5, 32)        3104        activation_161[0][0]             
__________________________________________________________________________________________________
batch_normalization_162 (BatchN (None, 5, 32)        128         conv1d_179[0][0]                 
__________________________________________________________________________________________________
activation_162 (Activation)     (None, 5, 32)        0           batch_normalization_162[0][0]    
__________________________________________________________________________________________________
conv1d_180 (Conv1D)             (None, 5, 32)        3104        activation_162[0][0]             
__________________________________________________________________________________________________
batch_normalization_163 (BatchN (None, 5, 32)        128         conv1d_180[0][0]                 
__________________________________________________________________________________________________
add_77 (Add)                    (None, 5, 32)        0           activation_161[0][0]             
                                                                 batch_normalization_163[0][0]    
__________________________________________________________________________________________________
activation_163 (Activation)     (None, 5, 32)        0           add_77[0][0]                     
__________________________________________________________________________________________________
conv1d_181 (Conv1D)             (None, 5, 32)        3104        activation_163[0][0]             
__________________________________________________________________________________________________
batch_normalization_164 (BatchN (None, 5, 32)        128         conv1d_181[0][0]                 
__________________________________________________________________________________________________
activation_164 (Activation)     (None, 5, 32)        0           batch_normalization_164[0][0]    
__________________________________________________________________________________________________
conv1d_182 (Conv1D)             (None, 5, 32)        3104        activation_164[0][0]             
__________________________________________________________________________________________________
batch_normalization_165 (BatchN (None, 5, 32)        128         conv1d_182[0][0]                 
__________________________________________________________________________________________________
add_78 (Add)                    (None, 5, 32)        0           activation_163[0][0]             
                                                                 batch_normalization_165[0][0]    
__________________________________________________________________________________________________
activation_165 (Activation)     (None, 5, 32)        0           add_78[0][0]                     
__________________________________________________________________________________________________
conv1d_183 (Conv1D)             (None, 3, 64)        6208        activation_165[0][0]             
__________________________________________________________________________________________________
batch_normalization_166 (BatchN (None, 3, 64)        256         conv1d_183[0][0]                 
__________________________________________________________________________________________________
activation_166 (Activation)     (None, 3, 64)        0           batch_normalization_166[0][0]    
__________________________________________________________________________________________________
conv1d_184 (Conv1D)             (None, 3, 64)        12352       activation_166[0][0]             
__________________________________________________________________________________________________
conv1d_185 (Conv1D)             (None, 3, 64)        2112        activation_165[0][0]             
__________________________________________________________________________________________________
batch_normalization_167 (BatchN (None, 3, 64)        256         conv1d_184[0][0]                 
__________________________________________________________________________________________________
add_79 (Add)                    (None, 3, 64)        0           conv1d_185[0][0]                 
                                                                 batch_normalization_167[0][0]    
__________________________________________________________________________________________________
activation_167 (Activation)     (None, 3, 64)        0           add_79[0][0]                     
__________________________________________________________________________________________________
conv1d_186 (Conv1D)             (None, 3, 64)        12352       activation_167[0][0]             
__________________________________________________________________________________________________
batch_normalization_168 (BatchN (None, 3, 64)        256         conv1d_186[0][0]                 
__________________________________________________________________________________________________
activation_168 (Activation)     (None, 3, 64)        0           batch_normalization_168[0][0]    
__________________________________________________________________________________________________
conv1d_187 (Conv1D)             (None, 3, 64)        12352       activation_168[0][0]             
__________________________________________________________________________________________________
batch_normalization_169 (BatchN (None, 3, 64)        256         conv1d_187[0][0]                 
__________________________________________________________________________________________________
add_80 (Add)                    (None, 3, 64)        0           activation_167[0][0]             
                                                                 batch_normalization_169[0][0]    
__________________________________________________________________________________________________
activation_169 (Activation)     (None, 3, 64)        0           add_80[0][0]                     
__________________________________________________________________________________________________
conv1d_188 (Conv1D)             (None, 3, 64)        12352       activation_169[0][0]             
__________________________________________________________________________________________________
batch_normalization_170 (BatchN (None, 3, 64)        256         conv1d_188[0][0]                 
__________________________________________________________________________________________________
activation_170 (Activation)     (None, 3, 64)        0           batch_normalization_170[0][0]    
__________________________________________________________________________________________________
conv1d_189 (Conv1D)             (None, 3, 64)        12352       activation_170[0][0]             
__________________________________________________________________________________________________
batch_normalization_171 (BatchN (None, 3, 64)        256         conv1d_189[0][0]                 
__________________________________________________________________________________________________
add_81 (Add)                    (None, 3, 64)        0           activation_169[0][0]             
                                                                 batch_normalization_171[0][0]    
__________________________________________________________________________________________________
activation_171 (Activation)     (None, 3, 64)        0           add_81[0][0]                     
__________________________________________________________________________________________________
average_pooling1d_9 (AveragePoo (None, 3, 64)        0           activation_171[0][0]             
__________________________________________________________________________________________________
flatten_9 (Flatten)             (None, 192)          0           average_pooling1d_9[0][0]        
__________________________________________________________________________________________________
dense_9 (Dense)                 (None, 4)            772         flatten_9[0][0]                  
==================================================================================================
Total params: 96,004
Trainable params: 94,628
Non-trainable params: 1,376
__________________________________________________________________________________________________
None

Accuracy Train: 71.86%
Accuracy Test: 65.01%
Loss Train: 1.32
Loss Test: 1.91
Numero dati esaminati: 1712
…
