…
 - 3s - loss: 0.2487 - accuracy: 0.8883 - val_loss: 0.4815 - val_accuracy: 0.8613
Epoch 499/500
 - 2s - loss: 0.2356 - accuracy: 0.8905 - val_loss: 0.4819 - val_accuracy: 0.8577
Epoch 500/500
 - 3s - loss: 0.2430 - accuracy: 0.8886 - val_loss: 0.4756 - val_accuracy: 0.8569

Fit: epochs = 500, batch_size = 80, verbose = 2, shuffle=False, validation_split = 0.20

Model: "sequential_1"
_________________________________________________________________
Layer (type)                 Output Shape              Param #   
=================================================================
lstm_1 (LSTM)                (None, 500)               1024000   
_________________________________________________________________
dropout_1 (Dropout)          (None, 500)               0         
_________________________________________________________________
dense_1 (Dense)              (None, 300)               150300    
_________________________________________________________________
dense_2 (Dense)              (None, 200)               60200     
_________________________________________________________________
dense_3 (Dense)              (None, 100)               20100     
_________________________________________________________________
dense_4 (Dense)              (None, 50)                5050      
_________________________________________________________________
dense_5 (Dense)              (None, 20)                1020      
_________________________________________________________________
dense_6 (Dense)              (None, 4)                 84        
=================================================================
Total params: 1,260,754
Trainable params: 1,260,754
Non-trainable params: 0
_________________________________________________________________
None

Accuracy Train: 88.92%
Accuracy Test: 86.97%
Loss Train: 0.28
Loss Test: 0.41
Numero dati esaminati: 1712
True Positive 1489
False Positive 223
