…
 - 0s - loss: 0.0476 - accuracy: 0.8728 - val_loss: 0.0634 - val_accuracy: 0.8472
Epoch 127/128
 - 0s - loss: 0.0522 - accuracy: 0.8633 - val_loss: 0.0696 - val_accuracy: 0.8272
Epoch 128/128
 - 0s - loss: 0.0504 - accuracy: 0.8678 - val_loss: 0.0673 - val_accuracy: 0.8389

Fit: epochs= 128 , batch_size= 32 , verbose= 2 , shuffle= False , validation_split= 0.2 

Model: "sequential_14"
_________________________________________________________________
Layer (type)                 Output Shape              Param #   
=================================================================
dense_105 (Dense)            (None, 10)                110       
_________________________________________________________________
dense_106 (Dense)            (None, 500)               5500      
_________________________________________________________________
dense_107 (Dense)            (None, 300)               150300    
_________________________________________________________________
dense_108 (Dense)            (None, 200)               60200     
_________________________________________________________________
dense_109 (Dense)            (None, 100)               20100     
_________________________________________________________________
dense_110 (Dense)            (None, 50)                5050      
_________________________________________________________________
dense_111 (Dense)            (None, 20)                1020      
_________________________________________________________________
dense_112 (Dense)            (None, 4)                 84        
=================================================================
Total params: 242,364
Trainable params: 242,364
Non-trainable params: 0
_________________________________________________________________
None

Accuracy Train: 86.57%
Accuracy Test: 80.85%
Loss Train: 0.05
Loss Test: 0.08
Numero dati esaminati: 752
True Positive 608
False Positive 144
