…
 - 1s - loss: 0.2893 - accuracy: 0.8704 - val_loss: 0.4502 - val_accuracy: 0.8547
Epoch 127/128
 - 1s - loss: 0.2830 - accuracy: 0.8753 - val_loss: 0.4426 - val_accuracy: 0.8540
Epoch 128/128
 - 1s - loss: 0.2851 - accuracy: 0.8775 - val_loss: 0.4333 - val_accuracy: 0.8584

Fit: epochs= 128 , batch_size= 32 , verbose= 2 , shuffle= False , validation_split= 0.2 

Model: "sequential_1"
_________________________________________________________________
Layer (type)                 Output Shape              Param #   
=================================================================
dense_1 (Dense)              (None, 11)                132       
_________________________________________________________________
dense_2 (Dense)              (None, 500)               6000      
_________________________________________________________________
dense_3 (Dense)              (None, 300)               150300    
_________________________________________________________________
dense_4 (Dense)              (None, 200)               60200     
_________________________________________________________________
dense_5 (Dense)              (None, 100)               20100     
_________________________________________________________________
dense_6 (Dense)              (None, 50)                5050      
_________________________________________________________________
dense_7 (Dense)              (None, 20)                1020      
_________________________________________________________________
dense_8 (Dense)              (None, 4)                 84        
=================================================================
Total params: 242,886
Trainable params: 242,886
Non-trainable params: 0
_________________________________________________________________
None

Accuracy Train: 87.76%
Accuracy Test: 85.34%
Loss Train: 0.30
Loss Test: 0.42
Numero dati esaminati: 1712
True Positive 1461
False Positive 251
