…
 - 1s - loss: 0.2108 - accuracy: 0.9088 - val_loss: 0.2903 - val_accuracy: 0.9078
Epoch 499/500
 - 1s - loss: 0.2077 - accuracy: 0.9094 - val_loss: 0.2893 - val_accuracy: 0.9055
Epoch 500/500
 - 2s - loss: 0.2146 - accuracy: 0.9060 - val_loss: 0.3170 - val_accuracy: 0.8952

Fit: epochs=500, batch_size=80, verbose=2, shuffle=False, validation_split=0.20

Model: "sequential_1"
_________________________________________________________________
Layer (type)                 Output Shape              Param #   
=================================================================
dense_1 (Dense)              (None, 10)                110       
_________________________________________________________________
dense_2 (Dense)              (None, 500)               5500      
_________________________________________________________________
dense_3 (Dense)              (None, 300)               150300    
_________________________________________________________________
dense_4 (Dense)              (None, 200)               60200     
_________________________________________________________________
dense_5 (Dense)              (None, 100)               20100     
_________________________________________________________________
dense_6 (Dense)              (None, 50)                5050      
_________________________________________________________________
dense_7 (Dense)              (None, 20)                1020      
_________________________________________________________________
dense_8 (Dense)              (None, 4)                 84        
=================================================================
Total params: 242,364
Trainable params: 242,364
Non-trainable params: 0
_________________________________________________________________
None

Accuracy Train: 89.90%
Accuracy Test: 88.46%
Loss Train: 0.25
Loss Test: 0.32
Numero dati esaminati: 4949
True Positive 4378
False Positive 571
