…
 - 1s - loss: 0.4436 - accuracy: 0.8200 - val_loss: 1.3369 - val_accuracy: 0.5701
Epoch 499/500
 - 1s - loss: 0.4557 - accuracy: 0.8175 - val_loss: 1.3608 - val_accuracy: 0.5737
Epoch 500/500
 - 1s - loss: 0.4411 - accuracy: 0.8222 - val_loss: 1.3732 - val_accuracy: 0.5620

Fit: epochs = 500, batch_size = 80, verbose = 2, shuffle=False, validation_split = 0.20

Model: "sequential_1"
_________________________________________________________________
Layer (type)                 Output Shape              Param #   
=================================================================
bidirectional_1 (Bidirection (None, 20)                1680      
_________________________________________________________________
dropout_1 (Dropout)          (None, 20)                0         
_________________________________________________________________
dense_1 (Dense)              (None, 500)               10500     
_________________________________________________________________
dense_2 (Dense)              (None, 300)               150300    
_________________________________________________________________
dense_3 (Dense)              (None, 200)               60200     
_________________________________________________________________
dense_4 (Dense)              (None, 100)               20100     
_________________________________________________________________
dense_5 (Dense)              (None, 50)                5050      
_________________________________________________________________
dense_6 (Dense)              (None, 20)                1020      
_________________________________________________________________
dense_7 (Dense)              (None, 4)                 84        
=================================================================
Total params: 248,934
Trainable params: 248,934
Non-trainable params: 0
_________________________________________________________________
None

Accuracy Train: 57.13%
Accuracy Test: 57.01%
Loss Train: 1.40
Loss Test: 1.44
Numero dati esaminati: 1712
True Positive 976
False Positive 736
