…
 - 0s - loss: 0.0441 - accuracy: 0.8803 - val_loss: 0.0632 - val_accuracy: 0.8439
Epoch 219/220
 - 0s - loss: 0.0424 - accuracy: 0.8849 - val_loss: 0.0620 - val_accuracy: 0.8472
Epoch 220/220
 - 0s - loss: 0.0433 - accuracy: 0.8824 - val_loss: 0.0640 - val_accuracy: 0.8355

Fit: epochs=220, batch_size=35, verbose=2, shuffle=False, validation_split=0.20

Model: "sequential_1"
_________________________________________________________________
Layer (type)                 Output Shape              Param #   
=================================================================
dense_1 (Dense)              (None, 10)                110       
_________________________________________________________________
dense_2 (Dense)              (None, 500)               5500      
_________________________________________________________________
dense_3 (Dense)              (None, 300)               150300    
_________________________________________________________________
dense_4 (Dense)              (None, 200)               60200     
_________________________________________________________________
dense_5 (Dense)              (None, 100)               20100     
_________________________________________________________________
dense_6 (Dense)              (None, 50)                5050      
_________________________________________________________________
dense_7 (Dense)              (None, 20)                1020      
_________________________________________________________________
dense_8 (Dense)              (None, 4)                 84        
=================================================================
Total params: 242,364
Trainable params: 242,364
Non-trainable params: 0
_________________________________________________________________
None

Accuracy Train: 87.43%
Accuracy Test: 80.45%
Loss Train: 0.05
Loss Test: 0.07
Numero dati esaminati: 752
True Positive 605
False Positive 147


------------------------------------------------------------------------
…
