…
 - 7s - loss: 0.3935 - accuracy: 0.8249 - val_loss: 0.9825 - val_accuracy: 0.7350
Epoch 127/128
 - 7s - loss: 0.3852 - accuracy: 0.8344 - val_loss: 1.0240 - val_accuracy: 0.7234
Epoch 128/128
 - 7s - loss: 0.3935 - accuracy: 0.8330 - val_loss: 0.9695 - val_accuracy: 0.7358

Fit: epochs= 128 , batch_size= 32 , verbose= 2 , shuffle= False , validation_split= 0.2 

Model: "sequential_5"
_________________________________________________________________
Layer (type)                 Output Shape              Param #   
=================================================================
conv1d_5 (Conv1D)            (None, 10, 500)           1000      
_________________________________________________________________
activation_9 (Activation)    (None, 10, 500)           0         
_________________________________________________________________
flatten_5 (Flatten)          (None, 5000)              0         
_________________________________________________________________
dropout_5 (Dropout)          (None, 5000)              0         
_________________________________________________________________
dense_29 (Dense)             (None, 400)               2000400   
_________________________________________________________________
dense_30 (Dense)             (None, 300)               120300    
_________________________________________________________________
dense_31 (Dense)             (None, 200)               60200     
_________________________________________________________________
dense_32 (Dense)             (None, 100)               20100     
_________________________________________________________________
dense_33 (Dense)             (None, 50)                5050      
_________________________________________________________________
dense_34 (Dense)             (None, 20)                1020      
_________________________________________________________________
dense_35 (Dense)             (None, 4)                 84        
_________________________________________________________________
activation_10 (Activation)   (None, 4)                 0         
=================================================================
Total params: 2,208,154
Trainable params: 2,208,154
Non-trainable params: 0
_________________________________________________________________
None

Accuracy Train: 83.27%
Accuracy Test: 73.83%
Loss Train: 0.46
Loss Test: 0.98
Numero dati esaminati: 1712
True Positive 1264
False Positive 448
