…
 - 5s - loss: 0.3201 - accuracy: 0.8656 - val_loss: 0.5375 - val_accuracy: 0.8547
Epoch 127/128
 - 5s - loss: 0.3230 - accuracy: 0.8651 - val_loss: 0.5191 - val_accuracy: 0.8533
Epoch 128/128
 - 5s - loss: 0.3212 - accuracy: 0.8660 - val_loss: 0.4941 - val_accuracy: 0.8613

Fit: epochs= 128 , batch_size= 32 , verbose= 2 , shuffle= False , validation_split= 0.2 

Model: "sequential_1"
_________________________________________________________________
Layer (type)                 Output Shape              Param #   
=================================================================
lstm_1 (LSTM)                (None, 500)               1022000   
_________________________________________________________________
activation_1 (Activation)    (None, 500)               0         
_________________________________________________________________
dropout_1 (Dropout)          (None, 500)               0         
_________________________________________________________________
dense_1 (Dense)              (None, 400)               200400    
_________________________________________________________________
dense_2 (Dense)              (None, 300)               120300    
_________________________________________________________________
dense_3 (Dense)              (None, 200)               60200     
_________________________________________________________________
dense_4 (Dense)              (None, 100)               20100     
_________________________________________________________________
dense_5 (Dense)              (None, 50)                5050      
_________________________________________________________________
dense_6 (Dense)              (None, 20)                1020      
_________________________________________________________________
dense_7 (Dense)              (None, 4)                 84        
_________________________________________________________________
activation_2 (Activation)    (None, 4)                 0         
=================================================================
Total params: 1,429,154
Trainable params: 1,429,154
Non-trainable params: 0
_________________________________________________________________
None

Accuracy Train: 87.22%
Accuracy Test: 84.81%
Loss Train: 0.33
Loss Test: 0.43
Numero dati esaminati: 1712
True Positive 1452
False Positive 260
