…
 - 1s - loss: 0.2344 - accuracy: 0.8950 - val_loss: 0.4988 - val_accuracy: 0.8628
Epoch 499/500
 - 1s - loss: 0.2240 - accuracy: 0.8972 - val_loss: 0.5287 - val_accuracy: 0.8679
Epoch 500/500
 - 1s - loss: 0.2159 - accuracy: 0.9042 - val_loss: 0.5607 - val_accuracy: 0.8423

Fit: epochs=500, batch_size=80, verbose=2, shuffle=False, validation_split=0.20

Model: "sequential_1"
_________________________________________________________________
Layer (type)                 Output Shape              Param #   
=================================================================
dense_1 (Dense)              (None, 10)                110       
_________________________________________________________________
dense_2 (Dense)              (None, 500)               5500      
_________________________________________________________________
dense_3 (Dense)              (None, 400)               200400    
_________________________________________________________________
dense_4 (Dense)              (None, 300)               120300    
_________________________________________________________________
dense_5 (Dense)              (None, 200)               60200     
_________________________________________________________________
dense_6 (Dense)              (None, 100)               20100     
_________________________________________________________________
dense_7 (Dense)              (None, 70)                7070      
_________________________________________________________________
dense_8 (Dense)              (None, 50)                3550      
_________________________________________________________________
dense_9 (Dense)              (None, 25)                1275      
_________________________________________________________________
dense_10 (Dense)             (None, 10)                260       
_________________________________________________________________
dense_11 (Dense)             (None, 4)                 44        
=================================================================
Total params: 418,809
Trainable params: 418,809
Non-trainable params: 0
_________________________________________________________________
None

Accuracy Train: 87.69%
Accuracy Test: 85.86%
Loss Train: 0.32
Loss Test: 0.47
Numero dati esaminati: 1712
True Positive 1470
False Positive 242
