…
 - 1s - loss: 0.2836 - accuracy: 0.8764 - val_loss: 0.5228 - val_accuracy: 0.8599
Epoch 127/128
 - 1s - loss: 0.2957 - accuracy: 0.8715 - val_loss: 0.4792 - val_accuracy: 0.8584
Epoch 128/128
 - 1s - loss: 0.2904 - accuracy: 0.8788 - val_loss: 0.4412 - val_accuracy: 0.8547

Fit: epochs= 128 , batch_size= 32 , verbose= 2 , shuffle= False , validation_split= 0.2 

Model: "sequential_3"
_________________________________________________________________
Layer (type)                 Output Shape              Param #   
=================================================================
dense_17 (Dense)             (None, 10)                110       
_________________________________________________________________
dense_18 (Dense)             (None, 500)               5500      
_________________________________________________________________
dense_19 (Dense)             (None, 300)               150300    
_________________________________________________________________
dense_20 (Dense)             (None, 200)               60200     
_________________________________________________________________
dense_21 (Dense)             (None, 100)               20100     
_________________________________________________________________
dense_22 (Dense)             (None, 50)                5050      
_________________________________________________________________
dense_23 (Dense)             (None, 20)                1020      
_________________________________________________________________
dense_24 (Dense)             (None, 4)                 84        
=================================================================
Total params: 242,364
Trainable params: 242,364
Non-trainable params: 0
_________________________________________________________________
None

Accuracy Train: 87.18%
Accuracy Test: 85.92%
Loss Train: 0.31
Loss Test: 0.40
Numero dati esaminati: 1712
True Positive 1471
False Positive 241
