…
 - 0s - loss: 0.5507 - accuracy: 0.7245 - val_loss: 0.5157 - val_accuracy: 0.7423
Epoch 499/500
 - 0s - loss: 0.4861 - accuracy: 0.7568 - val_loss: 0.5089 - val_accuracy: 0.7460
Epoch 500/500
 - 0s - loss: 0.4698 - accuracy: 0.7651 - val_loss: 0.5037 - val_accuracy: 0.7482

Fit: epochs=500, batch_size=80, verbose=2, shuffle=False, validation_split=0.20

Model: "sequential_10"
_________________________________________________________________
Layer (type)                 Output Shape              Param #   
=================================================================
dense_55 (Dense)             (None, 11)                132       
_________________________________________________________________
dense_56 (Dense)             (None, 500)               6000      
_________________________________________________________________
dense_57 (Dense)             (None, 200)               100200    
_________________________________________________________________
dense_58 (Dense)             (None, 100)               20100     
_________________________________________________________________
dense_59 (Dense)             (None, 50)                5050      
_________________________________________________________________
dense_60 (Dense)             (None, 4)                 204       
=================================================================
Total params: 131,686
Trainable params: 131,686
Non-trainable params: 0
_________________________________________________________________
None

Accuracy Train: 76.24%
Accuracy Test: 74.47%
Loss Train: 0.48
Loss Test: 0.51
Numero dati esaminati: 1712
True Positive 1275
False Positive 437
