…
 - 0s - loss: 0.9461 - accuracy: 0.6077 - val_loss: 0.9511 - val_accuracy: 0.5978
Epoch 499/500
 - 0s - loss: 0.9461 - accuracy: 0.6077 - val_loss: 0.9511 - val_accuracy: 0.5978
Epoch 500/500
 - 0s - loss: 0.9461 - accuracy: 0.6077 - val_loss: 0.9511 - val_accuracy: 0.5978

Fit: epochs=500, batch_size=80, verbose=2, shuffle=False, validation_split=0.20

Model: "sequential_11"
_________________________________________________________________
Layer (type)                 Output Shape              Param #   
=================================================================
dense_61 (Dense)             (None, 11)                132       
_________________________________________________________________
dense_62 (Dense)             (None, 500)               6000      
_________________________________________________________________
dense_63 (Dense)             (None, 200)               100200    
_________________________________________________________________
dense_64 (Dense)             (None, 100)               20100     
_________________________________________________________________
dense_65 (Dense)             (None, 50)                5050      
_________________________________________________________________
dense_66 (Dense)             (None, 4)                 204       
=================================================================
Total params: 131,686
Trainable params: 131,686
Non-trainable params: 0
_________________________________________________________________
None

Accuracy Train: 60.57%
Accuracy Test: 60.40%
Loss Train: 0.95
Loss Test: 0.95
Numero dati esaminati: 1712
True Positive 1034
False Positive 678
