…
 - 1s - loss: 0.1660 - accuracy: 0.9271 - val_loss: 0.2928 - val_accuracy: 0.9114
Epoch 1454/1455
 - 1s - loss: 0.1576 - accuracy: 0.9317 - val_loss: 0.2771 - val_accuracy: 0.9195
Epoch 1455/1455
 - 1s - loss: 0.1519 - accuracy: 0.9330 - val_loss: 0.2900 - val_accuracy: 0.9171

Fit: epochs=1455, batch_size=233, verbose=2, shuffle=False, validation_split=0.20

Model: "sequential_1"
_________________________________________________________________
Layer (type)                 Output Shape              Param #   
=================================================================
dense_1 (Dense)              (None, 10)                110       
_________________________________________________________________
dense_2 (Dense)              (None, 500)               5500      
_________________________________________________________________
dense_3 (Dense)              (None, 300)               150300    
_________________________________________________________________
dense_4 (Dense)              (None, 200)               60200     
_________________________________________________________________
dense_5 (Dense)              (None, 100)               20100     
_________________________________________________________________
dense_6 (Dense)              (None, 50)                5050      
_________________________________________________________________
dense_7 (Dense)              (None, 20)                1020      
_________________________________________________________________
dense_8 (Dense)              (None, 4)                 84        
=================================================================
Total params: 242,364
Trainable params: 242,364
Non-trainable params: 0
_________________________________________________________________
None

Accuracy Train: 93.04%
Accuracy Test: 91.10%
Loss Train: 0.18
Loss Test: 0.31
Numero dati esaminati: 4178
True Positive 3806
False Positive 372
