…
 - 0s - loss: 0.0346 - accuracy: 0.8978 - val_loss: 0.0502 - val_accuracy: 0.8686
Epoch 499/500
 - 0s - loss: 0.0333 - accuracy: 0.9051 - val_loss: 0.0528 - val_accuracy: 0.8664
Epoch 500/500
 - 0s - loss: 0.0336 - accuracy: 0.9038 - val_loss: 0.0574 - val_accuracy: 0.8511

Fit: epochs=500, batch_size=80, verbose=2, shuffle=False, validation_split=0.20

Model: "sequential_3"
_________________________________________________________________
Layer (type)                 Output Shape              Param #   
=================================================================
dense_17 (Dense)             (None, 10)                110       
_________________________________________________________________
dense_18 (Dense)             (None, 500)               5500      
_________________________________________________________________
dense_19 (Dense)             (None, 300)               150300    
_________________________________________________________________
dense_20 (Dense)             (None, 200)               60200     
_________________________________________________________________
dense_21 (Dense)             (None, 100)               20100     
_________________________________________________________________
dense_22 (Dense)             (None, 50)                5050      
_________________________________________________________________
dense_23 (Dense)             (None, 20)                1020      
_________________________________________________________________
dense_24 (Dense)             (None, 4)                 84        
=================================================================
Total params: 242,364
Trainable params: 242,364
Non-trainable params: 0
_________________________________________________________________
None

Accuracy Train: 88.13%
Accuracy Test: 86.86%
Loss Train: 0.04
Loss Test: 0.05
Numero dati esaminati: 1712
True Positive 1487
False Positive 225
