…
 - 0s - loss: 0.0280 - accuracy: 0.9873 - val_loss: 0.9305 - val_accuracy: 0.8892
Epoch 499/500
 - 0s - loss: 0.0319 - accuracy: 0.9877 - val_loss: 1.0057 - val_accuracy: 0.8754
Epoch 500/500
 - 0s - loss: 0.0561 - accuracy: 0.9779 - val_loss: 0.8458 - val_accuracy: 0.8806

Fit: epochs=500, batch_size=80, verbose=2, shuffle=False, validation_split=0.20

Model: "sequential_1"
_________________________________________________________________
Layer (type)                 Output Shape              Param #   
=================================================================
dense_1 (Dense)              (None, 11)                132       
_________________________________________________________________
dense_2 (Dense)              (None, 500)               6000      
_________________________________________________________________
dense_3 (Dense)              (None, 300)               150300    
_________________________________________________________________
dense_4 (Dense)              (None, 200)               60200     
_________________________________________________________________
dense_5 (Dense)              (None, 100)               20100     
_________________________________________________________________
dense_6 (Dense)              (None, 50)                5050      
_________________________________________________________________
dense_7 (Dense)              (None, 20)                1020      
_________________________________________________________________
dense_8 (Dense)              (None, 4)                 84        
=================================================================
Total params: 242,886
Trainable params: 242,886
Non-trainable params: 0
_________________________________________________________________
None

Accuracy Train: 96.24%
Accuracy Test: 88.59%
Loss Train: 0.21
Loss Test: 0.84
Numero dati esaminati: 1455
True Positive 1289
False Positive 166
