…
 - 1s - loss: 1.0000 - accuracy: 0.2594 - val_loss: 1.0001 - val_accuracy: 0.2197
Epoch 499/500
 - 1s - loss: 1.0000 - accuracy: 0.2543 - val_loss: 1.0000 - val_accuracy: 0.2197
Epoch 500/500
 - 1s - loss: 1.0000 - accuracy: 0.2610 - val_loss: 1.0000 - val_accuracy: 0.2197

Fit: epochs=500, batch_size=80, verbose=2, shuffle=False, validation_split=0.20

Model: "sequential_1"
_________________________________________________________________
Layer (type)                 Output Shape              Param #   
=================================================================
dense_1 (Dense)              (None, 11)                132       
_________________________________________________________________
dense_2 (Dense)              (None, 1028)              12336     
_________________________________________________________________
dense_3 (Dense)              (None, 512)               526848    
_________________________________________________________________
dense_4 (Dense)              (None, 256)               131328    
_________________________________________________________________
dense_5 (Dense)              (None, 192)               49344     
_________________________________________________________________
dense_6 (Dense)              (None, 128)               24704     
_________________________________________________________________
dense_7 (Dense)              (None, 64)                8256      
_________________________________________________________________
dense_8 (Dense)              (None, 32)                2080      
_________________________________________________________________
dense_9 (Dense)              (None, 16)                528       
_________________________________________________________________
dense_10 (Dense)             (None, 8)                 136       
_________________________________________________________________
dense_11 (Dense)             (None, 4)                 36        
=================================================================
Total params: 755,728
Trainable params: 755,728
Non-trainable params: 0
_________________________________________________________________
None

Accuracy Train: 21.09%
Accuracy Test: 21.85%
Loss Train: 1.00
Loss Test: 1.00
Numero dati esaminati: 1712
True Positive 374
False Positive 1338
