…
 - 1s - loss: 0.4910 - accuracy: 0.7886 - val_loss: 1.0373 - val_accuracy: 0.6891
Epoch 127/128
 - 1s - loss: 0.4773 - accuracy: 0.7877 - val_loss: 1.0650 - val_accuracy: 0.6861
Epoch 128/128
 - 1s - loss: 0.4894 - accuracy: 0.7829 - val_loss: 1.0165 - val_accuracy: 0.6934

Fit: epochs= 128 , batch_size= 32 , verbose= 2 , shuffle= False , validation_split= 0.2 

Model: "sequential_4"
_________________________________________________________________
Layer (type)                 Output Shape              Param #   
=================================================================
dense_25 (Dense)             (None, 10)                110       
_________________________________________________________________
dense_26 (Dense)             (None, 500)               5500      
_________________________________________________________________
dense_27 (Dense)             (None, 300)               150300    
_________________________________________________________________
dense_28 (Dense)             (None, 200)               60200     
_________________________________________________________________
dense_29 (Dense)             (None, 100)               20100     
_________________________________________________________________
dense_30 (Dense)             (None, 50)                5050      
_________________________________________________________________
dense_31 (Dense)             (None, 20)                1020      
_________________________________________________________________
dense_32 (Dense)             (None, 4)                 84        
=================================================================
Total params: 242,364
Trainable params: 242,364
Non-trainable params: 0
_________________________________________________________________
None

Accuracy Train: 77.56%
Accuracy Test: 70.56%
Loss Train: 0.58
Loss Test: 0.99
Numero dati esaminati: 1712
True Positive 1208
False Positive 504
