…
 - 0s - loss: 0.1289 - accuracy: 0.9385 - val_loss: 0.9991 - val_accuracy: 0.8427
Epoch 499/500
 - 0s - loss: 0.1141 - accuracy: 0.9416 - val_loss: 0.9793 - val_accuracy: 0.8526
Epoch 500/500
 - 0s - loss: 0.1050 - accuracy: 0.9432 - val_loss: 1.0111 - val_accuracy: 0.8452

Fit: epochs=500, batch_size=80, verbose=2, shuffle=False, validation_split=0.20

Model: "sequential_1"
_________________________________________________________________
Layer (type)                 Output Shape              Param #   
=================================================================
dense_1 (Dense)              (None, 11)                132       
_________________________________________________________________
dense_2 (Dense)              (None, 500)               6000      
_________________________________________________________________
dense_3 (Dense)              (None, 200)               100200    
_________________________________________________________________
dense_4 (Dense)              (None, 100)               20100     
_________________________________________________________________
dense_5 (Dense)              (None, 50)                5050      
_________________________________________________________________
dense_6 (Dense)              (None, 4)                 204       
=================================================================
Total params: 131,686
Trainable params: 131,686
Non-trainable params: 0
_________________________________________________________________
None

Accuracy Train: 92.69%
Accuracy Test: 87.56%
Numero dati esaminati: 1712
True Positive 1499
False Positive 213
