…
 - 8s - loss: 0.3168 - accuracy: 0.8638 - val_loss: 0.4665 - val_accuracy: 0.8474
Epoch 127/128
 - 8s - loss: 0.3105 - accuracy: 0.8631 - val_loss: 0.4565 - val_accuracy: 0.8533
Epoch 128/128
 - 8s - loss: 0.3078 - accuracy: 0.8629 - val_loss: 0.4661 - val_accuracy: 0.8460

Fit: epochs= 128 , batch_size= 32 , verbose= 2 , shuffle= False , validation_split= 0.2 

Model: "sequential_4"
_________________________________________________________________
Layer (type)                 Output Shape              Param #   
=================================================================
bidirectional_2 (Bidirection (None, 1000)              2044000   
_________________________________________________________________
dropout_4 (Dropout)          (None, 1000)              0         
_________________________________________________________________
dense_19 (Dense)             (None, 300)               300300    
_________________________________________________________________
dense_20 (Dense)             (None, 200)               60200     
_________________________________________________________________
dense_21 (Dense)             (None, 100)               20100     
_________________________________________________________________
dense_22 (Dense)             (None, 50)                5050      
_________________________________________________________________
dense_23 (Dense)             (None, 20)                1020      
_________________________________________________________________
dense_24 (Dense)             (None, 4)                 84        
=================================================================
Total params: 2,430,754
Trainable params: 2,430,754
Non-trainable params: 0
_________________________________________________________________
None

Accuracy Train: 86.40%
Accuracy Test: 84.46%
Loss Train: 0.33
Loss Test: 0.40
Numero dati esaminati: 1712
True Positive 1446
False Positive 266
