…
 - 2s - loss: 0.2612 - accuracy: 0.8867 - val_loss: 0.3139 - val_accuracy: 0.8886
Epoch 127/128
 - 2s - loss: 0.2594 - accuracy: 0.8865 - val_loss: 0.3093 - val_accuracy: 0.8959
Epoch 128/128
 - 2s - loss: 0.2624 - accuracy: 0.8861 - val_loss: 0.3203 - val_accuracy: 0.8929

Fit: epochs= 128 , batch_size= 32 , verbose= 2 , shuffle= False , validation_split= 0.2 

Model: "sequential_9"
_________________________________________________________________
Layer (type)                 Output Shape              Param #   
=================================================================
dense_65 (Dense)             (None, 10)                110       
_________________________________________________________________
dense_66 (Dense)             (None, 500)               5500      
_________________________________________________________________
dense_67 (Dense)             (None, 300)               150300    
_________________________________________________________________
dense_68 (Dense)             (None, 200)               60200     
_________________________________________________________________
dense_69 (Dense)             (None, 100)               20100     
_________________________________________________________________
dense_70 (Dense)             (None, 50)                5050      
_________________________________________________________________
dense_71 (Dense)             (None, 20)                1020      
_________________________________________________________________
dense_72 (Dense)             (None, 4)                 84        
=================================================================
Total params: 242,364
Trainable params: 242,364
Non-trainable params: 0
_________________________________________________________________
None

Accuracy Train: 89.15%
Accuracy Test: 87.57%
Loss Train: 0.26
Loss Test: 0.31
Numero dati esaminati: 4949
True Positive 4334
False Positive 615
