…
 - 0s - loss: 0.0892 - accuracy: 0.7690 - val_loss: 0.0948 - val_accuracy: 0.7509
Epoch 499/500
 - 0s - loss: 0.0892 - accuracy: 0.7690 - val_loss: 0.0947 - val_accuracy: 0.7509
Epoch 500/500
 - 0s - loss: 0.0892 - accuracy: 0.7692 - val_loss: 0.0947 - val_accuracy: 0.7509

Fit: epochs=500, batch_size=80, verbose=2, shuffle=False, validation_split=0.20

Model: "sequential_5"
_________________________________________________________________
Layer (type)                 Output Shape              Param #   
=================================================================
dense_25 (Dense)             (None, 11)                132       
_________________________________________________________________
dense_26 (Dense)             (None, 500)               6000      
_________________________________________________________________
dense_27 (Dense)             (None, 200)               100200    
_________________________________________________________________
dense_28 (Dense)             (None, 100)               20100     
_________________________________________________________________
dense_29 (Dense)             (None, 50)                5050      
_________________________________________________________________
dense_30 (Dense)             (None, 4)                 204       
=================================================================
Total params: 131,686
Trainable params: 131,686
Non-trainable params: 0
_________________________________________________________________
None

Accuracy Train: 76.55%
Accuracy Test: 77.25%
Loss Train: 0.09
Loss Test: 0.09
Numero dati esaminati: 1455
True Positive 1124
False Positive 331
