…
 - 0s - loss: 0.0343 - accuracy: 0.9865 - val_loss: 1.0739 - val_accuracy: 0.8856
Epoch 499/500
 - 0s - loss: 0.0344 - accuracy: 0.9861 - val_loss: 1.0252 - val_accuracy: 0.8903
Epoch 500/500
 - 0s - loss: 0.0388 - accuracy: 0.9841 - val_loss: 1.0018 - val_accuracy: 0.8937

Fit: epochs=500, batch_size=80, verbose=2, shuffle=False, validation_split=0.20

Model: "sequential_1"
_________________________________________________________________
Layer (type)                 Output Shape              Param #   
=================================================================
dense_1 (Dense)              (None, 11)                132       
_________________________________________________________________
dense_2 (Dense)              (None, 500)               6000      
_________________________________________________________________
dense_3 (Dense)              (None, 200)               100200    
_________________________________________________________________
dense_4 (Dense)              (None, 100)               20100     
_________________________________________________________________
dense_5 (Dense)              (None, 50)                5050      
_________________________________________________________________
dense_6 (Dense)              (None, 4)                 204       
=================================================================
Total params: 131,686
Trainable params: 131,686
Non-trainable params: 0
_________________________________________________________________
None

Accuracy Train: 96.83%
Accuracy Test: 88.32%
Loss Train: 0.23
Loss Test: 1.07
Numero dati esaminati: 1712
True Positive 1512
False Positive 200
