…
 - 1s - loss: 0.1530 - accuracy: 0.9329 - val_loss: 0.2949 - val_accuracy: 0.9242
Epoch 1454/1455
 - 1s - loss: 0.1585 - accuracy: 0.9313 - val_loss: 0.2992 - val_accuracy: 0.9219
Epoch 1455/1455
 - 1s - loss: 0.1717 - accuracy: 0.9252 - val_loss: 0.2926 - val_accuracy: 0.9187

Fit: epochs=1455, batch_size=233, verbose=2, shuffle=False, validation_split=0.20

Model: "sequential_1"
_________________________________________________________________
Layer (type)                 Output Shape              Param #   
=================================================================
dense_1 (Dense)              (None, 10)                110       
_________________________________________________________________
dense_2 (Dense)              (None, 500)               5500      
_________________________________________________________________
dense_3 (Dense)              (None, 300)               150300    
_________________________________________________________________
dense_4 (Dense)              (None, 200)               60200     
_________________________________________________________________
dense_5 (Dense)              (None, 100)               20100     
_________________________________________________________________
dense_6 (Dense)              (None, 50)                5050      
_________________________________________________________________
dense_7 (Dense)              (None, 20)                1020      
_________________________________________________________________
dense_8 (Dense)              (None, 4)                 84        
=================================================================
Total params: 242,364
Trainable params: 242,364
Non-trainable params: 0
_________________________________________________________________
None

Accuracy Train: 92.78%
Accuracy Test: 90.99%
Loss Train: 0.18
Loss Test: 0.31
Numero dati esaminati: 4949
True Positive 4503
False Positive 446
