…
 - 4s - loss: 0.3290 - accuracy: 0.8600 - val_loss: 0.4891 - val_accuracy: 0.8380
Epoch 127/128
 - 4s - loss: 0.3293 - accuracy: 0.8618 - val_loss: 0.4255 - val_accuracy: 0.8547
Epoch 128/128
 - 4s - loss: 0.3195 - accuracy: 0.8631 - val_loss: 0.4715 - val_accuracy: 0.8518

Fit: epochs= 128 , batch_size= 32 , verbose= 2 , shuffle= False , validation_split= 0.2 

Model: "sequential_2"
_________________________________________________________________
Layer (type)                 Output Shape              Param #   
=================================================================
lstm_2 (LSTM)                (None, 500)               1024000   
_________________________________________________________________
dropout_2 (Dropout)          (None, 500)               0         
_________________________________________________________________
dense_7 (Dense)              (None, 300)               150300    
_________________________________________________________________
dense_8 (Dense)              (None, 200)               60200     
_________________________________________________________________
dense_9 (Dense)              (None, 100)               20100     
_________________________________________________________________
dense_10 (Dense)             (None, 50)                5050      
_________________________________________________________________
dense_11 (Dense)             (None, 20)                1020      
_________________________________________________________________
dense_12 (Dense)             (None, 4)                 84        
=================================================================
Total params: 1,260,754
Trainable params: 1,260,754
Non-trainable params: 0
_________________________________________________________________
None

Accuracy Train: 86.35%
Accuracy Test: 84.29%
Loss Train: 0.35
Loss Test: 0.45
Numero dati esaminati: 1712
True Positive 1443
False Positive 269
