…
 - 8s - loss: 0.2829 - accuracy: 0.9600 - val_loss: 0.7144 - val_accuracy: 0.8608

Number of filters: 16 , Kernel Size: 3 , Strides: 1 Batch Normalization: True , Conv_First: True , Depth Value: 20

Fit: epochs= 128 , batch_size= 32 , verbose= 2 , shuffle= False , validation_split= 0.2 

Model: "model_3"
__________________________________________________________________________________________________
Layer (type)                    Output Shape         Param #     Connected to                     
==================================================================================================
input_3 (InputLayer)            (None, 10, 1)        0                                            
__________________________________________________________________________________________________
conv1d_43 (Conv1D)              (None, 10, 16)       64          input_3[0][0]                    
__________________________________________________________________________________________________
batch_normalization_39 (BatchNo (None, 10, 16)       64          conv1d_43[0][0]                  
__________________________________________________________________________________________________
activation_39 (Activation)      (None, 10, 16)       0           batch_normalization_39[0][0]     
__________________________________________________________________________________________________
conv1d_44 (Conv1D)              (None, 10, 16)       784         activation_39[0][0]              
__________________________________________________________________________________________________
batch_normalization_40 (BatchNo (None, 10, 16)       64          conv1d_44[0][0]                  
__________________________________________________________________________________________________
activation_40 (Activation)      (None, 10, 16)       0           batch_normalization_40[0][0]     
__________________________________________________________________________________________________
conv1d_45 (Conv1D)              (None, 10, 16)       784         activation_40[0][0]              
__________________________________________________________________________________________________
batch_normalization_41 (BatchNo (None, 10, 16)       64          conv1d_45[0][0]                  
__________________________________________________________________________________________________
add_19 (Add)                    (None, 10, 16)       0           activation_39[0][0]              
                                                                 batch_normalization_41[0][0]     
__________________________________________________________________________________________________
activation_41 (Activation)      (None, 10, 16)       0           add_19[0][0]                     
__________________________________________________________________________________________________
conv1d_46 (Conv1D)              (None, 10, 16)       784         activation_41[0][0]              
__________________________________________________________________________________________________
batch_normalization_42 (BatchNo (None, 10, 16)       64          conv1d_46[0][0]                  
__________________________________________________________________________________________________
activation_42 (Activation)      (None, 10, 16)       0           batch_normalization_42[0][0]     
__________________________________________________________________________________________________
conv1d_47 (Conv1D)              (None, 10, 16)       784         activation_42[0][0]              
__________________________________________________________________________________________________
batch_normalization_43 (BatchNo (None, 10, 16)       64          conv1d_47[0][0]                  
__________________________________________________________________________________________________
add_20 (Add)                    (None, 10, 16)       0           activation_41[0][0]              
                                                                 batch_normalization_43[0][0]     
__________________________________________________________________________________________________
activation_43 (Activation)      (None, 10, 16)       0           add_20[0][0]                     
__________________________________________________________________________________________________
conv1d_48 (Conv1D)              (None, 10, 16)       784         activation_43[0][0]              
__________________________________________________________________________________________________
batch_normalization_44 (BatchNo (None, 10, 16)       64          conv1d_48[0][0]                  
__________________________________________________________________________________________________
activation_44 (Activation)      (None, 10, 16)       0           batch_normalization_44[0][0]     
__________________________________________________________________________________________________
conv1d_49 (Conv1D)              (None, 10, 16)       784         activation_44[0][0]              
__________________________________________________________________________________________________
batch_normalization_45 (BatchNo (None, 10, 16)       64          conv1d_49[0][0]                  
__________________________________________________________________________________________________
add_21 (Add)                    (None, 10, 16)       0           activation_43[0][0]              
                                                                 batch_normalization_45[0][0]     
__________________________________________________________________________________________________
activation_45 (Activation)      (None, 10, 16)       0           add_21[0][0]                     
__________________________________________________________________________________________________
conv1d_50 (Conv1D)              (None, 5, 32)        1568        activation_45[0][0]              
__________________________________________________________________________________________________
batch_normalization_46 (BatchNo (None, 5, 32)        128         conv1d_50[0][0]                  
__________________________________________________________________________________________________
activation_46 (Activation)      (None, 5, 32)        0           batch_normalization_46[0][0]     
__________________________________________________________________________________________________
conv1d_51 (Conv1D)              (None, 5, 32)        3104        activation_46[0][0]              
__________________________________________________________________________________________________
conv1d_52 (Conv1D)              (None, 5, 32)        544         activation_45[0][0]              
__________________________________________________________________________________________________
batch_normalization_47 (BatchNo (None, 5, 32)        128         conv1d_51[0][0]                  
__________________________________________________________________________________________________
add_22 (Add)                    (None, 5, 32)        0           conv1d_52[0][0]                  
                                                                 batch_normalization_47[0][0]     
__________________________________________________________________________________________________
activation_47 (Activation)      (None, 5, 32)        0           add_22[0][0]                     
__________________________________________________________________________________________________
conv1d_53 (Conv1D)              (None, 5, 32)        3104        activation_47[0][0]              
__________________________________________________________________________________________________
batch_normalization_48 (BatchNo (None, 5, 32)        128         conv1d_53[0][0]                  
__________________________________________________________________________________________________
activation_48 (Activation)      (None, 5, 32)        0           batch_normalization_48[0][0]     
__________________________________________________________________________________________________
conv1d_54 (Conv1D)              (None, 5, 32)        3104        activation_48[0][0]              
__________________________________________________________________________________________________
batch_normalization_49 (BatchNo (None, 5, 32)        128         conv1d_54[0][0]                  
__________________________________________________________________________________________________
add_23 (Add)                    (None, 5, 32)        0           activation_47[0][0]              
                                                                 batch_normalization_49[0][0]     
__________________________________________________________________________________________________
activation_49 (Activation)      (None, 5, 32)        0           add_23[0][0]                     
__________________________________________________________________________________________________
conv1d_55 (Conv1D)              (None, 5, 32)        3104        activation_49[0][0]              
__________________________________________________________________________________________________
batch_normalization_50 (BatchNo (None, 5, 32)        128         conv1d_55[0][0]                  
__________________________________________________________________________________________________
activation_50 (Activation)      (None, 5, 32)        0           batch_normalization_50[0][0]     
__________________________________________________________________________________________________
conv1d_56 (Conv1D)              (None, 5, 32)        3104        activation_50[0][0]              
__________________________________________________________________________________________________
batch_normalization_51 (BatchNo (None, 5, 32)        128         conv1d_56[0][0]                  
__________________________________________________________________________________________________
add_24 (Add)                    (None, 5, 32)        0           activation_49[0][0]              
                                                                 batch_normalization_51[0][0]     
__________________________________________________________________________________________________
activation_51 (Activation)      (None, 5, 32)        0           add_24[0][0]                     
__________________________________________________________________________________________________
conv1d_57 (Conv1D)              (None, 3, 64)        6208        activation_51[0][0]              
__________________________________________________________________________________________________
batch_normalization_52 (BatchNo (None, 3, 64)        256         conv1d_57[0][0]                  
__________________________________________________________________________________________________
activation_52 (Activation)      (None, 3, 64)        0           batch_normalization_52[0][0]     
__________________________________________________________________________________________________
conv1d_58 (Conv1D)              (None, 3, 64)        12352       activation_52[0][0]              
__________________________________________________________________________________________________
conv1d_59 (Conv1D)              (None, 3, 64)        2112        activation_51[0][0]              
__________________________________________________________________________________________________
batch_normalization_53 (BatchNo (None, 3, 64)        256         conv1d_58[0][0]                  
__________________________________________________________________________________________________
add_25 (Add)                    (None, 3, 64)        0           conv1d_59[0][0]                  
                                                                 batch_normalization_53[0][0]     
__________________________________________________________________________________________________
activation_53 (Activation)      (None, 3, 64)        0           add_25[0][0]                     
__________________________________________________________________________________________________
conv1d_60 (Conv1D)              (None, 3, 64)        12352       activation_53[0][0]              
__________________________________________________________________________________________________
batch_normalization_54 (BatchNo (None, 3, 64)        256         conv1d_60[0][0]                  
__________________________________________________________________________________________________
activation_54 (Activation)      (None, 3, 64)        0           batch_normalization_54[0][0]     
__________________________________________________________________________________________________
conv1d_61 (Conv1D)              (None, 3, 64)        12352       activation_54[0][0]              
__________________________________________________________________________________________________
batch_normalization_55 (BatchNo (None, 3, 64)        256         conv1d_61[0][0]                  
__________________________________________________________________________________________________
add_26 (Add)                    (None, 3, 64)        0           activation_53[0][0]              
                                                                 batch_normalization_55[0][0]     
__________________________________________________________________________________________________
activation_55 (Activation)      (None, 3, 64)        0           add_26[0][0]                     
__________________________________________________________________________________________________
conv1d_62 (Conv1D)              (None, 3, 64)        12352       activation_55[0][0]              
__________________________________________________________________________________________________
batch_normalization_56 (BatchNo (None, 3, 64)        256         conv1d_62[0][0]                  
__________________________________________________________________________________________________
activation_56 (Activation)      (None, 3, 64)        0           batch_normalization_56[0][0]     
__________________________________________________________________________________________________
conv1d_63 (Conv1D)              (None, 3, 64)        12352       activation_56[0][0]              
__________________________________________________________________________________________________
batch_normalization_57 (BatchNo (None, 3, 64)        256         conv1d_63[0][0]                  
__________________________________________________________________________________________________
add_27 (Add)                    (None, 3, 64)        0           activation_55[0][0]              
                                                                 batch_normalization_57[0][0]     
__________________________________________________________________________________________________
activation_57 (Activation)      (None, 3, 64)        0           add_27[0][0]                     
__________________________________________________________________________________________________
average_pooling1d_3 (AveragePoo (None, 3, 64)        0           activation_57[0][0]              
__________________________________________________________________________________________________
flatten_3 (Flatten)             (None, 192)          0           average_pooling1d_3[0][0]        
__________________________________________________________________________________________________
dense_3 (Dense)                 (None, 4)            772         flatten_3[0][0]                  
==================================================================================================
Total params: 96,004
Trainable params: 94,628
Non-trainable params: 1,376
__________________________________________________________________________________________________
None

Accuracy Train: 86.46%
Accuracy Test: 85.59%
Loss Train: 0.65
Loss Test: 0.74
Numero dati esaminati: 4949
…
