…
 - 0s - loss: 0.0620 - accuracy: 0.9803 - val_loss: 0.8608 - val_accuracy: 0.9038
Epoch 499/500
 - 0s - loss: 0.0649 - accuracy: 0.9789 - val_loss: 0.8272 - val_accuracy: 0.8982
Epoch 500/500
 - 0s - loss: 0.0470 - accuracy: 0.9829 - val_loss: 0.8362 - val_accuracy: 0.9049

Fit: epochs=500, batch_size=80, verbose=2, shuffle=False, validation_split=0.20

Model: "sequential_1"
_________________________________________________________________
Layer (type)                 Output Shape              Param #   
=================================================================
dense_1 (Dense)              (None, 11)                132       
_________________________________________________________________
dense_2 (Dense)              (None, 500)               6000      
_________________________________________________________________
dense_3 (Dense)              (None, 200)               100200    
_________________________________________________________________
dense_4 (Dense)              (None, 100)               20100     
_________________________________________________________________
dense_5 (Dense)              (None, 50)                5050      
_________________________________________________________________
dense_6 (Dense)              (None, 4)                 204       
=================================================================
Total params: 131,686
Trainable params: 131,686
Non-trainable params: 0
_________________________________________________________________
None

Accuracy Train: 97.03%
Accuracy Test: 87.32%
Numero dati esaminati: 1712
True Positive 1495
False Positive 217
