…
 - 0s - loss: 0.0483 - accuracy: 0.9851 - val_loss: 1.0416 - val_accuracy: 0.8812
Epoch 499/500
 - 0s - loss: 0.0601 - accuracy: 0.9789 - val_loss: 0.9819 - val_accuracy: 0.8840
Epoch 500/500
 - 0s - loss: 0.0879 - accuracy: 0.9699 - val_loss: 0.9509 - val_accuracy: 0.8874

Fit: epochs=500, batch_size=80, verbose=2, shuffle=False, validation_split=0.20

Model: "sequential_1"
_________________________________________________________________
Layer (type)                 Output Shape              Param #   
=================================================================
dense_1 (Dense)              (None, 11)                132       
_________________________________________________________________
dense_2 (Dense)              (None, 500)               6000      
_________________________________________________________________
dense_3 (Dense)              (None, 200)               100200    
_________________________________________________________________
dense_4 (Dense)              (None, 100)               20100     
_________________________________________________________________
dense_5 (Dense)              (None, 50)                5050      
_________________________________________________________________
dense_6 (Dense)              (None, 4)                 204       
=================================================================
Total params: 131,686
Trainable params: 131,686
Non-trainable params: 0
_________________________________________________________________
None

Accuracy Train: 96.34%
Accuracy Test: 87.68%
Loss Train: 0.23
Loss Test: 1.01
Numero dati esaminati: 1712
True Positive 1501
False Positive 211
