…
 - 0s - loss: 0.0433 - accuracy: 0.9814 - val_loss: 0.8765 - val_accuracy: 0.8994
Epoch 499/500
 - 0s - loss: 0.0384 - accuracy: 0.9830 - val_loss: 0.8987 - val_accuracy: 0.8968
Epoch 500/500
 - 0s - loss: 0.0456 - accuracy: 0.9835 - val_loss: 0.8690 - val_accuracy: 0.9090

Fit: epochs=500, batch_size=80, verbose=2, shuffle=False, validation_split=0.20

Model: "sequential_1"
_________________________________________________________________
Layer (type)                 Output Shape              Param #   
=================================================================
dense_1 (Dense)              (None, 11)                132       
_________________________________________________________________
dense_2 (Dense)              (None, 500)               6000      
_________________________________________________________________
dense_3 (Dense)              (None, 200)               100200    
_________________________________________________________________
dense_4 (Dense)              (None, 100)               20100     
_________________________________________________________________
dense_5 (Dense)              (None, 50)                5050      
_________________________________________________________________
dense_6 (Dense)              (None, 4)                 204       
=================================================================
Total params: 131,686
Trainable params: 131,686
Non-trainable params: 0
_________________________________________________________________
None

Accuracy Train: 97.29%
Accuracy Test: 88.73%
Loss Train: 0.20
Loss Test: 0.94
Numero dati esaminati: 1712
True Positive 1519
False Positive 193
