…
 - 0s - loss: 0.0873 - accuracy: 0.9622 - val_loss: 0.7846 - val_accuracy: 0.8847
Epoch 499/500
 - 0s - loss: 0.0935 - accuracy: 0.9604 - val_loss: 0.8009 - val_accuracy: 0.8796
Epoch 500/500
 - 0s - loss: 0.1084 - accuracy: 0.9569 - val_loss: 0.7692 - val_accuracy: 0.8869

Fit: epochs=500, batch_size=80, verbose=2, shuffle=False, validation_split=0.20

Model: "sequential_6"
_________________________________________________________________
Layer (type)                 Output Shape              Param #   
=================================================================
dense_31 (Dense)             (None, 11)                132       
_________________________________________________________________
dense_32 (Dense)             (None, 500)               6000      
_________________________________________________________________
dense_33 (Dense)             (None, 200)               100200    
_________________________________________________________________
dense_34 (Dense)             (None, 100)               20100     
_________________________________________________________________
dense_35 (Dense)             (None, 50)                5050      
_________________________________________________________________
dense_36 (Dense)             (None, 4)                 204       
=================================================================
Total params: 131,686
Trainable params: 131,686
Non-trainable params: 0
_________________________________________________________________
None

Accuracy Train: 93.38%
Accuracy Test: 87.27%
Numero dati esaminati: 1712
True Positive 1494
False Positive 218
