…
 - 7s - loss: 0.3361 - accuracy: 0.8576 - val_loss: 0.4789 - val_accuracy: 0.8504
Epoch 127/128
 - 7s - loss: 0.3283 - accuracy: 0.8618 - val_loss: 0.4907 - val_accuracy: 0.8533
Epoch 128/128
 - 7s - loss: 0.3271 - accuracy: 0.8607 - val_loss: 0.4837 - val_accuracy: 0.8526

Fit: epochs= 128 , batch_size= 32 , verbose= 2 , shuffle= False , validation_split= 0.2 

Model: "sequential_9"
_________________________________________________________________
Layer (type)                 Output Shape              Param #   
=================================================================
conv1d_9 (Conv1D)            (None, 11, 500)           1000      
_________________________________________________________________
activation_17 (Activation)   (None, 11, 500)           0         
_________________________________________________________________
flatten_9 (Flatten)          (None, 5500)              0         
_________________________________________________________________
dropout_9 (Dropout)          (None, 5500)              0         
_________________________________________________________________
dense_57 (Dense)             (None, 400)               2200400   
_________________________________________________________________
dense_58 (Dense)             (None, 300)               120300    
_________________________________________________________________
dense_59 (Dense)             (None, 200)               60200     
_________________________________________________________________
dense_60 (Dense)             (None, 100)               20100     
_________________________________________________________________
dense_61 (Dense)             (None, 50)                5050      
_________________________________________________________________
dense_62 (Dense)             (None, 20)                1020      
_________________________________________________________________
dense_63 (Dense)             (None, 4)                 84        
_________________________________________________________________
activation_18 (Activation)   (None, 4)                 0         
=================================================================
Total params: 2,408,154
Trainable params: 2,408,154
Non-trainable params: 0
_________________________________________________________________
None

Accuracy Train: 86.32%
Accuracy Test: 84.81%
Loss Train: 0.34
Loss Test: 0.45
Numero dati esaminati: 1712
True Positive 1452
False Positive 260
