…
 - 0s - loss: 0.0418 - accuracy: 0.9852 - val_loss: 0.8680 - val_accuracy: 0.8806
Epoch 499/500
 - 0s - loss: 0.0364 - accuracy: 0.9862 - val_loss: 0.8872 - val_accuracy: 0.8875
Epoch 500/500
 - 0s - loss: 0.0320 - accuracy: 0.9869 - val_loss: 0.9071 - val_accuracy: 0.8814

Fit: epochs=500, batch_size=80, verbose=2, shuffle=False, validation_split=0.20

Model: "sequential_1"
_________________________________________________________________
Layer (type)                 Output Shape              Param #   
=================================================================
dense_1 (Dense)              (None, 11)                132       
_________________________________________________________________
dense_2 (Dense)              (None, 500)               6000      
_________________________________________________________________
dense_3 (Dense)              (None, 200)               100200    
_________________________________________________________________
dense_4 (Dense)              (None, 100)               20100     
_________________________________________________________________
dense_5 (Dense)              (None, 50)                5050      
_________________________________________________________________
dense_6 (Dense)              (None, 4)                 204       
=================================================================
Total params: 131,686
Trainable params: 131,686
Non-trainable params: 0
_________________________________________________________________
None

Accuracy Train: 96.80%
Accuracy Test: 88.52%
Numero dati esaminati: 1455
True Positive 1288
False Positive 167
