…
 - 2s - loss: 0.0408 - accuracy: 0.8848 - val_loss: 0.0415 - val_accuracy: 0.8886
Epoch 127/128
 - 2s - loss: 0.0419 - accuracy: 0.8830 - val_loss: 0.0418 - val_accuracy: 0.8831
Epoch 128/128
 - 2s - loss: 0.0407 - accuracy: 0.8847 - val_loss: 0.0414 - val_accuracy: 0.8841

Fit: epochs= 128 , batch_size= 32 , verbose= 2 , shuffle= False , validation_split= 0.2 

Model: "sequential_10"
_________________________________________________________________
Layer (type)                 Output Shape              Param #   
=================================================================
dense_73 (Dense)             (None, 10)                110       
_________________________________________________________________
dense_74 (Dense)             (None, 500)               5500      
_________________________________________________________________
dense_75 (Dense)             (None, 300)               150300    
_________________________________________________________________
dense_76 (Dense)             (None, 200)               60200     
_________________________________________________________________
dense_77 (Dense)             (None, 100)               20100     
_________________________________________________________________
dense_78 (Dense)             (None, 50)                5050      
_________________________________________________________________
dense_79 (Dense)             (None, 20)                1020      
_________________________________________________________________
dense_80 (Dense)             (None, 4)                 84        
=================================================================
Total params: 242,364
Trainable params: 242,364
Non-trainable params: 0
_________________________________________________________________
None

Accuracy Train: 88.67%
Accuracy Test: 87.61%
Loss Train: 0.04
Loss Test: 0.04
Numero dati esaminati: 4949
True Positive 4336
False Positive 613
