…
 - 2s - loss: 0.2687 - accuracy: 0.9638 - val_loss: 1.4022 - val_accuracy: 0.8090
Epoch 100/100
 - 2s - loss: 0.2426 - accuracy: 0.9767 - val_loss: 1.2191 - val_accuracy: 0.8023

Fit: epochs = 100, batch_size = 16, verbose = 2, shuffle=False, validation_split = 0.20

Model: "model_1"
__________________________________________________________________________________________________
Layer (type)                    Output Shape         Param #     Connected to                     
==================================================================================================
input_1 (InputLayer)            (None, 10, 1)        0                                            
__________________________________________________________________________________________________
conv1d_1 (Conv1D)               (None, 10, 16)       64          input_1[0][0]                    
__________________________________________________________________________________________________
batch_normalization_1 (BatchNor (None, 10, 16)       64          conv1d_1[0][0]                   
__________________________________________________________________________________________________
activation_1 (Activation)       (None, 10, 16)       0           batch_normalization_1[0][0]      
__________________________________________________________________________________________________
conv1d_2 (Conv1D)               (None, 10, 16)       784         activation_1[0][0]               
__________________________________________________________________________________________________
batch_normalization_2 (BatchNor (None, 10, 16)       64          conv1d_2[0][0]                   
__________________________________________________________________________________________________
activation_2 (Activation)       (None, 10, 16)       0           batch_normalization_2[0][0]      
__________________________________________________________________________________________________
conv1d_3 (Conv1D)               (None, 10, 16)       784         activation_2[0][0]               
__________________________________________________________________________________________________
batch_normalization_3 (BatchNor (None, 10, 16)       64          conv1d_3[0][0]                   
__________________________________________________________________________________________________
add_1 (Add)                     (None, 10, 16)       0           activation_1[0][0]               
                                                                 batch_normalization_3[0][0]      
__________________________________________________________________________________________________
activation_3 (Activation)       (None, 10, 16)       0           add_1[0][0]                      
__________________________________________________________________________________________________
conv1d_4 (Conv1D)               (None, 10, 16)       784         activation_3[0][0]               
__________________________________________________________________________________________________
batch_normalization_4 (BatchNor (None, 10, 16)       64          conv1d_4[0][0]                   
__________________________________________________________________________________________________
activation_4 (Activation)       (None, 10, 16)       0           batch_normalization_4[0][0]      
__________________________________________________________________________________________________
conv1d_5 (Conv1D)               (None, 10, 16)       784         activation_4[0][0]               
__________________________________________________________________________________________________
batch_normalization_5 (BatchNor (None, 10, 16)       64          conv1d_5[0][0]                   
__________________________________________________________________________________________________
add_2 (Add)                     (None, 10, 16)       0           activation_3[0][0]               
                                                                 batch_normalization_5[0][0]      
__________________________________________________________________________________________________
activation_5 (Activation)       (None, 10, 16)       0           add_2[0][0]                      
__________________________________________________________________________________________________
conv1d_6 (Conv1D)               (None, 10, 16)       784         activation_5[0][0]               
__________________________________________________________________________________________________
batch_normalization_6 (BatchNor (None, 10, 16)       64          conv1d_6[0][0]                   
__________________________________________________________________________________________________
activation_6 (Activation)       (None, 10, 16)       0           batch_normalization_6[0][0]      
__________________________________________________________________________________________________
conv1d_7 (Conv1D)               (None, 10, 16)       784         activation_6[0][0]               
__________________________________________________________________________________________________
batch_normalization_7 (BatchNor (None, 10, 16)       64          conv1d_7[0][0]                   
__________________________________________________________________________________________________
add_3 (Add)                     (None, 10, 16)       0           activation_5[0][0]               
                                                                 batch_normalization_7[0][0]      
__________________________________________________________________________________________________
activation_7 (Activation)       (None, 10, 16)       0           add_3[0][0]                      
__________________________________________________________________________________________________
conv1d_8 (Conv1D)               (None, 5, 32)        1568        activation_7[0][0]               
__________________________________________________________________________________________________
batch_normalization_8 (BatchNor (None, 5, 32)        128         conv1d_8[0][0]                   
__________________________________________________________________________________________________
activation_8 (Activation)       (None, 5, 32)        0           batch_normalization_8[0][0]      
__________________________________________________________________________________________________
conv1d_9 (Conv1D)               (None, 5, 32)        3104        activation_8[0][0]               
__________________________________________________________________________________________________
conv1d_10 (Conv1D)              (None, 5, 32)        544         activation_7[0][0]               
__________________________________________________________________________________________________
batch_normalization_9 (BatchNor (None, 5, 32)        128         conv1d_9[0][0]                   
__________________________________________________________________________________________________
add_4 (Add)                     (None, 5, 32)        0           conv1d_10[0][0]                  
                                                                 batch_normalization_9[0][0]      
__________________________________________________________________________________________________
activation_9 (Activation)       (None, 5, 32)        0           add_4[0][0]                      
__________________________________________________________________________________________________
conv1d_11 (Conv1D)              (None, 5, 32)        3104        activation_9[0][0]               
__________________________________________________________________________________________________
batch_normalization_10 (BatchNo (None, 5, 32)        128         conv1d_11[0][0]                  
__________________________________________________________________________________________________
activation_10 (Activation)      (None, 5, 32)        0           batch_normalization_10[0][0]     
__________________________________________________________________________________________________
conv1d_12 (Conv1D)              (None, 5, 32)        3104        activation_10[0][0]              
__________________________________________________________________________________________________
batch_normalization_11 (BatchNo (None, 5, 32)        128         conv1d_12[0][0]                  
__________________________________________________________________________________________________
add_5 (Add)                     (None, 5, 32)        0           activation_9[0][0]               
                                                                 batch_normalization_11[0][0]     
__________________________________________________________________________________________________
activation_11 (Activation)      (None, 5, 32)        0           add_5[0][0]                      
__________________________________________________________________________________________________
conv1d_13 (Conv1D)              (None, 5, 32)        3104        activation_11[0][0]              
__________________________________________________________________________________________________
batch_normalization_12 (BatchNo (None, 5, 32)        128         conv1d_13[0][0]                  
__________________________________________________________________________________________________
activation_12 (Activation)      (None, 5, 32)        0           batch_normalization_12[0][0]     
__________________________________________________________________________________________________
conv1d_14 (Conv1D)              (None, 5, 32)        3104        activation_12[0][0]              
__________________________________________________________________________________________________
batch_normalization_13 (BatchNo (None, 5, 32)        128         conv1d_14[0][0]                  
__________________________________________________________________________________________________
add_6 (Add)                     (None, 5, 32)        0           activation_11[0][0]              
                                                                 batch_normalization_13[0][0]     
__________________________________________________________________________________________________
activation_13 (Activation)      (None, 5, 32)        0           add_6[0][0]                      
__________________________________________________________________________________________________
conv1d_15 (Conv1D)              (None, 3, 64)        6208        activation_13[0][0]              
__________________________________________________________________________________________________
batch_normalization_14 (BatchNo (None, 3, 64)        256         conv1d_15[0][0]                  
__________________________________________________________________________________________________
activation_14 (Activation)      (None, 3, 64)        0           batch_normalization_14[0][0]     
__________________________________________________________________________________________________
conv1d_16 (Conv1D)              (None, 3, 64)        12352       activation_14[0][0]              
__________________________________________________________________________________________________
conv1d_17 (Conv1D)              (None, 3, 64)        2112        activation_13[0][0]              
__________________________________________________________________________________________________
batch_normalization_15 (BatchNo (None, 3, 64)        256         conv1d_16[0][0]                  
__________________________________________________________________________________________________
add_7 (Add)                     (None, 3, 64)        0           conv1d_17[0][0]                  
                                                                 batch_normalization_15[0][0]     
__________________________________________________________________________________________________
activation_15 (Activation)      (None, 3, 64)        0           add_7[0][0]                      
__________________________________________________________________________________________________
conv1d_18 (Conv1D)              (None, 3, 64)        12352       activation_15[0][0]              
__________________________________________________________________________________________________
batch_normalization_16 (BatchNo (None, 3, 64)        256         conv1d_18[0][0]                  
__________________________________________________________________________________________________
activation_16 (Activation)      (None, 3, 64)        0           batch_normalization_16[0][0]     
__________________________________________________________________________________________________
conv1d_19 (Conv1D)              (None, 3, 64)        12352       activation_16[0][0]              
__________________________________________________________________________________________________
batch_normalization_17 (BatchNo (None, 3, 64)        256         conv1d_19[0][0]                  
__________________________________________________________________________________________________
add_8 (Add)                     (None, 3, 64)        0           activation_15[0][0]              
                                                                 batch_normalization_17[0][0]     
__________________________________________________________________________________________________
activation_17 (Activation)      (None, 3, 64)        0           add_8[0][0]                      
__________________________________________________________________________________________________
conv1d_20 (Conv1D)              (None, 3, 64)        12352       activation_17[0][0]              
__________________________________________________________________________________________________
batch_normalization_18 (BatchNo (None, 3, 64)        256         conv1d_20[0][0]                  
__________________________________________________________________________________________________
activation_18 (Activation)      (None, 3, 64)        0           batch_normalization_18[0][0]     
__________________________________________________________________________________________________
conv1d_21 (Conv1D)              (None, 3, 64)        12352       activation_18[0][0]              
__________________________________________________________________________________________________
batch_normalization_19 (BatchNo (None, 3, 64)        256         conv1d_21[0][0]                  
__________________________________________________________________________________________________
add_9 (Add)                     (None, 3, 64)        0           activation_17[0][0]              
                                                                 batch_normalization_19[0][0]     
__________________________________________________________________________________________________
activation_19 (Activation)      (None, 3, 64)        0           add_9[0][0]                      
__________________________________________________________________________________________________
average_pooling1d_1 (AveragePoo (None, 3, 64)        0           activation_19[0][0]              
__________________________________________________________________________________________________
flatten_1 (Flatten)             (None, 192)          0           average_pooling1d_1[0][0]        
__________________________________________________________________________________________________
dense_1 (Dense)                 (None, 4)            772         flatten_1[0][0]                  
==================================================================================================
Total params: 96,004
Trainable params: 94,628
Non-trainable params: 1,376
__________________________________________________________________________________________________
None

Accuracy Train: 82.85%
Accuracy Test: 78.19%
Loss Train: 0.97
Loss Test: 1.57
Numero dati esaminati: 752
…
