…
 - 1s - loss: 0.3213 - accuracy: 0.8662 - val_loss: 0.6594 - val_accuracy: 0.8306
Epoch 219/220
 - 1s - loss: 0.3232 - accuracy: 0.8658 - val_loss: 0.6739 - val_accuracy: 0.8372
Epoch 220/220
 - 1s - loss: 0.3194 - accuracy: 0.8678 - val_loss: 0.6526 - val_accuracy: 0.8405

Fit: epochs = 220, batch_size = 35, verbose = 2, shuffle=False, validation_split = 0.20

Model: "sequential_1"
_________________________________________________________________
Layer (type)                 Output Shape              Param #   
=================================================================
bidirectional_1 (Bidirection (None, 512)               546816    
_________________________________________________________________
dense_1 (Dense)              (None, 128)               65664     
_________________________________________________________________
dense_2 (Dense)              (None, 64)                8256      
_________________________________________________________________
dense_3 (Dense)              (None, 32)                2080      
_________________________________________________________________
dense_4 (Dense)              (None, 16)                528       
_________________________________________________________________
dense_5 (Dense)              (None, 4)                 68        
=================================================================
Total params: 623,412
Trainable params: 623,412
Non-trainable params: 0
_________________________________________________________________
None

Accuracy Train: 87.20%
Accuracy Test: 81.12%
Loss Train: 0.36
Loss Test: 0.69
Numero dati esaminati: 752
True Positive 610
False Positive 142
