…
 - 0s - loss: 0.2152 - accuracy: 0.9175 - val_loss: 0.4633 - val_accuracy: 0.8788
Epoch 499/500
 - 0s - loss: 0.2182 - accuracy: 0.9107 - val_loss: 0.4870 - val_accuracy: 0.8788
Epoch 500/500
 - 0s - loss: 0.2105 - accuracy: 0.9142 - val_loss: 0.4830 - val_accuracy: 0.8737

Fit: epochs=500, batch_size=80, verbose=2, shuffle=False, validation_split=0.20

Model: "sequential_1"
_________________________________________________________________
Layer (type)                 Output Shape              Param #   
=================================================================
dense_1 (Dense)              (None, 10)                110       
_________________________________________________________________
dropout_1 (Dropout)          (None, 10)                0         
_________________________________________________________________
dense_2 (Dense)              (None, 256)               2816      
_________________________________________________________________
dense_3 (Dense)              (None, 192)               49344     
_________________________________________________________________
dense_4 (Dense)              (None, 128)               24704     
_________________________________________________________________
dropout_2 (Dropout)          (None, 128)               0         
_________________________________________________________________
dense_5 (Dense)              (None, 64)                8256      
_________________________________________________________________
dense_6 (Dense)              (None, 32)                2080      
_________________________________________________________________
dense_7 (Dense)              (None, 16)                528       
_________________________________________________________________
dropout_3 (Dropout)          (None, 16)                0         
_________________________________________________________________
dense_8 (Dense)              (None, 8)                 136       
_________________________________________________________________
dense_9 (Dense)              (None, 4)                 36        
=================================================================
Total params: 88,010
Trainable params: 88,010
Non-trainable params: 0
_________________________________________________________________
None

Accuracy Train: 92.92%
Accuracy Test: 87.79%
Loss Train: 0.21
Loss Test: 0.48
Numero dati esaminati: 1712
True Positive 1503
False Positive 209
