…
 - 1s - loss: 0.1894 - accuracy: 0.9142 - val_loss: 0.5606 - val_accuracy: 0.8599
Epoch 127/128
 - 1s - loss: 0.1822 - accuracy: 0.9160 - val_loss: 0.5421 - val_accuracy: 0.8642
Epoch 128/128
 - 1s - loss: 0.1860 - accuracy: 0.9140 - val_loss: 0.5322 - val_accuracy: 0.8730

Fit: epochs= 128 , batch_size= 32 , verbose= 2 , shuffle= False , validation_split= 0.2 

Model: "sequential_5"
_________________________________________________________________
Layer (type)                 Output Shape              Param #   
=================================================================
dense_33 (Dense)             (None, 10)                110       
_________________________________________________________________
dense_34 (Dense)             (None, 500)               5500      
_________________________________________________________________
dense_35 (Dense)             (None, 300)               150300    
_________________________________________________________________
dense_36 (Dense)             (None, 200)               60200     
_________________________________________________________________
dense_37 (Dense)             (None, 100)               20100     
_________________________________________________________________
dense_38 (Dense)             (None, 50)                5050      
_________________________________________________________________
dense_39 (Dense)             (None, 20)                1020      
_________________________________________________________________
dense_40 (Dense)             (None, 4)                 84        
=================================================================
Total params: 242,364
Trainable params: 242,364
Non-trainable params: 0
_________________________________________________________________
None

Accuracy Train: 91.06%
Accuracy Test: 85.46%
Loss Train: 0.24
Loss Test: 0.59
Numero dati esaminati: 1712
True Positive 1463
False Positive 249
