…
 - 0s - loss: 0.0825 - accuracy: 0.9624 - val_loss: 0.7515 - val_accuracy: 0.8796
Epoch 499/500
 - 0s - loss: 0.1026 - accuracy: 0.9576 - val_loss: 0.7138 - val_accuracy: 0.8759
Epoch 500/500
 - 0s - loss: 0.1147 - accuracy: 0.9547 - val_loss: 0.7036 - val_accuracy: 0.8759

Fit: epochs=500, batch_size=80, verbose=2, shuffle=False, validation_split=0.20

Model: "sequential_1"
_________________________________________________________________
Layer (type)                 Output Shape              Param #   
=================================================================
dense_1 (Dense)              (None, 10)                110       
_________________________________________________________________
dense_2 (Dense)              (None, 256)               2816      
_________________________________________________________________
dense_3 (Dense)              (None, 192)               49344     
_________________________________________________________________
dense_4 (Dense)              (None, 128)               24704     
_________________________________________________________________
dense_5 (Dense)              (None, 92)                11868     
_________________________________________________________________
dense_6 (Dense)              (None, 64)                5952      
_________________________________________________________________
dense_7 (Dense)              (None, 32)                2080      
_________________________________________________________________
dense_8 (Dense)              (None, 16)                528       
_________________________________________________________________
dense_9 (Dense)              (None, 8)                 136       
_________________________________________________________________
dense_10 (Dense)             (None, 4)                 36        
=================================================================
Total params: 97,574
Trainable params: 97,574
Non-trainable params: 0
_________________________________________________________________
None

Accuracy Train: 94.54%
Accuracy Test: 89.37%
Loss Train: 0.21
Loss Test: 0.64
Numero dati esaminati: 1712
True Positive 1530
False Positive 182
