…
 - 1s - loss: 0.2232 - accuracy: 0.9038 - val_loss: 0.3347 - val_accuracy: 0.8992
Epoch 499/500
 - 1s - loss: 0.2214 - accuracy: 0.9053 - val_loss: 0.3060 - val_accuracy: 0.9015
Epoch 500/500
 - 1s - loss: 0.2084 - accuracy: 0.9085 - val_loss: 0.3094 - val_accuracy: 0.9038

Fit: epochs=500, batch_size=80, verbose=2, shuffle=False, validation_split=0.20

Model: "sequential_1"
_________________________________________________________________
Layer (type)                 Output Shape              Param #   
=================================================================
dense_1 (Dense)              (None, 10)                110       
_________________________________________________________________
dense_2 (Dense)              (None, 500)               5500      
_________________________________________________________________
dense_3 (Dense)              (None, 300)               150300    
_________________________________________________________________
dense_4 (Dense)              (None, 200)               60200     
_________________________________________________________________
dense_5 (Dense)              (None, 100)               20100     
_________________________________________________________________
dense_6 (Dense)              (None, 50)                5050      
_________________________________________________________________
dense_7 (Dense)              (None, 20)                1020      
_________________________________________________________________
dense_8 (Dense)              (None, 4)                 84        
=================================================================
Total params: 242,364
Trainable params: 242,364
Non-trainable params: 0
_________________________________________________________________
None

Accuracy Train: 90.97%
Accuracy Test: 89.45%
Loss Train: 0.22
Loss Test: 0.32
Numero dati esaminati: 4949
True Positive 4427
False Positive 522
