…
 - 11s - loss: 0.2758 - accuracy: 0.8793 - val_loss: 0.3128 - val_accuracy: 0.8836
Epoch 127/128
 - 11s - loss: 0.2770 - accuracy: 0.8811 - val_loss: 0.3187 - val_accuracy: 0.8728
Epoch 128/128
 - 11s - loss: 0.2727 - accuracy: 0.8831 - val_loss: 0.2999 - val_accuracy: 0.8803

Fit: epochs= 128 , batch_size= 32 , verbose= 2 , shuffle= False , validation_split= 0.2 

Model: "sequential_7"
_________________________________________________________________
Layer (type)                 Output Shape              Param #   
=================================================================
lstm_7 (LSTM)                (None, 500)               1022000   
_________________________________________________________________
dropout_7 (Dropout)          (None, 500)               0         
_________________________________________________________________
dense_37 (Dense)             (None, 300)               150300    
_________________________________________________________________
dense_38 (Dense)             (None, 200)               60200     
_________________________________________________________________
dense_39 (Dense)             (None, 100)               20100     
_________________________________________________________________
dense_40 (Dense)             (None, 50)                5050      
_________________________________________________________________
dense_41 (Dense)             (None, 20)                1020      
_________________________________________________________________
dense_42 (Dense)             (None, 4)                 84        
=================================================================
Total params: 1,258,754
Trainable params: 1,258,754
Non-trainable params: 0
_________________________________________________________________
None

Accuracy Train: 88.73%
Accuracy Test: 87.63%
Loss Train: 0.26
Loss Test: 0.32
Numero dati esaminati: 4178
True Positive 3661
False Positive 517
