…
 - 1s - loss: 0.2384 - accuracy: 0.9713 - val_loss: 1.2149 - val_accuracy: 0.8123

Number of filters: 16 , Kernel Size: 3 , Strides: 1 Batch Normalization: True , Conv_First: True , Depth Value: 20

Fit: epochs= 128 , batch_size= 32 , verbose= 2 , shuffle= False , validation_split= 0.2 

Model: "model_5"
__________________________________________________________________________________________________
Layer (type)                    Output Shape         Param #     Connected to                     
==================================================================================================
input_5 (InputLayer)            (None, 10, 1)        0                                            
__________________________________________________________________________________________________
conv1d_85 (Conv1D)              (None, 10, 16)       64          input_5[0][0]                    
__________________________________________________________________________________________________
batch_normalization_77 (BatchNo (None, 10, 16)       64          conv1d_85[0][0]                  
__________________________________________________________________________________________________
activation_77 (Activation)      (None, 10, 16)       0           batch_normalization_77[0][0]     
__________________________________________________________________________________________________
conv1d_86 (Conv1D)              (None, 10, 16)       784         activation_77[0][0]              
__________________________________________________________________________________________________
batch_normalization_78 (BatchNo (None, 10, 16)       64          conv1d_86[0][0]                  
__________________________________________________________________________________________________
activation_78 (Activation)      (None, 10, 16)       0           batch_normalization_78[0][0]     
__________________________________________________________________________________________________
conv1d_87 (Conv1D)              (None, 10, 16)       784         activation_78[0][0]              
__________________________________________________________________________________________________
batch_normalization_79 (BatchNo (None, 10, 16)       64          conv1d_87[0][0]                  
__________________________________________________________________________________________________
add_37 (Add)                    (None, 10, 16)       0           activation_77[0][0]              
                                                                 batch_normalization_79[0][0]     
__________________________________________________________________________________________________
activation_79 (Activation)      (None, 10, 16)       0           add_37[0][0]                     
__________________________________________________________________________________________________
conv1d_88 (Conv1D)              (None, 10, 16)       784         activation_79[0][0]              
__________________________________________________________________________________________________
batch_normalization_80 (BatchNo (None, 10, 16)       64          conv1d_88[0][0]                  
__________________________________________________________________________________________________
activation_80 (Activation)      (None, 10, 16)       0           batch_normalization_80[0][0]     
__________________________________________________________________________________________________
conv1d_89 (Conv1D)              (None, 10, 16)       784         activation_80[0][0]              
__________________________________________________________________________________________________
batch_normalization_81 (BatchNo (None, 10, 16)       64          conv1d_89[0][0]                  
__________________________________________________________________________________________________
add_38 (Add)                    (None, 10, 16)       0           activation_79[0][0]              
                                                                 batch_normalization_81[0][0]     
__________________________________________________________________________________________________
activation_81 (Activation)      (None, 10, 16)       0           add_38[0][0]                     
__________________________________________________________________________________________________
conv1d_90 (Conv1D)              (None, 10, 16)       784         activation_81[0][0]              
__________________________________________________________________________________________________
batch_normalization_82 (BatchNo (None, 10, 16)       64          conv1d_90[0][0]                  
__________________________________________________________________________________________________
activation_82 (Activation)      (None, 10, 16)       0           batch_normalization_82[0][0]     
__________________________________________________________________________________________________
conv1d_91 (Conv1D)              (None, 10, 16)       784         activation_82[0][0]              
__________________________________________________________________________________________________
batch_normalization_83 (BatchNo (None, 10, 16)       64          conv1d_91[0][0]                  
__________________________________________________________________________________________________
add_39 (Add)                    (None, 10, 16)       0           activation_81[0][0]              
                                                                 batch_normalization_83[0][0]     
__________________________________________________________________________________________________
activation_83 (Activation)      (None, 10, 16)       0           add_39[0][0]                     
__________________________________________________________________________________________________
conv1d_92 (Conv1D)              (None, 5, 32)        1568        activation_83[0][0]              
__________________________________________________________________________________________________
batch_normalization_84 (BatchNo (None, 5, 32)        128         conv1d_92[0][0]                  
__________________________________________________________________________________________________
activation_84 (Activation)      (None, 5, 32)        0           batch_normalization_84[0][0]     
__________________________________________________________________________________________________
conv1d_93 (Conv1D)              (None, 5, 32)        3104        activation_84[0][0]              
__________________________________________________________________________________________________
conv1d_94 (Conv1D)              (None, 5, 32)        544         activation_83[0][0]              
__________________________________________________________________________________________________
batch_normalization_85 (BatchNo (None, 5, 32)        128         conv1d_93[0][0]                  
__________________________________________________________________________________________________
add_40 (Add)                    (None, 5, 32)        0           conv1d_94[0][0]                  
                                                                 batch_normalization_85[0][0]     
__________________________________________________________________________________________________
activation_85 (Activation)      (None, 5, 32)        0           add_40[0][0]                     
__________________________________________________________________________________________________
conv1d_95 (Conv1D)              (None, 5, 32)        3104        activation_85[0][0]              
__________________________________________________________________________________________________
batch_normalization_86 (BatchNo (None, 5, 32)        128         conv1d_95[0][0]                  
__________________________________________________________________________________________________
activation_86 (Activation)      (None, 5, 32)        0           batch_normalization_86[0][0]     
__________________________________________________________________________________________________
conv1d_96 (Conv1D)              (None, 5, 32)        3104        activation_86[0][0]              
__________________________________________________________________________________________________
batch_normalization_87 (BatchNo (None, 5, 32)        128         conv1d_96[0][0]                  
__________________________________________________________________________________________________
add_41 (Add)                    (None, 5, 32)        0           activation_85[0][0]              
                                                                 batch_normalization_87[0][0]     
__________________________________________________________________________________________________
activation_87 (Activation)      (None, 5, 32)        0           add_41[0][0]                     
__________________________________________________________________________________________________
conv1d_97 (Conv1D)              (None, 5, 32)        3104        activation_87[0][0]              
__________________________________________________________________________________________________
batch_normalization_88 (BatchNo (None, 5, 32)        128         conv1d_97[0][0]                  
__________________________________________________________________________________________________
activation_88 (Activation)      (None, 5, 32)        0           batch_normalization_88[0][0]     
__________________________________________________________________________________________________
conv1d_98 (Conv1D)              (None, 5, 32)        3104        activation_88[0][0]              
__________________________________________________________________________________________________
batch_normalization_89 (BatchNo (None, 5, 32)        128         conv1d_98[0][0]                  
__________________________________________________________________________________________________
add_42 (Add)                    (None, 5, 32)        0           activation_87[0][0]              
                                                                 batch_normalization_89[0][0]     
__________________________________________________________________________________________________
activation_89 (Activation)      (None, 5, 32)        0           add_42[0][0]                     
__________________________________________________________________________________________________
conv1d_99 (Conv1D)              (None, 3, 64)        6208        activation_89[0][0]              
__________________________________________________________________________________________________
batch_normalization_90 (BatchNo (None, 3, 64)        256         conv1d_99[0][0]                  
__________________________________________________________________________________________________
activation_90 (Activation)      (None, 3, 64)        0           batch_normalization_90[0][0]     
__________________________________________________________________________________________________
conv1d_100 (Conv1D)             (None, 3, 64)        12352       activation_90[0][0]              
__________________________________________________________________________________________________
conv1d_101 (Conv1D)             (None, 3, 64)        2112        activation_89[0][0]              
__________________________________________________________________________________________________
batch_normalization_91 (BatchNo (None, 3, 64)        256         conv1d_100[0][0]                 
__________________________________________________________________________________________________
add_43 (Add)                    (None, 3, 64)        0           conv1d_101[0][0]                 
                                                                 batch_normalization_91[0][0]     
__________________________________________________________________________________________________
activation_91 (Activation)      (None, 3, 64)        0           add_43[0][0]                     
__________________________________________________________________________________________________
conv1d_102 (Conv1D)             (None, 3, 64)        12352       activation_91[0][0]              
__________________________________________________________________________________________________
batch_normalization_92 (BatchNo (None, 3, 64)        256         conv1d_102[0][0]                 
__________________________________________________________________________________________________
activation_92 (Activation)      (None, 3, 64)        0           batch_normalization_92[0][0]     
__________________________________________________________________________________________________
conv1d_103 (Conv1D)             (None, 3, 64)        12352       activation_92[0][0]              
__________________________________________________________________________________________________
batch_normalization_93 (BatchNo (None, 3, 64)        256         conv1d_103[0][0]                 
__________________________________________________________________________________________________
add_44 (Add)                    (None, 3, 64)        0           activation_91[0][0]              
                                                                 batch_normalization_93[0][0]     
__________________________________________________________________________________________________
activation_93 (Activation)      (None, 3, 64)        0           add_44[0][0]                     
__________________________________________________________________________________________________
conv1d_104 (Conv1D)             (None, 3, 64)        12352       activation_93[0][0]              
__________________________________________________________________________________________________
batch_normalization_94 (BatchNo (None, 3, 64)        256         conv1d_104[0][0]                 
__________________________________________________________________________________________________
activation_94 (Activation)      (None, 3, 64)        0           batch_normalization_94[0][0]     
__________________________________________________________________________________________________
conv1d_105 (Conv1D)             (None, 3, 64)        12352       activation_94[0][0]              
__________________________________________________________________________________________________
batch_normalization_95 (BatchNo (None, 3, 64)        256         conv1d_105[0][0]                 
__________________________________________________________________________________________________
add_45 (Add)                    (None, 3, 64)        0           activation_93[0][0]              
                                                                 batch_normalization_95[0][0]     
__________________________________________________________________________________________________
activation_95 (Activation)      (None, 3, 64)        0           add_45[0][0]                     
__________________________________________________________________________________________________
average_pooling1d_5 (AveragePoo (None, 3, 64)        0           activation_95[0][0]              
__________________________________________________________________________________________________
flatten_5 (Flatten)             (None, 192)          0           average_pooling1d_5[0][0]        
__________________________________________________________________________________________________
dense_5 (Dense)                 (None, 4)            772         flatten_5[0][0]                  
==================================================================================================
Total params: 96,004
Trainable params: 94,628
Non-trainable params: 1,376
__________________________________________________________________________________________________
None

Accuracy Train: 83.94%
Accuracy Test: 78.86%
Loss Train: 0.91
Loss Test: 1.42
Numero dati esaminati: 752
…
