…
 - 8s - loss: 0.2980 - accuracy: 0.9541 - val_loss: 0.6702 - val_accuracy: 0.8624

Number of filters: 16 , Kernel Size: 3 , Strides: 1 Batch Normalization: True , Conv_First: True , Depth Value: 20

Fit: epochs= 128 , batch_size= 32 , verbose= 2 , shuffle= False , validation_split= 0.2 

Model: "model_4"
__________________________________________________________________________________________________
Layer (type)                    Output Shape         Param #     Connected to                     
==================================================================================================
input_4 (InputLayer)            (None, 10, 1)        0                                            
__________________________________________________________________________________________________
conv1d_64 (Conv1D)              (None, 10, 16)       64          input_4[0][0]                    
__________________________________________________________________________________________________
batch_normalization_58 (BatchNo (None, 10, 16)       64          conv1d_64[0][0]                  
__________________________________________________________________________________________________
activation_58 (Activation)      (None, 10, 16)       0           batch_normalization_58[0][0]     
__________________________________________________________________________________________________
conv1d_65 (Conv1D)              (None, 10, 16)       784         activation_58[0][0]              
__________________________________________________________________________________________________
batch_normalization_59 (BatchNo (None, 10, 16)       64          conv1d_65[0][0]                  
__________________________________________________________________________________________________
activation_59 (Activation)      (None, 10, 16)       0           batch_normalization_59[0][0]     
__________________________________________________________________________________________________
conv1d_66 (Conv1D)              (None, 10, 16)       784         activation_59[0][0]              
__________________________________________________________________________________________________
batch_normalization_60 (BatchNo (None, 10, 16)       64          conv1d_66[0][0]                  
__________________________________________________________________________________________________
add_28 (Add)                    (None, 10, 16)       0           activation_58[0][0]              
                                                                 batch_normalization_60[0][0]     
__________________________________________________________________________________________________
activation_60 (Activation)      (None, 10, 16)       0           add_28[0][0]                     
__________________________________________________________________________________________________
conv1d_67 (Conv1D)              (None, 10, 16)       784         activation_60[0][0]              
__________________________________________________________________________________________________
batch_normalization_61 (BatchNo (None, 10, 16)       64          conv1d_67[0][0]                  
__________________________________________________________________________________________________
activation_61 (Activation)      (None, 10, 16)       0           batch_normalization_61[0][0]     
__________________________________________________________________________________________________
conv1d_68 (Conv1D)              (None, 10, 16)       784         activation_61[0][0]              
__________________________________________________________________________________________________
batch_normalization_62 (BatchNo (None, 10, 16)       64          conv1d_68[0][0]                  
__________________________________________________________________________________________________
add_29 (Add)                    (None, 10, 16)       0           activation_60[0][0]              
                                                                 batch_normalization_62[0][0]     
__________________________________________________________________________________________________
activation_62 (Activation)      (None, 10, 16)       0           add_29[0][0]                     
__________________________________________________________________________________________________
conv1d_69 (Conv1D)              (None, 10, 16)       784         activation_62[0][0]              
__________________________________________________________________________________________________
batch_normalization_63 (BatchNo (None, 10, 16)       64          conv1d_69[0][0]                  
__________________________________________________________________________________________________
activation_63 (Activation)      (None, 10, 16)       0           batch_normalization_63[0][0]     
__________________________________________________________________________________________________
conv1d_70 (Conv1D)              (None, 10, 16)       784         activation_63[0][0]              
__________________________________________________________________________________________________
batch_normalization_64 (BatchNo (None, 10, 16)       64          conv1d_70[0][0]                  
__________________________________________________________________________________________________
add_30 (Add)                    (None, 10, 16)       0           activation_62[0][0]              
                                                                 batch_normalization_64[0][0]     
__________________________________________________________________________________________________
activation_64 (Activation)      (None, 10, 16)       0           add_30[0][0]                     
__________________________________________________________________________________________________
conv1d_71 (Conv1D)              (None, 5, 32)        1568        activation_64[0][0]              
__________________________________________________________________________________________________
batch_normalization_65 (BatchNo (None, 5, 32)        128         conv1d_71[0][0]                  
__________________________________________________________________________________________________
activation_65 (Activation)      (None, 5, 32)        0           batch_normalization_65[0][0]     
__________________________________________________________________________________________________
conv1d_72 (Conv1D)              (None, 5, 32)        3104        activation_65[0][0]              
__________________________________________________________________________________________________
conv1d_73 (Conv1D)              (None, 5, 32)        544         activation_64[0][0]              
__________________________________________________________________________________________________
batch_normalization_66 (BatchNo (None, 5, 32)        128         conv1d_72[0][0]                  
__________________________________________________________________________________________________
add_31 (Add)                    (None, 5, 32)        0           conv1d_73[0][0]                  
                                                                 batch_normalization_66[0][0]     
__________________________________________________________________________________________________
activation_66 (Activation)      (None, 5, 32)        0           add_31[0][0]                     
__________________________________________________________________________________________________
conv1d_74 (Conv1D)              (None, 5, 32)        3104        activation_66[0][0]              
__________________________________________________________________________________________________
batch_normalization_67 (BatchNo (None, 5, 32)        128         conv1d_74[0][0]                  
__________________________________________________________________________________________________
activation_67 (Activation)      (None, 5, 32)        0           batch_normalization_67[0][0]     
__________________________________________________________________________________________________
conv1d_75 (Conv1D)              (None, 5, 32)        3104        activation_67[0][0]              
__________________________________________________________________________________________________
batch_normalization_68 (BatchNo (None, 5, 32)        128         conv1d_75[0][0]                  
__________________________________________________________________________________________________
add_32 (Add)                    (None, 5, 32)        0           activation_66[0][0]              
                                                                 batch_normalization_68[0][0]     
__________________________________________________________________________________________________
activation_68 (Activation)      (None, 5, 32)        0           add_32[0][0]                     
__________________________________________________________________________________________________
conv1d_76 (Conv1D)              (None, 5, 32)        3104        activation_68[0][0]              
__________________________________________________________________________________________________
batch_normalization_69 (BatchNo (None, 5, 32)        128         conv1d_76[0][0]                  
__________________________________________________________________________________________________
activation_69 (Activation)      (None, 5, 32)        0           batch_normalization_69[0][0]     
__________________________________________________________________________________________________
conv1d_77 (Conv1D)              (None, 5, 32)        3104        activation_69[0][0]              
__________________________________________________________________________________________________
batch_normalization_70 (BatchNo (None, 5, 32)        128         conv1d_77[0][0]                  
__________________________________________________________________________________________________
add_33 (Add)                    (None, 5, 32)        0           activation_68[0][0]              
                                                                 batch_normalization_70[0][0]     
__________________________________________________________________________________________________
activation_70 (Activation)      (None, 5, 32)        0           add_33[0][0]                     
__________________________________________________________________________________________________
conv1d_78 (Conv1D)              (None, 3, 64)        6208        activation_70[0][0]              
__________________________________________________________________________________________________
batch_normalization_71 (BatchNo (None, 3, 64)        256         conv1d_78[0][0]                  
__________________________________________________________________________________________________
activation_71 (Activation)      (None, 3, 64)        0           batch_normalization_71[0][0]     
__________________________________________________________________________________________________
conv1d_79 (Conv1D)              (None, 3, 64)        12352       activation_71[0][0]              
__________________________________________________________________________________________________
conv1d_80 (Conv1D)              (None, 3, 64)        2112        activation_70[0][0]              
__________________________________________________________________________________________________
batch_normalization_72 (BatchNo (None, 3, 64)        256         conv1d_79[0][0]                  
__________________________________________________________________________________________________
add_34 (Add)                    (None, 3, 64)        0           conv1d_80[0][0]                  
                                                                 batch_normalization_72[0][0]     
__________________________________________________________________________________________________
activation_72 (Activation)      (None, 3, 64)        0           add_34[0][0]                     
__________________________________________________________________________________________________
conv1d_81 (Conv1D)              (None, 3, 64)        12352       activation_72[0][0]              
__________________________________________________________________________________________________
batch_normalization_73 (BatchNo (None, 3, 64)        256         conv1d_81[0][0]                  
__________________________________________________________________________________________________
activation_73 (Activation)      (None, 3, 64)        0           batch_normalization_73[0][0]     
__________________________________________________________________________________________________
conv1d_82 (Conv1D)              (None, 3, 64)        12352       activation_73[0][0]              
__________________________________________________________________________________________________
batch_normalization_74 (BatchNo (None, 3, 64)        256         conv1d_82[0][0]                  
__________________________________________________________________________________________________
add_35 (Add)                    (None, 3, 64)        0           activation_72[0][0]              
                                                                 batch_normalization_74[0][0]     
__________________________________________________________________________________________________
activation_74 (Activation)      (None, 3, 64)        0           add_35[0][0]                     
__________________________________________________________________________________________________
conv1d_83 (Conv1D)              (None, 3, 64)        12352       activation_74[0][0]              
__________________________________________________________________________________________________
batch_normalization_75 (BatchNo (None, 3, 64)        256         conv1d_83[0][0]                  
__________________________________________________________________________________________________
activation_75 (Activation)      (None, 3, 64)        0           batch_normalization_75[0][0]     
__________________________________________________________________________________________________
conv1d_84 (Conv1D)              (None, 3, 64)        12352       activation_75[0][0]              
__________________________________________________________________________________________________
batch_normalization_76 (BatchNo (None, 3, 64)        256         conv1d_84[0][0]                  
__________________________________________________________________________________________________
add_36 (Add)                    (None, 3, 64)        0           activation_74[0][0]              
                                                                 batch_normalization_76[0][0]     
__________________________________________________________________________________________________
activation_76 (Activation)      (None, 3, 64)        0           add_36[0][0]                     
__________________________________________________________________________________________________
average_pooling1d_4 (AveragePoo (None, 3, 64)        0           activation_76[0][0]              
__________________________________________________________________________________________________
flatten_4 (Flatten)             (None, 192)          0           average_pooling1d_4[0][0]        
__________________________________________________________________________________________________
dense_4 (Dense)                 (None, 4)            772         flatten_4[0][0]                  
==================================================================================================
Total params: 96,004
Trainable params: 94,628
Non-trainable params: 1,376
__________________________________________________________________________________________________
None

Accuracy Train: 86.28%
Accuracy Test: 85.33%
Loss Train: 0.63
Loss Test: 0.70
Numero dati esaminati: 4178
…
