…
 - 1s - loss: 0.0458 - accuracy: 0.8711 - val_loss: 0.0547 - val_accuracy: 0.8496
Epoch 127/128
 - 1s - loss: 0.0456 - accuracy: 0.8686 - val_loss: 0.0570 - val_accuracy: 0.8504
Epoch 128/128
 - 1s - loss: 0.0457 - accuracy: 0.8693 - val_loss: 0.0584 - val_accuracy: 0.8445

Fit: epochs= 128 , batch_size= 32 , verbose= 2 , shuffle= False , validation_split= 0.2 

Model: "sequential_8"
_________________________________________________________________
Layer (type)                 Output Shape              Param #   
=================================================================
dense_57 (Dense)             (None, 10)                110       
_________________________________________________________________
dense_58 (Dense)             (None, 500)               5500      
_________________________________________________________________
dense_59 (Dense)             (None, 300)               150300    
_________________________________________________________________
dense_60 (Dense)             (None, 200)               60200     
_________________________________________________________________
dense_61 (Dense)             (None, 100)               20100     
_________________________________________________________________
dense_62 (Dense)             (None, 50)                5050      
_________________________________________________________________
dense_63 (Dense)             (None, 20)                1020      
_________________________________________________________________
dense_64 (Dense)             (None, 4)                 84        
=================================================================
Total params: 242,364
Trainable params: 242,364
Non-trainable params: 0
_________________________________________________________________
None

Accuracy Train: 85.73%
Accuracy Test: 83.76%
Loss Train: 0.05
Loss Test: 0.06
Numero dati esaminati: 1712
True Positive 1434
False Positive 278
