…
 - 19s - loss: 0.2729 - accuracy: 0.8836 - val_loss: 0.3806 - val_accuracy: 0.8633
Epoch 127/128
 - 19s - loss: 0.2841 - accuracy: 0.8778 - val_loss: 0.3142 - val_accuracy: 0.8893
Epoch 128/128
 - 19s - loss: 0.2660 - accuracy: 0.8860 - val_loss: 0.3066 - val_accuracy: 0.8869

Fit: epochs= 128 , batch_size= 32 , verbose= 2 , shuffle= False , validation_split= 0.2 

Model: "sequential_8"
_________________________________________________________________
Layer (type)                 Output Shape              Param #   
=================================================================
bidirectional_4 (Bidirection (None, 1000)              2044000   
_________________________________________________________________
dropout_8 (Dropout)          (None, 1000)              0         
_________________________________________________________________
dense_43 (Dense)             (None, 300)               300300    
_________________________________________________________________
dense_44 (Dense)             (None, 200)               60200     
_________________________________________________________________
dense_45 (Dense)             (None, 100)               20100     
_________________________________________________________________
dense_46 (Dense)             (None, 50)                5050      
_________________________________________________________________
dense_47 (Dense)             (None, 20)                1020      
_________________________________________________________________
dense_48 (Dense)             (None, 4)                 84        
=================================================================
Total params: 2,430,754
Trainable params: 2,430,754
Non-trainable params: 0
_________________________________________________________________
None

Accuracy Train: 89.11%
Accuracy Test: 88.06%
Loss Train: 0.26
Loss Test: 0.33
Numero dati esaminati: 4178
True Positive 3679
False Positive 499
