…
 - 20s - loss: 0.2922 - accuracy: 0.8769 - val_loss: 0.3328 - val_accuracy: 0.8803
Epoch 127/128
 - 20s - loss: 0.2881 - accuracy: 0.8780 - val_loss: 0.3156 - val_accuracy: 0.8823
Epoch 128/128
 - 19s - loss: 0.2966 - accuracy: 0.8779 - val_loss: 0.3328 - val_accuracy: 0.8770

Fit: epochs= 128 , batch_size= 32 , verbose= 2 , shuffle= False , validation_split= 0.2 

Model: "sequential_6"
_________________________________________________________________
Layer (type)                 Output Shape              Param #   
=================================================================
conv1d_6 (Conv1D)            (None, 10, 500)           1000      
_________________________________________________________________
activation_11 (Activation)   (None, 10, 500)           0         
_________________________________________________________________
flatten_6 (Flatten)          (None, 5000)              0         
_________________________________________________________________
dropout_6 (Dropout)          (None, 5000)              0         
_________________________________________________________________
dense_36 (Dense)             (None, 400)               2000400   
_________________________________________________________________
dense_37 (Dense)             (None, 300)               120300    
_________________________________________________________________
dense_38 (Dense)             (None, 200)               60200     
_________________________________________________________________
dense_39 (Dense)             (None, 100)               20100     
_________________________________________________________________
dense_40 (Dense)             (None, 50)                5050      
_________________________________________________________________
dense_41 (Dense)             (None, 20)                1020      
_________________________________________________________________
dense_42 (Dense)             (None, 4)                 84        
_________________________________________________________________
activation_12 (Activation)   (None, 4)                 0         
=================================================================
Total params: 2,208,154
Trainable params: 2,208,154
Non-trainable params: 0
_________________________________________________________________
None

Accuracy Train: 88.06%
Accuracy Test: 87.47%
Loss Train: 0.28
Loss Test: 0.38
Numero dati esaminati: 4949
True Positive 4329
False Positive 620
