…
 - 8s - loss: 0.3267 - accuracy: 0.8611 - val_loss: 0.4921 - val_accuracy: 0.8387
Epoch 127/128
 - 8s - loss: 0.3246 - accuracy: 0.8602 - val_loss: 0.4452 - val_accuracy: 0.8474
Epoch 128/128
 - 8s - loss: 0.3153 - accuracy: 0.8645 - val_loss: 0.4987 - val_accuracy: 0.8372

Fit: epochs= 128 , batch_size= 32 , verbose= 2 , shuffle= False , validation_split= 0.2 

Model: "sequential_3"
_________________________________________________________________
Layer (type)                 Output Shape              Param #   
=================================================================
bidirectional_1 (Bidirection (None, 1000)              2048000   
_________________________________________________________________
dropout_3 (Dropout)          (None, 1000)              0         
_________________________________________________________________
dense_13 (Dense)             (None, 300)               300300    
_________________________________________________________________
dense_14 (Dense)             (None, 200)               60200     
_________________________________________________________________
dense_15 (Dense)             (None, 100)               20100     
_________________________________________________________________
dense_16 (Dense)             (None, 50)                5050      
_________________________________________________________________
dense_17 (Dense)             (None, 20)                1020      
_________________________________________________________________
dense_18 (Dense)             (None, 4)                 84        
=================================================================
Total params: 2,434,754
Trainable params: 2,434,754
Non-trainable params: 0
_________________________________________________________________
None

Accuracy Train: 85.65%
Accuracy Test: 84.11%
Loss Train: 0.37
Loss Test: 0.46
Numero dati esaminati: 1712
True Positive 1440
False Positive 272
