…
 - 1s - loss: 0.0472 - accuracy: 0.8686 - val_loss: 0.0558 - val_accuracy: 0.8533
Epoch 127/128
 - 1s - loss: 0.0470 - accuracy: 0.8684 - val_loss: 0.0582 - val_accuracy: 0.8438
Epoch 128/128
 - 1s - loss: 0.0461 - accuracy: 0.8680 - val_loss: 0.0568 - val_accuracy: 0.8533

Fit: epochs= 128 , batch_size= 32 , verbose= 2 , shuffle= False , validation_split= 0.2 

Model: "sequential_2"
_________________________________________________________________
Layer (type)                 Output Shape              Param #   
=================================================================
dense_9 (Dense)              (None, 11)                132       
_________________________________________________________________
dense_10 (Dense)             (None, 500)               6000      
_________________________________________________________________
dense_11 (Dense)             (None, 300)               150300    
_________________________________________________________________
dense_12 (Dense)             (None, 200)               60200     
_________________________________________________________________
dense_13 (Dense)             (None, 100)               20100     
_________________________________________________________________
dense_14 (Dense)             (None, 50)                5050      
_________________________________________________________________
dense_15 (Dense)             (None, 20)                1020      
_________________________________________________________________
dense_16 (Dense)             (None, 4)                 84        
=================================================================
Total params: 242,886
Trainable params: 242,886
Non-trainable params: 0
_________________________________________________________________
None

Accuracy Train: 86.78%
Accuracy Test: 84.11%
Loss Train: 0.05
Loss Test: 0.06
Numero dati esaminati: 1712
True Positive 1440
False Positive 272
