…
 - 4s - loss: 0.3331 - accuracy: 0.8616 - val_loss: 0.6211 - val_accuracy: 0.8439
Epoch 127/128
 - 4s - loss: 0.3321 - accuracy: 0.8608 - val_loss: 0.6149 - val_accuracy: 0.8472
Epoch 128/128
 - 4s - loss: 0.3291 - accuracy: 0.8641 - val_loss: 0.6155 - val_accuracy: 0.8422

Fit: epochs= 128 , batch_size= 32 , verbose= 2 , shuffle= False , validation_split= 0.2 

Model: "sequential_10"
_________________________________________________________________
Layer (type)                 Output Shape              Param #   
=================================================================
bidirectional_5 (Bidirection (None, 1000)              2044000   
_________________________________________________________________
dropout_10 (Dropout)         (None, 1000)              0         
_________________________________________________________________
dense_55 (Dense)             (None, 300)               300300    
_________________________________________________________________
dense_56 (Dense)             (None, 200)               60200     
_________________________________________________________________
dense_57 (Dense)             (None, 100)               20100     
_________________________________________________________________
dense_58 (Dense)             (None, 50)                5050      
_________________________________________________________________
dense_59 (Dense)             (None, 20)                1020      
_________________________________________________________________
dense_60 (Dense)             (None, 4)                 84        
=================================================================
Total params: 2,430,754
Trainable params: 2,430,754
Non-trainable params: 0
_________________________________________________________________
None

Accuracy Train: 86.80%
Accuracy Test: 81.38%
Loss Train: 0.37
Loss Test: 0.68
Numero dati esaminati: 752
True Positive 612
False Positive 140
