…
 - 23s - loss: 0.2724 - accuracy: 0.8810 - val_loss: 0.3109 - val_accuracy: 0.8886
Epoch 127/128
 - 23s - loss: 0.2663 - accuracy: 0.8836 - val_loss: 0.3073 - val_accuracy: 0.8853
Epoch 128/128
 - 23s - loss: 0.2701 - accuracy: 0.8825 - val_loss: 0.3201 - val_accuracy: 0.8815

Fit: epochs= 128 , batch_size= 32 , verbose= 2 , shuffle= False , validation_split= 0.2 

Model: "sequential_6"
_________________________________________________________________
Layer (type)                 Output Shape              Param #   
=================================================================
bidirectional_3 (Bidirection (None, 1000)              2044000   
_________________________________________________________________
dropout_6 (Dropout)          (None, 1000)              0         
_________________________________________________________________
dense_31 (Dense)             (None, 300)               300300    
_________________________________________________________________
dense_32 (Dense)             (None, 200)               60200     
_________________________________________________________________
dense_33 (Dense)             (None, 100)               20100     
_________________________________________________________________
dense_34 (Dense)             (None, 50)                5050      
_________________________________________________________________
dense_35 (Dense)             (None, 20)                1020      
_________________________________________________________________
dense_36 (Dense)             (None, 4)                 84        
=================================================================
Total params: 2,430,754
Trainable params: 2,430,754
Non-trainable params: 0
_________________________________________________________________
None

Accuracy Train: 88.42%
Accuracy Test: 87.76%
Loss Train: 0.27
Loss Test: 0.31
Numero dati esaminati: 4949
True Positive 4343
False Positive 606
