…
 - 7s - loss: 0.2006 - accuracy: 0.9056 - val_loss: 0.4968 - val_accuracy: 0.8723
Epoch 127/128
 - 7s - loss: 0.1924 - accuracy: 0.9098 - val_loss: 0.5130 - val_accuracy: 0.8730
Epoch 128/128
 - 7s - loss: 0.1913 - accuracy: 0.9158 - val_loss: 0.5218 - val_accuracy: 0.8723

Fit: epochs= 128 , batch_size= 32 , verbose= 2 , shuffle= False , validation_split= 0.2 

Model: "sequential_3"
_________________________________________________________________
Layer (type)                 Output Shape              Param #   
=================================================================
conv1d_3 (Conv1D)            (None, 10, 500)           1000      
_________________________________________________________________
activation_5 (Activation)    (None, 10, 500)           0         
_________________________________________________________________
flatten_3 (Flatten)          (None, 5000)              0         
_________________________________________________________________
dropout_3 (Dropout)          (None, 5000)              0         
_________________________________________________________________
dense_15 (Dense)             (None, 400)               2000400   
_________________________________________________________________
dense_16 (Dense)             (None, 300)               120300    
_________________________________________________________________
dense_17 (Dense)             (None, 200)               60200     
_________________________________________________________________
dense_18 (Dense)             (None, 100)               20100     
_________________________________________________________________
dense_19 (Dense)             (None, 50)                5050      
_________________________________________________________________
dense_20 (Dense)             (None, 20)                1020      
_________________________________________________________________
dense_21 (Dense)             (None, 4)                 84        
_________________________________________________________________
activation_6 (Activation)    (None, 4)                 0         
=================================================================
Total params: 2,208,154
Trainable params: 2,208,154
Non-trainable params: 0
_________________________________________________________________
None

Accuracy Train: 91.19%
Accuracy Test: 85.75%
Loss Train: 0.24
Loss Test: 0.53
Numero dati esaminati: 1712
True Positive 1468
False Positive 244
