…
 - 7s - loss: 0.1765 - accuracy: 0.9191 - val_loss: 0.6398 - val_accuracy: 0.8686
Epoch 127/128
 - 7s - loss: 0.1797 - accuracy: 0.9182 - val_loss: 0.6070 - val_accuracy: 0.8766
Epoch 128/128
 - 7s - loss: 0.1829 - accuracy: 0.9195 - val_loss: 0.6167 - val_accuracy: 0.8715

Fit: epochs= 128 , batch_size= 32 , verbose= 2 , shuffle= False , validation_split= 0.2 

Model: "sequential_2"
_________________________________________________________________
Layer (type)                 Output Shape              Param #   
=================================================================
conv1d_2 (Conv1D)            (None, 10, 500)           1000      
_________________________________________________________________
activation_3 (Activation)    (None, 10, 500)           0         
_________________________________________________________________
flatten_2 (Flatten)          (None, 5000)              0         
_________________________________________________________________
dropout_2 (Dropout)          (None, 5000)              0         
_________________________________________________________________
dense_8 (Dense)              (None, 400)               2000400   
_________________________________________________________________
dense_9 (Dense)              (None, 300)               120300    
_________________________________________________________________
dense_10 (Dense)             (None, 200)               60200     
_________________________________________________________________
dense_11 (Dense)             (None, 100)               20100     
_________________________________________________________________
dense_12 (Dense)             (None, 50)                5050      
_________________________________________________________________
dense_13 (Dense)             (None, 20)                1020      
_________________________________________________________________
dense_14 (Dense)             (None, 4)                 84        
_________________________________________________________________
activation_4 (Activation)    (None, 4)                 0         
=================================================================
Total params: 2,208,154
Trainable params: 2,208,154
Non-trainable params: 0
_________________________________________________________________
None

Accuracy Train: 91.91%
Accuracy Test: 85.98%
Loss Train: 0.24
Loss Test: 0.56
Numero dati esaminati: 1712
True Positive 1472
False Positive 240
