…
 - 3s - loss: 0.3977 - accuracy: 0.8512 - val_loss: 0.5618 - val_accuracy: 0.8422
Epoch 127/128
 - 3s - loss: 0.3639 - accuracy: 0.8508 - val_loss: 0.5813 - val_accuracy: 0.8389
Epoch 128/128
 - 3s - loss: 0.3618 - accuracy: 0.8520 - val_loss: 0.5955 - val_accuracy: 0.8372

Fit: epochs= 128 , batch_size= 32 , verbose= 2 , shuffle= False , validation_split= 0.2 

Model: "sequential_8"
_________________________________________________________________
Layer (type)                 Output Shape              Param #   
=================================================================
conv1d_8 (Conv1D)            (None, 10, 500)           1000      
_________________________________________________________________
activation_15 (Activation)   (None, 10, 500)           0         
_________________________________________________________________
flatten_8 (Flatten)          (None, 5000)              0         
_________________________________________________________________
dropout_8 (Dropout)          (None, 5000)              0         
_________________________________________________________________
dense_50 (Dense)             (None, 400)               2000400   
_________________________________________________________________
dense_51 (Dense)             (None, 300)               120300    
_________________________________________________________________
dense_52 (Dense)             (None, 200)               60200     
_________________________________________________________________
dense_53 (Dense)             (None, 100)               20100     
_________________________________________________________________
dense_54 (Dense)             (None, 50)                5050      
_________________________________________________________________
dense_55 (Dense)             (None, 20)                1020      
_________________________________________________________________
dense_56 (Dense)             (None, 4)                 84        
_________________________________________________________________
activation_16 (Activation)   (None, 4)                 0         
=================================================================
Total params: 2,208,154
Trainable params: 2,208,154
Non-trainable params: 0
_________________________________________________________________
None

Accuracy Train: 85.54%
Accuracy Test: 80.59%
Loss Train: 0.38
Loss Test: 0.65
Numero dati esaminati: 752
True Positive 606
False Positive 146
