{
  "class_name": "Sequential",
  "config": {
    "name": "sequential_1",
    "layers": [
      {
        "class_name": "Conv1D",
        "config": {
          "name": "conv1d_1",
          "trainable": true,
          "batch_input_shape": [
            null,
            11,
            1
          ],
          "dtype": "float32",
          "filters": 500,
          "kernel_size": [
            1
          ],
          "strides": [
            1
          ],
          "padding": "valid",
          "data_format": "channels_last",
          "dilation_rate": [
            1
          ],
          "activation": "linear",
          "use_bias": true,
          "kernel_initializer": {
            "class_name": "VarianceScaling",
            "config": {
              "scale": 1.0,
              "mode": "fan_avg",
              "distribution": "uniform",
              "seed": null
            }
          },
          "bias_initializer": {
            "class_name": "Zeros",
            "config": {}
          },
          "kernel_regularizer": null,
          "bias_regularizer": null,
          "activity_regularizer": null,
          "kernel_constraint": null,
          "bias_constraint": null
        }
      },
      {
        "class_name": "Activation",
        "config": {
          "name": "activation_1",
          "trainable": true,
          "dtype": "float32",
          "activation": "relu"
        }
      },
      {
        "class_name": "Flatten",
        "config": {
          "name": "flatten_1",
          "trainable": true,
          "dtype": "float32",
          "data_format": "channels_last"
        }
      },
      {
        "class_name": "Dropout",
        "config": {
          "name": "dropout_1",
          "trainable": true,
          "dtype": "float32",
          "rate": 0.4,
          "noise_shape": null,
          "seed": null
        }
      },
      {
        "class_name": "Dense",
        "config": {
          "name": "dense_1",
          "trainable": true,
          "dtype": "float32",
          "units": 400,
          "activation": "relu",
          "use_bias": true,
          "kernel_initializer": {
            "class_name": "VarianceScaling",
            "config": {
              "scale": 1.0,
              "mode": "fan_avg",
              "distribution": "uniform",
              "seed": null
            }
          },
          "bias_initializer": {
            "class_name": "Zeros",
            "config": {}
          },
          "kernel_regularizer": null,
          "bias_regularizer": null,
          "activity_regularizer": null,
          "kernel_constraint": null,
          "bias_constraint": null
        }
      },
      {
        "class_name": "Dense",
        "config": {
          "name": "dense_2",
          "trainable": true,
          "dtype": "float32",
          "units": 300,
          "activation": "relu",
          "use_bias": true,
          "kernel_initializer": {
            "class_name": "VarianceScaling",
            "config": {
              "scale": 1.0,
              "mode": "fan_avg",
              "distribution": "uniform",
              "seed": null
            }
          },
          "bias_initializer": {
            "class_name": "Zeros",
            "config": {}
          },
          "kernel_regularizer": null,
          "bias_regularizer": null,
          "activity_regularizer": null,
          "kernel_constraint": null,
          "bias_constraint": null
        }
      },
      {
        "class_name": "Dense",
        "config": {
          "name": "dense_3",
          "trainable": true,
          "dtype": "float32",
          "units": 200,
          "activation": "relu",
          "use_bias": true,
          "kernel_initializer": {
            "class_name": "VarianceScaling",
            "config": {
              "scale": 1.0,
              "mode": "fan_avg",
              "distribution": "uniform",
              "seed": null
            }
          },
          "bias_initializer": {
            "class_name": "Zeros",
            "config": {}
          },
          "kernel_regularizer": null,
          "bias_regularizer": null,
          "activity_regularizer": null,
          "kernel_constraint": null,
          "bias_constraint": null
        }
      },
      {
        "class_name": "Dense",
        "config": {
          "name": "dense_4",
          "trainable": true,
          "dtype": "float32",
          "units": 100,
          "activation": "relu",
          "use_bias": true,
          "kernel_initializer": {
            "class_name": "VarianceScaling",
            "config": {
              "scale": 1.0,
              "mode": "fan_avg",
              "distribution": "uniform",
              "seed": null
            }
          },
          "bias_initializer": {
            "class_name": "Zeros",
            "config": {}
          },
          "kernel_regularizer": null,
          "bias_regularizer": null,
          "activity_regularizer": null,
          "kernel_constraint": null,
          "bias_constraint": null
        }
      },
      {
        "class_name": "Dense",
        "config": {
          "name": "dense_5",
          "trainable": true,
          "dtype": "float32",
          "units": 50,
          "activation": "relu",
          "use_bias": true,
          "kernel_initializer": {
            "class_name": "VarianceScaling",
            "config": {
              "scale": 1.0,
              "mode": "fan_avg",
              "distribution": "uniform",
              "seed": null
            }
          },
          "bias_initializer": {
            "class_name": "Zeros",
            "config": {}
          },
          "kernel_regularizer": null,
          "bias_regularizer": null,
          "activity_regularizer": null,
          "kernel_constraint": null,
          "bias_constraint": null
        }
      },
      {
        "class_name": "Dense",
        "config": {
          "name": "dense_6",
          "trainable": true,
          "dtype": "float32",
          "units": 20,
          "activation": "relu",
          "use_bias": true,
          "kernel_initializer": {
            "class_name": "VarianceScaling",
            "config": {
              "scale": 1.0,
              "mode": "fan_avg",
              "distribution": "uniform",
              "seed": null
            }
          },
          "bias_initializer": {
            "class_name": "Zeros",
            "config": {}
          },
          "kernel_regularizer": null,
          "bias_regularizer": null,
          "activity_regularizer": null,
          "kernel_constraint": null,
          "bias_constraint": null
        }
      },
      {
        "class_name": "Dense",
        "config": {
          "name": "dense_7",
          "trainable": true,
          "dtype": "float32",
          "units": 4,
          "activation": "linear",
          "use_bias": true,
          "kernel_initializer": {
            "class_name": "VarianceScaling",
            "config": {
              "scale": 1.0,
              "mode": "fan_avg",
              "distribution": "uniform",
              "seed": null
            }
          },
          "bias_initializer": {
            "class_name": "Zeros",
            "config": {}
          },
          "kernel_regularizer": null,
          "bias_regularizer": null,
          "activity_regularizer": null,
          "kernel_constraint": null,
          "bias_constraint": null
        }
      },
      {
        "class_name": "Activation",
        "config": {
          "name": "activation_2",
          "trainable": true,
          "dtype": "float32",
          "activation": "softmax"
        }
      }
    ]
  },
  "keras_version": "2.3.1",
  "backend": "tensorflow"
}