…
 - 19s - loss: 0.3020 - accuracy: 0.8684 - val_loss: 0.4728 - val_accuracy: 0.8577
Epoch 109/110
 - 19s - loss: 0.3142 - accuracy: 0.8627 - val_loss: 0.4725 - val_accuracy: 0.8511
Epoch 110/110
 - 19s - loss: 0.3109 - accuracy: 0.8640 - val_loss: 0.5006 - val_accuracy: 0.8620

Fit: epochs= 110 , batch_size= 64 , verbose= 2 , shuffle= False , validation_split= 0.2 

Model: "sequential_25"
_________________________________________________________________
Layer (type)                 Output Shape              Param #   
=================================================================
conv1d_25 (Conv1D)           (None, 11, 500)           1000      
_________________________________________________________________
activation_25 (Activation)   (None, 11, 500)           0         
_________________________________________________________________
lstm_25 (LSTM)               (None, 500)               2002000   
_________________________________________________________________
dropout_25 (Dropout)         (None, 500)               0         
_________________________________________________________________
dense_169 (Dense)            (None, 400)               200400    
_________________________________________________________________
dense_170 (Dense)            (None, 300)               120300    
_________________________________________________________________
dense_171 (Dense)            (None, 200)               60200     
_________________________________________________________________
dense_172 (Dense)            (None, 100)               20100     
_________________________________________________________________
dense_173 (Dense)            (None, 50)                5050      
_________________________________________________________________
dense_174 (Dense)            (None, 20)                1020      
_________________________________________________________________
dense_175 (Dense)            (None, 4)                 84        
=================================================================
Total params: 2,410,154
Trainable params: 2,410,154
Non-trainable params: 0
_________________________________________________________________
None

Accuracy Train: 86.93%
Accuracy Test: 85.11%
Loss Train: 0.34
Loss Test: 0.45
Numero dati esaminati: 1712
True Positive 1457
False Positive 255


------------------------------------------------------------------------
…
