…
 - 1s - loss: 0.1670 - accuracy: 0.9780 - val_loss: 1.0367 - val_accuracy: 0.8355

Number of filters: 16 , Kernel Size: 3 , Strides: 1 Batch Normalization: True , Conv_First: True , Depth Value: 20

Fit: epochs= 512 , batch_size= 64 , verbose= 2 , shuffle= False , validation_split= 0.2 

Model: "model_13"
__________________________________________________________________________________________________
Layer (type)                    Output Shape         Param #     Connected to                     
==================================================================================================
input_13 (InputLayer)           (None, 10, 1)        0                                            
__________________________________________________________________________________________________
conv1d_253 (Conv1D)             (None, 10, 16)       64          input_13[0][0]                   
__________________________________________________________________________________________________
batch_normalization_229 (BatchN (None, 10, 16)       64          conv1d_253[0][0]                 
__________________________________________________________________________________________________
activation_229 (Activation)     (None, 10, 16)       0           batch_normalization_229[0][0]    
__________________________________________________________________________________________________
conv1d_254 (Conv1D)             (None, 10, 16)       784         activation_229[0][0]             
__________________________________________________________________________________________________
batch_normalization_230 (BatchN (None, 10, 16)       64          conv1d_254[0][0]                 
__________________________________________________________________________________________________
activation_230 (Activation)     (None, 10, 16)       0           batch_normalization_230[0][0]    
__________________________________________________________________________________________________
conv1d_255 (Conv1D)             (None, 10, 16)       784         activation_230[0][0]             
__________________________________________________________________________________________________
batch_normalization_231 (BatchN (None, 10, 16)       64          conv1d_255[0][0]                 
__________________________________________________________________________________________________
add_109 (Add)                   (None, 10, 16)       0           activation_229[0][0]             
                                                                 batch_normalization_231[0][0]    
__________________________________________________________________________________________________
activation_231 (Activation)     (None, 10, 16)       0           add_109[0][0]                    
__________________________________________________________________________________________________
conv1d_256 (Conv1D)             (None, 10, 16)       784         activation_231[0][0]             
__________________________________________________________________________________________________
batch_normalization_232 (BatchN (None, 10, 16)       64          conv1d_256[0][0]                 
__________________________________________________________________________________________________
activation_232 (Activation)     (None, 10, 16)       0           batch_normalization_232[0][0]    
__________________________________________________________________________________________________
conv1d_257 (Conv1D)             (None, 10, 16)       784         activation_232[0][0]             
__________________________________________________________________________________________________
batch_normalization_233 (BatchN (None, 10, 16)       64          conv1d_257[0][0]                 
__________________________________________________________________________________________________
add_110 (Add)                   (None, 10, 16)       0           activation_231[0][0]             
                                                                 batch_normalization_233[0][0]    
__________________________________________________________________________________________________
activation_233 (Activation)     (None, 10, 16)       0           add_110[0][0]                    
__________________________________________________________________________________________________
conv1d_258 (Conv1D)             (None, 10, 16)       784         activation_233[0][0]             
__________________________________________________________________________________________________
batch_normalization_234 (BatchN (None, 10, 16)       64          conv1d_258[0][0]                 
__________________________________________________________________________________________________
activation_234 (Activation)     (None, 10, 16)       0           batch_normalization_234[0][0]    
__________________________________________________________________________________________________
conv1d_259 (Conv1D)             (None, 10, 16)       784         activation_234[0][0]             
__________________________________________________________________________________________________
batch_normalization_235 (BatchN (None, 10, 16)       64          conv1d_259[0][0]                 
__________________________________________________________________________________________________
add_111 (Add)                   (None, 10, 16)       0           activation_233[0][0]             
                                                                 batch_normalization_235[0][0]    
__________________________________________________________________________________________________
activation_235 (Activation)     (None, 10, 16)       0           add_111[0][0]                    
__________________________________________________________________________________________________
conv1d_260 (Conv1D)             (None, 5, 32)        1568        activation_235[0][0]             
__________________________________________________________________________________________________
batch_normalization_236 (BatchN (None, 5, 32)        128         conv1d_260[0][0]                 
__________________________________________________________________________________________________
activation_236 (Activation)     (None, 5, 32)        0           batch_normalization_236[0][0]    
__________________________________________________________________________________________________
conv1d_261 (Conv1D)             (None, 5, 32)        3104        activation_236[0][0]             
__________________________________________________________________________________________________
conv1d_262 (Conv1D)             (None, 5, 32)        544         activation_235[0][0]             
__________________________________________________________________________________________________
batch_normalization_237 (BatchN (None, 5, 32)        128         conv1d_261[0][0]                 
__________________________________________________________________________________________________
add_112 (Add)                   (None, 5, 32)        0           conv1d_262[0][0]                 
                                                                 batch_normalization_237[0][0]    
__________________________________________________________________________________________________
activation_237 (Activation)     (None, 5, 32)        0           add_112[0][0]                    
__________________________________________________________________________________________________
conv1d_263 (Conv1D)             (None, 5, 32)        3104        activation_237[0][0]             
__________________________________________________________________________________________________
batch_normalization_238 (BatchN (None, 5, 32)        128         conv1d_263[0][0]                 
__________________________________________________________________________________________________
activation_238 (Activation)     (None, 5, 32)        0           batch_normalization_238[0][0]    
__________________________________________________________________________________________________
conv1d_264 (Conv1D)             (None, 5, 32)        3104        activation_238[0][0]             
__________________________________________________________________________________________________
batch_normalization_239 (BatchN (None, 5, 32)        128         conv1d_264[0][0]                 
__________________________________________________________________________________________________
add_113 (Add)                   (None, 5, 32)        0           activation_237[0][0]             
                                                                 batch_normalization_239[0][0]    
__________________________________________________________________________________________________
activation_239 (Activation)     (None, 5, 32)        0           add_113[0][0]                    
__________________________________________________________________________________________________
conv1d_265 (Conv1D)             (None, 5, 32)        3104        activation_239[0][0]             
__________________________________________________________________________________________________
batch_normalization_240 (BatchN (None, 5, 32)        128         conv1d_265[0][0]                 
__________________________________________________________________________________________________
activation_240 (Activation)     (None, 5, 32)        0           batch_normalization_240[0][0]    
__________________________________________________________________________________________________
conv1d_266 (Conv1D)             (None, 5, 32)        3104        activation_240[0][0]             
__________________________________________________________________________________________________
batch_normalization_241 (BatchN (None, 5, 32)        128         conv1d_266[0][0]                 
__________________________________________________________________________________________________
add_114 (Add)                   (None, 5, 32)        0           activation_239[0][0]             
                                                                 batch_normalization_241[0][0]    
__________________________________________________________________________________________________
activation_241 (Activation)     (None, 5, 32)        0           add_114[0][0]                    
__________________________________________________________________________________________________
conv1d_267 (Conv1D)             (None, 3, 64)        6208        activation_241[0][0]             
__________________________________________________________________________________________________
batch_normalization_242 (BatchN (None, 3, 64)        256         conv1d_267[0][0]                 
__________________________________________________________________________________________________
activation_242 (Activation)     (None, 3, 64)        0           batch_normalization_242[0][0]    
__________________________________________________________________________________________________
conv1d_268 (Conv1D)             (None, 3, 64)        12352       activation_242[0][0]             
__________________________________________________________________________________________________
conv1d_269 (Conv1D)             (None, 3, 64)        2112        activation_241[0][0]             
__________________________________________________________________________________________________
batch_normalization_243 (BatchN (None, 3, 64)        256         conv1d_268[0][0]                 
__________________________________________________________________________________________________
add_115 (Add)                   (None, 3, 64)        0           conv1d_269[0][0]                 
                                                                 batch_normalization_243[0][0]    
__________________________________________________________________________________________________
activation_243 (Activation)     (None, 3, 64)        0           add_115[0][0]                    
__________________________________________________________________________________________________
conv1d_270 (Conv1D)             (None, 3, 64)        12352       activation_243[0][0]             
__________________________________________________________________________________________________
batch_normalization_244 (BatchN (None, 3, 64)        256         conv1d_270[0][0]                 
__________________________________________________________________________________________________
activation_244 (Activation)     (None, 3, 64)        0           batch_normalization_244[0][0]    
__________________________________________________________________________________________________
conv1d_271 (Conv1D)             (None, 3, 64)        12352       activation_244[0][0]             
__________________________________________________________________________________________________
batch_normalization_245 (BatchN (None, 3, 64)        256         conv1d_271[0][0]                 
__________________________________________________________________________________________________
add_116 (Add)                   (None, 3, 64)        0           activation_243[0][0]             
                                                                 batch_normalization_245[0][0]    
__________________________________________________________________________________________________
activation_245 (Activation)     (None, 3, 64)        0           add_116[0][0]                    
__________________________________________________________________________________________________
conv1d_272 (Conv1D)             (None, 3, 64)        12352       activation_245[0][0]             
__________________________________________________________________________________________________
batch_normalization_246 (BatchN (None, 3, 64)        256         conv1d_272[0][0]                 
__________________________________________________________________________________________________
activation_246 (Activation)     (None, 3, 64)        0           batch_normalization_246[0][0]    
__________________________________________________________________________________________________
conv1d_273 (Conv1D)             (None, 3, 64)        12352       activation_246[0][0]             
__________________________________________________________________________________________________
batch_normalization_247 (BatchN (None, 3, 64)        256         conv1d_273[0][0]                 
__________________________________________________________________________________________________
add_117 (Add)                   (None, 3, 64)        0           activation_245[0][0]             
                                                                 batch_normalization_247[0][0]    
__________________________________________________________________________________________________
activation_247 (Activation)     (None, 3, 64)        0           add_117[0][0]                    
__________________________________________________________________________________________________
average_pooling1d_13 (AveragePo (None, 3, 64)        0           activation_247[0][0]             
__________________________________________________________________________________________________
flatten_13 (Flatten)            (None, 192)          0           average_pooling1d_13[0][0]       
__________________________________________________________________________________________________
dense_13 (Dense)                (None, 4)            772         flatten_13[0][0]                 
==================================================================================================
Total params: 96,004
Trainable params: 94,628
Non-trainable params: 1,376
__________________________________________________________________________________________________
None

Accuracy Train: 86.60%
Accuracy Test: 79.39%
Loss Train: 0.68
Loss Test: 1.27
Numero dati esaminati: 752
…
