…
: None} 

Compile: loss='categorical_crossentropy', optimizer='adam', metrics=['accuracy']

Start computation...

Train on 5478 samples, validate on 1370 samples
Epoch 1/1
 - 16s - loss: 1.3861 - accuracy: 0.2322 - val_loss: 1.3772 - val_accuracy: 0.3635

Fit: epochs= 1 , batch_size= 641111111 , verbose= 2 , shuffle= False , validation_split= 0.2 

Model: "sequential_1"
_________________________________________________________________
Layer (type)                 Output Shape              Param #   
=================================================================
conv1d_1 (Conv1D)            (None, 11, 500)           1000      
_________________________________________________________________
activation_1 (Activation)    (None, 11, 500)           0         
_________________________________________________________________
lstm_1 (LSTM)                (None, 500)               2002000   
_________________________________________________________________
dropout_1 (Dropout)          (None, 500)               0         
_________________________________________________________________
dense_1 (Dense)              (None, 300)               150300    
_________________________________________________________________
dense_2 (Dense)              (None, 200)               60200     
_________________________________________________________________
dense_3 (Dense)              (None, 100)               20100     
_________________________________________________________________
dense_4 (Dense)              (None, 50)                5050      
_________________________________________________________________
dense_5 (Dense)              (None, 20)                1020      
_________________________________________________________________
dense_6 (Dense)              (None, 4)                 84        
=================================================================
Total params: 2,239,754
Trainable params: 2,239,754
Non-trainable params: 0
_________________________________________________________________
None

Accuracy Train: 36.49%
Accuracy Test: 36.97%
Loss Train: 1.38
Loss Test: 1.38
Numero dati esaminati: 1712
True Positive 633
False Positive 1079


------------------------------------------------------------------------
…
