…
 - 3s - loss: 0.2751 - accuracy: 0.9498 - val_loss: 0.8533 - val_accuracy: 0.8248

Number of filters: 16 , Kernel Size: 3 , Strides: 1 Batch Normalization: True , Conv_First: True , Depth Value: 20

Fit: epochs= 110 , batch_size= 64 , verbose= 2 , shuffle= False , validation_split= 0.2 

Model: "model_7"
__________________________________________________________________________________________________
Layer (type)                    Output Shape         Param #     Connected to                     
==================================================================================================
input_7 (InputLayer)            (None, 10, 1)        0                                            
__________________________________________________________________________________________________
conv1d_127 (Conv1D)             (None, 10, 16)       64          input_7[0][0]                    
__________________________________________________________________________________________________
batch_normalization_115 (BatchN (None, 10, 16)       64          conv1d_127[0][0]                 
__________________________________________________________________________________________________
activation_115 (Activation)     (None, 10, 16)       0           batch_normalization_115[0][0]    
__________________________________________________________________________________________________
conv1d_128 (Conv1D)             (None, 10, 16)       784         activation_115[0][0]             
__________________________________________________________________________________________________
batch_normalization_116 (BatchN (None, 10, 16)       64          conv1d_128[0][0]                 
__________________________________________________________________________________________________
activation_116 (Activation)     (None, 10, 16)       0           batch_normalization_116[0][0]    
__________________________________________________________________________________________________
conv1d_129 (Conv1D)             (None, 10, 16)       784         activation_116[0][0]             
__________________________________________________________________________________________________
batch_normalization_117 (BatchN (None, 10, 16)       64          conv1d_129[0][0]                 
__________________________________________________________________________________________________
add_55 (Add)                    (None, 10, 16)       0           activation_115[0][0]             
                                                                 batch_normalization_117[0][0]    
__________________________________________________________________________________________________
activation_117 (Activation)     (None, 10, 16)       0           add_55[0][0]                     
__________________________________________________________________________________________________
conv1d_130 (Conv1D)             (None, 10, 16)       784         activation_117[0][0]             
__________________________________________________________________________________________________
batch_normalization_118 (BatchN (None, 10, 16)       64          conv1d_130[0][0]                 
__________________________________________________________________________________________________
activation_118 (Activation)     (None, 10, 16)       0           batch_normalization_118[0][0]    
__________________________________________________________________________________________________
conv1d_131 (Conv1D)             (None, 10, 16)       784         activation_118[0][0]             
__________________________________________________________________________________________________
batch_normalization_119 (BatchN (None, 10, 16)       64          conv1d_131[0][0]                 
__________________________________________________________________________________________________
add_56 (Add)                    (None, 10, 16)       0           activation_117[0][0]             
                                                                 batch_normalization_119[0][0]    
__________________________________________________________________________________________________
activation_119 (Activation)     (None, 10, 16)       0           add_56[0][0]                     
__________________________________________________________________________________________________
conv1d_132 (Conv1D)             (None, 10, 16)       784         activation_119[0][0]             
__________________________________________________________________________________________________
batch_normalization_120 (BatchN (None, 10, 16)       64          conv1d_132[0][0]                 
__________________________________________________________________________________________________
activation_120 (Activation)     (None, 10, 16)       0           batch_normalization_120[0][0]    
__________________________________________________________________________________________________
conv1d_133 (Conv1D)             (None, 10, 16)       784         activation_120[0][0]             
__________________________________________________________________________________________________
batch_normalization_121 (BatchN (None, 10, 16)       64          conv1d_133[0][0]                 
__________________________________________________________________________________________________
add_57 (Add)                    (None, 10, 16)       0           activation_119[0][0]             
                                                                 batch_normalization_121[0][0]    
__________________________________________________________________________________________________
activation_121 (Activation)     (None, 10, 16)       0           add_57[0][0]                     
__________________________________________________________________________________________________
conv1d_134 (Conv1D)             (None, 5, 32)        1568        activation_121[0][0]             
__________________________________________________________________________________________________
batch_normalization_122 (BatchN (None, 5, 32)        128         conv1d_134[0][0]                 
__________________________________________________________________________________________________
activation_122 (Activation)     (None, 5, 32)        0           batch_normalization_122[0][0]    
__________________________________________________________________________________________________
conv1d_135 (Conv1D)             (None, 5, 32)        3104        activation_122[0][0]             
__________________________________________________________________________________________________
conv1d_136 (Conv1D)             (None, 5, 32)        544         activation_121[0][0]             
__________________________________________________________________________________________________
batch_normalization_123 (BatchN (None, 5, 32)        128         conv1d_135[0][0]                 
__________________________________________________________________________________________________
add_58 (Add)                    (None, 5, 32)        0           conv1d_136[0][0]                 
                                                                 batch_normalization_123[0][0]    
__________________________________________________________________________________________________
activation_123 (Activation)     (None, 5, 32)        0           add_58[0][0]                     
__________________________________________________________________________________________________
conv1d_137 (Conv1D)             (None, 5, 32)        3104        activation_123[0][0]             
__________________________________________________________________________________________________
batch_normalization_124 (BatchN (None, 5, 32)        128         conv1d_137[0][0]                 
__________________________________________________________________________________________________
activation_124 (Activation)     (None, 5, 32)        0           batch_normalization_124[0][0]    
__________________________________________________________________________________________________
conv1d_138 (Conv1D)             (None, 5, 32)        3104        activation_124[0][0]             
__________________________________________________________________________________________________
batch_normalization_125 (BatchN (None, 5, 32)        128         conv1d_138[0][0]                 
__________________________________________________________________________________________________
add_59 (Add)                    (None, 5, 32)        0           activation_123[0][0]             
                                                                 batch_normalization_125[0][0]    
__________________________________________________________________________________________________
activation_125 (Activation)     (None, 5, 32)        0           add_59[0][0]                     
__________________________________________________________________________________________________
conv1d_139 (Conv1D)             (None, 5, 32)        3104        activation_125[0][0]             
__________________________________________________________________________________________________
batch_normalization_126 (BatchN (None, 5, 32)        128         conv1d_139[0][0]                 
__________________________________________________________________________________________________
activation_126 (Activation)     (None, 5, 32)        0           batch_normalization_126[0][0]    
__________________________________________________________________________________________________
conv1d_140 (Conv1D)             (None, 5, 32)        3104        activation_126[0][0]             
__________________________________________________________________________________________________
batch_normalization_127 (BatchN (None, 5, 32)        128         conv1d_140[0][0]                 
__________________________________________________________________________________________________
add_60 (Add)                    (None, 5, 32)        0           activation_125[0][0]             
                                                                 batch_normalization_127[0][0]    
__________________________________________________________________________________________________
activation_127 (Activation)     (None, 5, 32)        0           add_60[0][0]                     
__________________________________________________________________________________________________
conv1d_141 (Conv1D)             (None, 3, 64)        6208        activation_127[0][0]             
__________________________________________________________________________________________________
batch_normalization_128 (BatchN (None, 3, 64)        256         conv1d_141[0][0]                 
__________________________________________________________________________________________________
activation_128 (Activation)     (None, 3, 64)        0           batch_normalization_128[0][0]    
__________________________________________________________________________________________________
conv1d_142 (Conv1D)             (None, 3, 64)        12352       activation_128[0][0]             
__________________________________________________________________________________________________
conv1d_143 (Conv1D)             (None, 3, 64)        2112        activation_127[0][0]             
__________________________________________________________________________________________________
batch_normalization_129 (BatchN (None, 3, 64)        256         conv1d_142[0][0]                 
__________________________________________________________________________________________________
add_61 (Add)                    (None, 3, 64)        0           conv1d_143[0][0]                 
                                                                 batch_normalization_129[0][0]    
__________________________________________________________________________________________________
activation_129 (Activation)     (None, 3, 64)        0           add_61[0][0]                     
__________________________________________________________________________________________________
conv1d_144 (Conv1D)             (None, 3, 64)        12352       activation_129[0][0]             
__________________________________________________________________________________________________
batch_normalization_130 (BatchN (None, 3, 64)        256         conv1d_144[0][0]                 
__________________________________________________________________________________________________
activation_130 (Activation)     (None, 3, 64)        0           batch_normalization_130[0][0]    
__________________________________________________________________________________________________
conv1d_145 (Conv1D)             (None, 3, 64)        12352       activation_130[0][0]             
__________________________________________________________________________________________________
batch_normalization_131 (BatchN (None, 3, 64)        256         conv1d_145[0][0]                 
__________________________________________________________________________________________________
add_62 (Add)                    (None, 3, 64)        0           activation_129[0][0]             
                                                                 batch_normalization_131[0][0]    
__________________________________________________________________________________________________
activation_131 (Activation)     (None, 3, 64)        0           add_62[0][0]                     
__________________________________________________________________________________________________
conv1d_146 (Conv1D)             (None, 3, 64)        12352       activation_131[0][0]             
__________________________________________________________________________________________________
batch_normalization_132 (BatchN (None, 3, 64)        256         conv1d_146[0][0]                 
__________________________________________________________________________________________________
activation_132 (Activation)     (None, 3, 64)        0           batch_normalization_132[0][0]    
__________________________________________________________________________________________________
conv1d_147 (Conv1D)             (None, 3, 64)        12352       activation_132[0][0]             
__________________________________________________________________________________________________
batch_normalization_133 (BatchN (None, 3, 64)        256         conv1d_147[0][0]                 
__________________________________________________________________________________________________
add_63 (Add)                    (None, 3, 64)        0           activation_131[0][0]             
                                                                 batch_normalization_133[0][0]    
__________________________________________________________________________________________________
activation_133 (Activation)     (None, 3, 64)        0           add_63[0][0]                     
__________________________________________________________________________________________________
average_pooling1d_7 (AveragePoo (None, 3, 64)        0           activation_133[0][0]             
__________________________________________________________________________________________________
flatten_7 (Flatten)             (None, 192)          0           average_pooling1d_7[0][0]        
__________________________________________________________________________________________________
dense_7 (Dense)                 (None, 4)            772         flatten_7[0][0]                  
==================================================================================================
Total params: 96,004
Trainable params: 94,628
Non-trainable params: 1,376
__________________________________________________________________________________________________
None

Accuracy Train: 84.62%
Accuracy Test: 82.77%
Loss Train: 0.65
Loss Test: 0.77
Numero dati esaminati: 1712
…
