…
 - 13s - loss: 0.0753 - accuracy: 0.9670 - val_loss: 0.8749 - val_accuracy: 0.8803
Epoch 511/512
 - 12s - loss: 0.0688 - accuracy: 0.9682 - val_loss: 1.0451 - val_accuracy: 0.8818
Epoch 512/512
 - 12s - loss: 0.0742 - accuracy: 0.9670 - val_loss: 0.9460 - val_accuracy: 0.8788

Fit: epochs= 512 , batch_size= 64 , verbose= 2 , shuffle= False , validation_split= 0.2 

Model: "sequential_31"
_________________________________________________________________
Layer (type)                 Output Shape              Param #   
=================================================================
conv1d_31 (Conv1D)           (None, 10, 500)           1000      
_________________________________________________________________
activation_31 (Activation)   (None, 10, 500)           0         
_________________________________________________________________
lstm_31 (LSTM)               (None, 500)               2002000   
_________________________________________________________________
dropout_31 (Dropout)         (None, 500)               0         
_________________________________________________________________
dense_211 (Dense)            (None, 400)               200400    
_________________________________________________________________
dense_212 (Dense)            (None, 300)               120300    
_________________________________________________________________
dense_213 (Dense)            (None, 200)               60200     
_________________________________________________________________
dense_214 (Dense)            (None, 100)               20100     
_________________________________________________________________
dense_215 (Dense)            (None, 50)                5050      
_________________________________________________________________
dense_216 (Dense)            (None, 20)                1020      
_________________________________________________________________
dense_217 (Dense)            (None, 4)                 84        
=================================================================
Total params: 2,410,154
Trainable params: 2,410,154
Non-trainable params: 0
_________________________________________________________________
None

Accuracy Train: 95.11%
Accuracy Test: 87.09%
Loss Train: 0.24
Loss Test: 0.96
Numero dati esaminati: 1712
True Positive 1491
False Positive 221


------------------------------------------------------------------------
…
