…
 - 14s - loss: 0.2872 - accuracy: 0.8733 - val_loss: 0.4929 - val_accuracy: 0.8547
Epoch 109/110
 - 14s - loss: 0.2985 - accuracy: 0.8704 - val_loss: 0.4870 - val_accuracy: 0.8445
Epoch 110/110
 - 13s - loss: 0.3154 - accuracy: 0.8629 - val_loss: 0.4423 - val_accuracy: 0.8453

Fit: epochs= 110 , batch_size= 64 , verbose= 2 , shuffle= False , validation_split= 0.2 

Model: "sequential_1"
_________________________________________________________________
Layer (type)                 Output Shape              Param #   
=================================================================
conv1d_1 (Conv1D)            (None, 10, 500)           1000      
_________________________________________________________________
activation_1 (Activation)    (None, 10, 500)           0         
_________________________________________________________________
lstm_1 (LSTM)                (None, 500)               2002000   
_________________________________________________________________
dropout_1 (Dropout)          (None, 500)               0         
_________________________________________________________________
dense_1 (Dense)              (None, 400)               200400    
_________________________________________________________________
dense_2 (Dense)              (None, 300)               120300    
_________________________________________________________________
dense_3 (Dense)              (None, 200)               60200     
_________________________________________________________________
dense_4 (Dense)              (None, 100)               20100     
_________________________________________________________________
dense_5 (Dense)              (None, 50)                5050      
_________________________________________________________________
dense_6 (Dense)              (None, 20)                1020      
_________________________________________________________________
dense_7 (Dense)              (None, 4)                 84        
=================================================================
Total params: 2,410,154
Trainable params: 2,410,154
Non-trainable params: 0
_________________________________________________________________
None

Accuracy Train: 86.73%
Accuracy Test: 84.87%
Loss Train: 0.31
Loss Test: 0.42
Numero dati esaminati: 1712
True Positive 1453
False Positive 259


------------------------------------------------------------------------
…
