…
 - 3s - loss: 0.2276 - accuracy: 0.9752 - val_loss: 0.8879 - val_accuracy: 0.8620

Number of filters: 16 , Kernel Size: 3 , Strides: 1 Batch Normalization: True , Conv_First: True , Depth Value: 20

Fit: epochs= 110 , batch_size= 64 , verbose= 2 , shuffle= False , validation_split= 0.2 

Model: "model_67"
__________________________________________________________________________________________________
Layer (type)                    Output Shape         Param #     Connected to                     
==================================================================================================
input_67 (InputLayer)           (None, 10, 1)        0                                            
__________________________________________________________________________________________________
conv1d_1387 (Conv1D)            (None, 10, 16)       64          input_67[0][0]                   
__________________________________________________________________________________________________
batch_normalization_1255 (Batch (None, 10, 16)       64          conv1d_1387[0][0]                
__________________________________________________________________________________________________
activation_1255 (Activation)    (None, 10, 16)       0           batch_normalization_1255[0][0]   
__________________________________________________________________________________________________
conv1d_1388 (Conv1D)            (None, 10, 16)       784         activation_1255[0][0]            
__________________________________________________________________________________________________
batch_normalization_1256 (Batch (None, 10, 16)       64          conv1d_1388[0][0]                
__________________________________________________________________________________________________
activation_1256 (Activation)    (None, 10, 16)       0           batch_normalization_1256[0][0]   
__________________________________________________________________________________________________
conv1d_1389 (Conv1D)            (None, 10, 16)       784         activation_1256[0][0]            
__________________________________________________________________________________________________
batch_normalization_1257 (Batch (None, 10, 16)       64          conv1d_1389[0][0]                
__________________________________________________________________________________________________
add_595 (Add)                   (None, 10, 16)       0           activation_1255[0][0]            
                                                                 batch_normalization_1257[0][0]   
__________________________________________________________________________________________________
activation_1257 (Activation)    (None, 10, 16)       0           add_595[0][0]                    
__________________________________________________________________________________________________
conv1d_1390 (Conv1D)            (None, 10, 16)       784         activation_1257[0][0]            
__________________________________________________________________________________________________
batch_normalization_1258 (Batch (None, 10, 16)       64          conv1d_1390[0][0]                
__________________________________________________________________________________________________
activation_1258 (Activation)    (None, 10, 16)       0           batch_normalization_1258[0][0]   
__________________________________________________________________________________________________
conv1d_1391 (Conv1D)            (None, 10, 16)       784         activation_1258[0][0]            
__________________________________________________________________________________________________
batch_normalization_1259 (Batch (None, 10, 16)       64          conv1d_1391[0][0]                
__________________________________________________________________________________________________
add_596 (Add)                   (None, 10, 16)       0           activation_1257[0][0]            
                                                                 batch_normalization_1259[0][0]   
__________________________________________________________________________________________________
activation_1259 (Activation)    (None, 10, 16)       0           add_596[0][0]                    
__________________________________________________________________________________________________
conv1d_1392 (Conv1D)            (None, 10, 16)       784         activation_1259[0][0]            
__________________________________________________________________________________________________
batch_normalization_1260 (Batch (None, 10, 16)       64          conv1d_1392[0][0]                
__________________________________________________________________________________________________
activation_1260 (Activation)    (None, 10, 16)       0           batch_normalization_1260[0][0]   
__________________________________________________________________________________________________
conv1d_1393 (Conv1D)            (None, 10, 16)       784         activation_1260[0][0]            
__________________________________________________________________________________________________
batch_normalization_1261 (Batch (None, 10, 16)       64          conv1d_1393[0][0]                
__________________________________________________________________________________________________
add_597 (Add)                   (None, 10, 16)       0           activation_1259[0][0]            
                                                                 batch_normalization_1261[0][0]   
__________________________________________________________________________________________________
activation_1261 (Activation)    (None, 10, 16)       0           add_597[0][0]                    
__________________________________________________________________________________________________
conv1d_1394 (Conv1D)            (None, 5, 32)        1568        activation_1261[0][0]            
__________________________________________________________________________________________________
batch_normalization_1262 (Batch (None, 5, 32)        128         conv1d_1394[0][0]                
__________________________________________________________________________________________________
activation_1262 (Activation)    (None, 5, 32)        0           batch_normalization_1262[0][0]   
__________________________________________________________________________________________________
conv1d_1395 (Conv1D)            (None, 5, 32)        3104        activation_1262[0][0]            
__________________________________________________________________________________________________
conv1d_1396 (Conv1D)            (None, 5, 32)        544         activation_1261[0][0]            
__________________________________________________________________________________________________
batch_normalization_1263 (Batch (None, 5, 32)        128         conv1d_1395[0][0]                
__________________________________________________________________________________________________
add_598 (Add)                   (None, 5, 32)        0           conv1d_1396[0][0]                
                                                                 batch_normalization_1263[0][0]   
__________________________________________________________________________________________________
activation_1263 (Activation)    (None, 5, 32)        0           add_598[0][0]                    
__________________________________________________________________________________________________
conv1d_1397 (Conv1D)            (None, 5, 32)        3104        activation_1263[0][0]            
__________________________________________________________________________________________________
batch_normalization_1264 (Batch (None, 5, 32)        128         conv1d_1397[0][0]                
__________________________________________________________________________________________________
activation_1264 (Activation)    (None, 5, 32)        0           batch_normalization_1264[0][0]   
__________________________________________________________________________________________________
conv1d_1398 (Conv1D)            (None, 5, 32)        3104        activation_1264[0][0]            
__________________________________________________________________________________________________
batch_normalization_1265 (Batch (None, 5, 32)        128         conv1d_1398[0][0]                
__________________________________________________________________________________________________
add_599 (Add)                   (None, 5, 32)        0           activation_1263[0][0]            
                                                                 batch_normalization_1265[0][0]   
__________________________________________________________________________________________________
activation_1265 (Activation)    (None, 5, 32)        0           add_599[0][0]                    
__________________________________________________________________________________________________
conv1d_1399 (Conv1D)            (None, 5, 32)        3104        activation_1265[0][0]            
__________________________________________________________________________________________________
batch_normalization_1266 (Batch (None, 5, 32)        128         conv1d_1399[0][0]                
__________________________________________________________________________________________________
activation_1266 (Activation)    (None, 5, 32)        0           batch_normalization_1266[0][0]   
__________________________________________________________________________________________________
conv1d_1400 (Conv1D)            (None, 5, 32)        3104        activation_1266[0][0]            
__________________________________________________________________________________________________
batch_normalization_1267 (Batch (None, 5, 32)        128         conv1d_1400[0][0]                
__________________________________________________________________________________________________
add_600 (Add)                   (None, 5, 32)        0           activation_1265[0][0]            
                                                                 batch_normalization_1267[0][0]   
__________________________________________________________________________________________________
activation_1267 (Activation)    (None, 5, 32)        0           add_600[0][0]                    
__________________________________________________________________________________________________
conv1d_1401 (Conv1D)            (None, 3, 64)        6208        activation_1267[0][0]            
__________________________________________________________________________________________________
batch_normalization_1268 (Batch (None, 3, 64)        256         conv1d_1401[0][0]                
__________________________________________________________________________________________________
activation_1268 (Activation)    (None, 3, 64)        0           batch_normalization_1268[0][0]   
__________________________________________________________________________________________________
conv1d_1402 (Conv1D)            (None, 3, 64)        12352       activation_1268[0][0]            
__________________________________________________________________________________________________
conv1d_1403 (Conv1D)            (None, 3, 64)        2112        activation_1267[0][0]            
__________________________________________________________________________________________________
batch_normalization_1269 (Batch (None, 3, 64)        256         conv1d_1402[0][0]                
__________________________________________________________________________________________________
add_601 (Add)                   (None, 3, 64)        0           conv1d_1403[0][0]                
                                                                 batch_normalization_1269[0][0]   
__________________________________________________________________________________________________
activation_1269 (Activation)    (None, 3, 64)        0           add_601[0][0]                    
__________________________________________________________________________________________________
conv1d_1404 (Conv1D)            (None, 3, 64)        12352       activation_1269[0][0]            
__________________________________________________________________________________________________
batch_normalization_1270 (Batch (None, 3, 64)        256         conv1d_1404[0][0]                
__________________________________________________________________________________________________
activation_1270 (Activation)    (None, 3, 64)        0           batch_normalization_1270[0][0]   
__________________________________________________________________________________________________
conv1d_1405 (Conv1D)            (None, 3, 64)        12352       activation_1270[0][0]            
__________________________________________________________________________________________________
batch_normalization_1271 (Batch (None, 3, 64)        256         conv1d_1405[0][0]                
__________________________________________________________________________________________________
add_602 (Add)                   (None, 3, 64)        0           activation_1269[0][0]            
                                                                 batch_normalization_1271[0][0]   
__________________________________________________________________________________________________
activation_1271 (Activation)    (None, 3, 64)        0           add_602[0][0]                    
__________________________________________________________________________________________________
conv1d_1406 (Conv1D)            (None, 3, 64)        12352       activation_1271[0][0]            
__________________________________________________________________________________________________
batch_normalization_1272 (Batch (None, 3, 64)        256         conv1d_1406[0][0]                
__________________________________________________________________________________________________
activation_1272 (Activation)    (None, 3, 64)        0           batch_normalization_1272[0][0]   
__________________________________________________________________________________________________
conv1d_1407 (Conv1D)            (None, 3, 64)        12352       activation_1272[0][0]            
__________________________________________________________________________________________________
batch_normalization_1273 (Batch (None, 3, 64)        256         conv1d_1407[0][0]                
__________________________________________________________________________________________________
add_603 (Add)                   (None, 3, 64)        0           activation_1271[0][0]            
                                                                 batch_normalization_1273[0][0]   
__________________________________________________________________________________________________
activation_1273 (Activation)    (None, 3, 64)        0           add_603[0][0]                    
__________________________________________________________________________________________________
average_pooling1d_67 (AveragePo (None, 3, 64)        0           activation_1273[0][0]            
__________________________________________________________________________________________________
flatten_67 (Flatten)            (None, 192)          0           average_pooling1d_67[0][0]       
__________________________________________________________________________________________________
dense_67 (Dense)                (None, 4)            772         flatten_67[0][0]                 
==================================================================================================
Total params: 96,004
Trainable params: 94,628
Non-trainable params: 1,376
__________________________________________________________________________________________________
None

Accuracy Train: 89.05%
Accuracy Test: 83.94%
Loss Train: 0.57
Loss Test: 0.91
Numero dati esaminati: 1712
…
