…
 - 3s - loss: 0.2147 - accuracy: 0.9786 - val_loss: 0.9443 - val_accuracy: 0.8555

Number of filters: 16 , Kernel Size: 3 , Strides: 1 Batch Normalization: True , Conv_First: True , Depth Value: 20

Fit: epochs= 110 , batch_size= 64 , verbose= 2 , shuffle= False , validation_split= 0.2 

Model: "model_31"
__________________________________________________________________________________________________
Layer (type)                    Output Shape         Param #     Connected to                     
==================================================================================================
input_31 (InputLayer)           (None, 10, 1)        0                                            
__________________________________________________________________________________________________
conv1d_631 (Conv1D)             (None, 10, 16)       64          input_31[0][0]                   
__________________________________________________________________________________________________
batch_normalization_571 (BatchN (None, 10, 16)       64          conv1d_631[0][0]                 
__________________________________________________________________________________________________
activation_571 (Activation)     (None, 10, 16)       0           batch_normalization_571[0][0]    
__________________________________________________________________________________________________
conv1d_632 (Conv1D)             (None, 10, 16)       784         activation_571[0][0]             
__________________________________________________________________________________________________
batch_normalization_572 (BatchN (None, 10, 16)       64          conv1d_632[0][0]                 
__________________________________________________________________________________________________
activation_572 (Activation)     (None, 10, 16)       0           batch_normalization_572[0][0]    
__________________________________________________________________________________________________
conv1d_633 (Conv1D)             (None, 10, 16)       784         activation_572[0][0]             
__________________________________________________________________________________________________
batch_normalization_573 (BatchN (None, 10, 16)       64          conv1d_633[0][0]                 
__________________________________________________________________________________________________
add_271 (Add)                   (None, 10, 16)       0           activation_571[0][0]             
                                                                 batch_normalization_573[0][0]    
__________________________________________________________________________________________________
activation_573 (Activation)     (None, 10, 16)       0           add_271[0][0]                    
__________________________________________________________________________________________________
conv1d_634 (Conv1D)             (None, 10, 16)       784         activation_573[0][0]             
__________________________________________________________________________________________________
batch_normalization_574 (BatchN (None, 10, 16)       64          conv1d_634[0][0]                 
__________________________________________________________________________________________________
activation_574 (Activation)     (None, 10, 16)       0           batch_normalization_574[0][0]    
__________________________________________________________________________________________________
conv1d_635 (Conv1D)             (None, 10, 16)       784         activation_574[0][0]             
__________________________________________________________________________________________________
batch_normalization_575 (BatchN (None, 10, 16)       64          conv1d_635[0][0]                 
__________________________________________________________________________________________________
add_272 (Add)                   (None, 10, 16)       0           activation_573[0][0]             
                                                                 batch_normalization_575[0][0]    
__________________________________________________________________________________________________
activation_575 (Activation)     (None, 10, 16)       0           add_272[0][0]                    
__________________________________________________________________________________________________
conv1d_636 (Conv1D)             (None, 10, 16)       784         activation_575[0][0]             
__________________________________________________________________________________________________
batch_normalization_576 (BatchN (None, 10, 16)       64          conv1d_636[0][0]                 
__________________________________________________________________________________________________
activation_576 (Activation)     (None, 10, 16)       0           batch_normalization_576[0][0]    
__________________________________________________________________________________________________
conv1d_637 (Conv1D)             (None, 10, 16)       784         activation_576[0][0]             
__________________________________________________________________________________________________
batch_normalization_577 (BatchN (None, 10, 16)       64          conv1d_637[0][0]                 
__________________________________________________________________________________________________
add_273 (Add)                   (None, 10, 16)       0           activation_575[0][0]             
                                                                 batch_normalization_577[0][0]    
__________________________________________________________________________________________________
activation_577 (Activation)     (None, 10, 16)       0           add_273[0][0]                    
__________________________________________________________________________________________________
conv1d_638 (Conv1D)             (None, 5, 32)        1568        activation_577[0][0]             
__________________________________________________________________________________________________
batch_normalization_578 (BatchN (None, 5, 32)        128         conv1d_638[0][0]                 
__________________________________________________________________________________________________
activation_578 (Activation)     (None, 5, 32)        0           batch_normalization_578[0][0]    
__________________________________________________________________________________________________
conv1d_639 (Conv1D)             (None, 5, 32)        3104        activation_578[0][0]             
__________________________________________________________________________________________________
conv1d_640 (Conv1D)             (None, 5, 32)        544         activation_577[0][0]             
__________________________________________________________________________________________________
batch_normalization_579 (BatchN (None, 5, 32)        128         conv1d_639[0][0]                 
__________________________________________________________________________________________________
add_274 (Add)                   (None, 5, 32)        0           conv1d_640[0][0]                 
                                                                 batch_normalization_579[0][0]    
__________________________________________________________________________________________________
activation_579 (Activation)     (None, 5, 32)        0           add_274[0][0]                    
__________________________________________________________________________________________________
conv1d_641 (Conv1D)             (None, 5, 32)        3104        activation_579[0][0]             
__________________________________________________________________________________________________
batch_normalization_580 (BatchN (None, 5, 32)        128         conv1d_641[0][0]                 
__________________________________________________________________________________________________
activation_580 (Activation)     (None, 5, 32)        0           batch_normalization_580[0][0]    
__________________________________________________________________________________________________
conv1d_642 (Conv1D)             (None, 5, 32)        3104        activation_580[0][0]             
__________________________________________________________________________________________________
batch_normalization_581 (BatchN (None, 5, 32)        128         conv1d_642[0][0]                 
__________________________________________________________________________________________________
add_275 (Add)                   (None, 5, 32)        0           activation_579[0][0]             
                                                                 batch_normalization_581[0][0]    
__________________________________________________________________________________________________
activation_581 (Activation)     (None, 5, 32)        0           add_275[0][0]                    
__________________________________________________________________________________________________
conv1d_643 (Conv1D)             (None, 5, 32)        3104        activation_581[0][0]             
__________________________________________________________________________________________________
batch_normalization_582 (BatchN (None, 5, 32)        128         conv1d_643[0][0]                 
__________________________________________________________________________________________________
activation_582 (Activation)     (None, 5, 32)        0           batch_normalization_582[0][0]    
__________________________________________________________________________________________________
conv1d_644 (Conv1D)             (None, 5, 32)        3104        activation_582[0][0]             
__________________________________________________________________________________________________
batch_normalization_583 (BatchN (None, 5, 32)        128         conv1d_644[0][0]                 
__________________________________________________________________________________________________
add_276 (Add)                   (None, 5, 32)        0           activation_581[0][0]             
                                                                 batch_normalization_583[0][0]    
__________________________________________________________________________________________________
activation_583 (Activation)     (None, 5, 32)        0           add_276[0][0]                    
__________________________________________________________________________________________________
conv1d_645 (Conv1D)             (None, 3, 64)        6208        activation_583[0][0]             
__________________________________________________________________________________________________
batch_normalization_584 (BatchN (None, 3, 64)        256         conv1d_645[0][0]                 
__________________________________________________________________________________________________
activation_584 (Activation)     (None, 3, 64)        0           batch_normalization_584[0][0]    
__________________________________________________________________________________________________
conv1d_646 (Conv1D)             (None, 3, 64)        12352       activation_584[0][0]             
__________________________________________________________________________________________________
conv1d_647 (Conv1D)             (None, 3, 64)        2112        activation_583[0][0]             
__________________________________________________________________________________________________
batch_normalization_585 (BatchN (None, 3, 64)        256         conv1d_646[0][0]                 
__________________________________________________________________________________________________
add_277 (Add)                   (None, 3, 64)        0           conv1d_647[0][0]                 
                                                                 batch_normalization_585[0][0]    
__________________________________________________________________________________________________
activation_585 (Activation)     (None, 3, 64)        0           add_277[0][0]                    
__________________________________________________________________________________________________
conv1d_648 (Conv1D)             (None, 3, 64)        12352       activation_585[0][0]             
__________________________________________________________________________________________________
batch_normalization_586 (BatchN (None, 3, 64)        256         conv1d_648[0][0]                 
__________________________________________________________________________________________________
activation_586 (Activation)     (None, 3, 64)        0           batch_normalization_586[0][0]    
__________________________________________________________________________________________________
conv1d_649 (Conv1D)             (None, 3, 64)        12352       activation_586[0][0]             
__________________________________________________________________________________________________
batch_normalization_587 (BatchN (None, 3, 64)        256         conv1d_649[0][0]                 
__________________________________________________________________________________________________
add_278 (Add)                   (None, 3, 64)        0           activation_585[0][0]             
                                                                 batch_normalization_587[0][0]    
__________________________________________________________________________________________________
activation_587 (Activation)     (None, 3, 64)        0           add_278[0][0]                    
__________________________________________________________________________________________________
conv1d_650 (Conv1D)             (None, 3, 64)        12352       activation_587[0][0]             
__________________________________________________________________________________________________
batch_normalization_588 (BatchN (None, 3, 64)        256         conv1d_650[0][0]                 
__________________________________________________________________________________________________
activation_588 (Activation)     (None, 3, 64)        0           batch_normalization_588[0][0]    
__________________________________________________________________________________________________
conv1d_651 (Conv1D)             (None, 3, 64)        12352       activation_588[0][0]             
__________________________________________________________________________________________________
batch_normalization_589 (BatchN (None, 3, 64)        256         conv1d_651[0][0]                 
__________________________________________________________________________________________________
add_279 (Add)                   (None, 3, 64)        0           activation_587[0][0]             
                                                                 batch_normalization_589[0][0]    
__________________________________________________________________________________________________
activation_589 (Activation)     (None, 3, 64)        0           add_279[0][0]                    
__________________________________________________________________________________________________
average_pooling1d_31 (AveragePo (None, 3, 64)        0           activation_589[0][0]             
__________________________________________________________________________________________________
flatten_31 (Flatten)            (None, 192)          0           average_pooling1d_31[0][0]       
__________________________________________________________________________________________________
dense_31 (Dense)                (None, 4)            772         flatten_31[0][0]                 
==================================================================================================
Total params: 96,004
Trainable params: 94,628
Non-trainable params: 1,376
__________________________________________________________________________________________________
None

Accuracy Train: 90.55%
Accuracy Test: 84.70%
Loss Train: 0.53
Loss Test: 0.95
Numero dati esaminati: 1712
…
