…
 - 3s - loss: 0.2180 - accuracy: 0.9759 - val_loss: 0.8911 - val_accuracy: 0.8577

Number of filters: 16 , Kernel Size: 3 , Strides: 1 Batch Normalization: True , Conv_First: True , Depth Value: 20

Fit: epochs= 110 , batch_size= 64 , verbose= 2 , shuffle= False , validation_split= 0.2 

Model: "model_37"
__________________________________________________________________________________________________
Layer (type)                    Output Shape         Param #     Connected to                     
==================================================================================================
input_37 (InputLayer)           (None, 10, 1)        0                                            
__________________________________________________________________________________________________
conv1d_757 (Conv1D)             (None, 10, 16)       64          input_37[0][0]                   
__________________________________________________________________________________________________
batch_normalization_685 (BatchN (None, 10, 16)       64          conv1d_757[0][0]                 
__________________________________________________________________________________________________
activation_685 (Activation)     (None, 10, 16)       0           batch_normalization_685[0][0]    
__________________________________________________________________________________________________
conv1d_758 (Conv1D)             (None, 10, 16)       784         activation_685[0][0]             
__________________________________________________________________________________________________
batch_normalization_686 (BatchN (None, 10, 16)       64          conv1d_758[0][0]                 
__________________________________________________________________________________________________
activation_686 (Activation)     (None, 10, 16)       0           batch_normalization_686[0][0]    
__________________________________________________________________________________________________
conv1d_759 (Conv1D)             (None, 10, 16)       784         activation_686[0][0]             
__________________________________________________________________________________________________
batch_normalization_687 (BatchN (None, 10, 16)       64          conv1d_759[0][0]                 
__________________________________________________________________________________________________
add_325 (Add)                   (None, 10, 16)       0           activation_685[0][0]             
                                                                 batch_normalization_687[0][0]    
__________________________________________________________________________________________________
activation_687 (Activation)     (None, 10, 16)       0           add_325[0][0]                    
__________________________________________________________________________________________________
conv1d_760 (Conv1D)             (None, 10, 16)       784         activation_687[0][0]             
__________________________________________________________________________________________________
batch_normalization_688 (BatchN (None, 10, 16)       64          conv1d_760[0][0]                 
__________________________________________________________________________________________________
activation_688 (Activation)     (None, 10, 16)       0           batch_normalization_688[0][0]    
__________________________________________________________________________________________________
conv1d_761 (Conv1D)             (None, 10, 16)       784         activation_688[0][0]             
__________________________________________________________________________________________________
batch_normalization_689 (BatchN (None, 10, 16)       64          conv1d_761[0][0]                 
__________________________________________________________________________________________________
add_326 (Add)                   (None, 10, 16)       0           activation_687[0][0]             
                                                                 batch_normalization_689[0][0]    
__________________________________________________________________________________________________
activation_689 (Activation)     (None, 10, 16)       0           add_326[0][0]                    
__________________________________________________________________________________________________
conv1d_762 (Conv1D)             (None, 10, 16)       784         activation_689[0][0]             
__________________________________________________________________________________________________
batch_normalization_690 (BatchN (None, 10, 16)       64          conv1d_762[0][0]                 
__________________________________________________________________________________________________
activation_690 (Activation)     (None, 10, 16)       0           batch_normalization_690[0][0]    
__________________________________________________________________________________________________
conv1d_763 (Conv1D)             (None, 10, 16)       784         activation_690[0][0]             
__________________________________________________________________________________________________
batch_normalization_691 (BatchN (None, 10, 16)       64          conv1d_763[0][0]                 
__________________________________________________________________________________________________
add_327 (Add)                   (None, 10, 16)       0           activation_689[0][0]             
                                                                 batch_normalization_691[0][0]    
__________________________________________________________________________________________________
activation_691 (Activation)     (None, 10, 16)       0           add_327[0][0]                    
__________________________________________________________________________________________________
conv1d_764 (Conv1D)             (None, 5, 32)        1568        activation_691[0][0]             
__________________________________________________________________________________________________
batch_normalization_692 (BatchN (None, 5, 32)        128         conv1d_764[0][0]                 
__________________________________________________________________________________________________
activation_692 (Activation)     (None, 5, 32)        0           batch_normalization_692[0][0]    
__________________________________________________________________________________________________
conv1d_765 (Conv1D)             (None, 5, 32)        3104        activation_692[0][0]             
__________________________________________________________________________________________________
conv1d_766 (Conv1D)             (None, 5, 32)        544         activation_691[0][0]             
__________________________________________________________________________________________________
batch_normalization_693 (BatchN (None, 5, 32)        128         conv1d_765[0][0]                 
__________________________________________________________________________________________________
add_328 (Add)                   (None, 5, 32)        0           conv1d_766[0][0]                 
                                                                 batch_normalization_693[0][0]    
__________________________________________________________________________________________________
activation_693 (Activation)     (None, 5, 32)        0           add_328[0][0]                    
__________________________________________________________________________________________________
conv1d_767 (Conv1D)             (None, 5, 32)        3104        activation_693[0][0]             
__________________________________________________________________________________________________
batch_normalization_694 (BatchN (None, 5, 32)        128         conv1d_767[0][0]                 
__________________________________________________________________________________________________
activation_694 (Activation)     (None, 5, 32)        0           batch_normalization_694[0][0]    
__________________________________________________________________________________________________
conv1d_768 (Conv1D)             (None, 5, 32)        3104        activation_694[0][0]             
__________________________________________________________________________________________________
batch_normalization_695 (BatchN (None, 5, 32)        128         conv1d_768[0][0]                 
__________________________________________________________________________________________________
add_329 (Add)                   (None, 5, 32)        0           activation_693[0][0]             
                                                                 batch_normalization_695[0][0]    
__________________________________________________________________________________________________
activation_695 (Activation)     (None, 5, 32)        0           add_329[0][0]                    
__________________________________________________________________________________________________
conv1d_769 (Conv1D)             (None, 5, 32)        3104        activation_695[0][0]             
__________________________________________________________________________________________________
batch_normalization_696 (BatchN (None, 5, 32)        128         conv1d_769[0][0]                 
__________________________________________________________________________________________________
activation_696 (Activation)     (None, 5, 32)        0           batch_normalization_696[0][0]    
__________________________________________________________________________________________________
conv1d_770 (Conv1D)             (None, 5, 32)        3104        activation_696[0][0]             
__________________________________________________________________________________________________
batch_normalization_697 (BatchN (None, 5, 32)        128         conv1d_770[0][0]                 
__________________________________________________________________________________________________
add_330 (Add)                   (None, 5, 32)        0           activation_695[0][0]             
                                                                 batch_normalization_697[0][0]    
__________________________________________________________________________________________________
activation_697 (Activation)     (None, 5, 32)        0           add_330[0][0]                    
__________________________________________________________________________________________________
conv1d_771 (Conv1D)             (None, 3, 64)        6208        activation_697[0][0]             
__________________________________________________________________________________________________
batch_normalization_698 (BatchN (None, 3, 64)        256         conv1d_771[0][0]                 
__________________________________________________________________________________________________
activation_698 (Activation)     (None, 3, 64)        0           batch_normalization_698[0][0]    
__________________________________________________________________________________________________
conv1d_772 (Conv1D)             (None, 3, 64)        12352       activation_698[0][0]             
__________________________________________________________________________________________________
conv1d_773 (Conv1D)             (None, 3, 64)        2112        activation_697[0][0]             
__________________________________________________________________________________________________
batch_normalization_699 (BatchN (None, 3, 64)        256         conv1d_772[0][0]                 
__________________________________________________________________________________________________
add_331 (Add)                   (None, 3, 64)        0           conv1d_773[0][0]                 
                                                                 batch_normalization_699[0][0]    
__________________________________________________________________________________________________
activation_699 (Activation)     (None, 3, 64)        0           add_331[0][0]                    
__________________________________________________________________________________________________
conv1d_774 (Conv1D)             (None, 3, 64)        12352       activation_699[0][0]             
__________________________________________________________________________________________________
batch_normalization_700 (BatchN (None, 3, 64)        256         conv1d_774[0][0]                 
__________________________________________________________________________________________________
activation_700 (Activation)     (None, 3, 64)        0           batch_normalization_700[0][0]    
__________________________________________________________________________________________________
conv1d_775 (Conv1D)             (None, 3, 64)        12352       activation_700[0][0]             
__________________________________________________________________________________________________
batch_normalization_701 (BatchN (None, 3, 64)        256         conv1d_775[0][0]                 
__________________________________________________________________________________________________
add_332 (Add)                   (None, 3, 64)        0           activation_699[0][0]             
                                                                 batch_normalization_701[0][0]    
__________________________________________________________________________________________________
activation_701 (Activation)     (None, 3, 64)        0           add_332[0][0]                    
__________________________________________________________________________________________________
conv1d_776 (Conv1D)             (None, 3, 64)        12352       activation_701[0][0]             
__________________________________________________________________________________________________
batch_normalization_702 (BatchN (None, 3, 64)        256         conv1d_776[0][0]                 
__________________________________________________________________________________________________
activation_702 (Activation)     (None, 3, 64)        0           batch_normalization_702[0][0]    
__________________________________________________________________________________________________
conv1d_777 (Conv1D)             (None, 3, 64)        12352       activation_702[0][0]             
__________________________________________________________________________________________________
batch_normalization_703 (BatchN (None, 3, 64)        256         conv1d_777[0][0]                 
__________________________________________________________________________________________________
add_333 (Add)                   (None, 3, 64)        0           activation_701[0][0]             
                                                                 batch_normalization_703[0][0]    
__________________________________________________________________________________________________
activation_703 (Activation)     (None, 3, 64)        0           add_333[0][0]                    
__________________________________________________________________________________________________
average_pooling1d_37 (AveragePo (None, 3, 64)        0           activation_703[0][0]             
__________________________________________________________________________________________________
flatten_37 (Flatten)            (None, 192)          0           average_pooling1d_37[0][0]       
__________________________________________________________________________________________________
dense_37 (Dense)                (None, 4)            772         flatten_37[0][0]                 
==================================================================================================
Total params: 96,004
Trainable params: 94,628
Non-trainable params: 1,376
__________________________________________________________________________________________________
None

Accuracy Train: 88.32%
Accuracy Test: 82.89%
Loss Train: 0.61
Loss Test: 0.95
Numero dati esaminati: 1712
…
