…
 - 8s - loss: 0.3460 - accuracy: 0.8628 - val_loss: 0.6346 - val_accuracy: 0.8272
Epoch 109/110
 - 8s - loss: 0.3444 - accuracy: 0.8566 - val_loss: 0.6061 - val_accuracy: 0.8289
Epoch 110/110
 - 8s - loss: 0.3617 - accuracy: 0.8491 - val_loss: 0.6323 - val_accuracy: 0.8206

Fit: epochs= 110 , batch_size= 64 , verbose= 2 , shuffle= False , validation_split= 0.2 

Model: "sequential_19"
_________________________________________________________________
Layer (type)                 Output Shape              Param #   
=================================================================
conv1d_19 (Conv1D)           (None, 10, 500)           1000      
_________________________________________________________________
activation_19 (Activation)   (None, 10, 500)           0         
_________________________________________________________________
lstm_19 (LSTM)               (None, 500)               2002000   
_________________________________________________________________
dropout_19 (Dropout)         (None, 500)               0         
_________________________________________________________________
dense_127 (Dense)            (None, 400)               200400    
_________________________________________________________________
dense_128 (Dense)            (None, 300)               120300    
_________________________________________________________________
dense_129 (Dense)            (None, 200)               60200     
_________________________________________________________________
dense_130 (Dense)            (None, 100)               20100     
_________________________________________________________________
dense_131 (Dense)            (None, 50)                5050      
_________________________________________________________________
dense_132 (Dense)            (None, 20)                1020      
_________________________________________________________________
dense_133 (Dense)            (None, 4)                 84        
=================================================================
Total params: 2,410,154
Trainable params: 2,410,154
Non-trainable params: 0
_________________________________________________________________
None

Accuracy Train: 85.41%
Accuracy Test: 79.39%
Loss Train: 0.39
Loss Test: 0.69
Numero dati esaminati: 752
True Positive 597
False Positive 155


------------------------------------------------------------------------
…
