…
 - 1s - loss: 0.2691 - accuracy: 0.9530 - val_loss: 0.9999 - val_accuracy: 0.8007

Number of filters: 16 , Kernel Size: 3 , Strides: 1 Batch Normalization: True , Conv_First: True , Depth Value: 20

Fit: epochs= 110 , batch_size= 64 , verbose= 2 , shuffle= False , validation_split= 0.2 

Model: "model_23"
__________________________________________________________________________________________________
Layer (type)                    Output Shape         Param #     Connected to                     
==================================================================================================
input_23 (InputLayer)           (None, 10, 1)        0                                            
__________________________________________________________________________________________________
conv1d_463 (Conv1D)             (None, 10, 16)       64          input_23[0][0]                   
__________________________________________________________________________________________________
batch_normalization_419 (BatchN (None, 10, 16)       64          conv1d_463[0][0]                 
__________________________________________________________________________________________________
activation_419 (Activation)     (None, 10, 16)       0           batch_normalization_419[0][0]    
__________________________________________________________________________________________________
conv1d_464 (Conv1D)             (None, 10, 16)       784         activation_419[0][0]             
__________________________________________________________________________________________________
batch_normalization_420 (BatchN (None, 10, 16)       64          conv1d_464[0][0]                 
__________________________________________________________________________________________________
activation_420 (Activation)     (None, 10, 16)       0           batch_normalization_420[0][0]    
__________________________________________________________________________________________________
conv1d_465 (Conv1D)             (None, 10, 16)       784         activation_420[0][0]             
__________________________________________________________________________________________________
batch_normalization_421 (BatchN (None, 10, 16)       64          conv1d_465[0][0]                 
__________________________________________________________________________________________________
add_199 (Add)                   (None, 10, 16)       0           activation_419[0][0]             
                                                                 batch_normalization_421[0][0]    
__________________________________________________________________________________________________
activation_421 (Activation)     (None, 10, 16)       0           add_199[0][0]                    
__________________________________________________________________________________________________
conv1d_466 (Conv1D)             (None, 10, 16)       784         activation_421[0][0]             
__________________________________________________________________________________________________
batch_normalization_422 (BatchN (None, 10, 16)       64          conv1d_466[0][0]                 
__________________________________________________________________________________________________
activation_422 (Activation)     (None, 10, 16)       0           batch_normalization_422[0][0]    
__________________________________________________________________________________________________
conv1d_467 (Conv1D)             (None, 10, 16)       784         activation_422[0][0]             
__________________________________________________________________________________________________
batch_normalization_423 (BatchN (None, 10, 16)       64          conv1d_467[0][0]                 
__________________________________________________________________________________________________
add_200 (Add)                   (None, 10, 16)       0           activation_421[0][0]             
                                                                 batch_normalization_423[0][0]    
__________________________________________________________________________________________________
activation_423 (Activation)     (None, 10, 16)       0           add_200[0][0]                    
__________________________________________________________________________________________________
conv1d_468 (Conv1D)             (None, 10, 16)       784         activation_423[0][0]             
__________________________________________________________________________________________________
batch_normalization_424 (BatchN (None, 10, 16)       64          conv1d_468[0][0]                 
__________________________________________________________________________________________________
activation_424 (Activation)     (None, 10, 16)       0           batch_normalization_424[0][0]    
__________________________________________________________________________________________________
conv1d_469 (Conv1D)             (None, 10, 16)       784         activation_424[0][0]             
__________________________________________________________________________________________________
batch_normalization_425 (BatchN (None, 10, 16)       64          conv1d_469[0][0]                 
__________________________________________________________________________________________________
add_201 (Add)                   (None, 10, 16)       0           activation_423[0][0]             
                                                                 batch_normalization_425[0][0]    
__________________________________________________________________________________________________
activation_425 (Activation)     (None, 10, 16)       0           add_201[0][0]                    
__________________________________________________________________________________________________
conv1d_470 (Conv1D)             (None, 5, 32)        1568        activation_425[0][0]             
__________________________________________________________________________________________________
batch_normalization_426 (BatchN (None, 5, 32)        128         conv1d_470[0][0]                 
__________________________________________________________________________________________________
activation_426 (Activation)     (None, 5, 32)        0           batch_normalization_426[0][0]    
__________________________________________________________________________________________________
conv1d_471 (Conv1D)             (None, 5, 32)        3104        activation_426[0][0]             
__________________________________________________________________________________________________
conv1d_472 (Conv1D)             (None, 5, 32)        544         activation_425[0][0]             
__________________________________________________________________________________________________
batch_normalization_427 (BatchN (None, 5, 32)        128         conv1d_471[0][0]                 
__________________________________________________________________________________________________
add_202 (Add)                   (None, 5, 32)        0           conv1d_472[0][0]                 
                                                                 batch_normalization_427[0][0]    
__________________________________________________________________________________________________
activation_427 (Activation)     (None, 5, 32)        0           add_202[0][0]                    
__________________________________________________________________________________________________
conv1d_473 (Conv1D)             (None, 5, 32)        3104        activation_427[0][0]             
__________________________________________________________________________________________________
batch_normalization_428 (BatchN (None, 5, 32)        128         conv1d_473[0][0]                 
__________________________________________________________________________________________________
activation_428 (Activation)     (None, 5, 32)        0           batch_normalization_428[0][0]    
__________________________________________________________________________________________________
conv1d_474 (Conv1D)             (None, 5, 32)        3104        activation_428[0][0]             
__________________________________________________________________________________________________
batch_normalization_429 (BatchN (None, 5, 32)        128         conv1d_474[0][0]                 
__________________________________________________________________________________________________
add_203 (Add)                   (None, 5, 32)        0           activation_427[0][0]             
                                                                 batch_normalization_429[0][0]    
__________________________________________________________________________________________________
activation_429 (Activation)     (None, 5, 32)        0           add_203[0][0]                    
__________________________________________________________________________________________________
conv1d_475 (Conv1D)             (None, 5, 32)        3104        activation_429[0][0]             
__________________________________________________________________________________________________
batch_normalization_430 (BatchN (None, 5, 32)        128         conv1d_475[0][0]                 
__________________________________________________________________________________________________
activation_430 (Activation)     (None, 5, 32)        0           batch_normalization_430[0][0]    
__________________________________________________________________________________________________
conv1d_476 (Conv1D)             (None, 5, 32)        3104        activation_430[0][0]             
__________________________________________________________________________________________________
batch_normalization_431 (BatchN (None, 5, 32)        128         conv1d_476[0][0]                 
__________________________________________________________________________________________________
add_204 (Add)                   (None, 5, 32)        0           activation_429[0][0]             
                                                                 batch_normalization_431[0][0]    
__________________________________________________________________________________________________
activation_431 (Activation)     (None, 5, 32)        0           add_204[0][0]                    
__________________________________________________________________________________________________
conv1d_477 (Conv1D)             (None, 3, 64)        6208        activation_431[0][0]             
__________________________________________________________________________________________________
batch_normalization_432 (BatchN (None, 3, 64)        256         conv1d_477[0][0]                 
__________________________________________________________________________________________________
activation_432 (Activation)     (None, 3, 64)        0           batch_normalization_432[0][0]    
__________________________________________________________________________________________________
conv1d_478 (Conv1D)             (None, 3, 64)        12352       activation_432[0][0]             
__________________________________________________________________________________________________
conv1d_479 (Conv1D)             (None, 3, 64)        2112        activation_431[0][0]             
__________________________________________________________________________________________________
batch_normalization_433 (BatchN (None, 3, 64)        256         conv1d_478[0][0]                 
__________________________________________________________________________________________________
add_205 (Add)                   (None, 3, 64)        0           conv1d_479[0][0]                 
                                                                 batch_normalization_433[0][0]    
__________________________________________________________________________________________________
activation_433 (Activation)     (None, 3, 64)        0           add_205[0][0]                    
__________________________________________________________________________________________________
conv1d_480 (Conv1D)             (None, 3, 64)        12352       activation_433[0][0]             
__________________________________________________________________________________________________
batch_normalization_434 (BatchN (None, 3, 64)        256         conv1d_480[0][0]                 
__________________________________________________________________________________________________
activation_434 (Activation)     (None, 3, 64)        0           batch_normalization_434[0][0]    
__________________________________________________________________________________________________
conv1d_481 (Conv1D)             (None, 3, 64)        12352       activation_434[0][0]             
__________________________________________________________________________________________________
batch_normalization_435 (BatchN (None, 3, 64)        256         conv1d_481[0][0]                 
__________________________________________________________________________________________________
add_206 (Add)                   (None, 3, 64)        0           activation_433[0][0]             
                                                                 batch_normalization_435[0][0]    
__________________________________________________________________________________________________
activation_435 (Activation)     (None, 3, 64)        0           add_206[0][0]                    
__________________________________________________________________________________________________
conv1d_482 (Conv1D)             (None, 3, 64)        12352       activation_435[0][0]             
__________________________________________________________________________________________________
batch_normalization_436 (BatchN (None, 3, 64)        256         conv1d_482[0][0]                 
__________________________________________________________________________________________________
activation_436 (Activation)     (None, 3, 64)        0           batch_normalization_436[0][0]    
__________________________________________________________________________________________________
conv1d_483 (Conv1D)             (None, 3, 64)        12352       activation_436[0][0]             
__________________________________________________________________________________________________
batch_normalization_437 (BatchN (None, 3, 64)        256         conv1d_483[0][0]                 
__________________________________________________________________________________________________
add_207 (Add)                   (None, 3, 64)        0           activation_435[0][0]             
                                                                 batch_normalization_437[0][0]    
__________________________________________________________________________________________________
activation_437 (Activation)     (None, 3, 64)        0           add_207[0][0]                    
__________________________________________________________________________________________________
average_pooling1d_23 (AveragePo (None, 3, 64)        0           activation_437[0][0]             
__________________________________________________________________________________________________
flatten_23 (Flatten)            (None, 192)          0           average_pooling1d_23[0][0]       
__________________________________________________________________________________________________
dense_23 (Dense)                (None, 4)            772         flatten_23[0][0]                 
==================================================================================================
Total params: 96,004
Trainable params: 94,628
Non-trainable params: 1,376
__________________________________________________________________________________________________
None

Accuracy Train: 83.94%
Accuracy Test: 78.46%
Loss Train: 0.75
Loss Test: 1.10
Numero dati esaminati: 752
…
