…
 - 20s - loss: 0.1140 - accuracy: 0.9520 - val_loss: 1.4294 - val_accuracy: 0.8051
Epoch 511/512
 - 20s - loss: 0.0965 - accuracy: 0.9582 - val_loss: 1.6045 - val_accuracy: 0.8073
Epoch 512/512
 - 20s - loss: 0.1046 - accuracy: 0.9571 - val_loss: 1.4326 - val_accuracy: 0.8036

Fit: epochs= 512 , batch_size= 64 , verbose= 2 , shuffle= False , validation_split= 0.2 

Model: "sequential_13"
_________________________________________________________________
Layer (type)                 Output Shape              Param #   
=================================================================
conv1d_13 (Conv1D)           (None, 10, 500)           1000      
_________________________________________________________________
activation_13 (Activation)   (None, 10, 500)           0         
_________________________________________________________________
lstm_13 (LSTM)               (None, 500)               2002000   
_________________________________________________________________
dropout_13 (Dropout)         (None, 500)               0         
_________________________________________________________________
dense_85 (Dense)             (None, 400)               200400    
_________________________________________________________________
dense_86 (Dense)             (None, 300)               120300    
_________________________________________________________________
dense_87 (Dense)             (None, 200)               60200     
_________________________________________________________________
dense_88 (Dense)             (None, 100)               20100     
_________________________________________________________________
dense_89 (Dense)             (None, 50)                5050      
_________________________________________________________________
dense_90 (Dense)             (None, 20)                1020      
_________________________________________________________________
dense_91 (Dense)             (None, 4)                 84        
=================================================================
Total params: 2,410,154
Trainable params: 2,410,154
Non-trainable params: 0
_________________________________________________________________
None

Accuracy Train: 92.63%
Accuracy Test: 81.83%
Loss Train: 0.37
Loss Test: 1.48
Numero dati esaminati: 1712
True Positive 1401
False Positive 311


------------------------------------------------------------------------
…
