…
 - 3s - loss: 0.2086 - accuracy: 0.9783 - val_loss: 0.7996 - val_accuracy: 0.8635

Number of filters: 16 , Kernel Size: 3 , Strides: 1 Batch Normalization: True , Conv_First: True , Depth Value: 20

Fit: epochs= 110 , batch_size= 64 , verbose= 2 , shuffle= False , validation_split= 0.2 

Model: "model_34"
__________________________________________________________________________________________________
Layer (type)                    Output Shape         Param #     Connected to                     
==================================================================================================
input_34 (InputLayer)           (None, 10, 1)        0                                            
__________________________________________________________________________________________________
conv1d_694 (Conv1D)             (None, 10, 16)       64          input_34[0][0]                   
__________________________________________________________________________________________________
batch_normalization_628 (BatchN (None, 10, 16)       64          conv1d_694[0][0]                 
__________________________________________________________________________________________________
activation_628 (Activation)     (None, 10, 16)       0           batch_normalization_628[0][0]    
__________________________________________________________________________________________________
conv1d_695 (Conv1D)             (None, 10, 16)       784         activation_628[0][0]             
__________________________________________________________________________________________________
batch_normalization_629 (BatchN (None, 10, 16)       64          conv1d_695[0][0]                 
__________________________________________________________________________________________________
activation_629 (Activation)     (None, 10, 16)       0           batch_normalization_629[0][0]    
__________________________________________________________________________________________________
conv1d_696 (Conv1D)             (None, 10, 16)       784         activation_629[0][0]             
__________________________________________________________________________________________________
batch_normalization_630 (BatchN (None, 10, 16)       64          conv1d_696[0][0]                 
__________________________________________________________________________________________________
add_298 (Add)                   (None, 10, 16)       0           activation_628[0][0]             
                                                                 batch_normalization_630[0][0]    
__________________________________________________________________________________________________
activation_630 (Activation)     (None, 10, 16)       0           add_298[0][0]                    
__________________________________________________________________________________________________
conv1d_697 (Conv1D)             (None, 10, 16)       784         activation_630[0][0]             
__________________________________________________________________________________________________
batch_normalization_631 (BatchN (None, 10, 16)       64          conv1d_697[0][0]                 
__________________________________________________________________________________________________
activation_631 (Activation)     (None, 10, 16)       0           batch_normalization_631[0][0]    
__________________________________________________________________________________________________
conv1d_698 (Conv1D)             (None, 10, 16)       784         activation_631[0][0]             
__________________________________________________________________________________________________
batch_normalization_632 (BatchN (None, 10, 16)       64          conv1d_698[0][0]                 
__________________________________________________________________________________________________
add_299 (Add)                   (None, 10, 16)       0           activation_630[0][0]             
                                                                 batch_normalization_632[0][0]    
__________________________________________________________________________________________________
activation_632 (Activation)     (None, 10, 16)       0           add_299[0][0]                    
__________________________________________________________________________________________________
conv1d_699 (Conv1D)             (None, 10, 16)       784         activation_632[0][0]             
__________________________________________________________________________________________________
batch_normalization_633 (BatchN (None, 10, 16)       64          conv1d_699[0][0]                 
__________________________________________________________________________________________________
activation_633 (Activation)     (None, 10, 16)       0           batch_normalization_633[0][0]    
__________________________________________________________________________________________________
conv1d_700 (Conv1D)             (None, 10, 16)       784         activation_633[0][0]             
__________________________________________________________________________________________________
batch_normalization_634 (BatchN (None, 10, 16)       64          conv1d_700[0][0]                 
__________________________________________________________________________________________________
add_300 (Add)                   (None, 10, 16)       0           activation_632[0][0]             
                                                                 batch_normalization_634[0][0]    
__________________________________________________________________________________________________
activation_634 (Activation)     (None, 10, 16)       0           add_300[0][0]                    
__________________________________________________________________________________________________
conv1d_701 (Conv1D)             (None, 5, 32)        1568        activation_634[0][0]             
__________________________________________________________________________________________________
batch_normalization_635 (BatchN (None, 5, 32)        128         conv1d_701[0][0]                 
__________________________________________________________________________________________________
activation_635 (Activation)     (None, 5, 32)        0           batch_normalization_635[0][0]    
__________________________________________________________________________________________________
conv1d_702 (Conv1D)             (None, 5, 32)        3104        activation_635[0][0]             
__________________________________________________________________________________________________
conv1d_703 (Conv1D)             (None, 5, 32)        544         activation_634[0][0]             
__________________________________________________________________________________________________
batch_normalization_636 (BatchN (None, 5, 32)        128         conv1d_702[0][0]                 
__________________________________________________________________________________________________
add_301 (Add)                   (None, 5, 32)        0           conv1d_703[0][0]                 
                                                                 batch_normalization_636[0][0]    
__________________________________________________________________________________________________
activation_636 (Activation)     (None, 5, 32)        0           add_301[0][0]                    
__________________________________________________________________________________________________
conv1d_704 (Conv1D)             (None, 5, 32)        3104        activation_636[0][0]             
__________________________________________________________________________________________________
batch_normalization_637 (BatchN (None, 5, 32)        128         conv1d_704[0][0]                 
__________________________________________________________________________________________________
activation_637 (Activation)     (None, 5, 32)        0           batch_normalization_637[0][0]    
__________________________________________________________________________________________________
conv1d_705 (Conv1D)             (None, 5, 32)        3104        activation_637[0][0]             
__________________________________________________________________________________________________
batch_normalization_638 (BatchN (None, 5, 32)        128         conv1d_705[0][0]                 
__________________________________________________________________________________________________
add_302 (Add)                   (None, 5, 32)        0           activation_636[0][0]             
                                                                 batch_normalization_638[0][0]    
__________________________________________________________________________________________________
activation_638 (Activation)     (None, 5, 32)        0           add_302[0][0]                    
__________________________________________________________________________________________________
conv1d_706 (Conv1D)             (None, 5, 32)        3104        activation_638[0][0]             
__________________________________________________________________________________________________
batch_normalization_639 (BatchN (None, 5, 32)        128         conv1d_706[0][0]                 
__________________________________________________________________________________________________
activation_639 (Activation)     (None, 5, 32)        0           batch_normalization_639[0][0]    
__________________________________________________________________________________________________
conv1d_707 (Conv1D)             (None, 5, 32)        3104        activation_639[0][0]             
__________________________________________________________________________________________________
batch_normalization_640 (BatchN (None, 5, 32)        128         conv1d_707[0][0]                 
__________________________________________________________________________________________________
add_303 (Add)                   (None, 5, 32)        0           activation_638[0][0]             
                                                                 batch_normalization_640[0][0]    
__________________________________________________________________________________________________
activation_640 (Activation)     (None, 5, 32)        0           add_303[0][0]                    
__________________________________________________________________________________________________
conv1d_708 (Conv1D)             (None, 3, 64)        6208        activation_640[0][0]             
__________________________________________________________________________________________________
batch_normalization_641 (BatchN (None, 3, 64)        256         conv1d_708[0][0]                 
__________________________________________________________________________________________________
activation_641 (Activation)     (None, 3, 64)        0           batch_normalization_641[0][0]    
__________________________________________________________________________________________________
conv1d_709 (Conv1D)             (None, 3, 64)        12352       activation_641[0][0]             
__________________________________________________________________________________________________
conv1d_710 (Conv1D)             (None, 3, 64)        2112        activation_640[0][0]             
__________________________________________________________________________________________________
batch_normalization_642 (BatchN (None, 3, 64)        256         conv1d_709[0][0]                 
__________________________________________________________________________________________________
add_304 (Add)                   (None, 3, 64)        0           conv1d_710[0][0]                 
                                                                 batch_normalization_642[0][0]    
__________________________________________________________________________________________________
activation_642 (Activation)     (None, 3, 64)        0           add_304[0][0]                    
__________________________________________________________________________________________________
conv1d_711 (Conv1D)             (None, 3, 64)        12352       activation_642[0][0]             
__________________________________________________________________________________________________
batch_normalization_643 (BatchN (None, 3, 64)        256         conv1d_711[0][0]                 
__________________________________________________________________________________________________
activation_643 (Activation)     (None, 3, 64)        0           batch_normalization_643[0][0]    
__________________________________________________________________________________________________
conv1d_712 (Conv1D)             (None, 3, 64)        12352       activation_643[0][0]             
__________________________________________________________________________________________________
batch_normalization_644 (BatchN (None, 3, 64)        256         conv1d_712[0][0]                 
__________________________________________________________________________________________________
add_305 (Add)                   (None, 3, 64)        0           activation_642[0][0]             
                                                                 batch_normalization_644[0][0]    
__________________________________________________________________________________________________
activation_644 (Activation)     (None, 3, 64)        0           add_305[0][0]                    
__________________________________________________________________________________________________
conv1d_713 (Conv1D)             (None, 3, 64)        12352       activation_644[0][0]             
__________________________________________________________________________________________________
batch_normalization_645 (BatchN (None, 3, 64)        256         conv1d_713[0][0]                 
__________________________________________________________________________________________________
activation_645 (Activation)     (None, 3, 64)        0           batch_normalization_645[0][0]    
__________________________________________________________________________________________________
conv1d_714 (Conv1D)             (None, 3, 64)        12352       activation_645[0][0]             
__________________________________________________________________________________________________
batch_normalization_646 (BatchN (None, 3, 64)        256         conv1d_714[0][0]                 
__________________________________________________________________________________________________
add_306 (Add)                   (None, 3, 64)        0           activation_644[0][0]             
                                                                 batch_normalization_646[0][0]    
__________________________________________________________________________________________________
activation_646 (Activation)     (None, 3, 64)        0           add_306[0][0]                    
__________________________________________________________________________________________________
average_pooling1d_34 (AveragePo (None, 3, 64)        0           activation_646[0][0]             
__________________________________________________________________________________________________
flatten_34 (Flatten)            (None, 192)          0           average_pooling1d_34[0][0]       
__________________________________________________________________________________________________
dense_34 (Dense)                (None, 4)            772         flatten_34[0][0]                 
==================================================================================================
Total params: 96,004
Trainable params: 94,628
Non-trainable params: 1,376
__________________________________________________________________________________________________
None

Accuracy Train: 91.63%
Accuracy Test: 85.57%
Loss Train: 0.46
Loss Test: 0.83
Numero dati esaminati: 1712
…
