…
 - 2s - loss: 0.4439 - accuracy: 0.8271 - val_loss: 0.5973 - val_accuracy: 0.8189
Epoch 99/100
 - 2s - loss: 0.4600 - accuracy: 0.8259 - val_loss: 0.5878 - val_accuracy: 0.8123
Epoch 100/100
 - 1s - loss: 0.4605 - accuracy: 0.8242 - val_loss: 0.5602 - val_accuracy: 0.8173

Fit: epochs = 100, batch_size = 16, verbose = 2, shuffle=False, validation_split = 0.20

Model: "sequential_1"
_________________________________________________________________
Layer (type)                 Output Shape              Param #   
=================================================================
conv1d_1 (Conv1D)            (None, 10, 512)           1024      
_________________________________________________________________
conv1d_2 (Conv1D)            (None, 10, 256)           131328    
_________________________________________________________________
max_pooling1d_1 (MaxPooling1 (None, 10, 256)           0         
_________________________________________________________________
dropout_1 (Dropout)          (None, 10, 256)           0         
_________________________________________________________________
flatten_1 (Flatten)          (None, 2560)              0         
_________________________________________________________________
dense_1 (Dense)              (None, 128)               327808    
_________________________________________________________________
dense_2 (Dense)              (None, 64)                8256      
_________________________________________________________________
dense_3 (Dense)              (None, 32)                2080      
_________________________________________________________________
dropout_2 (Dropout)          (None, 32)                0         
_________________________________________________________________
dense_4 (Dense)              (None, 4)                 132       
=================================================================
Total params: 470,628
Trainable params: 470,628
Non-trainable params: 0
_________________________________________________________________
None

Accuracy Train: 83.38%
Accuracy Test: 80.45%
Loss Train: 0.42
Loss Test: 0.61
Numero dati esaminati: 752
True Positive 605
False Positive 147
