…
 - 2s - loss: 0.2511 - accuracy: 0.9564 - val_loss: 0.8489 - val_accuracy: 0.8328

Number of filters: 16 , Kernel Size: 3 , Strides: 1 Batch Normalization: True , Conv_First: True , Depth Value: 20

Fit: epochs= 110 , batch_size= 64 , verbose= 2 , shuffle= False , validation_split= 0.2 

Model: "model_12"
__________________________________________________________________________________________________
Layer (type)                    Output Shape         Param #     Connected to                     
==================================================================================================
input_12 (InputLayer)           (None, 10, 1)        0                                            
__________________________________________________________________________________________________
conv1d_309 (Conv1D)             (None, 10, 16)       64          input_12[0][0]                   
__________________________________________________________________________________________________
batch_normalization_210 (BatchN (None, 10, 16)       64          conv1d_309[0][0]                 
__________________________________________________________________________________________________
activation_364 (Activation)     (None, 10, 16)       0           batch_normalization_210[0][0]    
__________________________________________________________________________________________________
conv1d_310 (Conv1D)             (None, 10, 16)       784         activation_364[0][0]             
__________________________________________________________________________________________________
batch_normalization_211 (BatchN (None, 10, 16)       64          conv1d_310[0][0]                 
__________________________________________________________________________________________________
activation_365 (Activation)     (None, 10, 16)       0           batch_normalization_211[0][0]    
__________________________________________________________________________________________________
conv1d_311 (Conv1D)             (None, 10, 16)       784         activation_365[0][0]             
__________________________________________________________________________________________________
batch_normalization_212 (BatchN (None, 10, 16)       64          conv1d_311[0][0]                 
__________________________________________________________________________________________________
add_100 (Add)                   (None, 10, 16)       0           activation_364[0][0]             
                                                                 batch_normalization_212[0][0]    
__________________________________________________________________________________________________
activation_366 (Activation)     (None, 10, 16)       0           add_100[0][0]                    
__________________________________________________________________________________________________
conv1d_312 (Conv1D)             (None, 10, 16)       784         activation_366[0][0]             
__________________________________________________________________________________________________
batch_normalization_213 (BatchN (None, 10, 16)       64          conv1d_312[0][0]                 
__________________________________________________________________________________________________
activation_367 (Activation)     (None, 10, 16)       0           batch_normalization_213[0][0]    
__________________________________________________________________________________________________
conv1d_313 (Conv1D)             (None, 10, 16)       784         activation_367[0][0]             
__________________________________________________________________________________________________
batch_normalization_214 (BatchN (None, 10, 16)       64          conv1d_313[0][0]                 
__________________________________________________________________________________________________
add_101 (Add)                   (None, 10, 16)       0           activation_366[0][0]             
                                                                 batch_normalization_214[0][0]    
__________________________________________________________________________________________________
activation_368 (Activation)     (None, 10, 16)       0           add_101[0][0]                    
__________________________________________________________________________________________________
conv1d_314 (Conv1D)             (None, 10, 16)       784         activation_368[0][0]             
__________________________________________________________________________________________________
batch_normalization_215 (BatchN (None, 10, 16)       64          conv1d_314[0][0]                 
__________________________________________________________________________________________________
activation_369 (Activation)     (None, 10, 16)       0           batch_normalization_215[0][0]    
__________________________________________________________________________________________________
conv1d_315 (Conv1D)             (None, 10, 16)       784         activation_369[0][0]             
__________________________________________________________________________________________________
batch_normalization_216 (BatchN (None, 10, 16)       64          conv1d_315[0][0]                 
__________________________________________________________________________________________________
add_102 (Add)                   (None, 10, 16)       0           activation_368[0][0]             
                                                                 batch_normalization_216[0][0]    
__________________________________________________________________________________________________
activation_370 (Activation)     (None, 10, 16)       0           add_102[0][0]                    
__________________________________________________________________________________________________
conv1d_316 (Conv1D)             (None, 5, 32)        1568        activation_370[0][0]             
__________________________________________________________________________________________________
batch_normalization_217 (BatchN (None, 5, 32)        128         conv1d_316[0][0]                 
__________________________________________________________________________________________________
activation_371 (Activation)     (None, 5, 32)        0           batch_normalization_217[0][0]    
__________________________________________________________________________________________________
conv1d_317 (Conv1D)             (None, 5, 32)        3104        activation_371[0][0]             
__________________________________________________________________________________________________
conv1d_318 (Conv1D)             (None, 5, 32)        544         activation_370[0][0]             
__________________________________________________________________________________________________
batch_normalization_218 (BatchN (None, 5, 32)        128         conv1d_317[0][0]                 
__________________________________________________________________________________________________
add_103 (Add)                   (None, 5, 32)        0           conv1d_318[0][0]                 
                                                                 batch_normalization_218[0][0]    
__________________________________________________________________________________________________
activation_372 (Activation)     (None, 5, 32)        0           add_103[0][0]                    
__________________________________________________________________________________________________
conv1d_319 (Conv1D)             (None, 5, 32)        3104        activation_372[0][0]             
__________________________________________________________________________________________________
batch_normalization_219 (BatchN (None, 5, 32)        128         conv1d_319[0][0]                 
__________________________________________________________________________________________________
activation_373 (Activation)     (None, 5, 32)        0           batch_normalization_219[0][0]    
__________________________________________________________________________________________________
conv1d_320 (Conv1D)             (None, 5, 32)        3104        activation_373[0][0]             
__________________________________________________________________________________________________
batch_normalization_220 (BatchN (None, 5, 32)        128         conv1d_320[0][0]                 
__________________________________________________________________________________________________
add_104 (Add)                   (None, 5, 32)        0           activation_372[0][0]             
                                                                 batch_normalization_220[0][0]    
__________________________________________________________________________________________________
activation_374 (Activation)     (None, 5, 32)        0           add_104[0][0]                    
__________________________________________________________________________________________________
conv1d_321 (Conv1D)             (None, 5, 32)        3104        activation_374[0][0]             
__________________________________________________________________________________________________
batch_normalization_221 (BatchN (None, 5, 32)        128         conv1d_321[0][0]                 
__________________________________________________________________________________________________
activation_375 (Activation)     (None, 5, 32)        0           batch_normalization_221[0][0]    
__________________________________________________________________________________________________
conv1d_322 (Conv1D)             (None, 5, 32)        3104        activation_375[0][0]             
__________________________________________________________________________________________________
batch_normalization_222 (BatchN (None, 5, 32)        128         conv1d_322[0][0]                 
__________________________________________________________________________________________________
add_105 (Add)                   (None, 5, 32)        0           activation_374[0][0]             
                                                                 batch_normalization_222[0][0]    
__________________________________________________________________________________________________
activation_376 (Activation)     (None, 5, 32)        0           add_105[0][0]                    
__________________________________________________________________________________________________
conv1d_323 (Conv1D)             (None, 3, 64)        6208        activation_376[0][0]             
__________________________________________________________________________________________________
batch_normalization_223 (BatchN (None, 3, 64)        256         conv1d_323[0][0]                 
__________________________________________________________________________________________________
activation_377 (Activation)     (None, 3, 64)        0           batch_normalization_223[0][0]    
__________________________________________________________________________________________________
conv1d_324 (Conv1D)             (None, 3, 64)        12352       activation_377[0][0]             
__________________________________________________________________________________________________
conv1d_325 (Conv1D)             (None, 3, 64)        2112        activation_376[0][0]             
__________________________________________________________________________________________________
batch_normalization_224 (BatchN (None, 3, 64)        256         conv1d_324[0][0]                 
__________________________________________________________________________________________________
add_106 (Add)                   (None, 3, 64)        0           conv1d_325[0][0]                 
                                                                 batch_normalization_224[0][0]    
__________________________________________________________________________________________________
activation_378 (Activation)     (None, 3, 64)        0           add_106[0][0]                    
__________________________________________________________________________________________________
conv1d_326 (Conv1D)             (None, 3, 64)        12352       activation_378[0][0]             
__________________________________________________________________________________________________
batch_normalization_225 (BatchN (None, 3, 64)        256         conv1d_326[0][0]                 
__________________________________________________________________________________________________
activation_379 (Activation)     (None, 3, 64)        0           batch_normalization_225[0][0]    
__________________________________________________________________________________________________
conv1d_327 (Conv1D)             (None, 3, 64)        12352       activation_379[0][0]             
__________________________________________________________________________________________________
batch_normalization_226 (BatchN (None, 3, 64)        256         conv1d_327[0][0]                 
__________________________________________________________________________________________________
add_107 (Add)                   (None, 3, 64)        0           activation_378[0][0]             
                                                                 batch_normalization_226[0][0]    
__________________________________________________________________________________________________
activation_380 (Activation)     (None, 3, 64)        0           add_107[0][0]                    
__________________________________________________________________________________________________
conv1d_328 (Conv1D)             (None, 3, 64)        12352       activation_380[0][0]             
__________________________________________________________________________________________________
batch_normalization_227 (BatchN (None, 3, 64)        256         conv1d_328[0][0]                 
__________________________________________________________________________________________________
activation_381 (Activation)     (None, 3, 64)        0           batch_normalization_227[0][0]    
__________________________________________________________________________________________________
conv1d_329 (Conv1D)             (None, 3, 64)        12352       activation_381[0][0]             
__________________________________________________________________________________________________
batch_normalization_228 (BatchN (None, 3, 64)        256         conv1d_329[0][0]                 
__________________________________________________________________________________________________
add_108 (Add)                   (None, 3, 64)        0           activation_380[0][0]             
                                                                 batch_normalization_228[0][0]    
__________________________________________________________________________________________________
activation_382 (Activation)     (None, 3, 64)        0           add_108[0][0]                    
__________________________________________________________________________________________________
average_pooling1d_12 (AveragePo (None, 3, 64)        0           activation_382[0][0]             
__________________________________________________________________________________________________
flatten_89 (Flatten)            (None, 192)          0           average_pooling1d_12[0][0]       
__________________________________________________________________________________________________
dense_2157 (Dense)              (None, 4)            772         flatten_89[0][0]                 
==================================================================================================
Total params: 96,004
Trainable params: 94,628
Non-trainable params: 1,376
__________________________________________________________________________________________________
None

Accuracy Train: 84.04%
Accuracy Test: 82.36%
Loss Train: 0.72
Loss Test: 0.83
Numero dati esaminati: 1712
…
