…
 - 3s - loss: 0.2430 - accuracy: 0.9682 - val_loss: 0.9055 - val_accuracy: 0.8372

Number of filters: 16 , Kernel Size: 3 , Strides: 1 Batch Normalization: True , Conv_First: True , Depth Value: 20

Fit: epochs= 110 , batch_size= 64 , verbose= 2 , shuffle= False , validation_split= 0.2 

Model: "model_31"
__________________________________________________________________________________________________
Layer (type)                    Output Shape         Param #     Connected to                     
==================================================================================================
input_31 (InputLayer)           (None, 10, 1)        0                                            
__________________________________________________________________________________________________
conv1d_673 (Conv1D)             (None, 10, 16)       64          input_31[0][0]                   
__________________________________________________________________________________________________
batch_normalization_571 (BatchN (None, 10, 16)       64          conv1d_673[0][0]                 
__________________________________________________________________________________________________
activation_655 (Activation)     (None, 10, 16)       0           batch_normalization_571[0][0]    
__________________________________________________________________________________________________
conv1d_674 (Conv1D)             (None, 10, 16)       784         activation_655[0][0]             
__________________________________________________________________________________________________
batch_normalization_572 (BatchN (None, 10, 16)       64          conv1d_674[0][0]                 
__________________________________________________________________________________________________
activation_656 (Activation)     (None, 10, 16)       0           batch_normalization_572[0][0]    
__________________________________________________________________________________________________
conv1d_675 (Conv1D)             (None, 10, 16)       784         activation_656[0][0]             
__________________________________________________________________________________________________
batch_normalization_573 (BatchN (None, 10, 16)       64          conv1d_675[0][0]                 
__________________________________________________________________________________________________
add_271 (Add)                   (None, 10, 16)       0           activation_655[0][0]             
                                                                 batch_normalization_573[0][0]    
__________________________________________________________________________________________________
activation_657 (Activation)     (None, 10, 16)       0           add_271[0][0]                    
__________________________________________________________________________________________________
conv1d_676 (Conv1D)             (None, 10, 16)       784         activation_657[0][0]             
__________________________________________________________________________________________________
batch_normalization_574 (BatchN (None, 10, 16)       64          conv1d_676[0][0]                 
__________________________________________________________________________________________________
activation_658 (Activation)     (None, 10, 16)       0           batch_normalization_574[0][0]    
__________________________________________________________________________________________________
conv1d_677 (Conv1D)             (None, 10, 16)       784         activation_658[0][0]             
__________________________________________________________________________________________________
batch_normalization_575 (BatchN (None, 10, 16)       64          conv1d_677[0][0]                 
__________________________________________________________________________________________________
add_272 (Add)                   (None, 10, 16)       0           activation_657[0][0]             
                                                                 batch_normalization_575[0][0]    
__________________________________________________________________________________________________
activation_659 (Activation)     (None, 10, 16)       0           add_272[0][0]                    
__________________________________________________________________________________________________
conv1d_678 (Conv1D)             (None, 10, 16)       784         activation_659[0][0]             
__________________________________________________________________________________________________
batch_normalization_576 (BatchN (None, 10, 16)       64          conv1d_678[0][0]                 
__________________________________________________________________________________________________
activation_660 (Activation)     (None, 10, 16)       0           batch_normalization_576[0][0]    
__________________________________________________________________________________________________
conv1d_679 (Conv1D)             (None, 10, 16)       784         activation_660[0][0]             
__________________________________________________________________________________________________
batch_normalization_577 (BatchN (None, 10, 16)       64          conv1d_679[0][0]                 
__________________________________________________________________________________________________
add_273 (Add)                   (None, 10, 16)       0           activation_659[0][0]             
                                                                 batch_normalization_577[0][0]    
__________________________________________________________________________________________________
activation_661 (Activation)     (None, 10, 16)       0           add_273[0][0]                    
__________________________________________________________________________________________________
conv1d_680 (Conv1D)             (None, 5, 32)        1568        activation_661[0][0]             
__________________________________________________________________________________________________
batch_normalization_578 (BatchN (None, 5, 32)        128         conv1d_680[0][0]                 
__________________________________________________________________________________________________
activation_662 (Activation)     (None, 5, 32)        0           batch_normalization_578[0][0]    
__________________________________________________________________________________________________
conv1d_681 (Conv1D)             (None, 5, 32)        3104        activation_662[0][0]             
__________________________________________________________________________________________________
conv1d_682 (Conv1D)             (None, 5, 32)        544         activation_661[0][0]             
__________________________________________________________________________________________________
batch_normalization_579 (BatchN (None, 5, 32)        128         conv1d_681[0][0]                 
__________________________________________________________________________________________________
add_274 (Add)                   (None, 5, 32)        0           conv1d_682[0][0]                 
                                                                 batch_normalization_579[0][0]    
__________________________________________________________________________________________________
activation_663 (Activation)     (None, 5, 32)        0           add_274[0][0]                    
__________________________________________________________________________________________________
conv1d_683 (Conv1D)             (None, 5, 32)        3104        activation_663[0][0]             
__________________________________________________________________________________________________
batch_normalization_580 (BatchN (None, 5, 32)        128         conv1d_683[0][0]                 
__________________________________________________________________________________________________
activation_664 (Activation)     (None, 5, 32)        0           batch_normalization_580[0][0]    
__________________________________________________________________________________________________
conv1d_684 (Conv1D)             (None, 5, 32)        3104        activation_664[0][0]             
__________________________________________________________________________________________________
batch_normalization_581 (BatchN (None, 5, 32)        128         conv1d_684[0][0]                 
__________________________________________________________________________________________________
add_275 (Add)                   (None, 5, 32)        0           activation_663[0][0]             
                                                                 batch_normalization_581[0][0]    
__________________________________________________________________________________________________
activation_665 (Activation)     (None, 5, 32)        0           add_275[0][0]                    
__________________________________________________________________________________________________
conv1d_685 (Conv1D)             (None, 5, 32)        3104        activation_665[0][0]             
__________________________________________________________________________________________________
batch_normalization_582 (BatchN (None, 5, 32)        128         conv1d_685[0][0]                 
__________________________________________________________________________________________________
activation_666 (Activation)     (None, 5, 32)        0           batch_normalization_582[0][0]    
__________________________________________________________________________________________________
conv1d_686 (Conv1D)             (None, 5, 32)        3104        activation_666[0][0]             
__________________________________________________________________________________________________
batch_normalization_583 (BatchN (None, 5, 32)        128         conv1d_686[0][0]                 
__________________________________________________________________________________________________
add_276 (Add)                   (None, 5, 32)        0           activation_665[0][0]             
                                                                 batch_normalization_583[0][0]    
__________________________________________________________________________________________________
activation_667 (Activation)     (None, 5, 32)        0           add_276[0][0]                    
__________________________________________________________________________________________________
conv1d_687 (Conv1D)             (None, 3, 64)        6208        activation_667[0][0]             
__________________________________________________________________________________________________
batch_normalization_584 (BatchN (None, 3, 64)        256         conv1d_687[0][0]                 
__________________________________________________________________________________________________
activation_668 (Activation)     (None, 3, 64)        0           batch_normalization_584[0][0]    
__________________________________________________________________________________________________
conv1d_688 (Conv1D)             (None, 3, 64)        12352       activation_668[0][0]             
__________________________________________________________________________________________________
conv1d_689 (Conv1D)             (None, 3, 64)        2112        activation_667[0][0]             
__________________________________________________________________________________________________
batch_normalization_585 (BatchN (None, 3, 64)        256         conv1d_688[0][0]                 
__________________________________________________________________________________________________
add_277 (Add)                   (None, 3, 64)        0           conv1d_689[0][0]                 
                                                                 batch_normalization_585[0][0]    
__________________________________________________________________________________________________
activation_669 (Activation)     (None, 3, 64)        0           add_277[0][0]                    
__________________________________________________________________________________________________
conv1d_690 (Conv1D)             (None, 3, 64)        12352       activation_669[0][0]             
__________________________________________________________________________________________________
batch_normalization_586 (BatchN (None, 3, 64)        256         conv1d_690[0][0]                 
__________________________________________________________________________________________________
activation_670 (Activation)     (None, 3, 64)        0           batch_normalization_586[0][0]    
__________________________________________________________________________________________________
conv1d_691 (Conv1D)             (None, 3, 64)        12352       activation_670[0][0]             
__________________________________________________________________________________________________
batch_normalization_587 (BatchN (None, 3, 64)        256         conv1d_691[0][0]                 
__________________________________________________________________________________________________
add_278 (Add)                   (None, 3, 64)        0           activation_669[0][0]             
                                                                 batch_normalization_587[0][0]    
__________________________________________________________________________________________________
activation_671 (Activation)     (None, 3, 64)        0           add_278[0][0]                    
__________________________________________________________________________________________________
conv1d_692 (Conv1D)             (None, 3, 64)        12352       activation_671[0][0]             
__________________________________________________________________________________________________
batch_normalization_588 (BatchN (None, 3, 64)        256         conv1d_692[0][0]                 
__________________________________________________________________________________________________
activation_672 (Activation)     (None, 3, 64)        0           batch_normalization_588[0][0]    
__________________________________________________________________________________________________
conv1d_693 (Conv1D)             (None, 3, 64)        12352       activation_672[0][0]             
__________________________________________________________________________________________________
batch_normalization_589 (BatchN (None, 3, 64)        256         conv1d_693[0][0]                 
__________________________________________________________________________________________________
add_279 (Add)                   (None, 3, 64)        0           activation_671[0][0]             
                                                                 batch_normalization_589[0][0]    
__________________________________________________________________________________________________
activation_673 (Activation)     (None, 3, 64)        0           add_279[0][0]                    
__________________________________________________________________________________________________
average_pooling1d_31 (AveragePo (None, 3, 64)        0           activation_673[0][0]             
__________________________________________________________________________________________________
flatten_73 (Flatten)            (None, 192)          0           average_pooling1d_31[0][0]       
__________________________________________________________________________________________________
dense_1201 (Dense)              (None, 4)            772         flatten_73[0][0]                 
==================================================================================================
Total params: 96,004
Trainable params: 94,628
Non-trainable params: 1,376
__________________________________________________________________________________________________
None

Accuracy Train: 87.97%
Accuracy Test: 82.83%
Loss Train: 0.56
Loss Test: 0.85
Numero dati esaminati: 1712
…
