…
 - 0s - loss: 0.1916 - accuracy: 0.9091 - val_loss: 0.5569 - val_accuracy: 0.8540
Epoch 109/110
 - 0s - loss: 0.1856 - accuracy: 0.9111 - val_loss: 0.5510 - val_accuracy: 0.8562
Epoch 110/110
 - 0s - loss: 0.1902 - accuracy: 0.9096 - val_loss: 0.5634 - val_accuracy: 0.8584

Fit: epochs= 110 , batch_size= 64 , verbose= 2 , shuffle= False , validation_split= 0.2 

Model: "sequential_254"
_________________________________________________________________
Layer (type)                 Output Shape              Param #   
=================================================================
dense_1706 (Dense)           (None, 10)                110       
_________________________________________________________________
dense_1707 (Dense)           (None, 500)               5500      
_________________________________________________________________
dense_1708 (Dense)           (None, 300)               150300    
_________________________________________________________________
dense_1709 (Dense)           (None, 200)               60200     
_________________________________________________________________
dense_1710 (Dense)           (None, 100)               20100     
_________________________________________________________________
dense_1711 (Dense)           (None, 50)                5050      
_________________________________________________________________
dense_1712 (Dense)           (None, 20)                1020      
_________________________________________________________________
dense_1713 (Dense)           (None, 4)                 84        
=================================================================
Total params: 242,364
Trainable params: 242,364
Non-trainable params: 0
_________________________________________________________________
None

Accuracy Train: 90.17%
Accuracy Test: 84.40%
Loss Train: 0.26
Loss Test: 0.65
Numero dati esaminati: 1712
True Positive 1445
False Positive 267


------------------------------------------------------------------------
…
