…
 - 1s - loss: 0.9576 - accuracy: 0.5740 - val_loss: 1.2145 - val_accuracy: 0.4873
Epoch 127/128
 - 1s - loss: 0.8933 - accuracy: 0.5930 - val_loss: 1.2185 - val_accuracy: 0.4819
Epoch 128/128
 - 1s - loss: 0.8804 - accuracy: 0.5969 - val_loss: 1.2534 - val_accuracy: 0.4928

Fit: epochs= 128 , batch_size= 32 , verbose= 2 , shuffle= False , validation_split= 0.2 

Model: "sequential_1"
_________________________________________________________________
Layer (type)                 Output Shape              Param #   
=================================================================
dense_1 (Dense)              (None, 10)                110       
_________________________________________________________________
dense_2 (Dense)              (None, 500)               5500      
_________________________________________________________________
dense_3 (Dense)              (None, 300)               150300    
_________________________________________________________________
dense_4 (Dense)              (None, 200)               60200     
_________________________________________________________________
dense_5 (Dense)              (None, 100)               20100     
_________________________________________________________________
dense_6 (Dense)              (None, 50)                5050      
_________________________________________________________________
dense_7 (Dense)              (None, 20)                1020      
_________________________________________________________________
dense_8 (Dense)              (None, 4)                 84        
=================================================================
Total params: 242,364
Trainable params: 242,364
Non-trainable params: 0
_________________________________________________________________
None

Accuracy Train: 59.77%
Accuracy Test: 31.71%
Loss Train: 0.91
Loss Test: 4.48
Numero dati esaminati: 4280
True Positive 1357
False Positive 2923
