…
 - 1s - loss: 0.8755 - accuracy: 0.5946 - val_loss: 1.1531 - val_accuracy: 0.5374
Epoch 127/128
 - 1s - loss: 0.9235 - accuracy: 0.5895 - val_loss: 1.0796 - val_accuracy: 0.5444
Epoch 128/128
 - 1s - loss: 0.8412 - accuracy: 0.6192 - val_loss: 1.0126 - val_accuracy: 0.5695

Fit: epochs= 128 , batch_size= 32 , verbose= 2 , shuffle= False , validation_split= 0.2 

Model: "sequential_1"
_________________________________________________________________
Layer (type)                 Output Shape              Param #   
=================================================================
dense_1 (Dense)              (None, 10)                110       
_________________________________________________________________
dense_2 (Dense)              (None, 500)               5500      
_________________________________________________________________
dense_3 (Dense)              (None, 300)               150300    
_________________________________________________________________
dense_4 (Dense)              (None, 200)               60200     
_________________________________________________________________
dense_5 (Dense)              (None, 100)               20100     
_________________________________________________________________
dense_6 (Dense)              (None, 50)                5050      
_________________________________________________________________
dense_7 (Dense)              (None, 20)                1020      
_________________________________________________________________
dense_8 (Dense)              (None, 4)                 84        
=================================================================
Total params: 242,364
Trainable params: 242,364
Non-trainable params: 0
_________________________________________________________________
None

Accuracy Train: 61.74%
Accuracy Test: 29.42%
Loss Train: 0.86
Loss Test: 4.26
Numero dati esaminati: 4280
True Positive 1259
False Positive 3021
