…
 - 1s - loss: 0.2971 - accuracy: 0.8761 - val_loss: 0.6028 - val_accuracy: 0.8188
Epoch 127/128
 - 1s - loss: 0.3043 - accuracy: 0.8738 - val_loss: 0.6060 - val_accuracy: 0.8221
Epoch 128/128
 - 1s - loss: 0.4110 - accuracy: 0.8349 - val_loss: 0.5053 - val_accuracy: 0.8156

Fit: epochs= 128 , batch_size= 32 , verbose= 2 , shuffle= False , validation_split= 0.2 

Model: "sequential_1"
_________________________________________________________________
Layer (type)                 Output Shape              Param #   
=================================================================
dense_1 (Dense)              (None, 10)                110       
_________________________________________________________________
dense_2 (Dense)              (None, 500)               5500      
_________________________________________________________________
dense_3 (Dense)              (None, 300)               150300    
_________________________________________________________________
dense_4 (Dense)              (None, 200)               60200     
_________________________________________________________________
dense_5 (Dense)              (None, 100)               20100     
_________________________________________________________________
dense_6 (Dense)              (None, 50)                5050      
_________________________________________________________________
dense_7 (Dense)              (None, 20)                1020      
_________________________________________________________________
dense_8 (Dense)              (None, 4)                 84        
=================================================================
Total params: 242,364
Trainable params: 242,364
Non-trainable params: 0
_________________________________________________________________
None

Accuracy Train: 84.25%
Accuracy Test: 41.40%
Loss Train: 0.40
Loss Test: 6.58
Numero dati esaminati: 4280
True Positive 1772
False Positive 2508
