…
 - 1s - loss: 0.1762 - accuracy: 0.9175 - val_loss: 0.6273 - val_accuracy: 0.8620
Epoch 127/128
 - 1s - loss: 0.1881 - accuracy: 0.9162 - val_loss: 0.5876 - val_accuracy: 0.8708
Epoch 128/128
 - 1s - loss: 0.1840 - accuracy: 0.9146 - val_loss: 0.5881 - val_accuracy: 0.8650

Fit: epochs= 128 , batch_size= 32 , verbose= 2 , shuffle= False , validation_split= 0.2 

Model: "sequential_6"
_________________________________________________________________
Layer (type)                 Output Shape              Param #   
=================================================================
dense_41 (Dense)             (None, 10)                110       
_________________________________________________________________
dense_42 (Dense)             (None, 500)               5500      
_________________________________________________________________
dense_43 (Dense)             (None, 300)               150300    
_________________________________________________________________
dense_44 (Dense)             (None, 200)               60200     
_________________________________________________________________
dense_45 (Dense)             (None, 100)               20100     
_________________________________________________________________
dense_46 (Dense)             (None, 50)                5050      
_________________________________________________________________
dense_47 (Dense)             (None, 20)                1020      
_________________________________________________________________
dense_48 (Dense)             (None, 4)                 84        
=================================================================
Total params: 242,364
Trainable params: 242,364
Non-trainable params: 0
_________________________________________________________________
None

Accuracy Train: 90.36%
Accuracy Test: 85.11%
Loss Train: 0.26
Loss Test: 0.58
Numero dati esaminati: 1712
True Positive 1457
False Positive 255
