…
 - 0s - loss: 0.1962 - accuracy: 0.9107 - val_loss: 0.5036 - val_accuracy: 0.8708
Epoch 109/110
 - 0s - loss: 0.1943 - accuracy: 0.9120 - val_loss: 0.4886 - val_accuracy: 0.8679
Epoch 110/110
 - 0s - loss: 0.1943 - accuracy: 0.9106 - val_loss: 0.4619 - val_accuracy: 0.8584

Fit: epochs= 110 , batch_size= 64 , verbose= 2 , shuffle= False , validation_split= 0.2 

Model: "sequential_243"
_________________________________________________________________
Layer (type)                 Output Shape              Param #   
=================================================================
dense_1618 (Dense)           (None, 10)                110       
_________________________________________________________________
dense_1619 (Dense)           (None, 500)               5500      
_________________________________________________________________
dense_1620 (Dense)           (None, 300)               150300    
_________________________________________________________________
dense_1621 (Dense)           (None, 200)               60200     
_________________________________________________________________
dense_1622 (Dense)           (None, 100)               20100     
_________________________________________________________________
dense_1623 (Dense)           (None, 50)                5050      
_________________________________________________________________
dense_1624 (Dense)           (None, 20)                1020      
_________________________________________________________________
dense_1625 (Dense)           (None, 4)                 84        
=================================================================
Total params: 242,364
Trainable params: 242,364
Non-trainable params: 0
_________________________________________________________________
None

Accuracy Train: 90.36%
Accuracy Test: 84.64%
Loss Train: 0.25
Loss Test: 0.55
Numero dati esaminati: 1712
True Positive 1449
False Positive 263


------------------------------------------------------------------------
…
