…
 - 2s - loss: 1.0528 - accuracy: 0.5175 - val_loss: 2.9505 - val_accuracy: 0.2519
Epoch 127/128
 - 2s - loss: 1.0193 - accuracy: 0.5315 - val_loss: 3.0308 - val_accuracy: 0.2621
Epoch 128/128
 - 2s - loss: 0.9987 - accuracy: 0.5389 - val_loss: 3.0409 - val_accuracy: 0.2609

Fit: epochs= 128 , batch_size= 32 , verbose= 2 , shuffle= False , validation_split= 0.2 

Model: "sequential_1"
_________________________________________________________________
Layer (type)                 Output Shape              Param #   
=================================================================
dense_1 (Dense)              (None, 10)                110       
_________________________________________________________________
dense_2 (Dense)              (None, 500)               5500      
_________________________________________________________________
dense_3 (Dense)              (None, 300)               150300    
_________________________________________________________________
dense_4 (Dense)              (None, 200)               60200     
_________________________________________________________________
dense_5 (Dense)              (None, 100)               20100     
_________________________________________________________________
dense_6 (Dense)              (None, 50)                5050      
_________________________________________________________________
dense_7 (Dense)              (None, 20)                1020      
_________________________________________________________________
dense_8 (Dense)              (None, 4)                 84        
=================================================================
Total params: 242,364
Trainable params: 242,364
Non-trainable params: 0
_________________________________________________________________
None

Accuracy Train: 49.11%
Accuracy Test: 23.01%
Loss Train: 1.40
Loss Test: 29.00
Numero dati esaminati: 4280
True Positive 985
False Positive 3295
