…
 - 1s - loss: 0.1689 - accuracy: 0.9767 - val_loss: 1.4837 - val_accuracy: 0.7940

Number of filters: 16 , Kernel Size: 3 , Strides: 1 Batch Normalization: True , Conv_First: True , Depth Value: 20

Fit: epochs= 512 , batch_size= 64 , verbose= 2 , shuffle= False , validation_split= 0.2 

Model: "model_13"
__________________________________________________________________________________________________
Layer (type)                    Output Shape         Param #     Connected to                     
==================================================================================================
input_13 (InputLayer)           (None, 10, 1)        0                                            
__________________________________________________________________________________________________
conv1d_295 (Conv1D)             (None, 10, 16)       64          input_13[0][0]                   
__________________________________________________________________________________________________
batch_normalization_229 (BatchN (None, 10, 16)       64          conv1d_295[0][0]                 
__________________________________________________________________________________________________
activation_313 (Activation)     (None, 10, 16)       0           batch_normalization_229[0][0]    
__________________________________________________________________________________________________
conv1d_296 (Conv1D)             (None, 10, 16)       784         activation_313[0][0]             
__________________________________________________________________________________________________
batch_normalization_230 (BatchN (None, 10, 16)       64          conv1d_296[0][0]                 
__________________________________________________________________________________________________
activation_314 (Activation)     (None, 10, 16)       0           batch_normalization_230[0][0]    
__________________________________________________________________________________________________
conv1d_297 (Conv1D)             (None, 10, 16)       784         activation_314[0][0]             
__________________________________________________________________________________________________
batch_normalization_231 (BatchN (None, 10, 16)       64          conv1d_297[0][0]                 
__________________________________________________________________________________________________
add_109 (Add)                   (None, 10, 16)       0           activation_313[0][0]             
                                                                 batch_normalization_231[0][0]    
__________________________________________________________________________________________________
activation_315 (Activation)     (None, 10, 16)       0           add_109[0][0]                    
__________________________________________________________________________________________________
conv1d_298 (Conv1D)             (None, 10, 16)       784         activation_315[0][0]             
__________________________________________________________________________________________________
batch_normalization_232 (BatchN (None, 10, 16)       64          conv1d_298[0][0]                 
__________________________________________________________________________________________________
activation_316 (Activation)     (None, 10, 16)       0           batch_normalization_232[0][0]    
__________________________________________________________________________________________________
conv1d_299 (Conv1D)             (None, 10, 16)       784         activation_316[0][0]             
__________________________________________________________________________________________________
batch_normalization_233 (BatchN (None, 10, 16)       64          conv1d_299[0][0]                 
__________________________________________________________________________________________________
add_110 (Add)                   (None, 10, 16)       0           activation_315[0][0]             
                                                                 batch_normalization_233[0][0]    
__________________________________________________________________________________________________
activation_317 (Activation)     (None, 10, 16)       0           add_110[0][0]                    
__________________________________________________________________________________________________
conv1d_300 (Conv1D)             (None, 10, 16)       784         activation_317[0][0]             
__________________________________________________________________________________________________
batch_normalization_234 (BatchN (None, 10, 16)       64          conv1d_300[0][0]                 
__________________________________________________________________________________________________
activation_318 (Activation)     (None, 10, 16)       0           batch_normalization_234[0][0]    
__________________________________________________________________________________________________
conv1d_301 (Conv1D)             (None, 10, 16)       784         activation_318[0][0]             
__________________________________________________________________________________________________
batch_normalization_235 (BatchN (None, 10, 16)       64          conv1d_301[0][0]                 
__________________________________________________________________________________________________
add_111 (Add)                   (None, 10, 16)       0           activation_317[0][0]             
                                                                 batch_normalization_235[0][0]    
__________________________________________________________________________________________________
activation_319 (Activation)     (None, 10, 16)       0           add_111[0][0]                    
__________________________________________________________________________________________________
conv1d_302 (Conv1D)             (None, 5, 32)        1568        activation_319[0][0]             
__________________________________________________________________________________________________
batch_normalization_236 (BatchN (None, 5, 32)        128         conv1d_302[0][0]                 
__________________________________________________________________________________________________
activation_320 (Activation)     (None, 5, 32)        0           batch_normalization_236[0][0]    
__________________________________________________________________________________________________
conv1d_303 (Conv1D)             (None, 5, 32)        3104        activation_320[0][0]             
__________________________________________________________________________________________________
conv1d_304 (Conv1D)             (None, 5, 32)        544         activation_319[0][0]             
__________________________________________________________________________________________________
batch_normalization_237 (BatchN (None, 5, 32)        128         conv1d_303[0][0]                 
__________________________________________________________________________________________________
add_112 (Add)                   (None, 5, 32)        0           conv1d_304[0][0]                 
                                                                 batch_normalization_237[0][0]    
__________________________________________________________________________________________________
activation_321 (Activation)     (None, 5, 32)        0           add_112[0][0]                    
__________________________________________________________________________________________________
conv1d_305 (Conv1D)             (None, 5, 32)        3104        activation_321[0][0]             
__________________________________________________________________________________________________
batch_normalization_238 (BatchN (None, 5, 32)        128         conv1d_305[0][0]                 
__________________________________________________________________________________________________
activation_322 (Activation)     (None, 5, 32)        0           batch_normalization_238[0][0]    
__________________________________________________________________________________________________
conv1d_306 (Conv1D)             (None, 5, 32)        3104        activation_322[0][0]             
__________________________________________________________________________________________________
batch_normalization_239 (BatchN (None, 5, 32)        128         conv1d_306[0][0]                 
__________________________________________________________________________________________________
add_113 (Add)                   (None, 5, 32)        0           activation_321[0][0]             
                                                                 batch_normalization_239[0][0]    
__________________________________________________________________________________________________
activation_323 (Activation)     (None, 5, 32)        0           add_113[0][0]                    
__________________________________________________________________________________________________
conv1d_307 (Conv1D)             (None, 5, 32)        3104        activation_323[0][0]             
__________________________________________________________________________________________________
batch_normalization_240 (BatchN (None, 5, 32)        128         conv1d_307[0][0]                 
__________________________________________________________________________________________________
activation_324 (Activation)     (None, 5, 32)        0           batch_normalization_240[0][0]    
__________________________________________________________________________________________________
conv1d_308 (Conv1D)             (None, 5, 32)        3104        activation_324[0][0]             
__________________________________________________________________________________________________
batch_normalization_241 (BatchN (None, 5, 32)        128         conv1d_308[0][0]                 
__________________________________________________________________________________________________
add_114 (Add)                   (None, 5, 32)        0           activation_323[0][0]             
                                                                 batch_normalization_241[0][0]    
__________________________________________________________________________________________________
activation_325 (Activation)     (None, 5, 32)        0           add_114[0][0]                    
__________________________________________________________________________________________________
conv1d_309 (Conv1D)             (None, 3, 64)        6208        activation_325[0][0]             
__________________________________________________________________________________________________
batch_normalization_242 (BatchN (None, 3, 64)        256         conv1d_309[0][0]                 
__________________________________________________________________________________________________
activation_326 (Activation)     (None, 3, 64)        0           batch_normalization_242[0][0]    
__________________________________________________________________________________________________
conv1d_310 (Conv1D)             (None, 3, 64)        12352       activation_326[0][0]             
__________________________________________________________________________________________________
conv1d_311 (Conv1D)             (None, 3, 64)        2112        activation_325[0][0]             
__________________________________________________________________________________________________
batch_normalization_243 (BatchN (None, 3, 64)        256         conv1d_310[0][0]                 
__________________________________________________________________________________________________
add_115 (Add)                   (None, 3, 64)        0           conv1d_311[0][0]                 
                                                                 batch_normalization_243[0][0]    
__________________________________________________________________________________________________
activation_327 (Activation)     (None, 3, 64)        0           add_115[0][0]                    
__________________________________________________________________________________________________
conv1d_312 (Conv1D)             (None, 3, 64)        12352       activation_327[0][0]             
__________________________________________________________________________________________________
batch_normalization_244 (BatchN (None, 3, 64)        256         conv1d_312[0][0]                 
__________________________________________________________________________________________________
activation_328 (Activation)     (None, 3, 64)        0           batch_normalization_244[0][0]    
__________________________________________________________________________________________________
conv1d_313 (Conv1D)             (None, 3, 64)        12352       activation_328[0][0]             
__________________________________________________________________________________________________
batch_normalization_245 (BatchN (None, 3, 64)        256         conv1d_313[0][0]                 
__________________________________________________________________________________________________
add_116 (Add)                   (None, 3, 64)        0           activation_327[0][0]             
                                                                 batch_normalization_245[0][0]    
__________________________________________________________________________________________________
activation_329 (Activation)     (None, 3, 64)        0           add_116[0][0]                    
__________________________________________________________________________________________________
conv1d_314 (Conv1D)             (None, 3, 64)        12352       activation_329[0][0]             
__________________________________________________________________________________________________
batch_normalization_246 (BatchN (None, 3, 64)        256         conv1d_314[0][0]                 
__________________________________________________________________________________________________
activation_330 (Activation)     (None, 3, 64)        0           batch_normalization_246[0][0]    
__________________________________________________________________________________________________
conv1d_315 (Conv1D)             (None, 3, 64)        12352       activation_330[0][0]             
__________________________________________________________________________________________________
batch_normalization_247 (BatchN (None, 3, 64)        256         conv1d_315[0][0]                 
__________________________________________________________________________________________________
add_117 (Add)                   (None, 3, 64)        0           activation_329[0][0]             
                                                                 batch_normalization_247[0][0]    
__________________________________________________________________________________________________
activation_331 (Activation)     (None, 3, 64)        0           add_117[0][0]                    
__________________________________________________________________________________________________
average_pooling1d_13 (AveragePo (None, 3, 64)        0           activation_331[0][0]             
__________________________________________________________________________________________________
flatten_55 (Flatten)            (None, 192)          0           average_pooling1d_13[0][0]       
__________________________________________________________________________________________________
dense_1183 (Dense)              (None, 4)            772         flatten_55[0][0]                 
==================================================================================================
Total params: 96,004
Trainable params: 94,628
Non-trainable params: 1,376
__________________________________________________________________________________________________
None

Accuracy Train: 82.48%
Accuracy Test: 75.40%
Loss Train: 1.07
Loss Test: 1.56
Numero dati esaminati: 752
…
