…
 - 3s - loss: 0.1302 - accuracy: 0.9410 - val_loss: 0.6876 - val_accuracy: 0.8825
Epoch 511/512
 - 2s - loss: 0.1132 - accuracy: 0.9461 - val_loss: 0.7791 - val_accuracy: 0.8810
Epoch 512/512
 - 3s - loss: 0.1160 - accuracy: 0.9467 - val_loss: 0.7459 - val_accuracy: 0.8803

Fit: epochs= 512 , batch_size= 64 , verbose= 2 , shuffle= False , validation_split= 0.2 

Model: "sequential_13"
_________________________________________________________________
Layer (type)                 Output Shape              Param #   
=================================================================
conv1d_13 (Conv1D)           (None, 10, 500)           1000      
_________________________________________________________________
activation_25 (Activation)   (None, 10, 500)           0         
_________________________________________________________________
flatten_13 (Flatten)         (None, 5000)              0         
_________________________________________________________________
dropout_13 (Dropout)         (None, 5000)              0         
_________________________________________________________________
dense_85 (Dense)             (None, 400)               2000400   
_________________________________________________________________
dense_86 (Dense)             (None, 300)               120300    
_________________________________________________________________
dense_87 (Dense)             (None, 200)               60200     
_________________________________________________________________
dense_88 (Dense)             (None, 100)               20100     
_________________________________________________________________
dense_89 (Dense)             (None, 50)                5050      
_________________________________________________________________
dense_90 (Dense)             (None, 20)                1020      
_________________________________________________________________
dense_91 (Dense)             (None, 4)                 84        
_________________________________________________________________
activation_26 (Activation)   (None, 4)                 0         
=================================================================
Total params: 2,208,154
Trainable params: 2,208,154
Non-trainable params: 0
_________________________________________________________________
None

Accuracy Train: 94.06%
Accuracy Test: 88.20%
Loss Train: 0.23
Loss Test: 0.73
Numero dati esaminati: 1712
True Positive 1510
False Positive 202


------------------------------------------------------------------------
…
