…
 - 1s - loss: 0.8993 - accuracy: 0.5818 - val_loss: 2.7429 - val_accuracy: 0.2827
Epoch 127/128
 - 1s - loss: 0.9247 - accuracy: 0.5768 - val_loss: 2.7880 - val_accuracy: 0.2880
Epoch 128/128
 - 1s - loss: 0.8905 - accuracy: 0.5879 - val_loss: 3.0021 - val_accuracy: 0.2728

Fit: epochs= 128 , batch_size= 32 , verbose= 2 , shuffle= False , validation_split= 0.2 

Model: "sequential_1"
_________________________________________________________________
Layer (type)                 Output Shape              Param #   
=================================================================
dense_1 (Dense)              (None, 10)                110       
_________________________________________________________________
dense_2 (Dense)              (None, 500)               5500      
_________________________________________________________________
dense_3 (Dense)              (None, 300)               150300    
_________________________________________________________________
dense_4 (Dense)              (None, 200)               60200     
_________________________________________________________________
dense_5 (Dense)              (None, 100)               20100     
_________________________________________________________________
dense_6 (Dense)              (None, 50)                5050      
_________________________________________________________________
dense_7 (Dense)              (None, 20)                1020      
_________________________________________________________________
dense_8 (Dense)              (None, 4)                 84        
=================================================================
Total params: 242,364
Trainable params: 242,364
Non-trainable params: 0
_________________________________________________________________
None

Accuracy Train: 52.85%
Accuracy Test: 24.79%
Loss Train: 1.33
Loss Test: 8.64
Numero dati esaminati: 4280
True Positive 1061
False Positive 3219
