…
 - 2s - loss: 0.1263 - accuracy: 0.9454 - val_loss: 0.6919 - val_accuracy: 0.8759
Epoch 511/512
 - 2s - loss: 0.1219 - accuracy: 0.9458 - val_loss: 0.6526 - val_accuracy: 0.8839
Epoch 512/512
 - 2s - loss: 0.1327 - accuracy: 0.9405 - val_loss: 0.6923 - val_accuracy: 0.8686

Fit: epochs= 512 , batch_size= 64 , verbose= 2 , shuffle= False , validation_split= 0.2 

Model: "sequential_79"
_________________________________________________________________
Layer (type)                 Output Shape              Param #   
=================================================================
lstm_37 (LSTM)               (None, 500)               1022000   
_________________________________________________________________
dropout_79 (Dropout)         (None, 500)               0         
_________________________________________________________________
dense_511 (Dense)            (None, 300)               150300    
_________________________________________________________________
dense_512 (Dense)            (None, 200)               60200     
_________________________________________________________________
dense_513 (Dense)            (None, 100)               20100     
_________________________________________________________________
dense_514 (Dense)            (None, 50)                5050      
_________________________________________________________________
dense_515 (Dense)            (None, 20)                1020      
_________________________________________________________________
dense_516 (Dense)            (None, 4)                 84        
=================================================================
Total params: 1,258,754
Trainable params: 1,258,754
Non-trainable params: 0
_________________________________________________________________
None

Accuracy Train: 93.27%
Accuracy Test: 86.86%
Loss Train: 0.23
Loss Test: 0.66
Numero dati esaminati: 1712
True Positive 1487
False Positive 225


------------------------------------------------------------------------
…
