…
 - 2s - loss: 1.0556 - accuracy: 0.5147 - val_loss: 4.4231 - val_accuracy: 0.2602
Epoch 127/128
 - 2s - loss: 1.0740 - accuracy: 0.4995 - val_loss: 4.2002 - val_accuracy: 0.2631
Epoch 128/128
 - 2s - loss: 1.0572 - accuracy: 0.5117 - val_loss: 4.9455 - val_accuracy: 0.2512

Fit: epochs= 128 , batch_size= 32 , verbose= 2 , shuffle= False , validation_split= 0.2 

Model: "sequential_1"
_________________________________________________________________
Layer (type)                 Output Shape              Param #   
=================================================================
dense_1 (Dense)              (None, 10)                110       
_________________________________________________________________
dense_2 (Dense)              (None, 500)               5500      
_________________________________________________________________
dense_3 (Dense)              (None, 300)               150300    
_________________________________________________________________
dense_4 (Dense)              (None, 200)               60200     
_________________________________________________________________
dense_5 (Dense)              (None, 100)               20100     
_________________________________________________________________
dense_6 (Dense)              (None, 50)                5050      
_________________________________________________________________
dense_7 (Dense)              (None, 20)                1020      
_________________________________________________________________
dense_8 (Dense)              (None, 4)                 84        
=================================================================
Total params: 242,364
Trainable params: 242,364
Non-trainable params: 0
_________________________________________________________________
None

Accuracy Train: 48.04%
Accuracy Test: 23.50%
Loss Train: 1.81
Loss Test: 21.13
Numero dati esaminati: 4280
True Positive 1006
False Positive 3274
