…
 - 11s - loss: 0.2717 - accuracy: 0.8746 - val_loss: 0.4612 - val_accuracy: 0.8496
Epoch 109/110
 - 11s - loss: 0.2685 - accuracy: 0.8742 - val_loss: 0.4762 - val_accuracy: 0.8540
Epoch 110/110
 - 12s - loss: 0.2774 - accuracy: 0.8759 - val_loss: 0.4727 - val_accuracy: 0.8518

Fit: epochs= 110 , batch_size= 64 , verbose= 2 , shuffle= False , validation_split= 0.2 

Model: "sequential_1"
_________________________________________________________________
Layer (type)                 Output Shape              Param #   
=================================================================
conv1d_1 (Conv1D)            (None, 10, 500)           1000      
_________________________________________________________________
activation_1 (Activation)    (None, 10, 500)           0         
_________________________________________________________________
lstm_1 (LSTM)                (None, 400)               1441600   
_________________________________________________________________
dropout_1 (Dropout)          (None, 400)               0         
_________________________________________________________________
dense_1 (Dense)              (None, 300)               120300    
_________________________________________________________________
dense_2 (Dense)              (None, 200)               60200     
_________________________________________________________________
dense_3 (Dense)              (None, 100)               20100     
_________________________________________________________________
dense_4 (Dense)              (None, 50)                5050      
_________________________________________________________________
dense_5 (Dense)              (None, 20)                1020      
_________________________________________________________________
dense_6 (Dense)              (None, 4)                 84        
=================================================================
Total params: 1,649,354
Trainable params: 1,649,354
Non-trainable params: 0
_________________________________________________________________
None

Accuracy Train: 87.12%
Accuracy Test: 85.69%
Loss Train: 0.31
Loss Test: 0.42
Numero dati esaminati: 1712
True Positive 1467
False Positive 245


------------------------------------------------------------------------
…
