…
 - 16s - loss: 0.3108 - accuracy: 0.8684 - val_loss: 1.1919 - val_accuracy: 0.7387
Epoch 109/110
 - 16s - loss: 0.3466 - accuracy: 0.8578 - val_loss: 1.0390 - val_accuracy: 0.7372
Epoch 110/110
 - 15s - loss: 0.3345 - accuracy: 0.8633 - val_loss: 1.0627 - val_accuracy: 0.7401

Fit: epochs= 110 , batch_size= 64 , verbose= 2 , shuffle= False , validation_split= 0.2 

Model: "sequential_19"
_________________________________________________________________
Layer (type)                 Output Shape              Param #   
=================================================================
conv1d_19 (Conv1D)           (None, 10, 500)           1000      
_________________________________________________________________
activation_19 (Activation)   (None, 10, 500)           0         
_________________________________________________________________
lstm_19 (LSTM)               (None, 400)               1441600   
_________________________________________________________________
dropout_19 (Dropout)         (None, 400)               0         
_________________________________________________________________
dense_109 (Dense)            (None, 300)               120300    
_________________________________________________________________
dense_110 (Dense)            (None, 200)               60200     
_________________________________________________________________
dense_111 (Dense)            (None, 100)               20100     
_________________________________________________________________
dense_112 (Dense)            (None, 50)                5050      
_________________________________________________________________
dense_113 (Dense)            (None, 20)                1020      
_________________________________________________________________
dense_114 (Dense)            (None, 4)                 84        
=================================================================
Total params: 1,649,354
Trainable params: 1,649,354
Non-trainable params: 0
_________________________________________________________________
None

Accuracy Train: 85.05%
Accuracy Test: 74.24%
Loss Train: 0.45
Loss Test: 1.06
Numero dati esaminati: 1712
True Positive 1271
False Positive 441


------------------------------------------------------------------------
…
