…
 - 2s - loss: 0.1361 - accuracy: 0.9374 - val_loss: 0.8465 - val_accuracy: 0.8752
Epoch 511/512
 - 2s - loss: 0.1372 - accuracy: 0.9388 - val_loss: 0.7961 - val_accuracy: 0.8759
Epoch 512/512
 - 2s - loss: 0.1330 - accuracy: 0.9403 - val_loss: 0.7700 - val_accuracy: 0.8788

Fit: epochs= 512 , batch_size= 64 , verbose= 2 , shuffle= False , validation_split= 0.2 

Model: "sequential_85"
_________________________________________________________________
Layer (type)                 Output Shape              Param #   
=================================================================
lstm_43 (LSTM)               (None, 500)               1022000   
_________________________________________________________________
dropout_85 (Dropout)         (None, 500)               0         
_________________________________________________________________
dense_547 (Dense)            (None, 300)               150300    
_________________________________________________________________
dense_548 (Dense)            (None, 200)               60200     
_________________________________________________________________
dense_549 (Dense)            (None, 100)               20100     
_________________________________________________________________
dense_550 (Dense)            (None, 50)                5050      
_________________________________________________________________
dense_551 (Dense)            (None, 20)                1020      
_________________________________________________________________
dense_552 (Dense)            (None, 4)                 84        
=================================================================
Total params: 1,258,754
Trainable params: 1,258,754
Non-trainable params: 0
_________________________________________________________________
None

Accuracy Train: 93.41%
Accuracy Test: 87.15%
Loss Train: 0.25
Loss Test: 0.76
Numero dati esaminati: 1712
True Positive 1492
False Positive 220


------------------------------------------------------------------------
…
