…
 - 3s - loss: 0.2073 - accuracy: 0.9854 - val_loss: 0.9181 - val_accuracy: 0.8562

Number of filters: 16 , Kernel Size: 3 , Strides: 1 Batch Normalization: True , Conv_First: True , Depth Value: 20

Fit: epochs= 128 , batch_size= 32 , verbose= 2 , shuffle= False , validation_split= 0.2 

Model: "model_6"
__________________________________________________________________________________________________
Layer (type)                    Output Shape         Param #     Connected to                     
==================================================================================================
input_6 (InputLayer)            (None, 10, 1)        0                                            
__________________________________________________________________________________________________
conv1d_106 (Conv1D)             (None, 10, 16)       64          input_6[0][0]                    
__________________________________________________________________________________________________
batch_normalization_96 (BatchNo (None, 10, 16)       64          conv1d_106[0][0]                 
__________________________________________________________________________________________________
activation_96 (Activation)      (None, 10, 16)       0           batch_normalization_96[0][0]     
__________________________________________________________________________________________________
conv1d_107 (Conv1D)             (None, 10, 16)       784         activation_96[0][0]              
__________________________________________________________________________________________________
batch_normalization_97 (BatchNo (None, 10, 16)       64          conv1d_107[0][0]                 
__________________________________________________________________________________________________
activation_97 (Activation)      (None, 10, 16)       0           batch_normalization_97[0][0]     
__________________________________________________________________________________________________
conv1d_108 (Conv1D)             (None, 10, 16)       784         activation_97[0][0]              
__________________________________________________________________________________________________
batch_normalization_98 (BatchNo (None, 10, 16)       64          conv1d_108[0][0]                 
__________________________________________________________________________________________________
add_46 (Add)                    (None, 10, 16)       0           activation_96[0][0]              
                                                                 batch_normalization_98[0][0]     
__________________________________________________________________________________________________
activation_98 (Activation)      (None, 10, 16)       0           add_46[0][0]                     
__________________________________________________________________________________________________
conv1d_109 (Conv1D)             (None, 10, 16)       784         activation_98[0][0]              
__________________________________________________________________________________________________
batch_normalization_99 (BatchNo (None, 10, 16)       64          conv1d_109[0][0]                 
__________________________________________________________________________________________________
activation_99 (Activation)      (None, 10, 16)       0           batch_normalization_99[0][0]     
__________________________________________________________________________________________________
conv1d_110 (Conv1D)             (None, 10, 16)       784         activation_99[0][0]              
__________________________________________________________________________________________________
batch_normalization_100 (BatchN (None, 10, 16)       64          conv1d_110[0][0]                 
__________________________________________________________________________________________________
add_47 (Add)                    (None, 10, 16)       0           activation_98[0][0]              
                                                                 batch_normalization_100[0][0]    
__________________________________________________________________________________________________
activation_100 (Activation)     (None, 10, 16)       0           add_47[0][0]                     
__________________________________________________________________________________________________
conv1d_111 (Conv1D)             (None, 10, 16)       784         activation_100[0][0]             
__________________________________________________________________________________________________
batch_normalization_101 (BatchN (None, 10, 16)       64          conv1d_111[0][0]                 
__________________________________________________________________________________________________
activation_101 (Activation)     (None, 10, 16)       0           batch_normalization_101[0][0]    
__________________________________________________________________________________________________
conv1d_112 (Conv1D)             (None, 10, 16)       784         activation_101[0][0]             
__________________________________________________________________________________________________
batch_normalization_102 (BatchN (None, 10, 16)       64          conv1d_112[0][0]                 
__________________________________________________________________________________________________
add_48 (Add)                    (None, 10, 16)       0           activation_100[0][0]             
                                                                 batch_normalization_102[0][0]    
__________________________________________________________________________________________________
activation_102 (Activation)     (None, 10, 16)       0           add_48[0][0]                     
__________________________________________________________________________________________________
conv1d_113 (Conv1D)             (None, 5, 32)        1568        activation_102[0][0]             
__________________________________________________________________________________________________
batch_normalization_103 (BatchN (None, 5, 32)        128         conv1d_113[0][0]                 
__________________________________________________________________________________________________
activation_103 (Activation)     (None, 5, 32)        0           batch_normalization_103[0][0]    
__________________________________________________________________________________________________
conv1d_114 (Conv1D)             (None, 5, 32)        3104        activation_103[0][0]             
__________________________________________________________________________________________________
conv1d_115 (Conv1D)             (None, 5, 32)        544         activation_102[0][0]             
__________________________________________________________________________________________________
batch_normalization_104 (BatchN (None, 5, 32)        128         conv1d_114[0][0]                 
__________________________________________________________________________________________________
add_49 (Add)                    (None, 5, 32)        0           conv1d_115[0][0]                 
                                                                 batch_normalization_104[0][0]    
__________________________________________________________________________________________________
activation_104 (Activation)     (None, 5, 32)        0           add_49[0][0]                     
__________________________________________________________________________________________________
conv1d_116 (Conv1D)             (None, 5, 32)        3104        activation_104[0][0]             
__________________________________________________________________________________________________
batch_normalization_105 (BatchN (None, 5, 32)        128         conv1d_116[0][0]                 
__________________________________________________________________________________________________
activation_105 (Activation)     (None, 5, 32)        0           batch_normalization_105[0][0]    
__________________________________________________________________________________________________
conv1d_117 (Conv1D)             (None, 5, 32)        3104        activation_105[0][0]             
__________________________________________________________________________________________________
batch_normalization_106 (BatchN (None, 5, 32)        128         conv1d_117[0][0]                 
__________________________________________________________________________________________________
add_50 (Add)                    (None, 5, 32)        0           activation_104[0][0]             
                                                                 batch_normalization_106[0][0]    
__________________________________________________________________________________________________
activation_106 (Activation)     (None, 5, 32)        0           add_50[0][0]                     
__________________________________________________________________________________________________
conv1d_118 (Conv1D)             (None, 5, 32)        3104        activation_106[0][0]             
__________________________________________________________________________________________________
batch_normalization_107 (BatchN (None, 5, 32)        128         conv1d_118[0][0]                 
__________________________________________________________________________________________________
activation_107 (Activation)     (None, 5, 32)        0           batch_normalization_107[0][0]    
__________________________________________________________________________________________________
conv1d_119 (Conv1D)             (None, 5, 32)        3104        activation_107[0][0]             
__________________________________________________________________________________________________
batch_normalization_108 (BatchN (None, 5, 32)        128         conv1d_119[0][0]                 
__________________________________________________________________________________________________
add_51 (Add)                    (None, 5, 32)        0           activation_106[0][0]             
                                                                 batch_normalization_108[0][0]    
__________________________________________________________________________________________________
activation_108 (Activation)     (None, 5, 32)        0           add_51[0][0]                     
__________________________________________________________________________________________________
conv1d_120 (Conv1D)             (None, 3, 64)        6208        activation_108[0][0]             
__________________________________________________________________________________________________
batch_normalization_109 (BatchN (None, 3, 64)        256         conv1d_120[0][0]                 
__________________________________________________________________________________________________
activation_109 (Activation)     (None, 3, 64)        0           batch_normalization_109[0][0]    
__________________________________________________________________________________________________
conv1d_121 (Conv1D)             (None, 3, 64)        12352       activation_109[0][0]             
__________________________________________________________________________________________________
conv1d_122 (Conv1D)             (None, 3, 64)        2112        activation_108[0][0]             
__________________________________________________________________________________________________
batch_normalization_110 (BatchN (None, 3, 64)        256         conv1d_121[0][0]                 
__________________________________________________________________________________________________
add_52 (Add)                    (None, 3, 64)        0           conv1d_122[0][0]                 
                                                                 batch_normalization_110[0][0]    
__________________________________________________________________________________________________
activation_110 (Activation)     (None, 3, 64)        0           add_52[0][0]                     
__________________________________________________________________________________________________
conv1d_123 (Conv1D)             (None, 3, 64)        12352       activation_110[0][0]             
__________________________________________________________________________________________________
batch_normalization_111 (BatchN (None, 3, 64)        256         conv1d_123[0][0]                 
__________________________________________________________________________________________________
activation_111 (Activation)     (None, 3, 64)        0           batch_normalization_111[0][0]    
__________________________________________________________________________________________________
conv1d_124 (Conv1D)             (None, 3, 64)        12352       activation_111[0][0]             
__________________________________________________________________________________________________
batch_normalization_112 (BatchN (None, 3, 64)        256         conv1d_124[0][0]                 
__________________________________________________________________________________________________
add_53 (Add)                    (None, 3, 64)        0           activation_110[0][0]             
                                                                 batch_normalization_112[0][0]    
__________________________________________________________________________________________________
activation_112 (Activation)     (None, 3, 64)        0           add_53[0][0]                     
__________________________________________________________________________________________________
conv1d_125 (Conv1D)             (None, 3, 64)        12352       activation_112[0][0]             
__________________________________________________________________________________________________
batch_normalization_113 (BatchN (None, 3, 64)        256         conv1d_125[0][0]                 
__________________________________________________________________________________________________
activation_113 (Activation)     (None, 3, 64)        0           batch_normalization_113[0][0]    
__________________________________________________________________________________________________
conv1d_126 (Conv1D)             (None, 3, 64)        12352       activation_113[0][0]             
__________________________________________________________________________________________________
batch_normalization_114 (BatchN (None, 3, 64)        256         conv1d_126[0][0]                 
__________________________________________________________________________________________________
add_54 (Add)                    (None, 3, 64)        0           activation_112[0][0]             
                                                                 batch_normalization_114[0][0]    
__________________________________________________________________________________________________
activation_114 (Activation)     (None, 3, 64)        0           add_54[0][0]                     
__________________________________________________________________________________________________
average_pooling1d_6 (AveragePoo (None, 3, 64)        0           activation_114[0][0]             
__________________________________________________________________________________________________
flatten_6 (Flatten)             (None, 192)          0           average_pooling1d_6[0][0]        
__________________________________________________________________________________________________
dense_6 (Dense)                 (None, 4)            772         flatten_6[0][0]                  
==================================================================================================
Total params: 96,004
Trainable params: 94,628
Non-trainable params: 1,376
__________________________________________________________________________________________________
None

Accuracy Train: 89.91%
Accuracy Test: 83.94%
Loss Train: 0.58
Loss Test: 0.96
Numero dati esaminati: 1712
…
