…
 - 14s - loss: 0.1736 - accuracy: 0.9210 - val_loss: 0.6158 - val_accuracy: 0.8672
Epoch 109/110
 - 15s - loss: 0.1839 - accuracy: 0.9173 - val_loss: 0.7063 - val_accuracy: 0.8664
Epoch 110/110
 - 15s - loss: 0.1819 - accuracy: 0.9175 - val_loss: 0.6725 - val_accuracy: 0.8562

Fit: epochs= 110 , batch_size= 64 , verbose= 2 , shuffle= False , validation_split= 0.2 

Model: "sequential_7"
_________________________________________________________________
Layer (type)                 Output Shape              Param #   
=================================================================
conv1d_7 (Conv1D)            (None, 10, 500)           1000      
_________________________________________________________________
activation_7 (Activation)    (None, 10, 500)           0         
_________________________________________________________________
lstm_7 (LSTM)                (None, 400)               1441600   
_________________________________________________________________
dropout_7 (Dropout)          (None, 400)               0         
_________________________________________________________________
dense_37 (Dense)             (None, 300)               120300    
_________________________________________________________________
dense_38 (Dense)             (None, 200)               60200     
_________________________________________________________________
dense_39 (Dense)             (None, 100)               20100     
_________________________________________________________________
dense_40 (Dense)             (None, 50)                5050      
_________________________________________________________________
dense_41 (Dense)             (None, 20)                1020      
_________________________________________________________________
dense_42 (Dense)             (None, 4)                 84        
=================================================================
Total params: 1,649,354
Trainable params: 1,649,354
Non-trainable params: 0
_________________________________________________________________
None

Accuracy Train: 90.68%
Accuracy Test: 85.05%
Loss Train: 0.27
Loss Test: 0.56
Numero dati esaminati: 1712
True Positive 1456
False Positive 256


------------------------------------------------------------------------
…
