…
 - 4s - loss: 1.0823 - accuracy: 0.5012 - val_loss: 1.4298 - val_accuracy: 0.3273
Epoch 127/128
 - 3s - loss: 1.0599 - accuracy: 0.5074 - val_loss: 1.4578 - val_accuracy: 0.3651
Epoch 128/128
 - 3s - loss: 1.0301 - accuracy: 0.5410 - val_loss: 1.3976 - val_accuracy: 0.3986

Fit: epochs= 128 , batch_size= 32 , verbose= 2 , shuffle= False , validation_split= 0.2 

Model: "sequential_1"
_________________________________________________________________
Layer (type)                 Output Shape              Param #   
=================================================================
dense_1 (Dense)              (None, 10)                110       
_________________________________________________________________
dense_2 (Dense)              (None, 500)               5500      
_________________________________________________________________
dense_3 (Dense)              (None, 300)               150300    
_________________________________________________________________
dense_4 (Dense)              (None, 200)               60200     
_________________________________________________________________
dense_5 (Dense)              (None, 100)               20100     
_________________________________________________________________
dense_6 (Dense)              (None, 50)                5050      
_________________________________________________________________
dense_7 (Dense)              (None, 20)                1020      
_________________________________________________________________
dense_8 (Dense)              (None, 4)                 84        
=================================================================
Total params: 242,364
Trainable params: 242,364
Non-trainable params: 0
_________________________________________________________________
None

Accuracy Train: 49.65%
Accuracy Test: 25.65%
Loss Train: 1.15
Loss Test: 6.53
Numero dati esaminati: 4280
True Positive 1098
False Positive 3182
