…
 - 1s - loss: 0.2359 - accuracy: 0.8955 - val_loss: 0.3394 - val_accuracy: 0.8722
Epoch 127/128
 - 1s - loss: 0.2559 - accuracy: 0.8927 - val_loss: 0.3518 - val_accuracy: 0.8788
Epoch 128/128
 - 1s - loss: 0.2493 - accuracy: 0.8946 - val_loss: 0.3696 - val_accuracy: 0.8727

Fit: epochs= 128 , batch_size= 32 , verbose= 2 , shuffle= False , validation_split= 0.2 

Model: "sequential_1"
_________________________________________________________________
Layer (type)                 Output Shape              Param #   
=================================================================
dense_1 (Dense)              (None, 10)                110       
_________________________________________________________________
dense_2 (Dense)              (None, 500)               5500      
_________________________________________________________________
dense_3 (Dense)              (None, 300)               150300    
_________________________________________________________________
dense_4 (Dense)              (None, 200)               60200     
_________________________________________________________________
dense_5 (Dense)              (None, 100)               20100     
_________________________________________________________________
dense_6 (Dense)              (None, 50)                5050      
_________________________________________________________________
dense_7 (Dense)              (None, 20)                1020      
_________________________________________________________________
dense_8 (Dense)              (None, 4)                 84        
=================================================================
Total params: 242,364
Trainable params: 242,364
Non-trainable params: 0
_________________________________________________________________
None

Accuracy Train: 88.48%
Accuracy Test: 87.21%
Loss Train: 0.30
Loss Test: 0.43
Numero dati esaminati: 2456
True Positive 2142
False Positive 314
