…
 - 2s - loss: 0.1990 - accuracy: 0.9089 - val_loss: 0.4939 - val_accuracy: 0.8613
Epoch 109/110
 - 2s - loss: 0.1939 - accuracy: 0.9137 - val_loss: 0.4814 - val_accuracy: 0.8730
Epoch 110/110
 - 2s - loss: 0.1849 - accuracy: 0.9153 - val_loss: 0.5075 - val_accuracy: 0.8701

Fit: epochs= 110 , batch_size= 64 , verbose= 2 , shuffle= False , validation_split= 0.2 

Model: "sequential_23"
_________________________________________________________________
Layer (type)                 Output Shape              Param #   
=================================================================
conv1d_23 (Conv1D)           (None, 10, 500)           1000      
_________________________________________________________________
activation_45 (Activation)   (None, 10, 500)           0         
_________________________________________________________________
flatten_23 (Flatten)         (None, 5000)              0         
_________________________________________________________________
dropout_23 (Dropout)         (None, 5000)              0         
_________________________________________________________________
dense_155 (Dense)            (None, 400)               2000400   
_________________________________________________________________
dense_156 (Dense)            (None, 300)               120300    
_________________________________________________________________
dense_157 (Dense)            (None, 200)               60200     
_________________________________________________________________
dense_158 (Dense)            (None, 100)               20100     
_________________________________________________________________
dense_159 (Dense)            (None, 50)                5050      
_________________________________________________________________
dense_160 (Dense)            (None, 20)                1020      
_________________________________________________________________
dense_161 (Dense)            (None, 4)                 84        
_________________________________________________________________
activation_46 (Activation)   (None, 4)                 0         
=================================================================
Total params: 2,208,154
Trainable params: 2,208,154
Non-trainable params: 0
_________________________________________________________________
None

Accuracy Train: 91.30%
Accuracy Test: 85.11%
Loss Train: 0.24
Loss Test: 0.56
Numero dati esaminati: 1712
True Positive 1457
False Positive 255


------------------------------------------------------------------------
…
