…
 - 6s - loss: 0.3326 - accuracy: 0.8658 - val_loss: 0.6040 - val_accuracy: 0.8239
Epoch 109/110
 - 7s - loss: 0.3358 - accuracy: 0.8562 - val_loss: 0.5874 - val_accuracy: 0.8306
Epoch 110/110
 - 6s - loss: 0.3215 - accuracy: 0.8687 - val_loss: 0.5816 - val_accuracy: 0.8372

Fit: epochs= 110 , batch_size= 64 , verbose= 2 , shuffle= False , validation_split= 0.2 

Model: "sequential_25"
_________________________________________________________________
Layer (type)                 Output Shape              Param #   
=================================================================
conv1d_25 (Conv1D)           (None, 10, 500)           1000      
_________________________________________________________________
activation_25 (Activation)   (None, 10, 500)           0         
_________________________________________________________________
lstm_25 (LSTM)               (None, 400)               1441600   
_________________________________________________________________
dropout_25 (Dropout)         (None, 400)               0         
_________________________________________________________________
dense_145 (Dense)            (None, 300)               120300    
_________________________________________________________________
dense_146 (Dense)            (None, 200)               60200     
_________________________________________________________________
dense_147 (Dense)            (None, 100)               20100     
_________________________________________________________________
dense_148 (Dense)            (None, 50)                5050      
_________________________________________________________________
dense_149 (Dense)            (None, 20)                1020      
_________________________________________________________________
dense_150 (Dense)            (None, 4)                 84        
=================================================================
Total params: 1,649,354
Trainable params: 1,649,354
Non-trainable params: 0
_________________________________________________________________
None

Accuracy Train: 86.54%
Accuracy Test: 80.85%
Loss Train: 0.35
Loss Test: 0.66
Numero dati esaminati: 752
True Positive 608
False Positive 144


------------------------------------------------------------------------
…
