…
 - 3s - loss: 0.2858 - accuracy: 0.9425 - val_loss: 0.8141 - val_accuracy: 0.8182

Number of filters: 16 , Kernel Size: 3 , Strides: 1 Batch Normalization: True , Conv_First: True , Depth Value: 20

Fit: epochs= 110 , batch_size= 64 , verbose= 2 , shuffle= False , validation_split= 0.2 

Model: "model_1"
__________________________________________________________________________________________________
Layer (type)                    Output Shape         Param #     Connected to                     
==================================================================================================
input_1 (InputLayer)            (None, 11, 1)        0                                            
__________________________________________________________________________________________________
conv1d_43 (Conv1D)              (None, 11, 16)       64          input_1[0][0]                    
__________________________________________________________________________________________________
batch_normalization_1 (BatchNor (None, 11, 16)       64          conv1d_43[0][0]                  
__________________________________________________________________________________________________
activation_85 (Activation)      (None, 11, 16)       0           batch_normalization_1[0][0]      
__________________________________________________________________________________________________
conv1d_44 (Conv1D)              (None, 11, 16)       784         activation_85[0][0]              
__________________________________________________________________________________________________
batch_normalization_2 (BatchNor (None, 11, 16)       64          conv1d_44[0][0]                  
__________________________________________________________________________________________________
activation_86 (Activation)      (None, 11, 16)       0           batch_normalization_2[0][0]      
__________________________________________________________________________________________________
conv1d_45 (Conv1D)              (None, 11, 16)       784         activation_86[0][0]              
__________________________________________________________________________________________________
batch_normalization_3 (BatchNor (None, 11, 16)       64          conv1d_45[0][0]                  
__________________________________________________________________________________________________
add_1 (Add)                     (None, 11, 16)       0           activation_85[0][0]              
                                                                 batch_normalization_3[0][0]      
__________________________________________________________________________________________________
activation_87 (Activation)      (None, 11, 16)       0           add_1[0][0]                      
__________________________________________________________________________________________________
conv1d_46 (Conv1D)              (None, 11, 16)       784         activation_87[0][0]              
__________________________________________________________________________________________________
batch_normalization_4 (BatchNor (None, 11, 16)       64          conv1d_46[0][0]                  
__________________________________________________________________________________________________
activation_88 (Activation)      (None, 11, 16)       0           batch_normalization_4[0][0]      
__________________________________________________________________________________________________
conv1d_47 (Conv1D)              (None, 11, 16)       784         activation_88[0][0]              
__________________________________________________________________________________________________
batch_normalization_5 (BatchNor (None, 11, 16)       64          conv1d_47[0][0]                  
__________________________________________________________________________________________________
add_2 (Add)                     (None, 11, 16)       0           activation_87[0][0]              
                                                                 batch_normalization_5[0][0]      
__________________________________________________________________________________________________
activation_89 (Activation)      (None, 11, 16)       0           add_2[0][0]                      
__________________________________________________________________________________________________
conv1d_48 (Conv1D)              (None, 11, 16)       784         activation_89[0][0]              
__________________________________________________________________________________________________
batch_normalization_6 (BatchNor (None, 11, 16)       64          conv1d_48[0][0]                  
__________________________________________________________________________________________________
activation_90 (Activation)      (None, 11, 16)       0           batch_normalization_6[0][0]      
__________________________________________________________________________________________________
conv1d_49 (Conv1D)              (None, 11, 16)       784         activation_90[0][0]              
__________________________________________________________________________________________________
batch_normalization_7 (BatchNor (None, 11, 16)       64          conv1d_49[0][0]                  
__________________________________________________________________________________________________
add_3 (Add)                     (None, 11, 16)       0           activation_89[0][0]              
                                                                 batch_normalization_7[0][0]      
__________________________________________________________________________________________________
activation_91 (Activation)      (None, 11, 16)       0           add_3[0][0]                      
__________________________________________________________________________________________________
conv1d_50 (Conv1D)              (None, 6, 32)        1568        activation_91[0][0]              
__________________________________________________________________________________________________
batch_normalization_8 (BatchNor (None, 6, 32)        128         conv1d_50[0][0]                  
__________________________________________________________________________________________________
activation_92 (Activation)      (None, 6, 32)        0           batch_normalization_8[0][0]      
__________________________________________________________________________________________________
conv1d_51 (Conv1D)              (None, 6, 32)        3104        activation_92[0][0]              
__________________________________________________________________________________________________
conv1d_52 (Conv1D)              (None, 6, 32)        544         activation_91[0][0]              
__________________________________________________________________________________________________
batch_normalization_9 (BatchNor (None, 6, 32)        128         conv1d_51[0][0]                  
__________________________________________________________________________________________________
add_4 (Add)                     (None, 6, 32)        0           conv1d_52[0][0]                  
                                                                 batch_normalization_9[0][0]      
__________________________________________________________________________________________________
activation_93 (Activation)      (None, 6, 32)        0           add_4[0][0]                      
__________________________________________________________________________________________________
conv1d_53 (Conv1D)              (None, 6, 32)        3104        activation_93[0][0]              
__________________________________________________________________________________________________
batch_normalization_10 (BatchNo (None, 6, 32)        128         conv1d_53[0][0]                  
__________________________________________________________________________________________________
activation_94 (Activation)      (None, 6, 32)        0           batch_normalization_10[0][0]     
__________________________________________________________________________________________________
conv1d_54 (Conv1D)              (None, 6, 32)        3104        activation_94[0][0]              
__________________________________________________________________________________________________
batch_normalization_11 (BatchNo (None, 6, 32)        128         conv1d_54[0][0]                  
__________________________________________________________________________________________________
add_5 (Add)                     (None, 6, 32)        0           activation_93[0][0]              
                                                                 batch_normalization_11[0][0]     
__________________________________________________________________________________________________
activation_95 (Activation)      (None, 6, 32)        0           add_5[0][0]                      
__________________________________________________________________________________________________
conv1d_55 (Conv1D)              (None, 6, 32)        3104        activation_95[0][0]              
__________________________________________________________________________________________________
batch_normalization_12 (BatchNo (None, 6, 32)        128         conv1d_55[0][0]                  
__________________________________________________________________________________________________
activation_96 (Activation)      (None, 6, 32)        0           batch_normalization_12[0][0]     
__________________________________________________________________________________________________
conv1d_56 (Conv1D)              (None, 6, 32)        3104        activation_96[0][0]              
__________________________________________________________________________________________________
batch_normalization_13 (BatchNo (None, 6, 32)        128         conv1d_56[0][0]                  
__________________________________________________________________________________________________
add_6 (Add)                     (None, 6, 32)        0           activation_95[0][0]              
                                                                 batch_normalization_13[0][0]     
__________________________________________________________________________________________________
activation_97 (Activation)      (None, 6, 32)        0           add_6[0][0]                      
__________________________________________________________________________________________________
conv1d_57 (Conv1D)              (None, 3, 64)        6208        activation_97[0][0]              
__________________________________________________________________________________________________
batch_normalization_14 (BatchNo (None, 3, 64)        256         conv1d_57[0][0]                  
__________________________________________________________________________________________________
activation_98 (Activation)      (None, 3, 64)        0           batch_normalization_14[0][0]     
__________________________________________________________________________________________________
conv1d_58 (Conv1D)              (None, 3, 64)        12352       activation_98[0][0]              
__________________________________________________________________________________________________
conv1d_59 (Conv1D)              (None, 3, 64)        2112        activation_97[0][0]              
__________________________________________________________________________________________________
batch_normalization_15 (BatchNo (None, 3, 64)        256         conv1d_58[0][0]                  
__________________________________________________________________________________________________
add_7 (Add)                     (None, 3, 64)        0           conv1d_59[0][0]                  
                                                                 batch_normalization_15[0][0]     
__________________________________________________________________________________________________
activation_99 (Activation)      (None, 3, 64)        0           add_7[0][0]                      
__________________________________________________________________________________________________
conv1d_60 (Conv1D)              (None, 3, 64)        12352       activation_99[0][0]              
__________________________________________________________________________________________________
batch_normalization_16 (BatchNo (None, 3, 64)        256         conv1d_60[0][0]                  
__________________________________________________________________________________________________
activation_100 (Activation)     (None, 3, 64)        0           batch_normalization_16[0][0]     
__________________________________________________________________________________________________
conv1d_61 (Conv1D)              (None, 3, 64)        12352       activation_100[0][0]             
__________________________________________________________________________________________________
batch_normalization_17 (BatchNo (None, 3, 64)        256         conv1d_61[0][0]                  
__________________________________________________________________________________________________
add_8 (Add)                     (None, 3, 64)        0           activation_99[0][0]              
                                                                 batch_normalization_17[0][0]     
__________________________________________________________________________________________________
activation_101 (Activation)     (None, 3, 64)        0           add_8[0][0]                      
__________________________________________________________________________________________________
conv1d_62 (Conv1D)              (None, 3, 64)        12352       activation_101[0][0]             
__________________________________________________________________________________________________
batch_normalization_18 (BatchNo (None, 3, 64)        256         conv1d_62[0][0]                  
__________________________________________________________________________________________________
activation_102 (Activation)     (None, 3, 64)        0           batch_normalization_18[0][0]     
__________________________________________________________________________________________________
conv1d_63 (Conv1D)              (None, 3, 64)        12352       activation_102[0][0]             
__________________________________________________________________________________________________
batch_normalization_19 (BatchNo (None, 3, 64)        256         conv1d_63[0][0]                  
__________________________________________________________________________________________________
add_9 (Add)                     (None, 3, 64)        0           activation_101[0][0]             
                                                                 batch_normalization_19[0][0]     
__________________________________________________________________________________________________
activation_103 (Activation)     (None, 3, 64)        0           add_9[0][0]                      
__________________________________________________________________________________________________
average_pooling1d_1 (AveragePoo (None, 3, 64)        0           activation_103[0][0]             
__________________________________________________________________________________________________
flatten_43 (Flatten)            (None, 192)          0           average_pooling1d_1[0][0]        
__________________________________________________________________________________________________
dense_1171 (Dense)              (None, 4)            772         flatten_43[0][0]                 
==================================================================================================
Total params: 96,004
Trainable params: 94,628
Non-trainable params: 1,376
__________________________________________________________________________________________________
None

Accuracy Train: 83.12%
Accuracy Test: 81.78%
Loss Train: 0.71
Loss Test: 0.86
Numero dati esaminati: 1712
…
