…
 - 2s - loss: 0.2354 - accuracy: 0.9708 - val_loss: 0.8968 - val_accuracy: 0.8438

Number of filters: 16 , Kernel Size: 3 , Strides: 1 Batch Normalization: True , Conv_First: True , Depth Value: 20

Fit: epochs= 110 , batch_size= 64 , verbose= 2 , shuffle= False , validation_split= 0.2 

Model: "model_34"
__________________________________________________________________________________________________
Layer (type)                    Output Shape         Param #     Connected to                     
==================================================================================================
input_34 (InputLayer)           (None, 10, 1)        0                                            
__________________________________________________________________________________________________
conv1d_771 (Conv1D)             (None, 10, 16)       64          input_34[0][0]                   
__________________________________________________________________________________________________
batch_normalization_628 (BatchN (None, 10, 16)       64          conv1d_771[0][0]                 
__________________________________________________________________________________________________
activation_782 (Activation)     (None, 10, 16)       0           batch_normalization_628[0][0]    
__________________________________________________________________________________________________
conv1d_772 (Conv1D)             (None, 10, 16)       784         activation_782[0][0]             
__________________________________________________________________________________________________
batch_normalization_629 (BatchN (None, 10, 16)       64          conv1d_772[0][0]                 
__________________________________________________________________________________________________
activation_783 (Activation)     (None, 10, 16)       0           batch_normalization_629[0][0]    
__________________________________________________________________________________________________
conv1d_773 (Conv1D)             (None, 10, 16)       784         activation_783[0][0]             
__________________________________________________________________________________________________
batch_normalization_630 (BatchN (None, 10, 16)       64          conv1d_773[0][0]                 
__________________________________________________________________________________________________
add_298 (Add)                   (None, 10, 16)       0           activation_782[0][0]             
                                                                 batch_normalization_630[0][0]    
__________________________________________________________________________________________________
activation_784 (Activation)     (None, 10, 16)       0           add_298[0][0]                    
__________________________________________________________________________________________________
conv1d_774 (Conv1D)             (None, 10, 16)       784         activation_784[0][0]             
__________________________________________________________________________________________________
batch_normalization_631 (BatchN (None, 10, 16)       64          conv1d_774[0][0]                 
__________________________________________________________________________________________________
activation_785 (Activation)     (None, 10, 16)       0           batch_normalization_631[0][0]    
__________________________________________________________________________________________________
conv1d_775 (Conv1D)             (None, 10, 16)       784         activation_785[0][0]             
__________________________________________________________________________________________________
batch_normalization_632 (BatchN (None, 10, 16)       64          conv1d_775[0][0]                 
__________________________________________________________________________________________________
add_299 (Add)                   (None, 10, 16)       0           activation_784[0][0]             
                                                                 batch_normalization_632[0][0]    
__________________________________________________________________________________________________
activation_786 (Activation)     (None, 10, 16)       0           add_299[0][0]                    
__________________________________________________________________________________________________
conv1d_776 (Conv1D)             (None, 10, 16)       784         activation_786[0][0]             
__________________________________________________________________________________________________
batch_normalization_633 (BatchN (None, 10, 16)       64          conv1d_776[0][0]                 
__________________________________________________________________________________________________
activation_787 (Activation)     (None, 10, 16)       0           batch_normalization_633[0][0]    
__________________________________________________________________________________________________
conv1d_777 (Conv1D)             (None, 10, 16)       784         activation_787[0][0]             
__________________________________________________________________________________________________
batch_normalization_634 (BatchN (None, 10, 16)       64          conv1d_777[0][0]                 
__________________________________________________________________________________________________
add_300 (Add)                   (None, 10, 16)       0           activation_786[0][0]             
                                                                 batch_normalization_634[0][0]    
__________________________________________________________________________________________________
activation_788 (Activation)     (None, 10, 16)       0           add_300[0][0]                    
__________________________________________________________________________________________________
conv1d_778 (Conv1D)             (None, 5, 32)        1568        activation_788[0][0]             
__________________________________________________________________________________________________
batch_normalization_635 (BatchN (None, 5, 32)        128         conv1d_778[0][0]                 
__________________________________________________________________________________________________
activation_789 (Activation)     (None, 5, 32)        0           batch_normalization_635[0][0]    
__________________________________________________________________________________________________
conv1d_779 (Conv1D)             (None, 5, 32)        3104        activation_789[0][0]             
__________________________________________________________________________________________________
conv1d_780 (Conv1D)             (None, 5, 32)        544         activation_788[0][0]             
__________________________________________________________________________________________________
batch_normalization_636 (BatchN (None, 5, 32)        128         conv1d_779[0][0]                 
__________________________________________________________________________________________________
add_301 (Add)                   (None, 5, 32)        0           conv1d_780[0][0]                 
                                                                 batch_normalization_636[0][0]    
__________________________________________________________________________________________________
activation_790 (Activation)     (None, 5, 32)        0           add_301[0][0]                    
__________________________________________________________________________________________________
conv1d_781 (Conv1D)             (None, 5, 32)        3104        activation_790[0][0]             
__________________________________________________________________________________________________
batch_normalization_637 (BatchN (None, 5, 32)        128         conv1d_781[0][0]                 
__________________________________________________________________________________________________
activation_791 (Activation)     (None, 5, 32)        0           batch_normalization_637[0][0]    
__________________________________________________________________________________________________
conv1d_782 (Conv1D)             (None, 5, 32)        3104        activation_791[0][0]             
__________________________________________________________________________________________________
batch_normalization_638 (BatchN (None, 5, 32)        128         conv1d_782[0][0]                 
__________________________________________________________________________________________________
add_302 (Add)                   (None, 5, 32)        0           activation_790[0][0]             
                                                                 batch_normalization_638[0][0]    
__________________________________________________________________________________________________
activation_792 (Activation)     (None, 5, 32)        0           add_302[0][0]                    
__________________________________________________________________________________________________
conv1d_783 (Conv1D)             (None, 5, 32)        3104        activation_792[0][0]             
__________________________________________________________________________________________________
batch_normalization_639 (BatchN (None, 5, 32)        128         conv1d_783[0][0]                 
__________________________________________________________________________________________________
activation_793 (Activation)     (None, 5, 32)        0           batch_normalization_639[0][0]    
__________________________________________________________________________________________________
conv1d_784 (Conv1D)             (None, 5, 32)        3104        activation_793[0][0]             
__________________________________________________________________________________________________
batch_normalization_640 (BatchN (None, 5, 32)        128         conv1d_784[0][0]                 
__________________________________________________________________________________________________
add_303 (Add)                   (None, 5, 32)        0           activation_792[0][0]             
                                                                 batch_normalization_640[0][0]    
__________________________________________________________________________________________________
activation_794 (Activation)     (None, 5, 32)        0           add_303[0][0]                    
__________________________________________________________________________________________________
conv1d_785 (Conv1D)             (None, 3, 64)        6208        activation_794[0][0]             
__________________________________________________________________________________________________
batch_normalization_641 (BatchN (None, 3, 64)        256         conv1d_785[0][0]                 
__________________________________________________________________________________________________
activation_795 (Activation)     (None, 3, 64)        0           batch_normalization_641[0][0]    
__________________________________________________________________________________________________
conv1d_786 (Conv1D)             (None, 3, 64)        12352       activation_795[0][0]             
__________________________________________________________________________________________________
conv1d_787 (Conv1D)             (None, 3, 64)        2112        activation_794[0][0]             
__________________________________________________________________________________________________
batch_normalization_642 (BatchN (None, 3, 64)        256         conv1d_786[0][0]                 
__________________________________________________________________________________________________
add_304 (Add)                   (None, 3, 64)        0           conv1d_787[0][0]                 
                                                                 batch_normalization_642[0][0]    
__________________________________________________________________________________________________
activation_796 (Activation)     (None, 3, 64)        0           add_304[0][0]                    
__________________________________________________________________________________________________
conv1d_788 (Conv1D)             (None, 3, 64)        12352       activation_796[0][0]             
__________________________________________________________________________________________________
batch_normalization_643 (BatchN (None, 3, 64)        256         conv1d_788[0][0]                 
__________________________________________________________________________________________________
activation_797 (Activation)     (None, 3, 64)        0           batch_normalization_643[0][0]    
__________________________________________________________________________________________________
conv1d_789 (Conv1D)             (None, 3, 64)        12352       activation_797[0][0]             
__________________________________________________________________________________________________
batch_normalization_644 (BatchN (None, 3, 64)        256         conv1d_789[0][0]                 
__________________________________________________________________________________________________
add_305 (Add)                   (None, 3, 64)        0           activation_796[0][0]             
                                                                 batch_normalization_644[0][0]    
__________________________________________________________________________________________________
activation_798 (Activation)     (None, 3, 64)        0           add_305[0][0]                    
__________________________________________________________________________________________________
conv1d_790 (Conv1D)             (None, 3, 64)        12352       activation_798[0][0]             
__________________________________________________________________________________________________
batch_normalization_645 (BatchN (None, 3, 64)        256         conv1d_790[0][0]                 
__________________________________________________________________________________________________
activation_799 (Activation)     (None, 3, 64)        0           batch_normalization_645[0][0]    
__________________________________________________________________________________________________
conv1d_791 (Conv1D)             (None, 3, 64)        12352       activation_799[0][0]             
__________________________________________________________________________________________________
batch_normalization_646 (BatchN (None, 3, 64)        256         conv1d_791[0][0]                 
__________________________________________________________________________________________________
add_306 (Add)                   (None, 3, 64)        0           activation_798[0][0]             
                                                                 batch_normalization_646[0][0]    
__________________________________________________________________________________________________
activation_800 (Activation)     (None, 3, 64)        0           add_306[0][0]                    
__________________________________________________________________________________________________
average_pooling1d_34 (AveragePo (None, 3, 64)        0           activation_800[0][0]             
__________________________________________________________________________________________________
flatten_111 (Flatten)           (None, 192)          0           average_pooling1d_34[0][0]       
__________________________________________________________________________________________________
dense_2179 (Dense)              (None, 4)            772         flatten_111[0][0]                
==================================================================================================
Total params: 96,004
Trainable params: 94,628
Non-trainable params: 1,376
__________________________________________________________________________________________________
None

Accuracy Train: 89.43%
Accuracy Test: 82.71%
Loss Train: 0.54
Loss Test: 0.95
Numero dati esaminati: 1712
…
