…
 - 3s - loss: 0.1885 - accuracy: 0.9157 - val_loss: 0.6064 - val_accuracy: 0.8642
Epoch 109/110
 - 3s - loss: 0.1946 - accuracy: 0.9138 - val_loss: 0.5809 - val_accuracy: 0.8577
Epoch 110/110
 - 3s - loss: 0.2050 - accuracy: 0.9100 - val_loss: 0.5725 - val_accuracy: 0.8664

Fit: epochs= 110 , batch_size= 64 , verbose= 2 , shuffle= False , validation_split= 0.2 

Model: "sequential_12"
_________________________________________________________________
Layer (type)                 Output Shape              Param #   
=================================================================
conv1d_12 (Conv1D)           (None, 10, 500)           1000      
_________________________________________________________________
activation_23 (Activation)   (None, 10, 500)           0         
_________________________________________________________________
flatten_12 (Flatten)         (None, 5000)              0         
_________________________________________________________________
dropout_12 (Dropout)         (None, 5000)              0         
_________________________________________________________________
dense_78 (Dense)             (None, 400)               2000400   
_________________________________________________________________
dense_79 (Dense)             (None, 300)               120300    
_________________________________________________________________
dense_80 (Dense)             (None, 200)               60200     
_________________________________________________________________
dense_81 (Dense)             (None, 100)               20100     
_________________________________________________________________
dense_82 (Dense)             (None, 50)                5050      
_________________________________________________________________
dense_83 (Dense)             (None, 20)                1020      
_________________________________________________________________
dense_84 (Dense)             (None, 4)                 84        
_________________________________________________________________
activation_24 (Activation)   (None, 4)                 0         
=================================================================
Total params: 2,208,154
Trainable params: 2,208,154
Non-trainable params: 0
_________________________________________________________________
None

Accuracy Train: 91.24%
Accuracy Test: 85.40%
Loss Train: 0.25
Loss Test: 0.57
Numero dati esaminati: 1712
True Positive 1462
False Positive 250


------------------------------------------------------------------------
…
