…
 - 2s - loss: 0.2478 - accuracy: 0.9602 - val_loss: 0.7216 - val_accuracy: 0.8460

Number of filters: 16 , Kernel Size: 3 , Strides: 1 Batch Normalization: True , Conv_First: True , Depth Value: 20

Fit: epochs= 110 , batch_size= 64 , verbose= 2 , shuffle= False , validation_split= 0.2 

Model: "model_1"
__________________________________________________________________________________________________
Layer (type)                    Output Shape         Param #     Connected to                     
==================================================================================================
input_1 (InputLayer)            (None, 11, 1)        0                                            
__________________________________________________________________________________________________
conv1d_78 (Conv1D)              (None, 11, 16)       64          input_1[0][0]                    
__________________________________________________________________________________________________
batch_normalization_1 (BatchNor (None, 11, 16)       64          conv1d_78[0][0]                  
__________________________________________________________________________________________________
activation_155 (Activation)     (None, 11, 16)       0           batch_normalization_1[0][0]      
__________________________________________________________________________________________________
conv1d_79 (Conv1D)              (None, 11, 16)       784         activation_155[0][0]             
__________________________________________________________________________________________________
batch_normalization_2 (BatchNor (None, 11, 16)       64          conv1d_79[0][0]                  
__________________________________________________________________________________________________
activation_156 (Activation)     (None, 11, 16)       0           batch_normalization_2[0][0]      
__________________________________________________________________________________________________
conv1d_80 (Conv1D)              (None, 11, 16)       784         activation_156[0][0]             
__________________________________________________________________________________________________
batch_normalization_3 (BatchNor (None, 11, 16)       64          conv1d_80[0][0]                  
__________________________________________________________________________________________________
add_1 (Add)                     (None, 11, 16)       0           activation_155[0][0]             
                                                                 batch_normalization_3[0][0]      
__________________________________________________________________________________________________
activation_157 (Activation)     (None, 11, 16)       0           add_1[0][0]                      
__________________________________________________________________________________________________
conv1d_81 (Conv1D)              (None, 11, 16)       784         activation_157[0][0]             
__________________________________________________________________________________________________
batch_normalization_4 (BatchNor (None, 11, 16)       64          conv1d_81[0][0]                  
__________________________________________________________________________________________________
activation_158 (Activation)     (None, 11, 16)       0           batch_normalization_4[0][0]      
__________________________________________________________________________________________________
conv1d_82 (Conv1D)              (None, 11, 16)       784         activation_158[0][0]             
__________________________________________________________________________________________________
batch_normalization_5 (BatchNor (None, 11, 16)       64          conv1d_82[0][0]                  
__________________________________________________________________________________________________
add_2 (Add)                     (None, 11, 16)       0           activation_157[0][0]             
                                                                 batch_normalization_5[0][0]      
__________________________________________________________________________________________________
activation_159 (Activation)     (None, 11, 16)       0           add_2[0][0]                      
__________________________________________________________________________________________________
conv1d_83 (Conv1D)              (None, 11, 16)       784         activation_159[0][0]             
__________________________________________________________________________________________________
batch_normalization_6 (BatchNor (None, 11, 16)       64          conv1d_83[0][0]                  
__________________________________________________________________________________________________
activation_160 (Activation)     (None, 11, 16)       0           batch_normalization_6[0][0]      
__________________________________________________________________________________________________
conv1d_84 (Conv1D)              (None, 11, 16)       784         activation_160[0][0]             
__________________________________________________________________________________________________
batch_normalization_7 (BatchNor (None, 11, 16)       64          conv1d_84[0][0]                  
__________________________________________________________________________________________________
add_3 (Add)                     (None, 11, 16)       0           activation_159[0][0]             
                                                                 batch_normalization_7[0][0]      
__________________________________________________________________________________________________
activation_161 (Activation)     (None, 11, 16)       0           add_3[0][0]                      
__________________________________________________________________________________________________
conv1d_85 (Conv1D)              (None, 6, 32)        1568        activation_161[0][0]             
__________________________________________________________________________________________________
batch_normalization_8 (BatchNor (None, 6, 32)        128         conv1d_85[0][0]                  
__________________________________________________________________________________________________
activation_162 (Activation)     (None, 6, 32)        0           batch_normalization_8[0][0]      
__________________________________________________________________________________________________
conv1d_86 (Conv1D)              (None, 6, 32)        3104        activation_162[0][0]             
__________________________________________________________________________________________________
conv1d_87 (Conv1D)              (None, 6, 32)        544         activation_161[0][0]             
__________________________________________________________________________________________________
batch_normalization_9 (BatchNor (None, 6, 32)        128         conv1d_86[0][0]                  
__________________________________________________________________________________________________
add_4 (Add)                     (None, 6, 32)        0           conv1d_87[0][0]                  
                                                                 batch_normalization_9[0][0]      
__________________________________________________________________________________________________
activation_163 (Activation)     (None, 6, 32)        0           add_4[0][0]                      
__________________________________________________________________________________________________
conv1d_88 (Conv1D)              (None, 6, 32)        3104        activation_163[0][0]             
__________________________________________________________________________________________________
batch_normalization_10 (BatchNo (None, 6, 32)        128         conv1d_88[0][0]                  
__________________________________________________________________________________________________
activation_164 (Activation)     (None, 6, 32)        0           batch_normalization_10[0][0]     
__________________________________________________________________________________________________
conv1d_89 (Conv1D)              (None, 6, 32)        3104        activation_164[0][0]             
__________________________________________________________________________________________________
batch_normalization_11 (BatchNo (None, 6, 32)        128         conv1d_89[0][0]                  
__________________________________________________________________________________________________
add_5 (Add)                     (None, 6, 32)        0           activation_163[0][0]             
                                                                 batch_normalization_11[0][0]     
__________________________________________________________________________________________________
activation_165 (Activation)     (None, 6, 32)        0           add_5[0][0]                      
__________________________________________________________________________________________________
conv1d_90 (Conv1D)              (None, 6, 32)        3104        activation_165[0][0]             
__________________________________________________________________________________________________
batch_normalization_12 (BatchNo (None, 6, 32)        128         conv1d_90[0][0]                  
__________________________________________________________________________________________________
activation_166 (Activation)     (None, 6, 32)        0           batch_normalization_12[0][0]     
__________________________________________________________________________________________________
conv1d_91 (Conv1D)              (None, 6, 32)        3104        activation_166[0][0]             
__________________________________________________________________________________________________
batch_normalization_13 (BatchNo (None, 6, 32)        128         conv1d_91[0][0]                  
__________________________________________________________________________________________________
add_6 (Add)                     (None, 6, 32)        0           activation_165[0][0]             
                                                                 batch_normalization_13[0][0]     
__________________________________________________________________________________________________
activation_167 (Activation)     (None, 6, 32)        0           add_6[0][0]                      
__________________________________________________________________________________________________
conv1d_92 (Conv1D)              (None, 3, 64)        6208        activation_167[0][0]             
__________________________________________________________________________________________________
batch_normalization_14 (BatchNo (None, 3, 64)        256         conv1d_92[0][0]                  
__________________________________________________________________________________________________
activation_168 (Activation)     (None, 3, 64)        0           batch_normalization_14[0][0]     
__________________________________________________________________________________________________
conv1d_93 (Conv1D)              (None, 3, 64)        12352       activation_168[0][0]             
__________________________________________________________________________________________________
conv1d_94 (Conv1D)              (None, 3, 64)        2112        activation_167[0][0]             
__________________________________________________________________________________________________
batch_normalization_15 (BatchNo (None, 3, 64)        256         conv1d_93[0][0]                  
__________________________________________________________________________________________________
add_7 (Add)                     (None, 3, 64)        0           conv1d_94[0][0]                  
                                                                 batch_normalization_15[0][0]     
__________________________________________________________________________________________________
activation_169 (Activation)     (None, 3, 64)        0           add_7[0][0]                      
__________________________________________________________________________________________________
conv1d_95 (Conv1D)              (None, 3, 64)        12352       activation_169[0][0]             
__________________________________________________________________________________________________
batch_normalization_16 (BatchNo (None, 3, 64)        256         conv1d_95[0][0]                  
__________________________________________________________________________________________________
activation_170 (Activation)     (None, 3, 64)        0           batch_normalization_16[0][0]     
__________________________________________________________________________________________________
conv1d_96 (Conv1D)              (None, 3, 64)        12352       activation_170[0][0]             
__________________________________________________________________________________________________
batch_normalization_17 (BatchNo (None, 3, 64)        256         conv1d_96[0][0]                  
__________________________________________________________________________________________________
add_8 (Add)                     (None, 3, 64)        0           activation_169[0][0]             
                                                                 batch_normalization_17[0][0]     
__________________________________________________________________________________________________
activation_171 (Activation)     (None, 3, 64)        0           add_8[0][0]                      
__________________________________________________________________________________________________
conv1d_97 (Conv1D)              (None, 3, 64)        12352       activation_171[0][0]             
__________________________________________________________________________________________________
batch_normalization_18 (BatchNo (None, 3, 64)        256         conv1d_97[0][0]                  
__________________________________________________________________________________________________
activation_172 (Activation)     (None, 3, 64)        0           batch_normalization_18[0][0]     
__________________________________________________________________________________________________
conv1d_98 (Conv1D)              (None, 3, 64)        12352       activation_172[0][0]             
__________________________________________________________________________________________________
batch_normalization_19 (BatchNo (None, 3, 64)        256         conv1d_98[0][0]                  
__________________________________________________________________________________________________
add_9 (Add)                     (None, 3, 64)        0           activation_171[0][0]             
                                                                 batch_normalization_19[0][0]     
__________________________________________________________________________________________________
activation_173 (Activation)     (None, 3, 64)        0           add_9[0][0]                      
__________________________________________________________________________________________________
average_pooling1d_1 (AveragePoo (None, 3, 64)        0           activation_173[0][0]             
__________________________________________________________________________________________________
flatten_78 (Flatten)            (None, 192)          0           average_pooling1d_1[0][0]        
__________________________________________________________________________________________________
dense_2146 (Dense)              (None, 4)            772         flatten_78[0][0]                 
==================================================================================================
Total params: 96,004
Trainable params: 94,628
Non-trainable params: 1,376
__________________________________________________________________________________________________
None

Accuracy Train: 85.98%
Accuracy Test: 83.47%
Loss Train: 0.60
Loss Test: 0.76
Numero dati esaminati: 1712
…
