…
 - 2s - loss: 0.2358 - accuracy: 0.8967 - val_loss: 0.5382 - val_accuracy: 0.8504
Epoch 109/110
 - 2s - loss: 0.2352 - accuracy: 0.8950 - val_loss: 0.5055 - val_accuracy: 0.8540
Epoch 110/110
 - 2s - loss: 0.2422 - accuracy: 0.8917 - val_loss: 0.4949 - val_accuracy: 0.8584

Fit: epochs= 110 , batch_size= 64 , verbose= 2 , shuffle= False , validation_split= 0.2 

Model: "sequential_85"
_________________________________________________________________
Layer (type)                 Output Shape              Param #   
=================================================================
lstm_43 (LSTM)               (None, 500)               1022000   
_________________________________________________________________
dropout_85 (Dropout)         (None, 500)               0         
_________________________________________________________________
dense_547 (Dense)            (None, 300)               150300    
_________________________________________________________________
dense_548 (Dense)            (None, 200)               60200     
_________________________________________________________________
dense_549 (Dense)            (None, 100)               20100     
_________________________________________________________________
dense_550 (Dense)            (None, 50)                5050      
_________________________________________________________________
dense_551 (Dense)            (None, 20)                1020      
_________________________________________________________________
dense_552 (Dense)            (None, 4)                 84        
=================================================================
Total params: 1,258,754
Trainable params: 1,258,754
Non-trainable params: 0
_________________________________________________________________
None

Accuracy Train: 89.52%
Accuracy Test: 84.64%
Loss Train: 0.27
Loss Test: 0.56
Numero dati esaminati: 1712
True Positive 1449
False Positive 263


------------------------------------------------------------------------
…
