…
 - 2s - loss: 0.9050 - accuracy: 0.5982 - val_loss: 1.3721 - val_accuracy: 0.4919
Epoch 127/128
 - 2s - loss: 0.8731 - accuracy: 0.6047 - val_loss: 1.4496 - val_accuracy: 0.4784
Epoch 128/128
 - 2s - loss: 0.8748 - accuracy: 0.6052 - val_loss: 1.3859 - val_accuracy: 0.4959

Fit: epochs= 128 , batch_size= 32 , verbose= 2 , shuffle= False , validation_split= 0.2 

Model: "sequential_1"
_________________________________________________________________
Layer (type)                 Output Shape              Param #   
=================================================================
dense_1 (Dense)              (None, 10)                110       
_________________________________________________________________
dense_2 (Dense)              (None, 500)               5500      
_________________________________________________________________
dense_3 (Dense)              (None, 300)               150300    
_________________________________________________________________
dense_4 (Dense)              (None, 200)               60200     
_________________________________________________________________
dense_5 (Dense)              (None, 100)               20100     
_________________________________________________________________
dense_6 (Dense)              (None, 50)                5050      
_________________________________________________________________
dense_7 (Dense)              (None, 20)                1020      
_________________________________________________________________
dense_8 (Dense)              (None, 4)                 84        
=================================================================
Total params: 242,364
Trainable params: 242,364
Non-trainable params: 0
_________________________________________________________________
None

Accuracy Train: 58.60%
Accuracy Test: 27.24%
Loss Train: 1.00
Loss Test: 4.65
Numero dati esaminati: 4280
True Positive 1166
False Positive 3114
