…
 - 2s - loss: 0.9120 - accuracy: 0.5858 - val_loss: 1.6839 - val_accuracy: 0.4171
Epoch 127/128
 - 2s - loss: 0.9189 - accuracy: 0.5846 - val_loss: 1.6824 - val_accuracy: 0.4307
Epoch 128/128
 - 2s - loss: 0.9126 - accuracy: 0.5892 - val_loss: 1.8091 - val_accuracy: 0.4150

Fit: epochs= 128 , batch_size= 32 , verbose= 2 , shuffle= False , validation_split= 0.2 

Model: "sequential_1"
_________________________________________________________________
Layer (type)                 Output Shape              Param #   
=================================================================
dense_1 (Dense)              (None, 10)                110       
_________________________________________________________________
dense_2 (Dense)              (None, 500)               5500      
_________________________________________________________________
dense_3 (Dense)              (None, 300)               150300    
_________________________________________________________________
dense_4 (Dense)              (None, 200)               60200     
_________________________________________________________________
dense_5 (Dense)              (None, 100)               20100     
_________________________________________________________________
dense_6 (Dense)              (None, 50)                5050      
_________________________________________________________________
dense_7 (Dense)              (None, 20)                1020      
_________________________________________________________________
dense_8 (Dense)              (None, 4)                 84        
=================================================================
Total params: 242,364
Trainable params: 242,364
Non-trainable params: 0
_________________________________________________________________
None

Accuracy Train: 53.92%
Accuracy Test: 29.07%
Loss Train: 1.15
Loss Test: 5.76
Numero dati esaminati: 4280
True Positive 1244
False Positive 3036
