…
 - 2s - loss: 0.2291 - accuracy: 0.9679 - val_loss: 0.9087 - val_accuracy: 0.8394

Number of filters: 16 , Kernel Size: 3 , Strides: 1 Batch Normalization: True , Conv_First: True , Depth Value: 20

Fit: epochs= 110 , batch_size= 64 , verbose= 2 , shuffle= False , validation_split= 0.2 

Model: "model_45"
__________________________________________________________________________________________________
Layer (type)                    Output Shape         Param #     Connected to                     
==================================================================================================
input_45 (InputLayer)           (None, 10, 1)        0                                            
__________________________________________________________________________________________________
conv1d_1002 (Conv1D)            (None, 10, 16)       64          input_45[0][0]                   
__________________________________________________________________________________________________
batch_normalization_837 (BatchN (None, 10, 16)       64          conv1d_1002[0][0]                
__________________________________________________________________________________________________
activation_991 (Activation)     (None, 10, 16)       0           batch_normalization_837[0][0]    
__________________________________________________________________________________________________
conv1d_1003 (Conv1D)            (None, 10, 16)       784         activation_991[0][0]             
__________________________________________________________________________________________________
batch_normalization_838 (BatchN (None, 10, 16)       64          conv1d_1003[0][0]                
__________________________________________________________________________________________________
activation_992 (Activation)     (None, 10, 16)       0           batch_normalization_838[0][0]    
__________________________________________________________________________________________________
conv1d_1004 (Conv1D)            (None, 10, 16)       784         activation_992[0][0]             
__________________________________________________________________________________________________
batch_normalization_839 (BatchN (None, 10, 16)       64          conv1d_1004[0][0]                
__________________________________________________________________________________________________
add_397 (Add)                   (None, 10, 16)       0           activation_991[0][0]             
                                                                 batch_normalization_839[0][0]    
__________________________________________________________________________________________________
activation_993 (Activation)     (None, 10, 16)       0           add_397[0][0]                    
__________________________________________________________________________________________________
conv1d_1005 (Conv1D)            (None, 10, 16)       784         activation_993[0][0]             
__________________________________________________________________________________________________
batch_normalization_840 (BatchN (None, 10, 16)       64          conv1d_1005[0][0]                
__________________________________________________________________________________________________
activation_994 (Activation)     (None, 10, 16)       0           batch_normalization_840[0][0]    
__________________________________________________________________________________________________
conv1d_1006 (Conv1D)            (None, 10, 16)       784         activation_994[0][0]             
__________________________________________________________________________________________________
batch_normalization_841 (BatchN (None, 10, 16)       64          conv1d_1006[0][0]                
__________________________________________________________________________________________________
add_398 (Add)                   (None, 10, 16)       0           activation_993[0][0]             
                                                                 batch_normalization_841[0][0]    
__________________________________________________________________________________________________
activation_995 (Activation)     (None, 10, 16)       0           add_398[0][0]                    
__________________________________________________________________________________________________
conv1d_1007 (Conv1D)            (None, 10, 16)       784         activation_995[0][0]             
__________________________________________________________________________________________________
batch_normalization_842 (BatchN (None, 10, 16)       64          conv1d_1007[0][0]                
__________________________________________________________________________________________________
activation_996 (Activation)     (None, 10, 16)       0           batch_normalization_842[0][0]    
__________________________________________________________________________________________________
conv1d_1008 (Conv1D)            (None, 10, 16)       784         activation_996[0][0]             
__________________________________________________________________________________________________
batch_normalization_843 (BatchN (None, 10, 16)       64          conv1d_1008[0][0]                
__________________________________________________________________________________________________
add_399 (Add)                   (None, 10, 16)       0           activation_995[0][0]             
                                                                 batch_normalization_843[0][0]    
__________________________________________________________________________________________________
activation_997 (Activation)     (None, 10, 16)       0           add_399[0][0]                    
__________________________________________________________________________________________________
conv1d_1009 (Conv1D)            (None, 5, 32)        1568        activation_997[0][0]             
__________________________________________________________________________________________________
batch_normalization_844 (BatchN (None, 5, 32)        128         conv1d_1009[0][0]                
__________________________________________________________________________________________________
activation_998 (Activation)     (None, 5, 32)        0           batch_normalization_844[0][0]    
__________________________________________________________________________________________________
conv1d_1010 (Conv1D)            (None, 5, 32)        3104        activation_998[0][0]             
__________________________________________________________________________________________________
conv1d_1011 (Conv1D)            (None, 5, 32)        544         activation_997[0][0]             
__________________________________________________________________________________________________
batch_normalization_845 (BatchN (None, 5, 32)        128         conv1d_1010[0][0]                
__________________________________________________________________________________________________
add_400 (Add)                   (None, 5, 32)        0           conv1d_1011[0][0]                
                                                                 batch_normalization_845[0][0]    
__________________________________________________________________________________________________
activation_999 (Activation)     (None, 5, 32)        0           add_400[0][0]                    
__________________________________________________________________________________________________
conv1d_1012 (Conv1D)            (None, 5, 32)        3104        activation_999[0][0]             
__________________________________________________________________________________________________
batch_normalization_846 (BatchN (None, 5, 32)        128         conv1d_1012[0][0]                
__________________________________________________________________________________________________
activation_1000 (Activation)    (None, 5, 32)        0           batch_normalization_846[0][0]    
__________________________________________________________________________________________________
conv1d_1013 (Conv1D)            (None, 5, 32)        3104        activation_1000[0][0]            
__________________________________________________________________________________________________
batch_normalization_847 (BatchN (None, 5, 32)        128         conv1d_1013[0][0]                
__________________________________________________________________________________________________
add_401 (Add)                   (None, 5, 32)        0           activation_999[0][0]             
                                                                 batch_normalization_847[0][0]    
__________________________________________________________________________________________________
activation_1001 (Activation)    (None, 5, 32)        0           add_401[0][0]                    
__________________________________________________________________________________________________
conv1d_1014 (Conv1D)            (None, 5, 32)        3104        activation_1001[0][0]            
__________________________________________________________________________________________________
batch_normalization_848 (BatchN (None, 5, 32)        128         conv1d_1014[0][0]                
__________________________________________________________________________________________________
activation_1002 (Activation)    (None, 5, 32)        0           batch_normalization_848[0][0]    
__________________________________________________________________________________________________
conv1d_1015 (Conv1D)            (None, 5, 32)        3104        activation_1002[0][0]            
__________________________________________________________________________________________________
batch_normalization_849 (BatchN (None, 5, 32)        128         conv1d_1015[0][0]                
__________________________________________________________________________________________________
add_402 (Add)                   (None, 5, 32)        0           activation_1001[0][0]            
                                                                 batch_normalization_849[0][0]    
__________________________________________________________________________________________________
activation_1003 (Activation)    (None, 5, 32)        0           add_402[0][0]                    
__________________________________________________________________________________________________
conv1d_1016 (Conv1D)            (None, 3, 64)        6208        activation_1003[0][0]            
__________________________________________________________________________________________________
batch_normalization_850 (BatchN (None, 3, 64)        256         conv1d_1016[0][0]                
__________________________________________________________________________________________________
activation_1004 (Activation)    (None, 3, 64)        0           batch_normalization_850[0][0]    
__________________________________________________________________________________________________
conv1d_1017 (Conv1D)            (None, 3, 64)        12352       activation_1004[0][0]            
__________________________________________________________________________________________________
conv1d_1018 (Conv1D)            (None, 3, 64)        2112        activation_1003[0][0]            
__________________________________________________________________________________________________
batch_normalization_851 (BatchN (None, 3, 64)        256         conv1d_1017[0][0]                
__________________________________________________________________________________________________
add_403 (Add)                   (None, 3, 64)        0           conv1d_1018[0][0]                
                                                                 batch_normalization_851[0][0]    
__________________________________________________________________________________________________
activation_1005 (Activation)    (None, 3, 64)        0           add_403[0][0]                    
__________________________________________________________________________________________________
conv1d_1019 (Conv1D)            (None, 3, 64)        12352       activation_1005[0][0]            
__________________________________________________________________________________________________
batch_normalization_852 (BatchN (None, 3, 64)        256         conv1d_1019[0][0]                
__________________________________________________________________________________________________
activation_1006 (Activation)    (None, 3, 64)        0           batch_normalization_852[0][0]    
__________________________________________________________________________________________________
conv1d_1020 (Conv1D)            (None, 3, 64)        12352       activation_1006[0][0]            
__________________________________________________________________________________________________
batch_normalization_853 (BatchN (None, 3, 64)        256         conv1d_1020[0][0]                
__________________________________________________________________________________________________
add_404 (Add)                   (None, 3, 64)        0           activation_1005[0][0]            
                                                                 batch_normalization_853[0][0]    
__________________________________________________________________________________________________
activation_1007 (Activation)    (None, 3, 64)        0           add_404[0][0]                    
__________________________________________________________________________________________________
conv1d_1021 (Conv1D)            (None, 3, 64)        12352       activation_1007[0][0]            
__________________________________________________________________________________________________
batch_normalization_854 (BatchN (None, 3, 64)        256         conv1d_1021[0][0]                
__________________________________________________________________________________________________
activation_1008 (Activation)    (None, 3, 64)        0           batch_normalization_854[0][0]    
__________________________________________________________________________________________________
conv1d_1022 (Conv1D)            (None, 3, 64)        12352       activation_1008[0][0]            
__________________________________________________________________________________________________
batch_normalization_855 (BatchN (None, 3, 64)        256         conv1d_1022[0][0]                
__________________________________________________________________________________________________
add_405 (Add)                   (None, 3, 64)        0           activation_1007[0][0]            
                                                                 batch_normalization_855[0][0]    
__________________________________________________________________________________________________
activation_1009 (Activation)    (None, 3, 64)        0           add_405[0][0]                    
__________________________________________________________________________________________________
average_pooling1d_45 (AveragePo (None, 3, 64)        0           activation_1009[0][0]            
__________________________________________________________________________________________________
flatten_122 (Flatten)           (None, 192)          0           average_pooling1d_45[0][0]       
__________________________________________________________________________________________________
dense_2190 (Dense)              (None, 4)            772         flatten_122[0][0]                
==================================================================================================
Total params: 96,004
Trainable params: 94,628
Non-trainable params: 1,376
__________________________________________________________________________________________________
None

Accuracy Train: 88.86%
Accuracy Test: 83.76%
Loss Train: 0.56
Loss Test: 0.90
Numero dati esaminati: 1712
…
