…
 - 16s - loss: 0.2875 - accuracy: 0.8709 - val_loss: 0.5082 - val_accuracy: 0.8577
Epoch 109/110
 - 15s - loss: 0.2908 - accuracy: 0.8720 - val_loss: 0.5089 - val_accuracy: 0.8496
Epoch 110/110
 - 15s - loss: 0.3021 - accuracy: 0.8658 - val_loss: 0.5154 - val_accuracy: 0.8438

Fit: epochs= 110 , batch_size= 64 , verbose= 2 , shuffle= False , validation_split= 0.2 

Model: "sequential_31"
_________________________________________________________________
Layer (type)                 Output Shape              Param #   
=================================================================
conv1d_31 (Conv1D)           (None, 11, 500)           1000      
_________________________________________________________________
activation_31 (Activation)   (None, 11, 500)           0         
_________________________________________________________________
lstm_31 (LSTM)               (None, 400)               1441600   
_________________________________________________________________
dropout_31 (Dropout)         (None, 400)               0         
_________________________________________________________________
dense_181 (Dense)            (None, 300)               120300    
_________________________________________________________________
dense_182 (Dense)            (None, 200)               60200     
_________________________________________________________________
dense_183 (Dense)            (None, 100)               20100     
_________________________________________________________________
dense_184 (Dense)            (None, 50)                5050      
_________________________________________________________________
dense_185 (Dense)            (None, 20)                1020      
_________________________________________________________________
dense_186 (Dense)            (None, 4)                 84        
=================================================================
Total params: 1,649,354
Trainable params: 1,649,354
Non-trainable params: 0
_________________________________________________________________
None

Accuracy Train: 86.23%
Accuracy Test: 84.64%
Loss Train: 0.34
Loss Test: 0.44
Numero dati esaminati: 1712
True Positive 1449
False Positive 263


------------------------------------------------------------------------
…
