…
 - 2s - loss: 0.3458 - accuracy: 0.9376 - val_loss: 1.6728 - val_accuracy: 0.6657

Number of filters: 16 , Kernel Size: 3 , Strides: 1 Batch Normalization: True , Conv_First: True , Depth Value: 20

Fit: epochs= 110 , batch_size= 64 , verbose= 2 , shuffle= False , validation_split= 0.2 

Model: "model_37"
__________________________________________________________________________________________________
Layer (type)                    Output Shape         Param #     Connected to                     
==================================================================================================
input_37 (InputLayer)           (None, 10, 1)        0                                            
__________________________________________________________________________________________________
conv1d_799 (Conv1D)             (None, 10, 16)       64          input_37[0][0]                   
__________________________________________________________________________________________________
batch_normalization_685 (BatchN (None, 10, 16)       64          conv1d_799[0][0]                 
__________________________________________________________________________________________________
activation_769 (Activation)     (None, 10, 16)       0           batch_normalization_685[0][0]    
__________________________________________________________________________________________________
conv1d_800 (Conv1D)             (None, 10, 16)       784         activation_769[0][0]             
__________________________________________________________________________________________________
batch_normalization_686 (BatchN (None, 10, 16)       64          conv1d_800[0][0]                 
__________________________________________________________________________________________________
activation_770 (Activation)     (None, 10, 16)       0           batch_normalization_686[0][0]    
__________________________________________________________________________________________________
conv1d_801 (Conv1D)             (None, 10, 16)       784         activation_770[0][0]             
__________________________________________________________________________________________________
batch_normalization_687 (BatchN (None, 10, 16)       64          conv1d_801[0][0]                 
__________________________________________________________________________________________________
add_325 (Add)                   (None, 10, 16)       0           activation_769[0][0]             
                                                                 batch_normalization_687[0][0]    
__________________________________________________________________________________________________
activation_771 (Activation)     (None, 10, 16)       0           add_325[0][0]                    
__________________________________________________________________________________________________
conv1d_802 (Conv1D)             (None, 10, 16)       784         activation_771[0][0]             
__________________________________________________________________________________________________
batch_normalization_688 (BatchN (None, 10, 16)       64          conv1d_802[0][0]                 
__________________________________________________________________________________________________
activation_772 (Activation)     (None, 10, 16)       0           batch_normalization_688[0][0]    
__________________________________________________________________________________________________
conv1d_803 (Conv1D)             (None, 10, 16)       784         activation_772[0][0]             
__________________________________________________________________________________________________
batch_normalization_689 (BatchN (None, 10, 16)       64          conv1d_803[0][0]                 
__________________________________________________________________________________________________
add_326 (Add)                   (None, 10, 16)       0           activation_771[0][0]             
                                                                 batch_normalization_689[0][0]    
__________________________________________________________________________________________________
activation_773 (Activation)     (None, 10, 16)       0           add_326[0][0]                    
__________________________________________________________________________________________________
conv1d_804 (Conv1D)             (None, 10, 16)       784         activation_773[0][0]             
__________________________________________________________________________________________________
batch_normalization_690 (BatchN (None, 10, 16)       64          conv1d_804[0][0]                 
__________________________________________________________________________________________________
activation_774 (Activation)     (None, 10, 16)       0           batch_normalization_690[0][0]    
__________________________________________________________________________________________________
conv1d_805 (Conv1D)             (None, 10, 16)       784         activation_774[0][0]             
__________________________________________________________________________________________________
batch_normalization_691 (BatchN (None, 10, 16)       64          conv1d_805[0][0]                 
__________________________________________________________________________________________________
add_327 (Add)                   (None, 10, 16)       0           activation_773[0][0]             
                                                                 batch_normalization_691[0][0]    
__________________________________________________________________________________________________
activation_775 (Activation)     (None, 10, 16)       0           add_327[0][0]                    
__________________________________________________________________________________________________
conv1d_806 (Conv1D)             (None, 5, 32)        1568        activation_775[0][0]             
__________________________________________________________________________________________________
batch_normalization_692 (BatchN (None, 5, 32)        128         conv1d_806[0][0]                 
__________________________________________________________________________________________________
activation_776 (Activation)     (None, 5, 32)        0           batch_normalization_692[0][0]    
__________________________________________________________________________________________________
conv1d_807 (Conv1D)             (None, 5, 32)        3104        activation_776[0][0]             
__________________________________________________________________________________________________
conv1d_808 (Conv1D)             (None, 5, 32)        544         activation_775[0][0]             
__________________________________________________________________________________________________
batch_normalization_693 (BatchN (None, 5, 32)        128         conv1d_807[0][0]                 
__________________________________________________________________________________________________
add_328 (Add)                   (None, 5, 32)        0           conv1d_808[0][0]                 
                                                                 batch_normalization_693[0][0]    
__________________________________________________________________________________________________
activation_777 (Activation)     (None, 5, 32)        0           add_328[0][0]                    
__________________________________________________________________________________________________
conv1d_809 (Conv1D)             (None, 5, 32)        3104        activation_777[0][0]             
__________________________________________________________________________________________________
batch_normalization_694 (BatchN (None, 5, 32)        128         conv1d_809[0][0]                 
__________________________________________________________________________________________________
activation_778 (Activation)     (None, 5, 32)        0           batch_normalization_694[0][0]    
__________________________________________________________________________________________________
conv1d_810 (Conv1D)             (None, 5, 32)        3104        activation_778[0][0]             
__________________________________________________________________________________________________
batch_normalization_695 (BatchN (None, 5, 32)        128         conv1d_810[0][0]                 
__________________________________________________________________________________________________
add_329 (Add)                   (None, 5, 32)        0           activation_777[0][0]             
                                                                 batch_normalization_695[0][0]    
__________________________________________________________________________________________________
activation_779 (Activation)     (None, 5, 32)        0           add_329[0][0]                    
__________________________________________________________________________________________________
conv1d_811 (Conv1D)             (None, 5, 32)        3104        activation_779[0][0]             
__________________________________________________________________________________________________
batch_normalization_696 (BatchN (None, 5, 32)        128         conv1d_811[0][0]                 
__________________________________________________________________________________________________
activation_780 (Activation)     (None, 5, 32)        0           batch_normalization_696[0][0]    
__________________________________________________________________________________________________
conv1d_812 (Conv1D)             (None, 5, 32)        3104        activation_780[0][0]             
__________________________________________________________________________________________________
batch_normalization_697 (BatchN (None, 5, 32)        128         conv1d_812[0][0]                 
__________________________________________________________________________________________________
add_330 (Add)                   (None, 5, 32)        0           activation_779[0][0]             
                                                                 batch_normalization_697[0][0]    
__________________________________________________________________________________________________
activation_781 (Activation)     (None, 5, 32)        0           add_330[0][0]                    
__________________________________________________________________________________________________
conv1d_813 (Conv1D)             (None, 3, 64)        6208        activation_781[0][0]             
__________________________________________________________________________________________________
batch_normalization_698 (BatchN (None, 3, 64)        256         conv1d_813[0][0]                 
__________________________________________________________________________________________________
activation_782 (Activation)     (None, 3, 64)        0           batch_normalization_698[0][0]    
__________________________________________________________________________________________________
conv1d_814 (Conv1D)             (None, 3, 64)        12352       activation_782[0][0]             
__________________________________________________________________________________________________
conv1d_815 (Conv1D)             (None, 3, 64)        2112        activation_781[0][0]             
__________________________________________________________________________________________________
batch_normalization_699 (BatchN (None, 3, 64)        256         conv1d_814[0][0]                 
__________________________________________________________________________________________________
add_331 (Add)                   (None, 3, 64)        0           conv1d_815[0][0]                 
                                                                 batch_normalization_699[0][0]    
__________________________________________________________________________________________________
activation_783 (Activation)     (None, 3, 64)        0           add_331[0][0]                    
__________________________________________________________________________________________________
conv1d_816 (Conv1D)             (None, 3, 64)        12352       activation_783[0][0]             
__________________________________________________________________________________________________
batch_normalization_700 (BatchN (None, 3, 64)        256         conv1d_816[0][0]                 
__________________________________________________________________________________________________
activation_784 (Activation)     (None, 3, 64)        0           batch_normalization_700[0][0]    
__________________________________________________________________________________________________
conv1d_817 (Conv1D)             (None, 3, 64)        12352       activation_784[0][0]             
__________________________________________________________________________________________________
batch_normalization_701 (BatchN (None, 3, 64)        256         conv1d_817[0][0]                 
__________________________________________________________________________________________________
add_332 (Add)                   (None, 3, 64)        0           activation_783[0][0]             
                                                                 batch_normalization_701[0][0]    
__________________________________________________________________________________________________
activation_785 (Activation)     (None, 3, 64)        0           add_332[0][0]                    
__________________________________________________________________________________________________
conv1d_818 (Conv1D)             (None, 3, 64)        12352       activation_785[0][0]             
__________________________________________________________________________________________________
batch_normalization_702 (BatchN (None, 3, 64)        256         conv1d_818[0][0]                 
__________________________________________________________________________________________________
activation_786 (Activation)     (None, 3, 64)        0           batch_normalization_702[0][0]    
__________________________________________________________________________________________________
conv1d_819 (Conv1D)             (None, 3, 64)        12352       activation_786[0][0]             
__________________________________________________________________________________________________
batch_normalization_703 (BatchN (None, 3, 64)        256         conv1d_819[0][0]                 
__________________________________________________________________________________________________
add_333 (Add)                   (None, 3, 64)        0           activation_785[0][0]             
                                                                 batch_normalization_703[0][0]    
__________________________________________________________________________________________________
activation_787 (Activation)     (None, 3, 64)        0           add_333[0][0]                    
__________________________________________________________________________________________________
average_pooling1d_37 (AveragePo (None, 3, 64)        0           activation_787[0][0]             
__________________________________________________________________________________________________
flatten_79 (Flatten)            (None, 192)          0           average_pooling1d_37[0][0]       
__________________________________________________________________________________________________
dense_1207 (Dense)              (None, 4)            772         flatten_79[0][0]                 
==================================================================================================
Total params: 96,004
Trainable params: 94,628
Non-trainable params: 1,376
__________________________________________________________________________________________________
None

Accuracy Train: 75.37%
Accuracy Test: 65.30%
Loss Train: 1.08
Loss Test: 1.69
Numero dati esaminati: 1712
…
