…
 - 1s - loss: 0.2166 - accuracy: 0.9055 - val_loss: 3.5134 - val_accuracy: 0.6865
Epoch 511/512
 - 1s - loss: 0.2179 - accuracy: 0.9049 - val_loss: 3.4595 - val_accuracy: 0.6921
Epoch 512/512
 - 1s - loss: 0.2334 - accuracy: 0.8998 - val_loss: 3.2293 - val_accuracy: 0.6956

Fit: epochs= 512 , batch_size= 64 , verbose= 2 , shuffle= False , validation_split= 0.2 

Model: "sequential_1"
_________________________________________________________________
Layer (type)                 Output Shape              Param #   
=================================================================
dense_1 (Dense)              (None, 10)                110       
_________________________________________________________________
dense_2 (Dense)              (None, 500)               5500      
_________________________________________________________________
dense_3 (Dense)              (None, 300)               150300    
_________________________________________________________________
dense_4 (Dense)              (None, 200)               60200     
_________________________________________________________________
dense_5 (Dense)              (None, 100)               20100     
_________________________________________________________________
dense_6 (Dense)              (None, 50)                5050      
_________________________________________________________________
dense_7 (Dense)              (None, 20)                1020      
_________________________________________________________________
dense_8 (Dense)              (None, 4)                 84        
=================================================================
Total params: 242,364
Trainable params: 242,364
Non-trainable params: 0
_________________________________________________________________
None

Accuracy Train: 85.15%
Accuracy Test: 53.40%
Loss Train: 0.85
Loss Test: 12.29
Numero dati esaminati: 2000
True Positive 1068
False Positive 932
