…
 - 1s - loss: 0.3038 - accuracy: 0.8790 - val_loss: 0.8035 - val_accuracy: 0.7828
Epoch 511/512
 - 1s - loss: 0.2822 - accuracy: 0.8811 - val_loss: 0.6840 - val_accuracy: 0.8259
Epoch 512/512
 - 1s - loss: 0.2585 - accuracy: 0.8884 - val_loss: 0.9064 - val_accuracy: 0.8141

Fit: epochs= 512 , batch_size= 64 , verbose= 2 , shuffle= False , validation_split= 0.2 

Model: "sequential_1"
_________________________________________________________________
Layer (type)                 Output Shape              Param #   
=================================================================
dense_1 (Dense)              (None, 10)                110       
_________________________________________________________________
dense_2 (Dense)              (None, 500)               5500      
_________________________________________________________________
dense_3 (Dense)              (None, 300)               150300    
_________________________________________________________________
dense_4 (Dense)              (None, 200)               60200     
_________________________________________________________________
dense_5 (Dense)              (None, 100)               20100     
_________________________________________________________________
dense_6 (Dense)              (None, 50)                5050      
_________________________________________________________________
dense_7 (Dense)              (None, 20)                1020      
_________________________________________________________________
dense_8 (Dense)              (None, 4)                 84        
=================================================================
Total params: 242,364
Trainable params: 242,364
Non-trainable params: 0
_________________________________________________________________
None

Accuracy Train: 83.73%
Accuracy Test: 46.60%
Loss Train: 0.57
Loss Test: 17.24
Numero dati esaminati: 2000
True Positive 932
False Positive 1068
