…
 - 0s - loss: 0.1992 - accuracy: 0.9119 - val_loss: 0.7818 - val_accuracy: 0.8342
Epoch 511/512
 - 0s - loss: 0.2738 - accuracy: 0.8887 - val_loss: 0.6614 - val_accuracy: 0.8389
Epoch 512/512
 - 0s - loss: 0.2256 - accuracy: 0.9007 - val_loss: 0.6924 - val_accuracy: 0.8401

Fit: epochs= 512 , batch_size= 64 , verbose= 2 , shuffle= False , validation_split= 0.2 

Model: "sequential_1"
_________________________________________________________________
Layer (type)                 Output Shape              Param #   
=================================================================
dense_1 (Dense)              (None, 10)                110       
_________________________________________________________________
dense_2 (Dense)              (None, 500)               5500      
_________________________________________________________________
dense_3 (Dense)              (None, 300)               150300    
_________________________________________________________________
dense_4 (Dense)              (None, 200)               60200     
_________________________________________________________________
dense_5 (Dense)              (None, 100)               20100     
_________________________________________________________________
dense_6 (Dense)              (None, 50)                5050      
_________________________________________________________________
dense_7 (Dense)              (None, 20)                1020      
_________________________________________________________________
dense_8 (Dense)              (None, 4)                 84        
=================================================================
Total params: 242,364
Trainable params: 242,364
Non-trainable params: 0
_________________________________________________________________
None

Accuracy Train: 89.18%
Accuracy Test: 50.40%
Loss Train: 0.31
Loss Test: 17.22
Numero dati esaminati: 2000
True Positive 1008
False Positive 992
