{
  "class_name": "Sequential",
  "config": {
    "name": "sequential_79",
    "layers": [
      {
        "class_name": "LSTM",
        "config": {
          "name": "lstm_37",
          "trainable": true,
          "batch_input_shape": [
            null,
            1,
            10
          ],
          "dtype": "float32",
          "return_sequences": false,
          "return_state": false,
          "go_backwards": false,
          "stateful": false,
          "unroll": false,
          "units": 500,
          "activation": "tanh",
          "recurrent_activation": "sigmoid",
          "use_bias": true,
          "kernel_initializer": {
            "class_name": "VarianceScaling",
            "config": {
              "scale": 1.0,
              "mode": "fan_avg",
              "distribution": "uniform",
              "seed": null
            }
          },
          "recurrent_initializer": {
            "class_name": "Orthogonal",
            "config": {
              "gain": 1.0,
              "seed": null
            }
          },
          "bias_initializer": {
            "class_name": "Zeros",
            "config": {}
          },
          "unit_forget_bias": true,
          "kernel_regularizer": null,
          "recurrent_regularizer": null,
          "bias_regularizer": null,
          "activity_regularizer": null,
          "kernel_constraint": null,
          "recurrent_constraint": null,
          "bias_constraint": null,
          "dropout": 0.0,
          "recurrent_dropout": 0.0,
          "implementation": 2
        }
      },
      {
        "class_name": "Dropout",
        "config": {
          "name": "dropout_79",
          "trainable": true,
          "dtype": "float32",
          "rate": 0.2,
          "noise_shape": null,
          "seed": null
        }
      },
      {
        "class_name": "Dense",
        "config": {
          "name": "dense_511",
          "trainable": true,
          "dtype": "float32",
          "units": 300,
          "activation": "relu",
          "use_bias": true,
          "kernel_initializer": {
            "class_name": "VarianceScaling",
            "config": {
              "scale": 1.0,
              "mode": "fan_avg",
              "distribution": "uniform",
              "seed": null
            }
          },
          "bias_initializer": {
            "class_name": "Zeros",
            "config": {}
          },
          "kernel_regularizer": null,
          "bias_regularizer": null,
          "activity_regularizer": null,
          "kernel_constraint": null,
          "bias_constraint": null
        }
      },
      {
        "class_name": "Dense",
        "config": {
          "name": "dense_512",
          "trainable": true,
          "dtype": "float32",
          "units": 200,
          "activation": "relu",
          "use_bias": true,
          "kernel_initializer": {
            "class_name": "VarianceScaling",
            "config": {
              "scale": 1.0,
              "mode": "fan_avg",
              "distribution": "uniform",
              "seed": null
            }
          },
          "bias_initializer": {
            "class_name": "Zeros",
            "config": {}
          },
          "kernel_regularizer": null,
          "bias_regularizer": null,
          "activity_regularizer": null,
          "kernel_constraint": null,
          "bias_constraint": null
        }
      },
      {
        "class_name": "Dense",
        "config": {
          "name": "dense_513",
          "trainable": true,
          "dtype": "float32",
          "units": 100,
          "activation": "relu",
          "use_bias": true,
          "kernel_initializer": {
            "class_name": "VarianceScaling",
            "config": {
              "scale": 1.0,
              "mode": "fan_avg",
              "distribution": "uniform",
              "seed": null
            }
          },
          "bias_initializer": {
            "class_name": "Zeros",
            "config": {}
          },
          "kernel_regularizer": null,
          "bias_regularizer": null,
          "activity_regularizer": null,
          "kernel_constraint": null,
          "bias_constraint": null
        }
      },
      {
        "class_name": "Dense",
        "config": {
          "name": "dense_514",
          "trainable": true,
          "dtype": "float32",
          "units": 50,
          "activation": "relu",
          "use_bias": true,
          "kernel_initializer": {
            "class_name": "VarianceScaling",
            "config": {
              "scale": 1.0,
              "mode": "fan_avg",
              "distribution": "uniform",
              "seed": null
            }
          },
          "bias_initializer": {
            "class_name": "Zeros",
            "config": {}
          },
          "kernel_regularizer": null,
          "bias_regularizer": null,
          "activity_regularizer": null,
          "kernel_constraint": null,
          "bias_constraint": null
        }
      },
      {
        "class_name": "Dense",
        "config": {
          "name": "dense_515",
          "trainable": true,
          "dtype": "float32",
          "units": 20,
          "activation": "relu",
          "use_bias": true,
          "kernel_initializer": {
            "class_name": "VarianceScaling",
            "config": {
              "scale": 1.0,
              "mode": "fan_avg",
              "distribution": "uniform",
              "seed": null
            }
          },
          "bias_initializer": {
            "class_name": "Zeros",
            "config": {}
          },
          "kernel_regularizer": null,
          "bias_regularizer": null,
          "activity_regularizer": null,
          "kernel_constraint": null,
          "bias_constraint": null
        }
      },
      {
        "class_name": "Dense",
        "config": {
          "name": "dense_516",
          "trainable": true,
          "dtype": "float32",
          "units": 4,
          "activation": "softmax",
          "use_bias": true,
          "kernel_initializer": {
            "class_name": "VarianceScaling",
            "config": {
              "scale": 1.0,
              "mode": "fan_avg",
              "distribution": "uniform",
              "seed": null
            }
          },
          "bias_initializer": {
            "class_name": "Zeros",
            "config": {}
          },
          "kernel_regularizer": null,
          "bias_regularizer": null,
          "activity_regularizer": null,
          "kernel_constraint": null,
          "bias_constraint": null
        }
      }
    ]
  },
  "keras_version": "2.3.1",
  "backend": "tensorflow"
}