{"class_name": "Model", "config": {"name": "model_25", "layers": [{"name": "input_25", "class_name": "InputLayer", "config": {"batch_input_shape": [null, 10, 1], "dtype": "float32", "sparse": false, "name": "input_25"}, "inbound_nodes": []}, {"name": "conv1d_547", "class_name": "Conv1D", "config": {"name": "conv1d_547", "trainable": true, "dtype": "float32", "filters": 16, "kernel_size": [3], "strides": [1], "padding": "same", "data_format": "channels_last", "dilation_rate": [1], "activation": "linear", "use_bias": true, "kernel_initializer": {"class_name": "VarianceScaling", "config": {"scale": 2.0, "mode": "fan_in", "distribution": "normal", "seed": null}}, "bias_initializer": {"class_name": "Zeros", "config": {}}, "kernel_regularizer": {"class_name": "L1L2", "config": {"l1": 0.0, "l2": 9.999999747378752e-05}}, "bias_regularizer": null, "activity_regularizer": null, "kernel_constraint": null, "bias_constraint": null}, "inbound_nodes": [[["input_25", 0, 0, {}]]]}, {"name": "batch_normalization_457", "class_name": "BatchNormalization", "config": {"name": "batch_normalization_457", "trainable": true, "dtype": "float32", "axis": -1, "momentum": 0.99, "epsilon": 0.001, "center": true, "scale": true, "beta_initializer": {"class_name": "Zeros", "config": {}}, "gamma_initializer": {"class_name": "Ones", "config": {}}, "moving_mean_initializer": {"class_name": "Zeros", "config": {}}, "moving_variance_initializer": {"class_name": "Ones", "config": {}}, "beta_regularizer": null, "gamma_regularizer": null, "beta_constraint": null, "gamma_constraint": null}, "inbound_nodes": [[["conv1d_547", 0, 0, {}]]]}, {"name": "activation_541", "class_name": "Activation", "config": {"name": "activation_541", "trainable": true, "dtype": "float32", "activation": "relu"}, "inbound_nodes": [[["batch_normalization_457", 0, 0, {}]]]}, {"name": "conv1d_548", "class_name": "Conv1D", "config": {"name": "conv1d_548", "trainable": true, "dtype": "float32", "filters": 16, "kernel_size": [3], "strides": [1], "padding": "same", "data_format": "channels_last", "dilation_rate": [1], "activation": "linear", "use_bias": true, "kernel_initializer": {"class_name": "VarianceScaling", "config": {"scale": 2.0, "mode": "fan_in", "distribution": "normal", "seed": null}}, "bias_initializer": {"class_name": "Zeros", "config": {}}, "kernel_regularizer": {"class_name": "L1L2", "config": {"l1": 0.0, "l2": 9.999999747378752e-05}}, "bias_regularizer": null, "activity_regularizer": null, "kernel_constraint": null, "bias_constraint": null}, "inbound_nodes": [[["activation_541", 0, 0, {}]]]}, {"name": "batch_normalization_458", "class_name": "BatchNormalization", "config": {"name": "batch_normalization_458", "trainable": true, "dtype": "float32", "axis": -1, "momentum": 0.99, "epsilon": 0.001, "center": true, "scale": true, "beta_initializer": {"class_name": "Zeros", "config": {}}, "gamma_initializer": {"class_name": "Ones", "config": {}}, "moving_mean_initializer": {"class_name": "Zeros", "config": {}}, "moving_variance_initializer": {"class_name": "Ones", "config": {}}, "beta_regularizer": null, "gamma_regularizer": null, "beta_constraint": null, "gamma_constraint": null}, "inbound_nodes": [[["conv1d_548", 0, 0, {}]]]}, {"name": "activation_542", "class_name": "Activation", "config": {"name": "activation_542", "trainable": true, "dtype": "float32", "activation": "relu"}, "inbound_nodes": [[["batch_normalization_458", 0, 0, {}]]]}, {"name": "conv1d_549", "class_name": "Conv1D", "config": {"name": "conv1d_549", "trainable": true, "dtype": "float32", "filters": 16, "kernel_size": [3], "strides": [1], "padding": "same", "data_format": "channels_last", "dilation_rate": [1], "activation": "linear", "use_bias": true, "kernel_initializer": {"class_name": "VarianceScaling", "config": {"scale": 2.0, "mode": "fan_in", "distribution": "normal", "seed": null}}, "bias_initializer": {"class_name": "Zeros", "config": {}}, "kernel_regularizer": {"class_name": "L1L2", "config": {"l1": 0.0, "l2": 9.999999747378752e-05}}, "bias_regularizer": null, "activity_regularizer": null, "kernel_constraint": null, "bias_constraint": null}, "inbound_nodes": [[["activation_542", 0, 0, {}]]]}, {"name": "batch_normalization_459", "class_name": "BatchNormalization", "config": {"name": "batch_normalization_459", "trainable": true, "dtype": "float32", "axis": -1, "momentum": 0.99, "epsilon": 0.001, "center": true, "scale": true, "beta_initializer": {"class_name": "Zeros", "config": {}}, "gamma_initializer": {"class_name": "Ones", "config": {}}, "moving_mean_initializer": {"class_name": "Zeros", "config": {}}, "moving_variance_initializer": {"class_name": "Ones", "config": {}}, "beta_regularizer": null, "gamma_regularizer": null, "beta_constraint": null, "gamma_constraint": null}, "inbound_nodes": [[["conv1d_549", 0, 0, {}]]]}, {"name": "add_217", "class_name": "Add", "config": {"name": "add_217", "trainable": true, "dtype": "float32"}, "inbound_nodes": [[["activation_541", 0, 0, {}], ["batch_normalization_459", 0, 0, {}]]]}, {"name": "activation_543", "class_name": "Activation", "config": {"name": "activation_543", "trainable": true, "dtype": "float32", "activation": "relu"}, "inbound_nodes": [[["add_217", 0, 0, {}]]]}, {"name": "conv1d_550", "class_name": "Conv1D", "config": {"name": "conv1d_550", "trainable": true, "dtype": "float32", "filters": 16, "kernel_size": [3], "strides": [1], "padding": "same", "data_format": "channels_last", "dilation_rate": [1], "activation": "linear", "use_bias": true, "kernel_initializer": {"class_name": "VarianceScaling", "config": {"scale": 2.0, "mode": "fan_in", "distribution": "normal", "seed": null}}, "bias_initializer": {"class_name": "Zeros", "config": {}}, "kernel_regularizer": {"class_name": "L1L2", "config": {"l1": 0.0, "l2": 9.999999747378752e-05}}, "bias_regularizer": null, "activity_regularizer": null, "kernel_constraint": null, "bias_constraint": null}, "inbound_nodes": [[["activation_543", 0, 0, {}]]]}, {"name": "batch_normalization_460", "class_name": "BatchNormalization", "config": {"name": "batch_normalization_460", "trainable": true, "dtype": "float32", "axis": -1, "momentum": 0.99, "epsilon": 0.001, "center": true, "scale": true, "beta_initializer": {"class_name": "Zeros", "config": {}}, "gamma_initializer": {"class_name": "Ones", "config": {}}, "moving_mean_initializer": {"class_name": "Zeros", "config": {}}, "moving_variance_initializer": {"class_name": "Ones", "config": {}}, "beta_regularizer": null, "gamma_regularizer": null, "beta_constraint": null, "gamma_constraint": null}, "inbound_nodes": [[["conv1d_550", 0, 0, {}]]]}, {"name": "activation_544", "class_name": "Activation", "config": {"name": "activation_544", "trainable": true, "dtype": "float32", "activation": "relu"}, "inbound_nodes": [[["batch_normalization_460", 0, 0, {}]]]}, {"name": "conv1d_551", "class_name": "Conv1D", "config": {"name": "conv1d_551", "trainable": true, "dtype": "float32", "filters": 16, "kernel_size": [3], "strides": [1], "padding": "same", "data_format": "channels_last", "dilation_rate": [1], "activation": "linear", "use_bias": true, "kernel_initializer": {"class_name": "VarianceScaling", "config": {"scale": 2.0, "mode": "fan_in", "distribution": "normal", "seed": null}}, "bias_initializer": {"class_name": "Zeros", "config": {}}, "kernel_regularizer": {"class_name": "L1L2", "config": {"l1": 0.0, "l2": 9.999999747378752e-05}}, "bias_regularizer": null, "activity_regularizer": null, "kernel_constraint": null, "bias_constraint": null}, "inbound_nodes": [[["activation_544", 0, 0, {}]]]}, {"name": "batch_normalization_461", "class_name": "BatchNormalization", "config": {"name": "batch_normalization_461", "trainable": true, "dtype": "float32", "axis": -1, "momentum": 0.99, "epsilon": 0.001, "center": true, "scale": true, "beta_initializer": {"class_name": "Zeros", "config": {}}, "gamma_initializer": {"class_name": "Ones", "config": {}}, "moving_mean_initializer": {"class_name": "Zeros", "config": {}}, "moving_variance_initializer": {"class_name": "Ones", "config": {}}, "beta_regularizer": null, "gamma_regularizer": null, "beta_constraint": null, "gamma_constraint": null}, "inbound_nodes": [[["conv1d_551", 0, 0, {}]]]}, {"name": "add_218", "class_name": "Add", "config": {"name": "add_218", "trainable": true, "dtype": "float32"}, "inbound_nodes": [[["activation_543", 0, 0, {}], ["batch_normalization_461", 0, 0, {}]]]}, {"name": "activation_545", "class_name": "Activation", "config": {"name": "activation_545", "trainable": true, "dtype": "float32", "activation": "relu"}, "inbound_nodes": [[["add_218", 0, 0, {}]]]}, {"name": "conv1d_552", "class_name": "Conv1D", "config": {"name": "conv1d_552", "trainable": true, "dtype": "float32", "filters": 16, "kernel_size": [3], "strides": [1], "padding": "same", "data_format": "channels_last", "dilation_rate": [1], "activation": "linear", "use_bias": true, "kernel_initializer": {"class_name": "VarianceScaling", "config": {"scale": 2.0, "mode": "fan_in", "distribution": "normal", "seed": null}}, "bias_initializer": {"class_name": "Zeros", "config": {}}, "kernel_regularizer": {"class_name": "L1L2", "config": {"l1": 0.0, "l2": 9.999999747378752e-05}}, "bias_regularizer": null, "activity_regularizer": null, "kernel_constraint": null, "bias_constraint": null}, "inbound_nodes": [[["activation_545", 0, 0, {}]]]}, {"name": "batch_normalization_462", "class_name": "BatchNormalization", "config": {"name": "batch_normalization_462", "trainable": true, "dtype": "float32", "axis": -1, "momentum": 0.99, "epsilon": 0.001, "center": true, "scale": true, "beta_initializer": {"class_name": "Zeros", "config": {}}, "gamma_initializer": {"class_name": "Ones", "config": {}}, "moving_mean_initializer": {"class_name": "Zeros", "config": {}}, "moving_variance_initializer": {"class_name": "Ones", "config": {}}, "beta_regularizer": null, "gamma_regularizer": null, "beta_constraint": null, "gamma_constraint": null}, "inbound_nodes": [[["conv1d_552", 0, 0, {}]]]}, {"name": "activation_546", "class_name": "Activation", "config": {"name": "activation_546", "trainable": true, "dtype": "float32", "activation": "relu"}, "inbound_nodes": [[["batch_normalization_462", 0, 0, {}]]]}, {"name": "conv1d_553", "class_name": "Conv1D", "config": {"name": "conv1d_553", "trainable": true, "dtype": "float32", "filters": 16, "kernel_size": [3], "strides": [1], "padding": "same", "data_format": "channels_last", "dilation_rate": [1], "activation": "linear", "use_bias": true, "kernel_initializer": {"class_name": "VarianceScaling", "config": {"scale": 2.0, "mode": "fan_in", "distribution": "normal", "seed": null}}, "bias_initializer": {"class_name": "Zeros", "config": {}}, "kernel_regularizer": {"class_name": "L1L2", "config": {"l1": 0.0, "l2": 9.999999747378752e-05}}, "bias_regularizer": null, "activity_regularizer": null, "kernel_constraint": null, "bias_constraint": null}, "inbound_nodes": [[["activation_546", 0, 0, {}]]]}, {"name": "batch_normalization_463", "class_name": "BatchNormalization", "config": {"name": "batch_normalization_463", "trainable": true, "dtype": "float32", "axis": -1, "momentum": 0.99, "epsilon": 0.001, "center": true, "scale": true, "beta_initializer": {"class_name": "Zeros", "config": {}}, "gamma_initializer": {"class_name": "Ones", "config": {}}, "moving_mean_initializer": {"class_name": "Zeros", "config": {}}, "moving_variance_initializer": {"class_name": "Ones", "config": {}}, "beta_regularizer": null, "gamma_regularizer": null, "beta_constraint": null, "gamma_constraint": null}, "inbound_nodes": [[["conv1d_553", 0, 0, {}]]]}, {"name": "add_219", "class_name": "Add", "config": {"name": "add_219", "trainable": true, "dtype": "float32"}, "inbound_nodes": [[["activation_545", 0, 0, {}], ["batch_normalization_463", 0, 0, {}]]]}, {"name": "activation_547", "class_name": "Activation", "config": {"name": "activation_547", "trainable": true, "dtype": "float32", "activation": "relu"}, "inbound_nodes": [[["add_219", 0, 0, {}]]]}, {"name": "conv1d_554", "class_name": "Conv1D", "config": {"name": "conv1d_554", "trainable": true, "dtype": "float32", "filters": 32, "kernel_size": [3], "strides": [2], "padding": "same", "data_format": "channels_last", "dilation_rate": [1], "activation": "linear", "use_bias": true, "kernel_initializer": {"class_name": "VarianceScaling", "config": {"scale": 2.0, "mode": "fan_in", "distribution": "normal", "seed": null}}, "bias_initializer": {"class_name": "Zeros", "config": {}}, "kernel_regularizer": {"class_name": "L1L2", "config": {"l1": 0.0, "l2": 9.999999747378752e-05}}, "bias_regularizer": null, "activity_regularizer": null, "kernel_constraint": null, "bias_constraint": null}, "inbound_nodes": [[["activation_547", 0, 0, {}]]]}, {"name": "batch_normalization_464", "class_name": "BatchNormalization", "config": {"name": "batch_normalization_464", "trainable": true, "dtype": "float32", "axis": -1, "momentum": 0.99, "epsilon": 0.001, "center": true, "scale": true, "beta_initializer": {"class_name": "Zeros", "config": {}}, "gamma_initializer": {"class_name": "Ones", "config": {}}, "moving_mean_initializer": {"class_name": "Zeros", "config": {}}, "moving_variance_initializer": {"class_name": "Ones", "config": {}}, "beta_regularizer": null, "gamma_regularizer": null, "beta_constraint": null, "gamma_constraint": null}, "inbound_nodes": [[["conv1d_554", 0, 0, {}]]]}, {"name": "activation_548", "class_name": "Activation", "config": {"name": "activation_548", "trainable": true, "dtype": "float32", "activation": "relu"}, "inbound_nodes": [[["batch_normalization_464", 0, 0, {}]]]}, {"name": "conv1d_555", "class_name": "Conv1D", "config": {"name": "conv1d_555", "trainable": true, "dtype": "float32", "filters": 32, "kernel_size": [3], "strides": [1], "padding": "same", "data_format": "channels_last", "dilation_rate": [1], "activation": "linear", "use_bias": true, "kernel_initializer": {"class_name": "VarianceScaling", "config": {"scale": 2.0, "mode": "fan_in", "distribution": "normal", "seed": null}}, "bias_initializer": {"class_name": "Zeros", "config": {}}, "kernel_regularizer": {"class_name": "L1L2", "config": {"l1": 0.0, "l2": 9.999999747378752e-05}}, "bias_regularizer": null, "activity_regularizer": null, "kernel_constraint": null, "bias_constraint": null}, "inbound_nodes": [[["activation_548", 0, 0, {}]]]}, {"name": "conv1d_556", "class_name": "Conv1D", "config": {"name": "conv1d_556", "trainable": true, "dtype": "float32", "filters": 32, "kernel_size": [1], "strides": [2], "padding": "same", "data_format": "channels_last", "dilation_rate": [1], "activation": "linear", "use_bias": true, "kernel_initializer": {"class_name": "VarianceScaling", "config": {"scale": 2.0, "mode": "fan_in", "distribution": "normal", "seed": null}}, "bias_initializer": {"class_name": "Zeros", "config": {}}, "kernel_regularizer": {"class_name": "L1L2", "config": {"l1": 0.0, "l2": 9.999999747378752e-05}}, "bias_regularizer": null, "activity_regularizer": null, "kernel_constraint": null, "bias_constraint": null}, "inbound_nodes": [[["activation_547", 0, 0, {}]]]}, {"name": "batch_normalization_465", "class_name": "BatchNormalization", "config": {"name": "batch_normalization_465", "trainable": true, "dtype": "float32", "axis": -1, "momentum": 0.99, "epsilon": 0.001, "center": true, "scale": true, "beta_initializer": {"class_name": "Zeros", "config": {}}, "gamma_initializer": {"class_name": "Ones", "config": {}}, "moving_mean_initializer": {"class_name": "Zeros", "config": {}}, "moving_variance_initializer": {"class_name": "Ones", "config": {}}, "beta_regularizer": null, "gamma_regularizer": null, "beta_constraint": null, "gamma_constraint": null}, "inbound_nodes": [[["conv1d_555", 0, 0, {}]]]}, {"name": "add_220", "class_name": "Add", "config": {"name": "add_220", "trainable": true, "dtype": "float32"}, "inbound_nodes": [[["conv1d_556", 0, 0, {}], ["batch_normalization_465", 0, 0, {}]]]}, {"name": "activation_549", "class_name": "Activation", "config": {"name": "activation_549", "trainable": true, "dtype": "float32", "activation": "relu"}, "inbound_nodes": [[["add_220", 0, 0, {}]]]}, {"name": "conv1d_557", "class_name": "Conv1D", "config": {"name": "conv1d_557", "trainable": true, "dtype": "float32", "filters": 32, "kernel_size": [3], "strides": [1], "padding": "same", "data_format": "channels_last", "dilation_rate": [1], "activation": "linear", "use_bias": true, "kernel_initializer": {"class_name": "VarianceScaling", "config": {"scale": 2.0, "mode": "fan_in", "distribution": "normal", "seed": null}}, "bias_initializer": {"class_name": "Zeros", "config": {}}, "kernel_regularizer": {"class_name": "L1L2", "config": {"l1": 0.0, "l2": 9.999999747378752e-05}}, "bias_regularizer": null, "activity_regularizer": null, "kernel_constraint": null, "bias_constraint": null}, "inbound_nodes": [[["activation_549", 0, 0, {}]]]}, {"name": "batch_normalization_466", "class_name": "BatchNormalization", "config": {"name": "batch_normalization_466", "trainable": true, "dtype": "float32", "axis": -1, "momentum": 0.99, "epsilon": 0.001, "center": true, "scale": true, "beta_initializer": {"class_name": "Zeros", "config": {}}, "gamma_initializer": {"class_name": "Ones", "config": {}}, "moving_mean_initializer": {"class_name": "Zeros", "config": {}}, "moving_variance_initializer": {"class_name": "Ones", "config": {}}, "beta_regularizer": null, "gamma_regularizer": null, "beta_constraint": null, "gamma_constraint": null}, "inbound_nodes": [[["conv1d_557", 0, 0, {}]]]}, {"name": "activation_550", "class_name": "Activation", "config": {"name": "activation_550", "trainable": true, "dtype": "float32", "activation": "relu"}, "inbound_nodes": [[["batch_normalization_466", 0, 0, {}]]]}, {"name": "conv1d_558", "class_name": "Conv1D", "config": {"name": "conv1d_558", "trainable": true, "dtype": "float32", "filters": 32, "kernel_size": [3], "strides": [1], "padding": "same", "data_format": "channels_last", "dilation_rate": [1], "activation": "linear", "use_bias": true, "kernel_initializer": {"class_name": "VarianceScaling", "config": {"scale": 2.0, "mode": "fan_in", "distribution": "normal", "seed": null}}, "bias_initializer": {"class_name": "Zeros", "config": {}}, "kernel_regularizer": {"class_name": "L1L2", "config": {"l1": 0.0, "l2": 9.999999747378752e-05}}, "bias_regularizer": null, "activity_regularizer": null, "kernel_constraint": null, "bias_constraint": null}, "inbound_nodes": [[["activation_550", 0, 0, {}]]]}, {"name": "batch_normalization_467", "class_name": "BatchNormalization", "config": {"name": "batch_normalization_467", "trainable": true, "dtype": "float32", "axis": -1, "momentum": 0.99, "epsilon": 0.001, "center": true, "scale": true, "beta_initializer": {"class_name": "Zeros", "config": {}}, "gamma_initializer": {"class_name": "Ones", "config": {}}, "moving_mean_initializer": {"class_name": "Zeros", "config": {}}, "moving_variance_initializer": {"class_name": "Ones", "config": {}}, "beta_regularizer": null, "gamma_regularizer": null, "beta_constraint": null, "gamma_constraint": null}, "inbound_nodes": [[["conv1d_558", 0, 0, {}]]]}, {"name": "add_221", "class_name": "Add", "config": {"name": "add_221", "trainable": true, "dtype": "float32"}, "inbound_nodes": [[["activation_549", 0, 0, {}], ["batch_normalization_467", 0, 0, {}]]]}, {"name": "activation_551", "class_name": "Activation", "config": {"name": "activation_551", "trainable": true, "dtype": "float32", "activation": "relu"}, "inbound_nodes": [[["add_221", 0, 0, {}]]]}, {"name": "conv1d_559", "class_name": "Conv1D", "config": {"name": "conv1d_559", "trainable": true, "dtype": "float32", "filters": 32, "kernel_size": [3], "strides": [1], "padding": "same", "data_format": "channels_last", "dilation_rate": [1], "activation": "linear", "use_bias": true, "kernel_initializer": {"class_name": "VarianceScaling", "config": {"scale": 2.0, "mode": "fan_in", "distribution": "normal", "seed": null}}, "bias_initializer": {"class_name": "Zeros", "config": {}}, "kernel_regularizer": {"class_name": "L1L2", "config": {"l1": 0.0, "l2": 9.999999747378752e-05}}, "bias_regularizer": null, "activity_regularizer": null, "kernel_constraint": null, "bias_constraint": null}, "inbound_nodes": [[["activation_551", 0, 0, {}]]]}, {"name": "batch_normalization_468", "class_name": "BatchNormalization", "config": {"name": "batch_normalization_468", "trainable": true, "dtype": "float32", "axis": -1, "momentum": 0.99, "epsilon": 0.001, "center": true, "scale": true, "beta_initializer": {"class_name": "Zeros", "config": {}}, "gamma_initializer": {"class_name": "Ones", "config": {}}, "moving_mean_initializer": {"class_name": "Zeros", "config": {}}, "moving_variance_initializer": {"class_name": "Ones", "config": {}}, "beta_regularizer": null, "gamma_regularizer": null, "beta_constraint": null, "gamma_constraint": null}, "inbound_nodes": [[["conv1d_559", 0, 0, {}]]]}, {"name": "activation_552", "class_name": "Activation", "config": {"name": "activation_552", "trainable": true, "dtype": "float32", "activation": "relu"}, "inbound_nodes": [[["batch_normalization_468", 0, 0, {}]]]}, {"name": "conv1d_560", "class_name": "Conv1D", "config": {"name": "conv1d_560", "trainable": true, "dtype": "float32", "filters": 32, "kernel_size": [3], "strides": [1], "padding": "same", "data_format": "channels_last", "dilation_rate": [1], "activation": "linear", "use_bias": true, "kernel_initializer": {"class_name": "VarianceScaling", "config": {"scale": 2.0, "mode": "fan_in", "distribution": "normal", "seed": null}}, "bias_initializer": {"class_name": "Zeros", "config": {}}, "kernel_regularizer": {"class_name": "L1L2", "config": {"l1": 0.0, "l2": 9.999999747378752e-05}}, "bias_regularizer": null, "activity_regularizer": null, "kernel_constraint": null, "bias_constraint": null}, "inbound_nodes": [[["activation_552", 0, 0, {}]]]}, {"name": "batch_normalization_469", "class_name": "BatchNormalization", "config": {"name": "batch_normalization_469", "trainable": true, "dtype": "float32", "axis": -1, "momentum": 0.99, "epsilon": 0.001, "center": true, "scale": true, "beta_initializer": {"class_name": "Zeros", "config": {}}, "gamma_initializer": {"class_name": "Ones", "config": {}}, "moving_mean_initializer": {"class_name": "Zeros", "config": {}}, "moving_variance_initializer": {"class_name": "Ones", "config": {}}, "beta_regularizer": null, "gamma_regularizer": null, "beta_constraint": null, "gamma_constraint": null}, "inbound_nodes": [[["conv1d_560", 0, 0, {}]]]}, {"name": "add_222", "class_name": "Add", "config": {"name": "add_222", "trainable": true, "dtype": "float32"}, "inbound_nodes": [[["activation_551", 0, 0, {}], ["batch_normalization_469", 0, 0, {}]]]}, {"name": "activation_553", "class_name": "Activation", "config": {"name": "activation_553", "trainable": true, "dtype": "float32", "activation": "relu"}, "inbound_nodes": [[["add_222", 0, 0, {}]]]}, {"name": "conv1d_561", "class_name": "Conv1D", "config": {"name": "conv1d_561", "trainable": true, "dtype": "float32", "filters": 64, "kernel_size": [3], "strides": [2], "padding": "same", "data_format": "channels_last", "dilation_rate": [1], "activation": "linear", "use_bias": true, "kernel_initializer": {"class_name": "VarianceScaling", "config": {"scale": 2.0, "mode": "fan_in", "distribution": "normal", "seed": null}}, "bias_initializer": {"class_name": "Zeros", "config": {}}, "kernel_regularizer": {"class_name": "L1L2", "config": {"l1": 0.0, "l2": 9.999999747378752e-05}}, "bias_regularizer": null, "activity_regularizer": null, "kernel_constraint": null, "bias_constraint": null}, "inbound_nodes": [[["activation_553", 0, 0, {}]]]}, {"name": "batch_normalization_470", "class_name": "BatchNormalization", "config": {"name": "batch_normalization_470", "trainable": true, "dtype": "float32", "axis": -1, "momentum": 0.99, "epsilon": 0.001, "center": true, "scale": true, "beta_initializer": {"class_name": "Zeros", "config": {}}, "gamma_initializer": {"class_name": "Ones", "config": {}}, "moving_mean_initializer": {"class_name": "Zeros", "config": {}}, "moving_variance_initializer": {"class_name": "Ones", "config": {}}, "beta_regularizer": null, "gamma_regularizer": null, "beta_constraint": null, "gamma_constraint": null}, "inbound_nodes": [[["conv1d_561", 0, 0, {}]]]}, {"name": "activation_554", "class_name": "Activation", "config": {"name": "activation_554", "trainable": true, "dtype": "float32", "activation": "relu"}, "inbound_nodes": [[["batch_normalization_470", 0, 0, {}]]]}, {"name": "conv1d_562", "class_name": "Conv1D", "config": {"name": "conv1d_562", "trainable": true, "dtype": "float32", "filters": 64, "kernel_size": [3], "strides": [1], "padding": "same", "data_format": "channels_last", "dilation_rate": [1], "activation": "linear", "use_bias": true, "kernel_initializer": {"class_name": "VarianceScaling", "config": {"scale": 2.0, "mode": "fan_in", "distribution": "normal", "seed": null}}, "bias_initializer": {"class_name": "Zeros", "config": {}}, "kernel_regularizer": {"class_name": "L1L2", "config": {"l1": 0.0, "l2": 9.999999747378752e-05}}, "bias_regularizer": null, "activity_regularizer": null, "kernel_constraint": null, "bias_constraint": null}, "inbound_nodes": [[["activation_554", 0, 0, {}]]]}, {"name": "conv1d_563", "class_name": "Conv1D", "config": {"name": "conv1d_563", "trainable": true, "dtype": "float32", "filters": 64, "kernel_size": [1], "strides": [2], "padding": "same", "data_format": "channels_last", "dilation_rate": [1], "activation": "linear", "use_bias": true, "kernel_initializer": {"class_name": "VarianceScaling", "config": {"scale": 2.0, "mode": "fan_in", "distribution": "normal", "seed": null}}, "bias_initializer": {"class_name": "Zeros", "config": {}}, "kernel_regularizer": {"class_name": "L1L2", "config": {"l1": 0.0, "l2": 9.999999747378752e-05}}, "bias_regularizer": null, "activity_regularizer": null, "kernel_constraint": null, "bias_constraint": null}, "inbound_nodes": [[["activation_553", 0, 0, {}]]]}, {"name": "batch_normalization_471", "class_name": "BatchNormalization", "config": {"name": "batch_normalization_471", "trainable": true, "dtype": "float32", "axis": -1, "momentum": 0.99, "epsilon": 0.001, "center": true, "scale": true, "beta_initializer": {"class_name": "Zeros", "config": {}}, "gamma_initializer": {"class_name": "Ones", "config": {}}, "moving_mean_initializer": {"class_name": "Zeros", "config": {}}, "moving_variance_initializer": {"class_name": "Ones", "config": {}}, "beta_regularizer": null, "gamma_regularizer": null, "beta_constraint": null, "gamma_constraint": null}, "inbound_nodes": [[["conv1d_562", 0, 0, {}]]]}, {"name": "add_223", "class_name": "Add", "config": {"name": "add_223", "trainable": true, "dtype": "float32"}, "inbound_nodes": [[["conv1d_563", 0, 0, {}], ["batch_normalization_471", 0, 0, {}]]]}, {"name": "activation_555", "class_name": "Activation", "config": {"name": "activation_555", "trainable": true, "dtype": "float32", "activation": "relu"}, "inbound_nodes": [[["add_223", 0, 0, {}]]]}, {"name": "conv1d_564", "class_name": "Conv1D", "config": {"name": "conv1d_564", "trainable": true, "dtype": "float32", "filters": 64, "kernel_size": [3], "strides": [1], "padding": "same", "data_format": "channels_last", "dilation_rate": [1], "activation": "linear", "use_bias": true, "kernel_initializer": {"class_name": "VarianceScaling", "config": {"scale": 2.0, "mode": "fan_in", "distribution": "normal", "seed": null}}, "bias_initializer": {"class_name": "Zeros", "config": {}}, "kernel_regularizer": {"class_name": "L1L2", "config": {"l1": 0.0, "l2": 9.999999747378752e-05}}, "bias_regularizer": null, "activity_regularizer": null, "kernel_constraint": null, "bias_constraint": null}, "inbound_nodes": [[["activation_555", 0, 0, {}]]]}, {"name": "batch_normalization_472", "class_name": "BatchNormalization", "config": {"name": "batch_normalization_472", "trainable": true, "dtype": "float32", "axis": -1, "momentum": 0.99, "epsilon": 0.001, "center": true, "scale": true, "beta_initializer": {"class_name": "Zeros", "config": {}}, "gamma_initializer": {"class_name": "Ones", "config": {}}, "moving_mean_initializer": {"class_name": "Zeros", "config": {}}, "moving_variance_initializer": {"class_name": "Ones", "config": {}}, "beta_regularizer": null, "gamma_regularizer": null, "beta_constraint": null, "gamma_constraint": null}, "inbound_nodes": [[["conv1d_564", 0, 0, {}]]]}, {"name": "activation_556", "class_name": "Activation", "config": {"name": "activation_556", "trainable": true, "dtype": "float32", "activation": "relu"}, "inbound_nodes": [[["batch_normalization_472", 0, 0, {}]]]}, {"name": "conv1d_565", "class_name": "Conv1D", "config": {"name": "conv1d_565", "trainable": true, "dtype": "float32", "filters": 64, "kernel_size": [3], "strides": [1], "padding": "same", "data_format": "channels_last", "dilation_rate": [1], "activation": "linear", "use_bias": true, "kernel_initializer": {"class_name": "VarianceScaling", "config": {"scale": 2.0, "mode": "fan_in", "distribution": "normal", "seed": null}}, "bias_initializer": {"class_name": "Zeros", "config": {}}, "kernel_regularizer": {"class_name": "L1L2", "config": {"l1": 0.0, "l2": 9.999999747378752e-05}}, "bias_regularizer": null, "activity_regularizer": null, "kernel_constraint": null, "bias_constraint": null}, "inbound_nodes": [[["activation_556", 0, 0, {}]]]}, {"name": "batch_normalization_473", "class_name": "BatchNormalization", "config": {"name": "batch_normalization_473", "trainable": true, "dtype": "float32", "axis": -1, "momentum": 0.99, "epsilon": 0.001, "center": true, "scale": true, "beta_initializer": {"class_name": "Zeros", "config": {}}, "gamma_initializer": {"class_name": "Ones", "config": {}}, "moving_mean_initializer": {"class_name": "Zeros", "config": {}}, "moving_variance_initializer": {"class_name": "Ones", "config": {}}, "beta_regularizer": null, "gamma_regularizer": null, "beta_constraint": null, "gamma_constraint": null}, "inbound_nodes": [[["conv1d_565", 0, 0, {}]]]}, {"name": "add_224", "class_name": "Add", "config": {"name": "add_224", "trainable": true, "dtype": "float32"}, "inbound_nodes": [[["activation_555", 0, 0, {}], ["batch_normalization_473", 0, 0, {}]]]}, {"name": "activation_557", "class_name": "Activation", "config": {"name": "activation_557", "trainable": true, "dtype": "float32", "activation": "relu"}, "inbound_nodes": [[["add_224", 0, 0, {}]]]}, {"name": "conv1d_566", "class_name": "Conv1D", "config": {"name": "conv1d_566", "trainable": true, "dtype": "float32", "filters": 64, "kernel_size": [3], "strides": [1], "padding": "same", "data_format": "channels_last", "dilation_rate": [1], "activation": "linear", "use_bias": true, "kernel_initializer": {"class_name": "VarianceScaling", "config": {"scale": 2.0, "mode": "fan_in", "distribution": "normal", "seed": null}}, "bias_initializer": {"class_name": "Zeros", "config": {}}, "kernel_regularizer": {"class_name": "L1L2", "config": {"l1": 0.0, "l2": 9.999999747378752e-05}}, "bias_regularizer": null, "activity_regularizer": null, "kernel_constraint": null, "bias_constraint": null}, "inbound_nodes": [[["activation_557", 0, 0, {}]]]}, {"name": "batch_normalization_474", "class_name": "BatchNormalization", "config": {"name": "batch_normalization_474", "trainable": true, "dtype": "float32", "axis": -1, "momentum": 0.99, "epsilon": 0.001, "center": true, "scale": true, "beta_initializer": {"class_name": "Zeros", "config": {}}, "gamma_initializer": {"class_name": "Ones", "config": {}}, "moving_mean_initializer": {"class_name": "Zeros", "config": {}}, "moving_variance_initializer": {"class_name": "Ones", "config": {}}, "beta_regularizer": null, "gamma_regularizer": null, "beta_constraint": null, "gamma_constraint": null}, "inbound_nodes": [[["conv1d_566", 0, 0, {}]]]}, {"name": "activation_558", "class_name": "Activation", "config": {"name": "activation_558", "trainable": true, "dtype": "float32", "activation": "relu"}, "inbound_nodes": [[["batch_normalization_474", 0, 0, {}]]]}, {"name": "conv1d_567", "class_name": "Conv1D", "config": {"name": "conv1d_567", "trainable": true, "dtype": "float32", "filters": 64, "kernel_size": [3], "strides": [1], "padding": "same", "data_format": "channels_last", "dilation_rate": [1], "activation": "linear", "use_bias": true, "kernel_initializer": {"class_name": "VarianceScaling", "config": {"scale": 2.0, "mode": "fan_in", "distribution": "normal", "seed": null}}, "bias_initializer": {"class_name": "Zeros", "config": {}}, "kernel_regularizer": {"class_name": "L1L2", "config": {"l1": 0.0, "l2": 9.999999747378752e-05}}, "bias_regularizer": null, "activity_regularizer": null, "kernel_constraint": null, "bias_constraint": null}, "inbound_nodes": [[["activation_558", 0, 0, {}]]]}, {"name": "batch_normalization_475", "class_name": "BatchNormalization", "config": {"name": "batch_normalization_475", "trainable": true, "dtype": "float32", "axis": -1, "momentum": 0.99, "epsilon": 0.001, "center": true, "scale": true, "beta_initializer": {"class_name": "Zeros", "config": {}}, "gamma_initializer": {"class_name": "Ones", "config": {}}, "moving_mean_initializer": {"class_name": "Zeros", "config": {}}, "moving_variance_initializer": {"class_name": "Ones", "config": {}}, "beta_regularizer": null, "gamma_regularizer": null, "beta_constraint": null, "gamma_constraint": null}, "inbound_nodes": [[["conv1d_567", 0, 0, {}]]]}, {"name": "add_225", "class_name": "Add", "config": {"name": "add_225", "trainable": true, "dtype": "float32"}, "inbound_nodes": [[["activation_557", 0, 0, {}], ["batch_normalization_475", 0, 0, {}]]]}, {"name": "activation_559", "class_name": "Activation", "config": {"name": "activation_559", "trainable": true, "dtype": "float32", "activation": "relu"}, "inbound_nodes": [[["add_225", 0, 0, {}]]]}, {"name": "average_pooling1d_25", "class_name": "AveragePooling1D", "config": {"name": "average_pooling1d_25", "trainable": true, "dtype": "float32", "strides": [1], "pool_size": [1], "padding": "valid", "data_format": "channels_last"}, "inbound_nodes": [[["activation_559", 0, 0, {}]]]}, {"name": "flatten_67", "class_name": "Flatten", "config": {"name": "flatten_67", "trainable": true, "dtype": "float32", "data_format": "channels_last"}, "inbound_nodes": [[["average_pooling1d_25", 0, 0, {}]]]}, {"name": "dense_1195", "class_name": "Dense", "config": {"name": "dense_1195", "trainable": true, "dtype": "float32", "units": 4, "activation": "softmax", "use_bias": true, "kernel_initializer": {"class_name": "VarianceScaling", "config": {"scale": 2.0, "mode": "fan_in", "distribution": "normal", "seed": null}}, "bias_initializer": {"class_name": "Zeros", "config": {}}, "kernel_regularizer": null, "bias_regularizer": null, "activity_regularizer": null, "kernel_constraint": null, "bias_constraint": null}, "inbound_nodes": [[["flatten_67", 0, 0, {}]]]}], "input_layers": [["input_25", 0, 0]], "output_layers": [["dense_1195", 0, 0]]}, "keras_version": "2.3.1", "backend": "tensorflow"}