…
 - 3s - loss: 0.1416 - accuracy: 0.9880 - val_loss: 0.7752 - val_accuracy: 0.8577

Number of filters: 16 , Kernel Size: 3 , Strides: 1 Batch Normalization: True , Conv_First: True , Depth Value: 20

Fit: epochs= 512 , batch_size= 64 , verbose= 2 , shuffle= False , validation_split= 0.2 

Model: "model_19"
__________________________________________________________________________________________________
Layer (type)                    Output Shape         Param #     Connected to                     
==================================================================================================
input_19 (InputLayer)           (None, 10, 1)        0                                            
__________________________________________________________________________________________________
conv1d_421 (Conv1D)             (None, 10, 16)       64          input_19[0][0]                   
__________________________________________________________________________________________________
batch_normalization_343 (BatchN (None, 10, 16)       64          conv1d_421[0][0]                 
__________________________________________________________________________________________________
activation_427 (Activation)     (None, 10, 16)       0           batch_normalization_343[0][0]    
__________________________________________________________________________________________________
conv1d_422 (Conv1D)             (None, 10, 16)       784         activation_427[0][0]             
__________________________________________________________________________________________________
batch_normalization_344 (BatchN (None, 10, 16)       64          conv1d_422[0][0]                 
__________________________________________________________________________________________________
activation_428 (Activation)     (None, 10, 16)       0           batch_normalization_344[0][0]    
__________________________________________________________________________________________________
conv1d_423 (Conv1D)             (None, 10, 16)       784         activation_428[0][0]             
__________________________________________________________________________________________________
batch_normalization_345 (BatchN (None, 10, 16)       64          conv1d_423[0][0]                 
__________________________________________________________________________________________________
add_163 (Add)                   (None, 10, 16)       0           activation_427[0][0]             
                                                                 batch_normalization_345[0][0]    
__________________________________________________________________________________________________
activation_429 (Activation)     (None, 10, 16)       0           add_163[0][0]                    
__________________________________________________________________________________________________
conv1d_424 (Conv1D)             (None, 10, 16)       784         activation_429[0][0]             
__________________________________________________________________________________________________
batch_normalization_346 (BatchN (None, 10, 16)       64          conv1d_424[0][0]                 
__________________________________________________________________________________________________
activation_430 (Activation)     (None, 10, 16)       0           batch_normalization_346[0][0]    
__________________________________________________________________________________________________
conv1d_425 (Conv1D)             (None, 10, 16)       784         activation_430[0][0]             
__________________________________________________________________________________________________
batch_normalization_347 (BatchN (None, 10, 16)       64          conv1d_425[0][0]                 
__________________________________________________________________________________________________
add_164 (Add)                   (None, 10, 16)       0           activation_429[0][0]             
                                                                 batch_normalization_347[0][0]    
__________________________________________________________________________________________________
activation_431 (Activation)     (None, 10, 16)       0           add_164[0][0]                    
__________________________________________________________________________________________________
conv1d_426 (Conv1D)             (None, 10, 16)       784         activation_431[0][0]             
__________________________________________________________________________________________________
batch_normalization_348 (BatchN (None, 10, 16)       64          conv1d_426[0][0]                 
__________________________________________________________________________________________________
activation_432 (Activation)     (None, 10, 16)       0           batch_normalization_348[0][0]    
__________________________________________________________________________________________________
conv1d_427 (Conv1D)             (None, 10, 16)       784         activation_432[0][0]             
__________________________________________________________________________________________________
batch_normalization_349 (BatchN (None, 10, 16)       64          conv1d_427[0][0]                 
__________________________________________________________________________________________________
add_165 (Add)                   (None, 10, 16)       0           activation_431[0][0]             
                                                                 batch_normalization_349[0][0]    
__________________________________________________________________________________________________
activation_433 (Activation)     (None, 10, 16)       0           add_165[0][0]                    
__________________________________________________________________________________________________
conv1d_428 (Conv1D)             (None, 5, 32)        1568        activation_433[0][0]             
__________________________________________________________________________________________________
batch_normalization_350 (BatchN (None, 5, 32)        128         conv1d_428[0][0]                 
__________________________________________________________________________________________________
activation_434 (Activation)     (None, 5, 32)        0           batch_normalization_350[0][0]    
__________________________________________________________________________________________________
conv1d_429 (Conv1D)             (None, 5, 32)        3104        activation_434[0][0]             
__________________________________________________________________________________________________
conv1d_430 (Conv1D)             (None, 5, 32)        544         activation_433[0][0]             
__________________________________________________________________________________________________
batch_normalization_351 (BatchN (None, 5, 32)        128         conv1d_429[0][0]                 
__________________________________________________________________________________________________
add_166 (Add)                   (None, 5, 32)        0           conv1d_430[0][0]                 
                                                                 batch_normalization_351[0][0]    
__________________________________________________________________________________________________
activation_435 (Activation)     (None, 5, 32)        0           add_166[0][0]                    
__________________________________________________________________________________________________
conv1d_431 (Conv1D)             (None, 5, 32)        3104        activation_435[0][0]             
__________________________________________________________________________________________________
batch_normalization_352 (BatchN (None, 5, 32)        128         conv1d_431[0][0]                 
__________________________________________________________________________________________________
activation_436 (Activation)     (None, 5, 32)        0           batch_normalization_352[0][0]    
__________________________________________________________________________________________________
conv1d_432 (Conv1D)             (None, 5, 32)        3104        activation_436[0][0]             
__________________________________________________________________________________________________
batch_normalization_353 (BatchN (None, 5, 32)        128         conv1d_432[0][0]                 
__________________________________________________________________________________________________
add_167 (Add)                   (None, 5, 32)        0           activation_435[0][0]             
                                                                 batch_normalization_353[0][0]    
__________________________________________________________________________________________________
activation_437 (Activation)     (None, 5, 32)        0           add_167[0][0]                    
__________________________________________________________________________________________________
conv1d_433 (Conv1D)             (None, 5, 32)        3104        activation_437[0][0]             
__________________________________________________________________________________________________
batch_normalization_354 (BatchN (None, 5, 32)        128         conv1d_433[0][0]                 
__________________________________________________________________________________________________
activation_438 (Activation)     (None, 5, 32)        0           batch_normalization_354[0][0]    
__________________________________________________________________________________________________
conv1d_434 (Conv1D)             (None, 5, 32)        3104        activation_438[0][0]             
__________________________________________________________________________________________________
batch_normalization_355 (BatchN (None, 5, 32)        128         conv1d_434[0][0]                 
__________________________________________________________________________________________________
add_168 (Add)                   (None, 5, 32)        0           activation_437[0][0]             
                                                                 batch_normalization_355[0][0]    
__________________________________________________________________________________________________
activation_439 (Activation)     (None, 5, 32)        0           add_168[0][0]                    
__________________________________________________________________________________________________
conv1d_435 (Conv1D)             (None, 3, 64)        6208        activation_439[0][0]             
__________________________________________________________________________________________________
batch_normalization_356 (BatchN (None, 3, 64)        256         conv1d_435[0][0]                 
__________________________________________________________________________________________________
activation_440 (Activation)     (None, 3, 64)        0           batch_normalization_356[0][0]    
__________________________________________________________________________________________________
conv1d_436 (Conv1D)             (None, 3, 64)        12352       activation_440[0][0]             
__________________________________________________________________________________________________
conv1d_437 (Conv1D)             (None, 3, 64)        2112        activation_439[0][0]             
__________________________________________________________________________________________________
batch_normalization_357 (BatchN (None, 3, 64)        256         conv1d_436[0][0]                 
__________________________________________________________________________________________________
add_169 (Add)                   (None, 3, 64)        0           conv1d_437[0][0]                 
                                                                 batch_normalization_357[0][0]    
__________________________________________________________________________________________________
activation_441 (Activation)     (None, 3, 64)        0           add_169[0][0]                    
__________________________________________________________________________________________________
conv1d_438 (Conv1D)             (None, 3, 64)        12352       activation_441[0][0]             
__________________________________________________________________________________________________
batch_normalization_358 (BatchN (None, 3, 64)        256         conv1d_438[0][0]                 
__________________________________________________________________________________________________
activation_442 (Activation)     (None, 3, 64)        0           batch_normalization_358[0][0]    
__________________________________________________________________________________________________
conv1d_439 (Conv1D)             (None, 3, 64)        12352       activation_442[0][0]             
__________________________________________________________________________________________________
batch_normalization_359 (BatchN (None, 3, 64)        256         conv1d_439[0][0]                 
__________________________________________________________________________________________________
add_170 (Add)                   (None, 3, 64)        0           activation_441[0][0]             
                                                                 batch_normalization_359[0][0]    
__________________________________________________________________________________________________
activation_443 (Activation)     (None, 3, 64)        0           add_170[0][0]                    
__________________________________________________________________________________________________
conv1d_440 (Conv1D)             (None, 3, 64)        12352       activation_443[0][0]             
__________________________________________________________________________________________________
batch_normalization_360 (BatchN (None, 3, 64)        256         conv1d_440[0][0]                 
__________________________________________________________________________________________________
activation_444 (Activation)     (None, 3, 64)        0           batch_normalization_360[0][0]    
__________________________________________________________________________________________________
conv1d_441 (Conv1D)             (None, 3, 64)        12352       activation_444[0][0]             
__________________________________________________________________________________________________
batch_normalization_361 (BatchN (None, 3, 64)        256         conv1d_441[0][0]                 
__________________________________________________________________________________________________
add_171 (Add)                   (None, 3, 64)        0           activation_443[0][0]             
                                                                 batch_normalization_361[0][0]    
__________________________________________________________________________________________________
activation_445 (Activation)     (None, 3, 64)        0           add_171[0][0]                    
__________________________________________________________________________________________________
average_pooling1d_19 (AveragePo (None, 3, 64)        0           activation_445[0][0]             
__________________________________________________________________________________________________
flatten_61 (Flatten)            (None, 192)          0           average_pooling1d_19[0][0]       
__________________________________________________________________________________________________
dense_1189 (Dense)              (None, 4)            772         flatten_61[0][0]                 
==================================================================================================
Total params: 96,004
Trainable params: 94,628
Non-trainable params: 1,376
__________________________________________________________________________________________________
None

Accuracy Train: 91.12%
Accuracy Test: 85.92%
Loss Train: 0.43
Loss Test: 0.75
Numero dati esaminati: 1712
…
