{
  "class_name": "Sequential",
  "config": {
    "name": "sequential_276",
    "layers": [
      {
        "class_name": "Dense",
        "config": {
          "name": "dense_1882",
          "trainable": true,
          "batch_input_shape": [
            null,
            10
          ],
          "dtype": "float32",
          "units": 10,
          "activation": "tanh",
          "use_bias": true,
          "kernel_initializer": {
            "class_name": "VarianceScaling",
            "config": {
              "scale": 1.0,
              "mode": "fan_avg",
              "distribution": "uniform",
              "seed": null
            }
          },
          "bias_initializer": {
            "class_name": "Zeros",
            "config": {}
          },
          "kernel_regularizer": null,
          "bias_regularizer": null,
          "activity_regularizer": null,
          "kernel_constraint": null,
          "bias_constraint": null
        }
      },
      {
        "class_name": "Dense",
        "config": {
          "name": "dense_1883",
          "trainable": true,
          "dtype": "float32",
          "units": 500,
          "activation": "relu",
          "use_bias": true,
          "kernel_initializer": {
            "class_name": "VarianceScaling",
            "config": {
              "scale": 1.0,
              "mode": "fan_avg",
              "distribution": "uniform",
              "seed": null
            }
          },
          "bias_initializer": {
            "class_name": "Zeros",
            "config": {}
          },
          "kernel_regularizer": null,
          "bias_regularizer": null,
          "activity_regularizer": null,
          "kernel_constraint": null,
          "bias_constraint": null
        }
      },
      {
        "class_name": "Dense",
        "config": {
          "name": "dense_1884",
          "trainable": true,
          "dtype": "float32",
          "units": 300,
          "activation": "relu",
          "use_bias": true,
          "kernel_initializer": {
            "class_name": "VarianceScaling",
            "config": {
              "scale": 1.0,
              "mode": "fan_avg",
              "distribution": "uniform",
              "seed": null
            }
          },
          "bias_initializer": {
            "class_name": "Zeros",
            "config": {}
          },
          "kernel_regularizer": null,
          "bias_regularizer": null,
          "activity_regularizer": null,
          "kernel_constraint": null,
          "bias_constraint": null
        }
      },
      {
        "class_name": "Dense",
        "config": {
          "name": "dense_1885",
          "trainable": true,
          "dtype": "float32",
          "units": 200,
          "activation": "relu",
          "use_bias": true,
          "kernel_initializer": {
            "class_name": "VarianceScaling",
            "config": {
              "scale": 1.0,
              "mode": "fan_avg",
              "distribution": "uniform",
              "seed": null
            }
          },
          "bias_initializer": {
            "class_name": "Zeros",
            "config": {}
          },
          "kernel_regularizer": null,
          "bias_regularizer": null,
          "activity_regularizer": null,
          "kernel_constraint": null,
          "bias_constraint": null
        }
      },
      {
        "class_name": "Dense",
        "config": {
          "name": "dense_1886",
          "trainable": true,
          "dtype": "float32",
          "units": 100,
          "activation": "relu",
          "use_bias": true,
          "kernel_initializer": {
            "class_name": "VarianceScaling",
            "config": {
              "scale": 1.0,
              "mode": "fan_avg",
              "distribution": "uniform",
              "seed": null
            }
          },
          "bias_initializer": {
            "class_name": "Zeros",
            "config": {}
          },
          "kernel_regularizer": null,
          "bias_regularizer": null,
          "activity_regularizer": null,
          "kernel_constraint": null,
          "bias_constraint": null
        }
      },
      {
        "class_name": "Dense",
        "config": {
          "name": "dense_1887",
          "trainable": true,
          "dtype": "float32",
          "units": 50,
          "activation": "relu",
          "use_bias": true,
          "kernel_initializer": {
            "class_name": "VarianceScaling",
            "config": {
              "scale": 1.0,
              "mode": "fan_avg",
              "distribution": "uniform",
              "seed": null
            }
          },
          "bias_initializer": {
            "class_name": "Zeros",
            "config": {}
          },
          "kernel_regularizer": null,
          "bias_regularizer": null,
          "activity_regularizer": null,
          "kernel_constraint": null,
          "bias_constraint": null
        }
      },
      {
        "class_name": "Dense",
        "config": {
          "name": "dense_1888",
          "trainable": true,
          "dtype": "float32",
          "units": 20,
          "activation": "relu",
          "use_bias": true,
          "kernel_initializer": {
            "class_name": "VarianceScaling",
            "config": {
              "scale": 1.0,
              "mode": "fan_avg",
              "distribution": "uniform",
              "seed": null
            }
          },
          "bias_initializer": {
            "class_name": "Zeros",
            "config": {}
          },
          "kernel_regularizer": null,
          "bias_regularizer": null,
          "activity_regularizer": null,
          "kernel_constraint": null,
          "bias_constraint": null
        }
      },
      {
        "class_name": "Dense",
        "config": {
          "name": "dense_1889",
          "trainable": true,
          "dtype": "float32",
          "units": 4,
          "activation": "softmax",
          "use_bias": true,
          "kernel_initializer": {
            "class_name": "VarianceScaling",
            "config": {
              "scale": 1.0,
              "mode": "fan_avg",
              "distribution": "uniform",
              "seed": null
            }
          },
          "bias_initializer": {
            "class_name": "Zeros",
            "config": {}
          },
          "kernel_regularizer": null,
          "bias_regularizer": null,
          "activity_regularizer": null,
          "kernel_constraint": null,
          "bias_constraint": null
        }
      }
    ]
  },
  "keras_version": "2.3.1",
  "backend": "tensorflow"
}