{"class_name": "Model", "config": {"name": "model_23", "layers": [{"name": "input_23", "class_name": "InputLayer", "config": {"batch_input_shape": [null, 10, 1], "dtype": "float32", "sparse": false, "name": "input_23"}, "inbound_nodes": []}, {"name": "conv1d_463", "class_name": "Conv1D", "config": {"name": "conv1d_463", "trainable": true, "dtype": "float32", "filters": 16, "kernel_size": [3], "strides": [1], "padding": "same", "data_format": "channels_last", "dilation_rate": [1], "activation": "linear", "use_bias": true, "kernel_initializer": {"class_name": "VarianceScaling", "config": {"scale": 2.0, "mode": "fan_in", "distribution": "normal", "seed": null}}, "bias_initializer": {"class_name": "Zeros", "config": {}}, "kernel_regularizer": {"class_name": "L1L2", "config": {"l1": 0.0, "l2": 9.999999747378752e-05}}, "bias_regularizer": null, "activity_regularizer": null, "kernel_constraint": null, "bias_constraint": null}, "inbound_nodes": [[["input_23", 0, 0, {}]]]}, {"name": "batch_normalization_419", "class_name": "BatchNormalization", "config": {"name": "batch_normalization_419", "trainable": true, "dtype": "float32", "axis": -1, "momentum": 0.99, "epsilon": 0.001, "center": true, "scale": true, "beta_initializer": {"class_name": "Zeros", "config": {}}, "gamma_initializer": {"class_name": "Ones", "config": {}}, "moving_mean_initializer": {"class_name": "Zeros", "config": {}}, "moving_variance_initializer": {"class_name": "Ones", "config": {}}, "beta_regularizer": null, "gamma_regularizer": null, "beta_constraint": null, "gamma_constraint": null}, "inbound_nodes": [[["conv1d_463", 0, 0, {}]]]}, {"name": "activation_419", "class_name": "Activation", "config": {"name": "activation_419", "trainable": true, "dtype": "float32", "activation": "relu"}, "inbound_nodes": [[["batch_normalization_419", 0, 0, {}]]]}, {"name": "conv1d_464", "class_name": "Conv1D", "config": {"name": "conv1d_464", "trainable": true, "dtype": "float32", "filters": 16, "kernel_size": [3], "strides": [1], "padding": "same", "data_format": "channels_last", "dilation_rate": [1], "activation": "linear", "use_bias": true, "kernel_initializer": {"class_name": "VarianceScaling", "config": {"scale": 2.0, "mode": "fan_in", "distribution": "normal", "seed": null}}, "bias_initializer": {"class_name": "Zeros", "config": {}}, "kernel_regularizer": {"class_name": "L1L2", "config": {"l1": 0.0, "l2": 9.999999747378752e-05}}, "bias_regularizer": null, "activity_regularizer": null, "kernel_constraint": null, "bias_constraint": null}, "inbound_nodes": [[["activation_419", 0, 0, {}]]]}, {"name": "batch_normalization_420", "class_name": "BatchNormalization", "config": {"name": "batch_normalization_420", "trainable": true, "dtype": "float32", "axis": -1, "momentum": 0.99, "epsilon": 0.001, "center": true, "scale": true, "beta_initializer": {"class_name": "Zeros", "config": {}}, "gamma_initializer": {"class_name": "Ones", "config": {}}, "moving_mean_initializer": {"class_name": "Zeros", "config": {}}, "moving_variance_initializer": {"class_name": "Ones", "config": {}}, "beta_regularizer": null, "gamma_regularizer": null, "beta_constraint": null, "gamma_constraint": null}, "inbound_nodes": [[["conv1d_464", 0, 0, {}]]]}, {"name": "activation_420", "class_name": "Activation", "config": {"name": "activation_420", "trainable": true, "dtype": "float32", "activation": "relu"}, "inbound_nodes": [[["batch_normalization_420", 0, 0, {}]]]}, {"name": "conv1d_465", "class_name": "Conv1D", "config": {"name": "conv1d_465", "trainable": true, "dtype": "float32", "filters": 16, "kernel_size": [3], "strides": [1], "padding": "same", "data_format": "channels_last", "dilation_rate": [1], "activation": "linear", "use_bias": true, "kernel_initializer": {"class_name": "VarianceScaling", "config": {"scale": 2.0, "mode": "fan_in", "distribution": "normal", "seed": null}}, "bias_initializer": {"class_name": "Zeros", "config": {}}, "kernel_regularizer": {"class_name": "L1L2", "config": {"l1": 0.0, "l2": 9.999999747378752e-05}}, "bias_regularizer": null, "activity_regularizer": null, "kernel_constraint": null, "bias_constraint": null}, "inbound_nodes": [[["activation_420", 0, 0, {}]]]}, {"name": "batch_normalization_421", "class_name": "BatchNormalization", "config": {"name": "batch_normalization_421", "trainable": true, "dtype": "float32", "axis": -1, "momentum": 0.99, "epsilon": 0.001, "center": true, "scale": true, "beta_initializer": {"class_name": "Zeros", "config": {}}, "gamma_initializer": {"class_name": "Ones", "config": {}}, "moving_mean_initializer": {"class_name": "Zeros", "config": {}}, "moving_variance_initializer": {"class_name": "Ones", "config": {}}, "beta_regularizer": null, "gamma_regularizer": null, "beta_constraint": null, "gamma_constraint": null}, "inbound_nodes": [[["conv1d_465", 0, 0, {}]]]}, {"name": "add_199", "class_name": "Add", "config": {"name": "add_199", "trainable": true, "dtype": "float32"}, "inbound_nodes": [[["activation_419", 0, 0, {}], ["batch_normalization_421", 0, 0, {}]]]}, {"name": "activation_421", "class_name": "Activation", "config": {"name": "activation_421", "trainable": true, "dtype": "float32", "activation": "relu"}, "inbound_nodes": [[["add_199", 0, 0, {}]]]}, {"name": "conv1d_466", "class_name": "Conv1D", "config": {"name": "conv1d_466", "trainable": true, "dtype": "float32", "filters": 16, "kernel_size": [3], "strides": [1], "padding": "same", "data_format": "channels_last", "dilation_rate": [1], "activation": "linear", "use_bias": true, "kernel_initializer": {"class_name": "VarianceScaling", "config": {"scale": 2.0, "mode": "fan_in", "distribution": "normal", "seed": null}}, "bias_initializer": {"class_name": "Zeros", "config": {}}, "kernel_regularizer": {"class_name": "L1L2", "config": {"l1": 0.0, "l2": 9.999999747378752e-05}}, "bias_regularizer": null, "activity_regularizer": null, "kernel_constraint": null, "bias_constraint": null}, "inbound_nodes": [[["activation_421", 0, 0, {}]]]}, {"name": "batch_normalization_422", "class_name": "BatchNormalization", "config": {"name": "batch_normalization_422", "trainable": true, "dtype": "float32", "axis": -1, "momentum": 0.99, "epsilon": 0.001, "center": true, "scale": true, "beta_initializer": {"class_name": "Zeros", "config": {}}, "gamma_initializer": {"class_name": "Ones", "config": {}}, "moving_mean_initializer": {"class_name": "Zeros", "config": {}}, "moving_variance_initializer": {"class_name": "Ones", "config": {}}, "beta_regularizer": null, "gamma_regularizer": null, "beta_constraint": null, "gamma_constraint": null}, "inbound_nodes": [[["conv1d_466", 0, 0, {}]]]}, {"name": "activation_422", "class_name": "Activation", "config": {"name": "activation_422", "trainable": true, "dtype": "float32", "activation": "relu"}, "inbound_nodes": [[["batch_normalization_422", 0, 0, {}]]]}, {"name": "conv1d_467", "class_name": "Conv1D", "config": {"name": "conv1d_467", "trainable": true, "dtype": "float32", "filters": 16, "kernel_size": [3], "strides": [1], "padding": "same", "data_format": "channels_last", "dilation_rate": [1], "activation": "linear", "use_bias": true, "kernel_initializer": {"class_name": "VarianceScaling", "config": {"scale": 2.0, "mode": "fan_in", "distribution": "normal", "seed": null}}, "bias_initializer": {"class_name": "Zeros", "config": {}}, "kernel_regularizer": {"class_name": "L1L2", "config": {"l1": 0.0, "l2": 9.999999747378752e-05}}, "bias_regularizer": null, "activity_regularizer": null, "kernel_constraint": null, "bias_constraint": null}, "inbound_nodes": [[["activation_422", 0, 0, {}]]]}, {"name": "batch_normalization_423", "class_name": "BatchNormalization", "config": {"name": "batch_normalization_423", "trainable": true, "dtype": "float32", "axis": -1, "momentum": 0.99, "epsilon": 0.001, "center": true, "scale": true, "beta_initializer": {"class_name": "Zeros", "config": {}}, "gamma_initializer": {"class_name": "Ones", "config": {}}, "moving_mean_initializer": {"class_name": "Zeros", "config": {}}, "moving_variance_initializer": {"class_name": "Ones", "config": {}}, "beta_regularizer": null, "gamma_regularizer": null, "beta_constraint": null, "gamma_constraint": null}, "inbound_nodes": [[["conv1d_467", 0, 0, {}]]]}, {"name": "add_200", "class_name": "Add", "config": {"name": "add_200", "trainable": true, "dtype": "float32"}, "inbound_nodes": [[["activation_421", 0, 0, {}], ["batch_normalization_423", 0, 0, {}]]]}, {"name": "activation_423", "class_name": "Activation", "config": {"name": "activation_423", "trainable": true, "dtype": "float32", "activation": "relu"}, "inbound_nodes": [[["add_200", 0, 0, {}]]]}, {"name": "conv1d_468", "class_name": "Conv1D", "config": {"name": "conv1d_468", "trainable": true, "dtype": "float32", "filters": 16, "kernel_size": [3], "strides": [1], "padding": "same", "data_format": "channels_last", "dilation_rate": [1], "activation": "linear", "use_bias": true, "kernel_initializer": {"class_name": "VarianceScaling", "config": {"scale": 2.0, "mode": "fan_in", "distribution": "normal", "seed": null}}, "bias_initializer": {"class_name": "Zeros", "config": {}}, "kernel_regularizer": {"class_name": "L1L2", "config": {"l1": 0.0, "l2": 9.999999747378752e-05}}, "bias_regularizer": null, "activity_regularizer": null, "kernel_constraint": null, "bias_constraint": null}, "inbound_nodes": [[["activation_423", 0, 0, {}]]]}, {"name": "batch_normalization_424", "class_name": "BatchNormalization", "config": {"name": "batch_normalization_424", "trainable": true, "dtype": "float32", "axis": -1, "momentum": 0.99, "epsilon": 0.001, "center": true, "scale": true, "beta_initializer": {"class_name": "Zeros", "config": {}}, "gamma_initializer": {"class_name": "Ones", "config": {}}, "moving_mean_initializer": {"class_name": "Zeros", "config": {}}, "moving_variance_initializer": {"class_name": "Ones", "config": {}}, "beta_regularizer": null, "gamma_regularizer": null, "beta_constraint": null, "gamma_constraint": null}, "inbound_nodes": [[["conv1d_468", 0, 0, {}]]]}, {"name": "activation_424", "class_name": "Activation", "config": {"name": "activation_424", "trainable": true, "dtype": "float32", "activation": "relu"}, "inbound_nodes": [[["batch_normalization_424", 0, 0, {}]]]}, {"name": "conv1d_469", "class_name": "Conv1D", "config": {"name": "conv1d_469", "trainable": true, "dtype": "float32", "filters": 16, "kernel_size": [3], "strides": [1], "padding": "same", "data_format": "channels_last", "dilation_rate": [1], "activation": "linear", "use_bias": true, "kernel_initializer": {"class_name": "VarianceScaling", "config": {"scale": 2.0, "mode": "fan_in", "distribution": "normal", "seed": null}}, "bias_initializer": {"class_name": "Zeros", "config": {}}, "kernel_regularizer": {"class_name": "L1L2", "config": {"l1": 0.0, "l2": 9.999999747378752e-05}}, "bias_regularizer": null, "activity_regularizer": null, "kernel_constraint": null, "bias_constraint": null}, "inbound_nodes": [[["activation_424", 0, 0, {}]]]}, {"name": "batch_normalization_425", "class_name": "BatchNormalization", "config": {"name": "batch_normalization_425", "trainable": true, "dtype": "float32", "axis": -1, "momentum": 0.99, "epsilon": 0.001, "center": true, "scale": true, "beta_initializer": {"class_name": "Zeros", "config": {}}, "gamma_initializer": {"class_name": "Ones", "config": {}}, "moving_mean_initializer": {"class_name": "Zeros", "config": {}}, "moving_variance_initializer": {"class_name": "Ones", "config": {}}, "beta_regularizer": null, "gamma_regularizer": null, "beta_constraint": null, "gamma_constraint": null}, "inbound_nodes": [[["conv1d_469", 0, 0, {}]]]}, {"name": "add_201", "class_name": "Add", "config": {"name": "add_201", "trainable": true, "dtype": "float32"}, "inbound_nodes": [[["activation_423", 0, 0, {}], ["batch_normalization_425", 0, 0, {}]]]}, {"name": "activation_425", "class_name": "Activation", "config": {"name": "activation_425", "trainable": true, "dtype": "float32", "activation": "relu"}, "inbound_nodes": [[["add_201", 0, 0, {}]]]}, {"name": "conv1d_470", "class_name": "Conv1D", "config": {"name": "conv1d_470", "trainable": true, "dtype": "float32", "filters": 32, "kernel_size": [3], "strides": [2], "padding": "same", "data_format": "channels_last", "dilation_rate": [1], "activation": "linear", "use_bias": true, "kernel_initializer": {"class_name": "VarianceScaling", "config": {"scale": 2.0, "mode": "fan_in", "distribution": "normal", "seed": null}}, "bias_initializer": {"class_name": "Zeros", "config": {}}, "kernel_regularizer": {"class_name": "L1L2", "config": {"l1": 0.0, "l2": 9.999999747378752e-05}}, "bias_regularizer": null, "activity_regularizer": null, "kernel_constraint": null, "bias_constraint": null}, "inbound_nodes": [[["activation_425", 0, 0, {}]]]}, {"name": "batch_normalization_426", "class_name": "BatchNormalization", "config": {"name": "batch_normalization_426", "trainable": true, "dtype": "float32", "axis": -1, "momentum": 0.99, "epsilon": 0.001, "center": true, "scale": true, "beta_initializer": {"class_name": "Zeros", "config": {}}, "gamma_initializer": {"class_name": "Ones", "config": {}}, "moving_mean_initializer": {"class_name": "Zeros", "config": {}}, "moving_variance_initializer": {"class_name": "Ones", "config": {}}, "beta_regularizer": null, "gamma_regularizer": null, "beta_constraint": null, "gamma_constraint": null}, "inbound_nodes": [[["conv1d_470", 0, 0, {}]]]}, {"name": "activation_426", "class_name": "Activation", "config": {"name": "activation_426", "trainable": true, "dtype": "float32", "activation": "relu"}, "inbound_nodes": [[["batch_normalization_426", 0, 0, {}]]]}, {"name": "conv1d_471", "class_name": "Conv1D", "config": {"name": "conv1d_471", "trainable": true, "dtype": "float32", "filters": 32, "kernel_size": [3], "strides": [1], "padding": "same", "data_format": "channels_last", "dilation_rate": [1], "activation": "linear", "use_bias": true, "kernel_initializer": {"class_name": "VarianceScaling", "config": {"scale": 2.0, "mode": "fan_in", "distribution": "normal", "seed": null}}, "bias_initializer": {"class_name": "Zeros", "config": {}}, "kernel_regularizer": {"class_name": "L1L2", "config": {"l1": 0.0, "l2": 9.999999747378752e-05}}, "bias_regularizer": null, "activity_regularizer": null, "kernel_constraint": null, "bias_constraint": null}, "inbound_nodes": [[["activation_426", 0, 0, {}]]]}, {"name": "conv1d_472", "class_name": "Conv1D", "config": {"name": "conv1d_472", "trainable": true, "dtype": "float32", "filters": 32, "kernel_size": [1], "strides": [2], "padding": "same", "data_format": "channels_last", "dilation_rate": [1], "activation": "linear", "use_bias": true, "kernel_initializer": {"class_name": "VarianceScaling", "config": {"scale": 2.0, "mode": "fan_in", "distribution": "normal", "seed": null}}, "bias_initializer": {"class_name": "Zeros", "config": {}}, "kernel_regularizer": {"class_name": "L1L2", "config": {"l1": 0.0, "l2": 9.999999747378752e-05}}, "bias_regularizer": null, "activity_regularizer": null, "kernel_constraint": null, "bias_constraint": null}, "inbound_nodes": [[["activation_425", 0, 0, {}]]]}, {"name": "batch_normalization_427", "class_name": "BatchNormalization", "config": {"name": "batch_normalization_427", "trainable": true, "dtype": "float32", "axis": -1, "momentum": 0.99, "epsilon": 0.001, "center": true, "scale": true, "beta_initializer": {"class_name": "Zeros", "config": {}}, "gamma_initializer": {"class_name": "Ones", "config": {}}, "moving_mean_initializer": {"class_name": "Zeros", "config": {}}, "moving_variance_initializer": {"class_name": "Ones", "config": {}}, "beta_regularizer": null, "gamma_regularizer": null, "beta_constraint": null, "gamma_constraint": null}, "inbound_nodes": [[["conv1d_471", 0, 0, {}]]]}, {"name": "add_202", "class_name": "Add", "config": {"name": "add_202", "trainable": true, "dtype": "float32"}, "inbound_nodes": [[["conv1d_472", 0, 0, {}], ["batch_normalization_427", 0, 0, {}]]]}, {"name": "activation_427", "class_name": "Activation", "config": {"name": "activation_427", "trainable": true, "dtype": "float32", "activation": "relu"}, "inbound_nodes": [[["add_202", 0, 0, {}]]]}, {"name": "conv1d_473", "class_name": "Conv1D", "config": {"name": "conv1d_473", "trainable": true, "dtype": "float32", "filters": 32, "kernel_size": [3], "strides": [1], "padding": "same", "data_format": "channels_last", "dilation_rate": [1], "activation": "linear", "use_bias": true, "kernel_initializer": {"class_name": "VarianceScaling", "config": {"scale": 2.0, "mode": "fan_in", "distribution": "normal", "seed": null}}, "bias_initializer": {"class_name": "Zeros", "config": {}}, "kernel_regularizer": {"class_name": "L1L2", "config": {"l1": 0.0, "l2": 9.999999747378752e-05}}, "bias_regularizer": null, "activity_regularizer": null, "kernel_constraint": null, "bias_constraint": null}, "inbound_nodes": [[["activation_427", 0, 0, {}]]]}, {"name": "batch_normalization_428", "class_name": "BatchNormalization", "config": {"name": "batch_normalization_428", "trainable": true, "dtype": "float32", "axis": -1, "momentum": 0.99, "epsilon": 0.001, "center": true, "scale": true, "beta_initializer": {"class_name": "Zeros", "config": {}}, "gamma_initializer": {"class_name": "Ones", "config": {}}, "moving_mean_initializer": {"class_name": "Zeros", "config": {}}, "moving_variance_initializer": {"class_name": "Ones", "config": {}}, "beta_regularizer": null, "gamma_regularizer": null, "beta_constraint": null, "gamma_constraint": null}, "inbound_nodes": [[["conv1d_473", 0, 0, {}]]]}, {"name": "activation_428", "class_name": "Activation", "config": {"name": "activation_428", "trainable": true, "dtype": "float32", "activation": "relu"}, "inbound_nodes": [[["batch_normalization_428", 0, 0, {}]]]}, {"name": "conv1d_474", "class_name": "Conv1D", "config": {"name": "conv1d_474", "trainable": true, "dtype": "float32", "filters": 32, "kernel_size": [3], "strides": [1], "padding": "same", "data_format": "channels_last", "dilation_rate": [1], "activation": "linear", "use_bias": true, "kernel_initializer": {"class_name": "VarianceScaling", "config": {"scale": 2.0, "mode": "fan_in", "distribution": "normal", "seed": null}}, "bias_initializer": {"class_name": "Zeros", "config": {}}, "kernel_regularizer": {"class_name": "L1L2", "config": {"l1": 0.0, "l2": 9.999999747378752e-05}}, "bias_regularizer": null, "activity_regularizer": null, "kernel_constraint": null, "bias_constraint": null}, "inbound_nodes": [[["activation_428", 0, 0, {}]]]}, {"name": "batch_normalization_429", "class_name": "BatchNormalization", "config": {"name": "batch_normalization_429", "trainable": true, "dtype": "float32", "axis": -1, "momentum": 0.99, "epsilon": 0.001, "center": true, "scale": true, "beta_initializer": {"class_name": "Zeros", "config": {}}, "gamma_initializer": {"class_name": "Ones", "config": {}}, "moving_mean_initializer": {"class_name": "Zeros", "config": {}}, "moving_variance_initializer": {"class_name": "Ones", "config": {}}, "beta_regularizer": null, "gamma_regularizer": null, "beta_constraint": null, "gamma_constraint": null}, "inbound_nodes": [[["conv1d_474", 0, 0, {}]]]}, {"name": "add_203", "class_name": "Add", "config": {"name": "add_203", "trainable": true, "dtype": "float32"}, "inbound_nodes": [[["activation_427", 0, 0, {}], ["batch_normalization_429", 0, 0, {}]]]}, {"name": "activation_429", "class_name": "Activation", "config": {"name": "activation_429", "trainable": true, "dtype": "float32", "activation": "relu"}, "inbound_nodes": [[["add_203", 0, 0, {}]]]}, {"name": "conv1d_475", "class_name": "Conv1D", "config": {"name": "conv1d_475", "trainable": true, "dtype": "float32", "filters": 32, "kernel_size": [3], "strides": [1], "padding": "same", "data_format": "channels_last", "dilation_rate": [1], "activation": "linear", "use_bias": true, "kernel_initializer": {"class_name": "VarianceScaling", "config": {"scale": 2.0, "mode": "fan_in", "distribution": "normal", "seed": null}}, "bias_initializer": {"class_name": "Zeros", "config": {}}, "kernel_regularizer": {"class_name": "L1L2", "config": {"l1": 0.0, "l2": 9.999999747378752e-05}}, "bias_regularizer": null, "activity_regularizer": null, "kernel_constraint": null, "bias_constraint": null}, "inbound_nodes": [[["activation_429", 0, 0, {}]]]}, {"name": "batch_normalization_430", "class_name": "BatchNormalization", "config": {"name": "batch_normalization_430", "trainable": true, "dtype": "float32", "axis": -1, "momentum": 0.99, "epsilon": 0.001, "center": true, "scale": true, "beta_initializer": {"class_name": "Zeros", "config": {}}, "gamma_initializer": {"class_name": "Ones", "config": {}}, "moving_mean_initializer": {"class_name": "Zeros", "config": {}}, "moving_variance_initializer": {"class_name": "Ones", "config": {}}, "beta_regularizer": null, "gamma_regularizer": null, "beta_constraint": null, "gamma_constraint": null}, "inbound_nodes": [[["conv1d_475", 0, 0, {}]]]}, {"name": "activation_430", "class_name": "Activation", "config": {"name": "activation_430", "trainable": true, "dtype": "float32", "activation": "relu"}, "inbound_nodes": [[["batch_normalization_430", 0, 0, {}]]]}, {"name": "conv1d_476", "class_name": "Conv1D", "config": {"name": "conv1d_476", "trainable": true, "dtype": "float32", "filters": 32, "kernel_size": [3], "strides": [1], "padding": "same", "data_format": "channels_last", "dilation_rate": [1], "activation": "linear", "use_bias": true, "kernel_initializer": {"class_name": "VarianceScaling", "config": {"scale": 2.0, "mode": "fan_in", "distribution": "normal", "seed": null}}, "bias_initializer": {"class_name": "Zeros", "config": {}}, "kernel_regularizer": {"class_name": "L1L2", "config": {"l1": 0.0, "l2": 9.999999747378752e-05}}, "bias_regularizer": null, "activity_regularizer": null, "kernel_constraint": null, "bias_constraint": null}, "inbound_nodes": [[["activation_430", 0, 0, {}]]]}, {"name": "batch_normalization_431", "class_name": "BatchNormalization", "config": {"name": "batch_normalization_431", "trainable": true, "dtype": "float32", "axis": -1, "momentum": 0.99, "epsilon": 0.001, "center": true, "scale": true, "beta_initializer": {"class_name": "Zeros", "config": {}}, "gamma_initializer": {"class_name": "Ones", "config": {}}, "moving_mean_initializer": {"class_name": "Zeros", "config": {}}, "moving_variance_initializer": {"class_name": "Ones", "config": {}}, "beta_regularizer": null, "gamma_regularizer": null, "beta_constraint": null, "gamma_constraint": null}, "inbound_nodes": [[["conv1d_476", 0, 0, {}]]]}, {"name": "add_204", "class_name": "Add", "config": {"name": "add_204", "trainable": true, "dtype": "float32"}, "inbound_nodes": [[["activation_429", 0, 0, {}], ["batch_normalization_431", 0, 0, {}]]]}, {"name": "activation_431", "class_name": "Activation", "config": {"name": "activation_431", "trainable": true, "dtype": "float32", "activation": "relu"}, "inbound_nodes": [[["add_204", 0, 0, {}]]]}, {"name": "conv1d_477", "class_name": "Conv1D", "config": {"name": "conv1d_477", "trainable": true, "dtype": "float32", "filters": 64, "kernel_size": [3], "strides": [2], "padding": "same", "data_format": "channels_last", "dilation_rate": [1], "activation": "linear", "use_bias": true, "kernel_initializer": {"class_name": "VarianceScaling", "config": {"scale": 2.0, "mode": "fan_in", "distribution": "normal", "seed": null}}, "bias_initializer": {"class_name": "Zeros", "config": {}}, "kernel_regularizer": {"class_name": "L1L2", "config": {"l1": 0.0, "l2": 9.999999747378752e-05}}, "bias_regularizer": null, "activity_regularizer": null, "kernel_constraint": null, "bias_constraint": null}, "inbound_nodes": [[["activation_431", 0, 0, {}]]]}, {"name": "batch_normalization_432", "class_name": "BatchNormalization", "config": {"name": "batch_normalization_432", "trainable": true, "dtype": "float32", "axis": -1, "momentum": 0.99, "epsilon": 0.001, "center": true, "scale": true, "beta_initializer": {"class_name": "Zeros", "config": {}}, "gamma_initializer": {"class_name": "Ones", "config": {}}, "moving_mean_initializer": {"class_name": "Zeros", "config": {}}, "moving_variance_initializer": {"class_name": "Ones", "config": {}}, "beta_regularizer": null, "gamma_regularizer": null, "beta_constraint": null, "gamma_constraint": null}, "inbound_nodes": [[["conv1d_477", 0, 0, {}]]]}, {"name": "activation_432", "class_name": "Activation", "config": {"name": "activation_432", "trainable": true, "dtype": "float32", "activation": "relu"}, "inbound_nodes": [[["batch_normalization_432", 0, 0, {}]]]}, {"name": "conv1d_478", "class_name": "Conv1D", "config": {"name": "conv1d_478", "trainable": true, "dtype": "float32", "filters": 64, "kernel_size": [3], "strides": [1], "padding": "same", "data_format": "channels_last", "dilation_rate": [1], "activation": "linear", "use_bias": true, "kernel_initializer": {"class_name": "VarianceScaling", "config": {"scale": 2.0, "mode": "fan_in", "distribution": "normal", "seed": null}}, "bias_initializer": {"class_name": "Zeros", "config": {}}, "kernel_regularizer": {"class_name": "L1L2", "config": {"l1": 0.0, "l2": 9.999999747378752e-05}}, "bias_regularizer": null, "activity_regularizer": null, "kernel_constraint": null, "bias_constraint": null}, "inbound_nodes": [[["activation_432", 0, 0, {}]]]}, {"name": "conv1d_479", "class_name": "Conv1D", "config": {"name": "conv1d_479", "trainable": true, "dtype": "float32", "filters": 64, "kernel_size": [1], "strides": [2], "padding": "same", "data_format": "channels_last", "dilation_rate": [1], "activation": "linear", "use_bias": true, "kernel_initializer": {"class_name": "VarianceScaling", "config": {"scale": 2.0, "mode": "fan_in", "distribution": "normal", "seed": null}}, "bias_initializer": {"class_name": "Zeros", "config": {}}, "kernel_regularizer": {"class_name": "L1L2", "config": {"l1": 0.0, "l2": 9.999999747378752e-05}}, "bias_regularizer": null, "activity_regularizer": null, "kernel_constraint": null, "bias_constraint": null}, "inbound_nodes": [[["activation_431", 0, 0, {}]]]}, {"name": "batch_normalization_433", "class_name": "BatchNormalization", "config": {"name": "batch_normalization_433", "trainable": true, "dtype": "float32", "axis": -1, "momentum": 0.99, "epsilon": 0.001, "center": true, "scale": true, "beta_initializer": {"class_name": "Zeros", "config": {}}, "gamma_initializer": {"class_name": "Ones", "config": {}}, "moving_mean_initializer": {"class_name": "Zeros", "config": {}}, "moving_variance_initializer": {"class_name": "Ones", "config": {}}, "beta_regularizer": null, "gamma_regularizer": null, "beta_constraint": null, "gamma_constraint": null}, "inbound_nodes": [[["conv1d_478", 0, 0, {}]]]}, {"name": "add_205", "class_name": "Add", "config": {"name": "add_205", "trainable": true, "dtype": "float32"}, "inbound_nodes": [[["conv1d_479", 0, 0, {}], ["batch_normalization_433", 0, 0, {}]]]}, {"name": "activation_433", "class_name": "Activation", "config": {"name": "activation_433", "trainable": true, "dtype": "float32", "activation": "relu"}, "inbound_nodes": [[["add_205", 0, 0, {}]]]}, {"name": "conv1d_480", "class_name": "Conv1D", "config": {"name": "conv1d_480", "trainable": true, "dtype": "float32", "filters": 64, "kernel_size": [3], "strides": [1], "padding": "same", "data_format": "channels_last", "dilation_rate": [1], "activation": "linear", "use_bias": true, "kernel_initializer": {"class_name": "VarianceScaling", "config": {"scale": 2.0, "mode": "fan_in", "distribution": "normal", "seed": null}}, "bias_initializer": {"class_name": "Zeros", "config": {}}, "kernel_regularizer": {"class_name": "L1L2", "config": {"l1": 0.0, "l2": 9.999999747378752e-05}}, "bias_regularizer": null, "activity_regularizer": null, "kernel_constraint": null, "bias_constraint": null}, "inbound_nodes": [[["activation_433", 0, 0, {}]]]}, {"name": "batch_normalization_434", "class_name": "BatchNormalization", "config": {"name": "batch_normalization_434", "trainable": true, "dtype": "float32", "axis": -1, "momentum": 0.99, "epsilon": 0.001, "center": true, "scale": true, "beta_initializer": {"class_name": "Zeros", "config": {}}, "gamma_initializer": {"class_name": "Ones", "config": {}}, "moving_mean_initializer": {"class_name": "Zeros", "config": {}}, "moving_variance_initializer": {"class_name": "Ones", "config": {}}, "beta_regularizer": null, "gamma_regularizer": null, "beta_constraint": null, "gamma_constraint": null}, "inbound_nodes": [[["conv1d_480", 0, 0, {}]]]}, {"name": "activation_434", "class_name": "Activation", "config": {"name": "activation_434", "trainable": true, "dtype": "float32", "activation": "relu"}, "inbound_nodes": [[["batch_normalization_434", 0, 0, {}]]]}, {"name": "conv1d_481", "class_name": "Conv1D", "config": {"name": "conv1d_481", "trainable": true, "dtype": "float32", "filters": 64, "kernel_size": [3], "strides": [1], "padding": "same", "data_format": "channels_last", "dilation_rate": [1], "activation": "linear", "use_bias": true, "kernel_initializer": {"class_name": "VarianceScaling", "config": {"scale": 2.0, "mode": "fan_in", "distribution": "normal", "seed": null}}, "bias_initializer": {"class_name": "Zeros", "config": {}}, "kernel_regularizer": {"class_name": "L1L2", "config": {"l1": 0.0, "l2": 9.999999747378752e-05}}, "bias_regularizer": null, "activity_regularizer": null, "kernel_constraint": null, "bias_constraint": null}, "inbound_nodes": [[["activation_434", 0, 0, {}]]]}, {"name": "batch_normalization_435", "class_name": "BatchNormalization", "config": {"name": "batch_normalization_435", "trainable": true, "dtype": "float32", "axis": -1, "momentum": 0.99, "epsilon": 0.001, "center": true, "scale": true, "beta_initializer": {"class_name": "Zeros", "config": {}}, "gamma_initializer": {"class_name": "Ones", "config": {}}, "moving_mean_initializer": {"class_name": "Zeros", "config": {}}, "moving_variance_initializer": {"class_name": "Ones", "config": {}}, "beta_regularizer": null, "gamma_regularizer": null, "beta_constraint": null, "gamma_constraint": null}, "inbound_nodes": [[["conv1d_481", 0, 0, {}]]]}, {"name": "add_206", "class_name": "Add", "config": {"name": "add_206", "trainable": true, "dtype": "float32"}, "inbound_nodes": [[["activation_433", 0, 0, {}], ["batch_normalization_435", 0, 0, {}]]]}, {"name": "activation_435", "class_name": "Activation", "config": {"name": "activation_435", "trainable": true, "dtype": "float32", "activation": "relu"}, "inbound_nodes": [[["add_206", 0, 0, {}]]]}, {"name": "conv1d_482", "class_name": "Conv1D", "config": {"name": "conv1d_482", "trainable": true, "dtype": "float32", "filters": 64, "kernel_size": [3], "strides": [1], "padding": "same", "data_format": "channels_last", "dilation_rate": [1], "activation": "linear", "use_bias": true, "kernel_initializer": {"class_name": "VarianceScaling", "config": {"scale": 2.0, "mode": "fan_in", "distribution": "normal", "seed": null}}, "bias_initializer": {"class_name": "Zeros", "config": {}}, "kernel_regularizer": {"class_name": "L1L2", "config": {"l1": 0.0, "l2": 9.999999747378752e-05}}, "bias_regularizer": null, "activity_regularizer": null, "kernel_constraint": null, "bias_constraint": null}, "inbound_nodes": [[["activation_435", 0, 0, {}]]]}, {"name": "batch_normalization_436", "class_name": "BatchNormalization", "config": {"name": "batch_normalization_436", "trainable": true, "dtype": "float32", "axis": -1, "momentum": 0.99, "epsilon": 0.001, "center": true, "scale": true, "beta_initializer": {"class_name": "Zeros", "config": {}}, "gamma_initializer": {"class_name": "Ones", "config": {}}, "moving_mean_initializer": {"class_name": "Zeros", "config": {}}, "moving_variance_initializer": {"class_name": "Ones", "config": {}}, "beta_regularizer": null, "gamma_regularizer": null, "beta_constraint": null, "gamma_constraint": null}, "inbound_nodes": [[["conv1d_482", 0, 0, {}]]]}, {"name": "activation_436", "class_name": "Activation", "config": {"name": "activation_436", "trainable": true, "dtype": "float32", "activation": "relu"}, "inbound_nodes": [[["batch_normalization_436", 0, 0, {}]]]}, {"name": "conv1d_483", "class_name": "Conv1D", "config": {"name": "conv1d_483", "trainable": true, "dtype": "float32", "filters": 64, "kernel_size": [3], "strides": [1], "padding": "same", "data_format": "channels_last", "dilation_rate": [1], "activation": "linear", "use_bias": true, "kernel_initializer": {"class_name": "VarianceScaling", "config": {"scale": 2.0, "mode": "fan_in", "distribution": "normal", "seed": null}}, "bias_initializer": {"class_name": "Zeros", "config": {}}, "kernel_regularizer": {"class_name": "L1L2", "config": {"l1": 0.0, "l2": 9.999999747378752e-05}}, "bias_regularizer": null, "activity_regularizer": null, "kernel_constraint": null, "bias_constraint": null}, "inbound_nodes": [[["activation_436", 0, 0, {}]]]}, {"name": "batch_normalization_437", "class_name": "BatchNormalization", "config": {"name": "batch_normalization_437", "trainable": true, "dtype": "float32", "axis": -1, "momentum": 0.99, "epsilon": 0.001, "center": true, "scale": true, "beta_initializer": {"class_name": "Zeros", "config": {}}, "gamma_initializer": {"class_name": "Ones", "config": {}}, "moving_mean_initializer": {"class_name": "Zeros", "config": {}}, "moving_variance_initializer": {"class_name": "Ones", "config": {}}, "beta_regularizer": null, "gamma_regularizer": null, "beta_constraint": null, "gamma_constraint": null}, "inbound_nodes": [[["conv1d_483", 0, 0, {}]]]}, {"name": "add_207", "class_name": "Add", "config": {"name": "add_207", "trainable": true, "dtype": "float32"}, "inbound_nodes": [[["activation_435", 0, 0, {}], ["batch_normalization_437", 0, 0, {}]]]}, {"name": "activation_437", "class_name": "Activation", "config": {"name": "activation_437", "trainable": true, "dtype": "float32", "activation": "relu"}, "inbound_nodes": [[["add_207", 0, 0, {}]]]}, {"name": "average_pooling1d_23", "class_name": "AveragePooling1D", "config": {"name": "average_pooling1d_23", "trainable": true, "dtype": "float32", "strides": [1], "pool_size": [1], "padding": "valid", "data_format": "channels_last"}, "inbound_nodes": [[["activation_437", 0, 0, {}]]]}, {"name": "flatten_23", "class_name": "Flatten", "config": {"name": "flatten_23", "trainable": true, "dtype": "float32", "data_format": "channels_last"}, "inbound_nodes": [[["average_pooling1d_23", 0, 0, {}]]]}, {"name": "dense_23", "class_name": "Dense", "config": {"name": "dense_23", "trainable": true, "dtype": "float32", "units": 4, "activation": "softmax", "use_bias": true, "kernel_initializer": {"class_name": "VarianceScaling", "config": {"scale": 2.0, "mode": "fan_in", "distribution": "normal", "seed": null}}, "bias_initializer": {"class_name": "Zeros", "config": {}}, "kernel_regularizer": null, "bias_regularizer": null, "activity_regularizer": null, "kernel_constraint": null, "bias_constraint": null}, "inbound_nodes": [[["flatten_23", 0, 0, {}]]]}], "input_layers": [["input_23", 0, 0]], "output_layers": [["dense_23", 0, 0]]}, "keras_version": "2.3.1", "backend": "tensorflow"}